done/checkpoint_critic.pth (torch_old, 542622 bytes, 5 tensors)

fcs1.weight f4 [400, 33]
000000 f4 c1 05 3e 09 41 3f be cf 3a 38 3e aa 06 45 3d
       0.13062268 -0.18677153 0.17991184 0.04810206
000010 35 03 72 bc c6 eb 0d bc 14 a2 0e be 54 91 6d bc
       -0.014771272 -0.00866217 -0.13929015 -0.014499981
000020 e8 c6 df bc c6 ca b6 bb 6d e9 88 3b af 86 1a bc
       -0.027316526 -0.0055783717 0.004178217 -0.009431525
000030 a2 45 91 ba c4 18 06 be 53 0c 47 3e 5c a0 39 be
       -0.0011083374 -0.13095385 0.19438295 -0.18127578
000040 9b 90 ba 3c cc ba 2e bd a2 b8 44 3d e1 77 94 3d
       0.022774031 -0.042658612 0.048027642 0.072494276
000050 2d 89 02 3c eb 1f 21 3c 85 c7 37 bc 26 ed b7 bc
       0.007967276 0.00983427 -0.011217003 -0.022451948
000060 10 4d 57 3c 4a 78 3c 3b 25 3d 4a 3d a6 c4 02 3c
       0.013140932 0.0028758221 0.04937472 0.007981455
000070 9f a0 c9 3d 58 5e 03 bd 84 88 1b bd c2 e0 a3 3c
       0.09845089 -0.032072395 -0.03797199 0.020004634
000080 c3 8a 71 3e 15 5a 87 3d c6 50 f2 bd 40 0e 26 3d
       0.2358809 0.06608979 -0.118318126 0.040540934
000090 c7 f8 61 be cd d2 c8 3e 23 37 b0 be f1 f9 d3 bd
       -0.22067557 0.39223328 -0.34417066 -0.10350407
0000a0 cf 55 c7 bc 8a cc 43 3c 60 e4 84 3d 28 35 31 bc
       -0.024332909 0.011950621 0.064888716 -0.010815896
0000b0 2e af 1d bd 42 27 86 3b 3d 9b 8c 3d b6 33 2b 3e
       -0.038497142 0.0040940354 0.06865547 0.16718945
0000c0 ad bb 37 3d 5b 62 69 3e e8 54 a7 bd 45 b5 13 3e
       0.044856716 0.22791426 -0.081704915 0.14424618
0000d0 90 1b 8f 3e da 56 88 bc fd 4d f4 bc 0f 5a dc bc
       0.27950716 -0.016642977 -0.029822344 -0.026898412
0000e0 3c f8 43 3c dd 97 fa 3b 0d 88 30 3d c1 71 4e bd
       0.011961039 0.007647498 0.043098498 -0.050401453
0000f0 48 b2 fe 3d fc ff cd 3c 31 04 01 3d 54 6d 18 bd
       0.12436348 0.025146477 0.031498138 -0.03721364
000100 82 43 11 bd 30 26 fd 3e 13 71 8f 3d a6 3f 38 be
       -0.03546477 0.49443197 0.07003989 -0.1799303
000110 bd 3b 16 bd 40 63 c6 3d 14 4e 97 bd 47 16 03 be
       -0.036678065 0.09686899 -0.07387939 -0.12801467
000120 f0 7c 46 3d fe 4b 00 bd 80 b2 1e be d8 e2 26 bb
       0.048458993 -0.03132247 -0.1549778 -0.00254648
000130 34 5a 4c ba 24 b8 85 3c 27 ee 28 bc 49 e1 47 be
       -0.0007795424 0.016323157 -0.010310686 -0.19519533
000140 18 6f d1 3e 31 9a 23 be 6a 40 2a bd ad dd 47 bd
       0.4090507 -0.15976788 -0.041565336 -0.04879539
000150 17 7e fa 3d 20 a0 f3 bd 56 80 b5 3c 62 2d 2a bd
       0.12231081 -0.11895776 0.022155922 -0.041547187
000160 20 4c 8e bd ff a2 15 bd 8e 8d 3e 3d 0e 86 59 bc
       -0.069481134 -0.0365324 0.046521716 -0.01327659
000170 ee 61 bc 3d 4b a3 be 3d 36 ed c8 3d 14 0b 42 bc
       0.09198366 0.093084894 0.098108694 -0.011843462
000180 c8 8f f2 bd ba 54 b4 bc bf 91 79 3e 16 ed 30 be
       -0.1184383 -0.022013057 0.24372004 -0.17277941
000190 97 db 8e 3d 2f e2 94 bc 4b 58 c6 3d a2 86 31 3c
       0.06975477 -0.018174259 0.09684809 0.010835322
0001a0 11 a2 d8 3c 81 23 47 bd c5 4d 97 3b ec 1b 74 be
       0.026444467 -0.048617844 0.004617425 -0.23838776
0001b0 fe 45 77 3d 6c 7c a4 bd 5f 82 0a bd 0f c1 44 bc
       0.060369484 -0.08031544 -0.033815738 -0.012008919
0001c0 ea fc 3e 3c b2 47 b3 3c 9a 8f 19 bd 0d 2d 55 be
       0.011656979 0.021884773 -0.037490465 -0.20817967
0001d0 a1 81 73 be 21 72 51 3e ea 20 1c 3e 7a b4 85 bd
       -0.23779918 0.20453693 0.1524693 -0.06528564
0001e0 9d 3d 2a 3d 04 ae 1f bd 85 30 76 ba e4 45 d6 3b
       0.041562665 -0.038984314 -0.0009391385 0.0065390933
0001f0 6f 08 b0 3c 38 ad 3e 3d 26 e4 de 3c bd 0f 93 bd
       0.021488396 0.046551913 0.027208399 -0.07180736
000200 fa 24 00 bd 09 93 9f bd a0 4b 88 3a db 81 a6 bd
       -0.031285264 -0.077917166 0.0010398515 -0.08130237
000210 6c 90 4d bb a3 32 b9 bd 3d da 91 bd f7 7a 73 3c
       -0.00313666 -0.09042861 -0.07121704 0.01486086
000220 a2 46 2e 3e 5f f0 94 bd 76 5f 29 be ac 99 d5 bd
       0.17019132 -0.0727241 -0.16540322 -0.10429701
000230 f6 a6 ec bd cc 0a 3f 3d 82 2a da bb df 9a cd ba
       -0.11555283 0.046641156 -0.0066578994 -0.0015686414
000240 83 a8 01 3d 51 46 9a bc 44 7e 80 3d f0 09 90 3d
       0.031654846 -0.018832358 0.06274083 0.070331454
000250 99 e2 01 3e c5 b2 e5 bd 34 1b 05 3c 88 70 28 3e
       0.12684096 -0.11215738 0.0081241615 0.16449177
000260 f8 ad e9 3c 32 ed e7 bd 36 04 1d 3d be a3 e6 bb
       0.028525338 -0.11324538 0.038334094 -0.0070385626
000270 fb 80 2d ba 6e c6 4b 3d 68 93 d2 3c 16 e1 11 3e
       -0.0006618646 0.049749784 0.025705054 0.1424602
000280 99 da b5 bd f4 24 89 bc 62 3c 10 be 9f 2b 2a 3d
       -0.08879585 -0.016741253 -0.14085534 0.041545507
000290 3d 7e 3a 3e 17 02 0b bd 7c d7 96 3d a4 64 7e bd
       0.18212219 -0.03393754 0.07365319 -0.062107697
0002a0 56 a5 85 bd d5 df 52 be c0 6a 9a 3e f3 f6 e8 bd
       -0.06525676 -0.20593198 0.3015957 -0.11375227
0002b0 44 82 14 3d 3f 1d a1 bd f1 5c 6f bd 4d ce 0d 3d
       0.036257043 -0.078669064 -0.058438245 0.034620572
0002c0 22 dd 8d 3d 6a d1 e1 3c c4 2c 77 3d 6c 43 c7 bd
       0.06926943 0.027565677 0.060345426 -0.097296566
0002d0 a3 52 1d 3d 25 53 91 bd b0 71 38 bd 4a c5 9d be
       0.038408887 -0.07095937 -0.045030296 -0.30814582
0002e0 af de 31 be cc b5 97 3d 9b 5e 8a bb 86 86 b9 bc
       -0.17370103 0.07407722 -0.0042227036 -0.022647154
0002f0 b2 df 0a 3a 20 8f 8c bd 85 fa 48 3d f3 a0 60 bd
       0.00052976154 -0.068632364 0.04906704 -0.054840993
000300 c2 2b 17 3e aa 61 ba 3c 9d 7a 0a bd 2b 1c ee bd
       0.14762786 0.022751648 -0.03380834 -0.11626466
000310 fa af e4 3c e2 3f a3 be 35 38 60 bc d4 5c 31 3e
       0.027915943 -0.31884676 -0.013685276 0.17320567
000320 79 7b c5 bd 68 7c bd 3e f4 44 f0 be 11 8c 3e be
       -0.09642691 0.37008977 -0.46927607 -0.18608119
000330 ff 5e 4e be dd 64 d1 bd 0d 5e 42 3e 0a fa 4c 3d
       -0.20153426 -0.10224316 0.1898119 0.050043143
000340 5b c1 0c b9 90 24 eb 3b ec 87 a4 3d 34 08 ab 3d
       -0.00013423471 0.0071759894 0.080337375 0.08351174
000350 eb 69 cc 3d 61 c2 6b 3b b0 cf 2a 3c dd fa 8b bd
       0.0998114 0.0035974013 0.010425493 -0.06834958
000360 df 2a 0f 3e a1 ef 32 bd 49 77 79 bc 7d 36 90 3d
       0.13981198 -0.04368556 -0.015226194 0.07041643
000370 92 d3 0a 3d 42 d8 a1 3c b8 9e d3 bb 45 21 ca 3d
       0.033893175 0.01975644 -0.0064581297 0.09869627
000380 d5 24 c3 3a aa 10 2c 3e 3d e2 98 3d 9a 5c b6 bc
       0.0014888296 0.16803232 0.074650265 -0.022260953
000390 7c 35 3f be 94 73 8b bc 9d b9 c8 3e eb 72 c3 3d
       -0.18672746 -0.017022885 0.39204112 0.09543403
0003a0 c8 bf 4a 3e 31 d0 03 3e e8 07 17 be fa 48 7a bd
       0.19799721 0.12872387 -0.1474911 -0.061104752
0003b0 ed 58 d1 3e b7 3e b3 be 82 b9 3d 3e 10 01 98 bc
       0.40888157 -0.35008785 0.18527797 -0.018555194
0003c0 0b c6 19 3e b6 b6 b8 3c ca 73 35 bb 41 1a bd bc
       0.15016954 0.02254806 -0.0027687424 -0.023083808
0003d0 d2 cd fd bd 73 00 c7 3d 34 b3 ea bd 49 31 fb bc
       -0.12392773 0.097168826 -0.114599615 -0.03066315
0003e0 b6 15 4b 3e 53 e9 c5 3c 46 db 26 be f5 60 c1 3c
       0.19832501 0.02415911 -0.16294584 0.023605803
0003f0 f8 b1 aa bd d5 24 d3 bd 34 08 ac bd 1e 60 87 bc
       -0.08334726 -0.103097595 -0.08400002 -0.016525324

fcs1.bias f4 [400]
000000 cf 0d 02 3e 6d 7d 41 3d 94 6c 9f 3c 5a fa 18 3d
       0.1270058 0.047238756 0.019460954 0.03734813
000010 83 6c 75 bd 5d 53 17 3d 5b 08 43 bd 3d 47 08 be
       -0.059917938 0.036944736 -0.04761539 -0.13308425
000020 00 bf 08 3c 06 9f 28 be f5 31 84 3d 1e b6 b9 3d
       0.008346319 -0.16466913 0.06454841 0.09067939
000030 8f 4f 1b be 20 dc 64 be 62 ef e0 3c d8 e7 6f bd
       -0.15167068 -0.22349596 0.027457897 -0.058570713
000040 7d 6c c7 bd 35 90 81 be a8 f2 f8 bd 97 59 8b 3d
       -0.09737489 -0.25305334 -0.12155658 0.06804197
000050 8e 09 29 be 5d 34 5c 3d 1b 81 b2 3d 43 20 df bd
       -0.16507551 0.053760875 0.08716031 -0.10894825
000060 1b c1 4a be ac 28 41 be f4 b1 81 bd 79 dc 41 bd
       -0.19800226 -0.18863171 -0.0633277 -0.0473294
000070 66 a7 0a be be 99 8b be ae b1 b7 bd 54 73 5f bb
       -0.1354042 -0.27265733 -0.089694366 -0.003409584
000080 ff 03 23 bc cc 69 73 bd 9d 73 44 3c 51 75 1b be
       -0.009949683 -0.059427068 0.011990455 -0.15181471
000090 30 b2 ba bc 02 67 88 be 6f 36 22 3d 98 71 fb bd
       -0.022790045 -0.2664109 0.039602693 -0.12277526
0000a0 63 9c 44 be b9 47 50 be 08 d1 e5 bb 17 6c 17 be
       -0.19200282 -0.2033986 -0.007013444 -0.14787327
0000b0 b9 ac 0a be 1e 24 44 be 4f 06 0d be 24 9f 50 bd
       -0.13542451 -0.19154403 -0.13771938 -0.05093302
0000c0 45 7e 0c 3e b1 75 88 be 80 42 9c be 3e c3 f3 bc
       0.13720043 -0.2665229 -0.30519485 -0.029756185
0000d0 f8 e6 00 be 0f 25 c0 be 51 65 30 be 51 bf 2e 3d
       -0.12588108 -0.37528273 -0.17226149 0.042662922
0000e0 88 17 a1 bd 86 2f b3 3d ec 78 01 bd f9 ce ab bd
       -0.07865816 0.08749299 -0.03160946 -0.08389086
0000f0 29 71 15 be 40 3a 2f be 4c 29 ac bd 0f f4 d9 bd
       -0.14593948 -0.17112064 -0.08406314 -0.106422536
000100 63 88 58 be e9 e5 d8 3d 0d 78 87 be 0c c0 9b be
       -0.21145777 0.10590727 -0.2645878 -0.30419958
000110 a4 83 e9 bd b3 d3 f0 3d 44 a9 3d be da 57 50 bc
       -0.114020616 0.117591284 -0.18521601 -0.012716258
000120 ac e3 1e be ee 21 41 be 2c 3a 8e 3c 30 91 5f be
       -0.15516537 -0.188606 0.017361723 -0.21832728
000130 22 5e a8 bd e4 ee 4e be 96 92 72 be c0 20 64 be
       -0.082210794 -0.20208317 -0.2368873 -0.22278118
000140 08 ba bd be 09 92 8b bc 8a 68 2f be ce fb 79 bc
       -0.37055993 -0.017037408 -0.17129722 -0.015257789
000150 ef a0 56 be 9d 30 93 be 97 c4 9e 3c 7c bf 8f 3d
       -0.20959829 -0.28748026 0.01938085 0.070189446
000160 2b 1c 4a be 62 dd 92 be 35 e4 d9 3b a6 fe bf 3d
       -0.19737308 -0.28684527 0.006649519 0.09374742
000170 a2 08 e0 3c 7a 07 1d be 79 e5 41 be 56 aa bb bd
       0.027347866 -0.15334883 -0.18935193 -0.091633484
000180 5b bb 33 3d 4d 9f 9a be bb c1 b4 bd 72 78 3a be
       0.043879848 -0.30199662 -0.08826014 -0.18210009
000190 15 f4 53 be ef 00 3b 3d e0 72 13 be c0 04 83 3d
       -0.20698579 0.045655187 -0.1439929 0.0639739
0001a0 3f a3 4d 3d 72 06 0f be d8 2f 51 bd 1b 25 c4 bd
       0.05020451 -0.13967302 -0.051071018 -0.0957739
0001b0 de a4 09 be d4 13 92 be 81 a6 e2 3c 5a 39 e6 3a
       -0.13441798 -0.28530753 0.027667286 0.00175647
0001c0 71 98 8a bc ee 5b 4a be 44 a0 f7 bc 36 4f 0f be
       -0.016918393 -0.19761631 -0.030227788 -0.1399506
0001d0 83 38 60 be 51 7f 41 3d 0c d1 41 3d 9d dd dc 3d
       -0.21896558 0.04724056 0.047318503 0.10784457
0001e0 b5 2c 8b 3d 3e 83 3d be dd 39 33 3d e7 5a fe 3b
       0.067956366 -0.18507096 0.043756355 0.0077623012
0001f0 fd ff 61 be 04 c3 73 3d 92 75 d1 3d 78 36 6b 3d
       -0.22070308 0.059512153 0.10227503 0.057424992
000200 7a e4 6d be fe 34 ed 3d 79 25 bd bb 57 7d a2 3b
       -0.23231688 0.11582373 -0.0057722894 0.0049587893
000210 47 4c e5 3c 61 35 52 be 77 df 58 be 8e ab 0a be
       0.027990473 -0.20528175 -0.21178995 -0.13542005
000220 94 5e b2 be 53 f8 45 be f8 26 9b be 01 48 35 be
       -0.34837782 -0.1933301 -0.30303168 -0.17703249
000230 9d f5 a4 bd 4a 32 82 3c ed 20 be be 68 a0 b0 3c
       -0.080546595 0.01589312 -0.37134495 0.021560863
000240 e2 b5 0a be bc 0f 49 be 5c e9 17 bc 68 e9 b1 3d
       -0.13545945 -0.19634908 -0.009271946 0.08687097
000250 29 9e d6 bd 39 ea cc 3d 6b bd 07 be 55 27 3d 3d
       -0.104793854 0.10005612 -0.13255851 0.046180088
000260 69 55 bd bd 47 2a 85 bd 1a 20 7a be 4a 36 f3 3d
       -0.09244806 -0.065022044 -0.24426308 0.11875589
000270 ba 61 a4 be 3a 55 80 bd 26 ba eb bd fd 35 2c bd
       -0.3210581 -0.06266256 -0.11510114 -0.042043675
000280 00 12 9b 3d ff 1e e8 bd a3 84 d5 bd b9 9d 46 be
       0.075717926 -0.11334037 -0.10425689 -0.19396104
000290 48 01 76 3d 83 5a 7a be f0 13 31 be ae f4 19 be
       0.060059816 -0.2444859 -0.17292762 -0.15034744
0002a0 6b a4 98 be e7 04 55 bc 94 57 6a bc 65 20 67 bd
       -0.2981294 -0.013001657 -0.014303107 -0.05642738
0002b0 f7 47 24 be cc fc 64 be 9e b8 ed 3c b5 1b 94 be
       -0.16043077 -0.2236206 0.029018696 -0.2892739
0002c0 fa 66 43 be da f1 07 3c d4 d8 d7 3c 36 72 cc bc
       -0.19082251 0.008297408 0.026348509 -0.024956804
0002d0 69 8f 8d be c3 e0 1c be 09 9f fd bd 12 47 d2 bb
       -0.27648476 -0.15320115 -0.12383849 -0.0064171636
0002e0 58 54 ed bd f8 90 c2 be d0 79 92 3c fd dd bb bd
       -0.11588353 -0.38001227 0.01788035 -0.091732
0002f0 80 95 25 be 1a 50 0d be 5f d4 9e bc 66 8c 50 be
       -0.16170311 -0.13800088 -0.019388376 -0.20366058
000300 e8 42 23 be 47 90 3f be 2b 4a ad bd 2b 1f 5e be
       -0.15943491 -0.18707381 -0.08461412 -0.21691577
000310 ea 01 53 be 34 07 4c be d4 47 12 be 8f 28 ae bd
       -0.20606199 -0.19924623 -0.14285213 -0.0850383
000320 4d d1 65 be 49 70 da bd 81 62 62 bd 3d cb 2b bd
       -0.22443123 -0.10665948 -0.055269722 -0.04194187
000330 44 4b 5e be 54 95 bb bd ed 4f 4c be 35 75 77 be
       -0.21708399 -0.091593415 -0.19952364 -0.24165805
000340 d4 c0 0d be 53 f2 28 be 6a bf 98 bc 88 55 58 be
       -0.1384309 -0.1649869 -0.01864596 -0.21126378
000350 67 57 a1 be e3 39 6e 3c ca aa 16 be 07 df a7 bd
       -0.31511995 0.014540168 -0.14713588 -0.08196836
000360 eb 35 1f bd 88 26 97 bd fc bc ed bd 75 f4 c4 3d
       -0.03886978 -0.07380396 -0.116083115 0.09616939
000370 db 88 9f bc 5c 8d 69 be 51 67 86 3d 1b 68 3c be
       -0.019474437 -0.2280783 0.06562675 -0.18399088
000380 07 ff d9 bd 8f 05 69 bd e3 33 a4 3d 92 e8 89 be
       -0.10644346 -0.056890067 0.08017709 -0.2693525
000390 24 f0 39 be 20 af 67 be b4 55 40 be a7 bb 68 be
       -0.18158013 -0.22625399 -0.18782693 -0.22727834
0003a0 6a 41 18 be 56 fc 68 bd bc 08 41 3d da 28 7a bc
       -0.14868703 -0.05688127 0.04712747 -0.015268529
0003b0 a6 c4 3f 3d 5c d7 6a be 3a ce 81 bd b6 f8 94 be
       0.046818398 -0.22933716 -0.06338163 -0.29096
0003c0 9a eb 3a 3d 8f 49 3e bd 51 0c 94 bd f2 2a 82 be
       0.045634843 -0.04645687 -0.07228912 -0.2542339
0003d0 ce 02 2d 3d 5d 80 71 be 10 00 87 bc a9 b1 25 be
       0.042239003 -0.23584123 -0.016479522 -0.16181053
0003e0 9e d0 47 be 08 75 2f be f2 24 30 3d ea 2a d4 bc
       -0.19513175 -0.17134488 0.043003984 -0.02589937
0003f0 8e 8a 12 3d cd fa 5a be 34 3f 50 be 30 b4 fb bb
       0.035776667 -0.21384735 -0.2033661 -0.007681392

fc2.weight f4 [300, 404]
000000 60 fd 9b bd e6 03 f9 3d 72 e3 a4 be 59 b8 7d 3d
       -0.07616687 0.12158947 -0.32204777 0.061943386
000010 e5 73 f3 3d 7f b9 da bd 7f 9a ec bc af a4 d5 3d
       0.118873395 -0.10679912 -0.028882263 0.104318015
000020 b9 82 5a 3d 8c 1c b7 bd ff ed b0 3d 28 6c 3b bc
       0.053347323 -0.08940992 0.08639144 -0.011439361
000030 f4 f1 c7 3d 04 ec a7 bd e3 82 a4 3c 92 5e 57 bd
       0.09762946 -0.08199313 0.020081943 -0.052580424
000040 44 ce 3c 3d 19 cd 3a 3d 26 eb 7a 3d e8 75 8a 3d
       0.046095148 0.045605753 0.06125941 0.0676077
000050 b9 9e 95 3c 85 f4 00 3c c0 02 87 3d dd 72 28 be
       0.018264161 0.007870798 0.065923214 -0.16450067
000060 a5 4a 4a be 96 23 3c bd 8f c5 80 bd 00 3f ab bd
       -0.19755037 -0.045932375 -0.06287681 -0.08361626
000070 fe ca 8a bd ee 6c 5d 3d 92 d2 43 be e5 57 e7 be
       -0.06776999 0.05405896 -0.19123295 -0.45184246
000080 ad e0 e5 bd 70 df 23 be 32 ae 82 bc 3b ee fa bc
       -0.11224494 -0.16003203 -0.015952203 -0.030631175
000090 e6 2b 83 3d c4 3f df bd d5 51 7a 3c ec 5a 07 be
       0.06404857 -0.10900834 0.015278299 -0.13218278
0000a0 67 87 17 3e 26 8f 98 3d e6 df ce 3d c0 76 9b 3d
       0.14797746 0.074491784 0.10101299 0.07591009
0000b0 ae e7 be bc a6 8b 4f bb 37 02 e5 bd 1b 1c 51 3d
       -0.023303833 -0.003166893 -0.11182063 0.051052194
0000c0 0a 40 1b be 6b 74 90 bd e9 70 03 3e ae cd 6e bd
       -0.15161148 -0.07053455 0.1283604 -0.05830162
0000d0 63 3b 9e bd b2 0b 79 be 0f a0 77 3d ba bc ef 3c
       -0.07726171 -0.24320868 0.06045538 0.029264797
0000e0 c8 5b 1d 3d e9 d3 4a be e9 96 81 3c c9 7b 1d 3e
       0.038417608 -0.198074 0.01581903 0.15379252
0000f0 53 77 90 bc 9b b2 b7 3d 01 0b 17 bd 3c 08 dd 3d
       -0.017635023 0.08969613 -0.03687573 0.10792586
000100 aa 97 d7 bd b1 e9 b9 3d f8 64 c6 ba c2 dd 19 be
       -0.105269745 0.09077776 -0.0015136292 -0.15026
000110 69 0b 56 bd ac 5e 4a bc a6 84 f3 3d ff b0 c3 3d
       -0.052256975 -0.012351673 0.11890535 0.09555244
000120 0f a5 e2 bb 66 5a 87 3d 59 24 92 3d 89 10 0b 3c
       -0.006916649 0.06609039 0.07135839 0.008487829
000130 1d 59 78 bc 1c b9 0f 3c 80 b7 24 3d f8 b7 10 be
       -0.015157965 0.008772161 0.04021406 -0.14132679
000140 b2 b9 95 bd 34 ab 41 3b 05 4c 44 be 4c 69 89 3d
       -0.07310809 0.0029551508 -0.19169624 0.06709537
000150 2b 15 68 bc 16 a0 9d 3d 93 53 87 bd 14 aa 88 3d
       -0.014165203 0.076965496 -0.066077374 0.06673065
000160 44 d2 78 bd fb d8 45 3c 87 0e 38 bc 2b 72 cb 3d
       -0.0607474 0.012075658 -0.011233932 0.09933885
000170 0c e0 16 3c 0f 9f ea 3d 9d 17 09 3d 53 3e f3 3c
       0.00920869 0.11456119 0.033469785 0.029692804
000180 a3 41 ff 3d 4f 5f 3c 3c a3 f3 68 3d 15 1f 8f bd
       0.12463691 0.011497333 0.056872975 -0.0698835
000190 1e d6 ec bc db 6b 42 3d e6 b1 29 bd 1b 46 20 3d
       -0.028910693 0.04746614 -0.041429423 0.039129358
0001a0 d3 23 90 bd f9 36 af bc dd 57 c0 bd 38 11 ab 3d
       -0.07038083 -0.021388518 -0.093917586 0.083528936
0001b0 4e 0e c3 bb 3b 44 94 bc c1 d6 6d ba 2a 86 22 3b
       -0.005952633 -0.018098941 -0.00090728333 0.0024799206
0001c0 e3 3a 1c 3d 3c 1e b1 ba 29 87 54 3e 1c 64 d2 3c
       0.038142096 -0.0013513039 0.20754685 0.025682501
0001d0 46 5c 15 be 73 c2 17 3d 5b 46 ce 3d 3c 62 98 3d
       -0.14585981 0.037050676 0.10072013 0.07440612
0001e0 6f 7f 27 3c 4f 0e b4 3d 18 8d 79 3c 26 8e b6 bd
       0.010223254 0.08791792 0.015231393 -0.089138314
0001f0 a4 e0 bb bd 60 78 27 be 99 aa 12 3e df cf a0 bd
       -0.09173706 -0.16354513 0.1432289 -0.07852148
000200 61 e3 25 bb ac 0f 83 3d 68 4c 83 3d f5 a5 98 3c
       -0.002531253 0.063994735 0.06411058 0.018633822
000210 26 bc 98 3c f8 82 b6 3d b8 9e c5 bd 4c 85 c9 bd
       0.018644404 0.08911699 -0.09649414 -0.098398775
000220 e0 1d c4 bd 75 b5 43 3d a3 8c 99 bd cc b9 86 3e
       -0.09576011 0.047780473 -0.074975275 0.26313627
000230 4d 85 fe bc 39 42 8e bd f7 af 11 3d 7e 7c ec bc
       -0.031069422 -0.06946225 0.035568204 -0.028867956
000240 43 3d 19 3c 97 47 7b bc 80 a6 fc bb 72 13 07 be
       0.009352985 -0.015336893 -0.007710278 -0.13191012
000250 a5 4d e4 bc 7f 38 2b 3e 5c 5f f1 3d 5b a2 bb bd
       -0.027869055 0.1672077 0.117857665 -0.09161826
000260 fe cb 14 3e 04 db 51 be 91 1f 0b be 48 88 4d 3c
       0.14530942 -0.20493704 -0.1358626 0.012544699
000270 8d e5 3f bd 11 5b b8 3c 7d 31 1b 3e e3 26 ba bd
       -0.046849776 0.022504361 0.15155597 -0.09089448
000280 91 8e 3a bd 0b c5 1d be 41 02 f8 3d b0 28 96 3d
       -0.04554612 -0.15407197 0.12109805 0.07331979
000290 d6 b4 dc 3d b8 77 1f 3e 82 83 0f be 36 79 74 bd
       0.10776679 0.15573013 -0.1401501 -0.05968591
0002a0 a0 e7 ee 3c 68 c2 06 bd e4 da 9e bd f4 a6 c9 bd
       0.029163182 -0.032900244 -0.07756594 -0.09846297
0002b0 94 5c f4 bb 00 bf b6 3d 81 93 1f bd ea d8 55 3c
       -0.0074573252 0.08923149 -0.03895903 0.013052205
0002c0 83 58 b1 bb 8e a5 86 3c a7 c4 9e bd 6a 55 23 be
       -0.0054121627 0.016436365 -0.07752352 -0.15950552
0002d0 12 18 3c bd 14 65 24 3e c6 55 f7 bd 6a 43 b6 3d
       -0.045921393 0.16054183 -0.12076907 0.08899577
0002e0 05 81 2b 3d 94 3d 50 bd 5e 95 cf 3c a3 33 ca bd
       0.04187109 -0.050839975 0.025339779 -0.0987313
0002f0 12 2f 69 ba bf 97 b0 3d 3b a6 f5 bc 8b bc 8b bc
       -0.00088952587 0.08622693 -0.029986491 -0.017057678
000300 57 65 d5 bc 61 bd 1a be bf ff 1c be eb bf e5 bd
       -0.0260493 -0.15111305 -0.15331934 -0.11218246
000310 7f 31 8c 3d 06 75 98 3d 90 d4 b4 bd 6c f8 2e bd
       0.06845378 0.074441954 -0.088296056 -0.042717382
000320 e4 8d 3d 3d c3 de fa 3d 92 77 50 bd 1e f2 4d 3b
       0.046277896 0.1224952 -0.05089528 0.003142483
000330 0f f4 ed bd 84 87 63 3c 40 4b 5f 3d be 31 2b be
       -0.11618816 0.01388729 0.054515123 -0.16718194
000340 e3 21 b4 3d 41 85 e3 be cb 50 3b be 78 86 0e bf
       0.08795526 -0.44437602 -0.18292539 -0.55673933
000350 cb 85 98 3c 31 a0 98 bd c3 e1 12 be 7b 7d 86 bd
       0.018618485 -0.07452429 -0.14343934 -0.06566902
000360 6b e7 ef 3d 35 cc d0 bd 4d c1 09 3e 39 7b 5c 3d
       0.11714061 -0.101951994 0.13452645 0.05382845
000370 4c 60 14 be b5 68 43 3c 57 fc f4 bd af 50 35 3b
       -0.1448986 0.01192682 -0.119621925 0.00276665
000380 ea 8c 27 3e 58 74 43 bd fa 2e 0a bd 98 cb 3f be
       0.16362348 -0.047718376 -0.033736207 -0.18730009
000390 89 47 e8 bd ca 05 f4 bd de c1 2b be 13 0a a9 3c
       -0.11341769 -0.11915167 -0.16773173 0.020634687
0003a0 a8 25 d8 bc 8c 5f 2e bd d5 a3 42 3b 21 ca cb bd
       -0.026385143 -0.04257159 0.0029699702 -0.099506624
0003b0 23 0f 02 3d 48 f1 4f 3d 7b 49 03 be 8a aa a0 bc
       0.031752717 0.050767213 -0.12821 -0.01961257
0003c0 33 86 31 3e 40 7f 96 be 7b 8d fb bc ea 56 20 3e
       0.17336349 -0.2939396 -0.030707112 0.15658155
0003d0 07 20 01 be e6 ae af bd 7f b8 ba 3c b5 80 31 3d
       -0.12609874 -0.08578281 0.022793053 0.043335635
0003e0 0c b9 55 be e4 b1 09 bd bd ad 7b 3d 84 78 42 be
       -0.20871371 -0.033616915 0.061444987 -0.18991286
0003f0 f9 f2 48 3c 64 c8 30 3e 57 35 e4 bd 69 e7 95 3d
       0.01226496 0.17263943 -0.11142986 0.073195286

fc2.bias f4 [300]
000000 39 f3 2f 3d 5f 0e 00 3d a1 46 cf 3d f2 63 d8 bc
       0.042956565 0.031263705 0.10120893 -0.026414845
000010 e9 09 ac bd b7 5c f4 3d 35 a0 ce 3c 80 23 23 3b
       -0.08400328 0.119317465 0.025222877 0.0024892986
000020 3f ab 28 bd 75 95 3d 3e bb 24 04 bd f3 e9 a3 3d
       -0.041178938 0.18514045 -0.03226159 0.08003607
000030 f2 c9 0d 3d cf 53 bb 3d 39 6d b5 bd f1 e8 5e 3d
       0.03461642 0.091468446 -0.08858723 0.05442137
000040 b7 47 9a 3d f4 bb 27 3c d6 b7 15 bd d2 59 b8 3c
       0.0753321 0.010237683 -0.036552273 0.022503767
000050 a6 58 af 3d 20 3b 4a bd 2f 55 0a 3e e6 d3 00 3d
       0.0856183 -0.049372792 0.13509057 0.031452082
000060 02 27 ea 3d d6 aa 38 bd b1 8e 68 bc 6c 87 28 3d
       0.114332214 -0.045084797 -0.0141941765 0.041144773
000070 20 c5 ef bc 8b ed 4a 3d 16 8d 57 3d 69 69 57 bc
       -0.029268801 0.049542945 0.052624784 -0.01314769
000080 2e 4d dc bc 9c 2a f3 3a 39 fb 10 bd d6 71 dc 3d
       -0.02689227 0.0018552127 -0.035395835 0.107639
000090 e5 f3 67 3d 30 8f f2 bd 85 1c e7 3c 7c 45 c3 3c
       0.05662908 -0.11843717 0.028211841 0.023836844
0000a0 31 fc 80 bd 27 36 3a bc fc 2f 1d 3c c7 0d 36 ba
       -0.06298102 -0.01136545 0.00959396 -0.0006944802
0000b0 9b 51 f4 3d 82 a1 1b bc 38 03 09 bd 46 ee f8 3b
       0.119296275 -0.009498956 -0.033450335 0.007596764
0000c0 2a 6e df 3d c6 8c b5 3d e0 e8 fd 3d 10 59 7d 3c
       0.10909684 0.08864741 0.12397933 0.015463129
0000d0 a8 00 63 bc 3d 53 9e 3d f7 09 b3 bc 82 ef 72 3d
       -0.013855137 0.0773072 -0.021855338 0.059310444
0000e0 5a bd f9 3d 84 94 be 3d 96 5f b9 3c e1 ea cf 3d
       0.12194319 0.09305671 0.022628587 0.101522215
0000f0 c6 51 00 bd 12 65 04 bd 21 e6 09 3e 17 b4 8f 3d
       -0.031327985 -0.03232295 0.13466693 0.07016771
000100 c5 49 04 3d bf 96 33 bd 3c 14 d6 3d e8 b5 65 3d
       0.032296915 -0.043844935 0.10453078 0.056081682
000110 78 f5 04 3e 63 86 be 3d 9d 40 13 bc 2e 44 ad 3d
       0.12984264 0.09302976 -0.008987573 0.0846027
000120 a6 0e 1d bd ef 7d a2 3d 5c 54 fa bc 0b 54 d1 3d
       -0.038344048 0.07934176 -0.030557804 0.10221108
000130 30 23 56 bb 82 be 9c 3d ce 93 8d 3d a9 36 a7 3d
       -0.0032674782 0.07653524 0.06912957 0.081647225
000140 16 a4 80 3c 1d 87 1d 3d 06 d3 54 3c 58 66 d5 bc
       0.015703242 0.038458932 0.012989765 -0.026049778
000150 bf 93 9b 3d 03 5c 6c 3d ca d4 99 bc a2 6a 97 3d
       0.0759654 0.057704937 -0.018778224 0.073933855
000160 d4 9f 66 bd d6 08 80 3d e3 b8 ef 3d d9 a2 00 3d
       -0.056304768 0.06251685 0.11705186 0.031405304
000170 a8 a3 4e 3d f0 df e4 bb c1 92 af bd 0e ff e5 bc
       0.050449044 -0.0069847032 -0.08572913 -0.028075721
000180 9b a4 6e 3d 2c 60 03 bc c0 04 c5 3d ae 7b dc 3c
       0.05826245 -0.008018535 0.096200466 0.026914444
000190 03 66 08 3d 21 9f 24 bd c8 30 7b 3d 5e 3e 58 bc
       0.03330041 -0.04019082 0.06132582 -0.013198463
0001a0 c7 ba 4d bd df b3 00 3e e5 29 b8 3d 0c 00 9a 3d
       -0.050226953 0.12568615 0.08992366 0.0751954
0001b0 02 38 e6 3c 6c c4 61 bb 50 97 e8 3d ca 59 3a bc
       0.028102878 -0.0034449352 0.113569856 -0.011373946
0001c0 ec fa 0d 3e df cf f5 b9 16 b4 58 3d 7c bc cd 3c
       0.1386525 -0.00046884918 0.05290612 0.02511429
0001d0 18 45 90 3b e6 2b 05 3d 65 15 fd 3d 5a ad 12 3d
       0.004402768 0.032512568 0.12357596 0.035809852
0001e0 87 1b ea bc d2 e8 af bc 1b 1b f3 3c d5 0f 53 bd
       -0.02857758 -0.021473322 0.02967601 -0.05152877
0001f0 8f 84 48 3d e2 2b 9b bd 1d a9 8d bc ac d0 9a 3d
       0.048954543 -0.07576729 -0.017292554 0.07559332
000200 97 ef 0d 3e 61 9f 38 bd 6a 34 4c 3b fe b7 a9 3d
       0.13860928 -0.04507387 0.003115917 0.08287047
000210 f4 d7 33 3d 72 f9 ed 3c cf f7 5f 3d 77 af 27 3d
       0.04390712 0.029049609 0.054679688 0.04093882
000220 eb 81 a6 3c 55 72 eb 3d 00 0f ca 3c a1 56 ad 3d
       0.020325622 0.114964165 0.024665356 0.08463789
000230 ac 02 d7 bc ab c3 b9 3d bf 68 0c bc 6d 91 d4 3c
       -0.026246391 0.09070524 -0.008569895 0.02594825
000240 18 03 ba 39 94 38 90 3b c6 f9 9c 3c 4c cc 73 3b
       0.0003547899 0.004401276 0.01916207 0.0037200628
000250 91 9f 48 3d 6c ee 09 3e 52 9f aa 3b 05 7e 87 3d
       0.0489803 0.13469857 0.0052069807 0.06615833
000260 96 bc 9a 3d da ab b6 3c 3b 4b 17 bd f8 18 cc 39
       0.07555501 0.022298742 -0.03693698 0.00038928515
000270 1c 3c 18 3d 34 10 01 3e ea c7 16 3e bf 14 14 3d
       0.0371667 0.12603837 0.14724699 0.036152598
000280 f4 c1 ed 3c 80 a3 9c 3b 5e 12 7a 3d 5d 57 0c 3d
       0.029023148 0.004780233 0.061052673 0.034263004
000290 74 e6 cf bd c2 30 8a 3d a7 86 8c 3d 40 04 07 3e
       -0.10151377 0.06747581 0.068616204 0.13185215
0002a0 e8 02 00 3e 15 91 4f 3d c6 1e 8b 3d 76 3d 4f 3a
       0.12501109 0.05067547 0.06792979 0.0007905582
0002b0 5f 9a 15 3e 74 90 33 3c 45 72 e8 3d 91 79 36 bc
       0.14609669 0.010959733 0.1134992 -0.011137382
0002c0 cf 33 f7 bb 05 04 c5 3c fb c3 6a 3d 30 6d 25 3c
       -0.007544018 0.024049768 0.057315808 0.010096833
0002d0 0b f3 58 bc fa 09 9d bd 53 bc b1 3c 6e 75 c2 3d
       -0.01324154 -0.076679185 0.021696245 0.09495054
0002e0 23 76 50 bd a4 0e 6e 3d e7 63 b6 3d d9 28 36 bd
       -0.050893914 0.05811943 0.089057736 -0.04447255
0002f0 fb 96 35 bb 99 ba 98 bc 7e 7d af 3d 89 12 6b 3d
       -0.00277084 -0.018643664 0.085688576 0.057390723
000300 42 fd 94 3d 9b 15 1b 3e 5b 55 df 3d 69 f1 ad 3d
       0.072748676 0.1514496 0.10904952 0.08493311
000310 97 6f 9c bc 69 34 aa 3c da 2c a6 3d 99 2f 76 3d
       -0.019096179 0.020776944 0.081140235 0.060103986
000320 06 a6 c8 3d f5 0a 20 3c 64 91 f6 3d d8 08 72 3c
       0.097972915 0.009768237 0.1203945 0.014772616
000330 f4 4e da 3d fb 0c 4d bd f7 e4 ad 3d 6e a7 20 3d
       0.1065959 -0.050061207 0.08490937 0.039222173
000340 52 97 4a 3d d5 3e 1d 3e 3a 58 f5 3d 4d e6 ea bc
       0.049460717 0.15356 0.119797185 -0.02867427
000350 19 26 0f bc 36 59 85 3c e1 d6 82 bc 2f bd 81 bd
       -0.0087371105 0.01627789 -0.015971603 -0.06334912
000360 da b6 e8 3d 87 80 21 bd 21 c8 10 3d 61 b6 f7 bc
       0.11363001 -0.039429214 0.035347108 -0.030238332
000370 b4 21 fa 3d c6 3d b9 bc d9 e9 8a bb f3 c5 04 bb
       0.122134596 -0.022612464 -0.0042393026 -0.0020259588
000380 ee 66 66 bc 25 22 88 bd fa 1b 4c 3d a8 85 e9 3a
       -0.014062626 -0.066471376 0.049831368 0.0017816322
000390 a5 4f 2f 3d ed 03 3a bd 80 02 ba bb 6e 7a 84 3d
       0.042800564 -0.0454139 -0.0056765676 0.06468664
0003a0 eb 97 3a bd c7 33 b7 3d d2 86 df bc a4 bf b3 3d
       -0.045555037 0.089454226 -0.027285967 0.08776787
0003b0 05 d6 63 3c bb e3 b4 3d af d4 b3 bc a5 c0 55 3d
       0.013906007 0.08832499 -0.021952001 0.052185673
0003c0 c8 3b ac 3c 84 7f 9e 3d 08 4b ab 3b 23 17 0f 3d
       0.0210246 0.077391654 0.0052274503 0.034934174
0003d0 3d 32 f1 3d 82 ed 2b 3d 72 21 14 3e 22 04 0c bd
       0.1177716 0.041974552 0.14465883 -0.03418363
0003e0 27 8e 07 3d db ba a2 3c ab 48 d5 bb 8c 5c 0d bd
       0.03309455 0.01986449 -0.006508907 -0.034512088
0003f0 23 fc 13 bc 04 8d 04 3e c8 b6 09 3e fc d5 87 bd
       -0.009032282 0.12944418 0.13448632 -0.06632611

fc3.weight f4 [1, 300]
000000 79 a8 17 bd cb 9c ed 3c 0a 89 93 3c 96 f3 e7 bc
       -0.037025902 0.029005429 0.018009681 -0.028314393
000010 57 56 15 bd 81 95 2d 3d b3 e8 eb bc f9 9a a8 3d
       -0.036459293 0.042378906 -0.028797483 0.08232684
000020 5d 26 04 bd fc 29 0b 3d 1e 32 af bc b1 93 20 3d
       -0.03226315 0.033975586 -0.021386202 0.03920335
000030 05 9a d7 bc 03 60 84 3c b1 81 77 bd b4 7f 71 3d
       -0.02631856 0.016159063 -0.060426418 0.058959678
000040 52 2a 78 3c 33 f8 54 bd 08 5d 09 bd 8b f5 65 3d
       0.015146809 -0.051994514 -0.033535987 0.05614237
000050 c7 d6 28 3d 8e 53 ef bc b9 22 b2 3c a9 6d 89 3d
       0.041220453 -0.029214647 0.021745073 0.06710369
000060 f3 7b bb 3c 35 1e f7 bc 1d 90 1b bd da e0 0f bd
       0.022886252 -0.030165771 -0.037979234 -0.035126545
000070 aa bc a8 3d 1d 6c 2f 3d 3a d1 9f 3c 28 50 07 bd
       0.0823911 0.042827714 0.019508947 -0.033035427
000080 0a 6d 3e bd 1a 1b 96 3d fd 26 c4 bc f5 61 08 3d
       -0.046490707 0.07329388 -0.023944372 0.033296544
000090 07 e2 f4 3c 1e 8b 01 bd 86 2b 5d 3d d9 01 17 bd
       0.029892934 -0.031626813 0.053996585 -0.036866996
0000a0 d4 18 18 bd 68 02 12 bd af a8 07 bd 36 36 e6 bc
       -0.037133053 -0.035646826 -0.033119854 -0.028102022
0000b0 ca f8 e5 3c c4 11 3a bd 4b 9b 08 bd f0 81 68 bd
       0.028072733 -0.0454271 -0.033351224 -0.056764543
0000c0 08 5a d2 3c bb 09 58 3d cb 53 8c 3c e7 bc 32 bd
       0.025677696 0.052743655 0.0171298 -0.043637183
0000d0 80 83 24 bd d5 83 9d 3c 0b 2c 59 3d 33 a2 35 3d
       -0.04016447 0.019227901 0.05302052 0.04434414
0000e0 41 5a d2 3c 97 10 ed 3c 77 28 34 bd 86 5e 22 3d
       0.025677802 0.028938575 -0.043983903 0.039640926
0000f0 02 af 6f bd 4f 78 59 bd d8 f4 a1 3c e1 26 b9 3c
       -0.05851651 -0.05309325 0.01977007 0.022601547
000100 e3 5f 62 3c a4 56 03 bd cf d3 9d 3c 79 19 59 3d
       0.0138168065 -0.03206505 0.019266037 0.05300281
000110 9c 23 9a 3c 1e 90 b7 3c 02 e8 17 bd 9d 86 84 3c
       0.018815808 0.022407588 -0.037086494 0.01617747
000120 4e 9d e5 bc 50 8c 09 3d 71 95 6d bd f4 bc 06 3d
       -0.02802911 0.033581078 -0.058003847 0.032895043
000130 e6 51 58 bd 8b 0d 0d 3d be 89 81 3c 26 1b 32 3d
       -0.05281248 0.034436744 0.01581275 0.043482922
000140 24 ce 8c 3d ad 2d 67 3d c2 77 9d 3d 4a 9c f3 bc
       0.06875256 0.056440044 0.076888576 -0.02973761
000150 3c 51 46 3d 1c fa f7 3c dd 90 71 3d 7b ae 0c 3d
       0.048417315 0.030270629 0.058976043 0.034346085
000160 4d f6 26 bd e0 cd 0f 3d 81 7c 2e 3d 3a ec 46 3d
       -0.040762234 0.035108447 0.042599205 0.048565127
000170 e3 54 2c 3d d7 69 cf bc d6 4e 41 bd 38 21 27 bd
       0.04207314 -0.025319023 -0.047194324 -0.040803164
000180 2a 2d 8f 3d a5 c9 af bd 48 ea 96 3c a1 03 95 bd
       0.06991036 -0.085833825 0.01842226 -0.07276083
000190 4d 6d 25 3d 7a cb 07 bd 2a 9c 1d 3d 65 a7 18 bd
       0.04038744 -0.033153035 0.038479008 -0.037269015
0001a0 f9 7f 0a bd ee 3c 11 3d e8 ca 08 3d 1c d6 2a 3d
       -0.03381345 0.035458498 0.03339663 0.041708097
0001b0 1b 20 8b 3d d1 bc 4b bd d2 6b 77 3d 46 8b 82 bd
       0.06793233 -0.049740616 0.06040556 -0.063742206
0001c0 73 74 9e 3c 53 84 6b bd 32 95 4d 3d b4 db f2 bc
       0.019342637 -0.05749924 0.050191112 -0.029645778
0001d0 6c 60 83 bd 1d 5b 25 bd f5 e9 ed 3c 6a 81 4e 3d
       -0.064148754 -0.040370096 0.029042223 0.050416388
0001e0 ae af 29 bd 40 c4 4e bd af 82 04 bd ad ac 10 bd
       -0.041427307 -0.050480127 -0.032351192 -0.035320926
0001f0 13 5a 5b 3d 15 f3 00 bd 64 eb 17 bd 8a d9 9b 3d
       0.0535527 -0.03148182 -0.03708972 0.07609852
000200 ce 96 f5 3c 4d 85 16 bd a0 2c 12 3d b8 04 0d 3d
       0.029979136 -0.03674822 0.03568709 0.03442833
000210 98 9e 2e 3d 9b 68 54 3d e4 69 c0 3c 9f c2 28 bd
       0.042631716 0.051857572 0.023487993 -0.04120123
000220 18 04 66 3d 91 e5 94 3c f6 40 19 bd 1e f0 4a 3d
       0.056156248 0.018175872 -0.037415467 0.0495454
000230 4a 78 c0 bc 11 43 20 3d 14 ca 04 bd 27 be 5a 3d
       -0.023494858 0.03912646 -0.03241928 0.053404
000240 8d da 8b bd 13 67 37 bd 9d e6 4f 3d 82 c0 00 bd
       -0.06828795 -0.044776034 0.05075704 -0.03143359
000250 40 71 18 bd 3c 80 30 3d e8 4d 2d bd 24 3e 2a bd
       -0.03721738 0.043091044 -0.042310625 -0.04156317
000260 d6 f3 ed 3c 13 c4 22 bd 10 13 35 bd 19 94 16 3d
       0.029046934 -0.039737772 -0.044207633 0.03676233
000270 e3 e8 f6 3c 1f 32 d4 3c 08 29 bf 3c 57 94 d1 3c
       0.030140346 0.025902806 0.023334995 0.02558343
000280 12 fe f3 3c 0e 21 0e 3d 99 6d 4b 3d 82 8a 89 3d
       0.029784236 0.034699492 0.049665067 0.067158714
000290 d1 19 0f bd c7 11 94 3c 69 da e4 3c a3 e7 0d 3d
       -0.03493673 0.018074883 0.027936177 0.034644734
0002a0 31 de 23 3d e7 cd 80 3d e3 b5 02 3d 43 2e 5b bd
       0.04000682 0.06289273 0.031911742 -0.053510915
0002b0 4e 35 61 3d ff 96 4d 3d c8 98 e5 3c 6d 31 48 bd
       0.054982476 0.05019283 0.028026953 -0.04887526
0002c0 4b 98 04 bd 9d 3a 07 bd d0 52 8b 3c 5e 0d b9 3d
       -0.0323718 -0.033014882 0.017007262 0.09035753
0002d0 5b 14 75 bd 1f 03 06 bd 95 e8 0a bd 11 df 10 3d
       -0.059833866 -0.03271782 -0.033913214 0.035368983
0002e0 18 5e 08 bd d5 15 6b 3d b0 d3 f9 3c 92 f3 28 bd
       -0.03329286 0.057393868 0.030496448 -0.04124791
0002f0 e1 a3 28 bd 11 ce 32 bd d7 94 42 3d 1a 74 e8 bc
       -0.041171912 -0.04365355 0.047505226 -0.028375674
000300 0d bb 84 3c 18 3c af 3c 05 87 c1 3c cd 07 e0 3c
       0.016202474 0.02139096 0.023623953 0.02734747
000310 64 60 84 bd ee 6b 97 3d 82 99 2c 3d b5 5d 81 3d
       -0.064636976 0.07393633 0.042138584 0.06316701
000320 00 cc f5 3c ca cc 15 bd c9 84 1e 3d 5a a6 17 bd
       0.030004501 -0.036572255 0.038700853 -0.03702388
000330 ec 49 f7 3c 63 e1 4a bd 83 0b c1 3c e0 9e 5e 3d
       0.030186616 -0.04953135 0.02356506 0.054350734
000340 e3 dc 34 bd 40 ed f6 3c 6b 61 03 3c 7c e2 75 bd
       -0.044155966 0.030142426 0.008018832 -0.060030445
000350 6e 82 00 bd 1f 56 f5 bc 68 b6 1a bd a9 57 12 bd
       -0.031374387 -0.029948292 -0.037771612 -0.03572813
000360 5e 08 09 3d 65 e8 25 bd a6 c2 8b bd 0e e9 40 bd
       0.033455245 -0.04050483 -0.068242356 -0.04709726
000370 88 46 cc 3c 77 3e 95 bd 63 e9 36 bd 00 32 0b bd
       0.024935976 -0.07287305 -0.04465617 -0.03398323
000380 7f 21 0b bd 5b a6 08 bd 54 4a 58 3d 18 ef bc 3c
       -0.03396749 -0.033361774 0.05280526 0.023063228
000390 10 c6 58 3d ff 82 ca bc b0 4b 38 bd 56 ff 30 3d
       0.052923262 -0.024720667 -0.044994056 0.043212257
0003a0 71 3d f9 bc 26 64 44 3d 5c f4 35 bd 42 70 d9 3c
       -0.030424805 0.04794707 -0.044422492 0.026542787
0003b0 9b 71 07 bd 86 62 29 3d 57 bf 04 bd ed 35 1d 3d
       -0.033067327 0.041353725 -0.03240904 0.038381506
0003c0 0f 6c 0a bd c2 de e6 3c ad 19 04 bd 55 93 2e 3d
       -0.03379446 0.028182391 -0.03225105 0.042620976
0003d0 30 40 aa 3c fd 3c 99 3d 19 f3 a5 3c 56 2e bd 3d
       0.02078256 0.07482336 0.02025752 0.092373535
0003e0 98 2b 4c bd 09 5c 28 bd 02 50 34 bd 69 fa f0 bc
       -0.04984626 -0.041103397 -0.044021614 -0.02941628
0003f0 50 7b 18 bd 93 01 78 3c 38 a0 c3 3c cb e9 12 bd
       -0.037226975 0.015137094 0.02388011 -0.035867494
