checkpoints/checkpoint_actor_ddqn_11.pth (torch_old, 303163 bytes, 6 tensors)

fc1.weight f4 [256, 33]
0	0xbe22c0ee	-0.1589391
1	0xbe82ce07	-0.2554781
2	0xbdb16f18	-0.086637676
3	0xbc264926	-0.010149276
4	0xbada42da	-0.0016652003
5	0xbd65cbfd	-0.05610274
6	0x3d8130d0	0.06308138
7	0x3cb72314	0.022355594
8	0x3dbf6c16	0.09346788
9	0x3e75493e	0.23953721
10	0xbd0e6c22	-0.034771092
11	0xbd49956c	-0.049214765
12	0xbc095fba	-0.008384639
13	0x3e60b61d	0.2194447
14	0x3dbec911	0.09315694
15	0x3eab2eeb	0.33434233
16	0x3c67a8c4	0.014139358
17	0xbc9f1b1d	-0.019422108
18	0x3d2b8bd1	0.041881386
19	0xbd3d26d2	-0.0461796
20	0xbcb59f96	-0.022170823
21	0x3b9702b8	0.0046084784
22	0xbdaea266	-0.08527069
23	0xbce3b0c7	-0.027794255
24	0x3bc32c35	0.0059561976
25	0xbcd5c0e2	-0.02609295
26	0xbe2a02b4	-0.16602594
27	0xbe3b149d	-0.18269582
28	0xbe9aa598	-0.30204463
29	0xbd199326	-0.037493847
30	0x3db4bdff	0.088253014
31	0x3d256c44	0.040386453
32	0x3d026f04	0.031844154
33	0x3dddd647	0.10831886
34	0x3d67df1e	0.056609266
35	0xbe93beaa	-0.28856403
36	0x3c298c35	0.010348369
37	0xbe00ec61	-0.12590171
38	0xbdf7068e	-0.12061797
39	0x3dc01259	0.093784995
40	0x3c6c1bb0	0.014410898
41	0x3d1781ca	0.03698901
42	0x3d310ddf	0.04322612
43	0x3d8e24b9	0.06940598
44	0xbd731e89	-0.059355292
45	0x3d89f92f	0.06736981
46	0xbc349010	-0.011020675
47	0xbe1df696	-0.15426096
48	0x3e79adbd	0.24382682
49	0x3cb8608b	0.022506973
50	0x3c80f196	0.015740197
51	0xbcae6eb9	-0.021293031
52	0xbd44f11e	-0.04808151
53	0x3db0b4d6	0.08628242
54	0x3daff46b	0.08591541
55	0xbd995c70	-0.07488334
56	0x3b98193e	0.004641681
57	0x3d17fdb3	0.03710718
58	0xbd2c6b58	-0.04209456
59	0xbcc9d484	-0.024637468
60	0xbd0ea381	-0.0348239
61	0xbdb38091	-0.087647565
62	0x3d6114a6	0.054951333
63	0xbd204343	-0.039126646
64	0x3d66edda	0.056379177
65	0x3ca87e9f	0.02056819
66	0xbde20467	-0.11035996
67	0x3e990d97	0.2989318
68	0xbe96b80d	-0.29437295
69	0xbdbfcfc4	-0.093658
70	0x3e3ffd7b	0.18749039
71	0x3e21b5de	0.15792033
72	0xbd9e8e09	-0.07741935
73	0xbde38498	-0.111092746
74	0xbe12c054	-0.1433118
75	0xbe9816fc	-0.29705036
76	0x3d1935ba	0.037404753
77	0x3d5a2e82	0.05326701
78	0xbc88aae9	-0.016683059
79	0x3e25656c	0.1615197
80	0x3e5572da	0.20844594
81	0x3e5c1fc7	0.21496497
82	0x3cd9f3b3	0.026605463
83	0xbd74b7bf	-0.059745546
84	0xbc7b90e7	-0.015354372
85	0xbbcd22ae	-0.0062602377
86	0x3e239875	0.15976126
87	0x3e8ef89f	0.27924058
88	0xbcea35cc	-0.028590105
89	0x3dd29e61	0.10284115
90	0x3c938dc5	0.018011937
91	0x3cf9014c	0.030396126
92	0x3d0dbec3	0.034605753
93	0x3eb156f2	0.34636647
94	0xbda1ea10	-0.07905972
95	0xbcdb9528	-0.026804522
96	0xbeaa4d33	-0.33262023
97	0x3d65469c	0.05597554
98	0x3db978c3	0.090562366
99	0xbda97268	-0.082737744
100	0x3dc890cf	0.09793245
101	0xbd8cca18	-0.06874484
102	0xbdb799de	-0.08964895
103	0x3cc946f6	0.02456997
104	0x3dad5623	0.08463695
105	0x3d83acda	0.06429453
106	0x3e30592b	0.17221515
107	0x3e084a3c	0.13309568
108	0x3d8db1c2	0.0691867
109	0xbd08247a	-0.03323791
110	0x3cd2d0cd	0.02573433
111	0x3bbfb6a4	0.00585063
112	0x3dab7d78	0.08373541
113	0xbdfff8d6	-0.124986336
114	0x3d5add56	0.05343374
115	0x3d618293	0.055056166
116	0x3d914084	0.070923835
117	0xbd5a39e5	-0.05327787
118	0x3c6329bf	0.0138649335
119	0x3c9f5c50	0.019453198
120	0xbde7f0dd	-0.11325238
121	0xbd8bfb06	-0.06834988
122	0x3e93fbaf	0.28902957
123	0xbdc35709	-0.09538085
124	0xbdb5d4a6	-0.0887845
125	0xbd78e67d	-0.060766686
126	0x3dca0a7f	0.09865283
127	0xbdadd263	-0.08487394
128	0xbd05e508	-0.032689124
129	0xbdc8249b	-0.09772607
130	0x3d0a1086	0.033707164
131	0x3f5b0a58	0.8556266
132	0xbd2f33bb	-0.042773943
133	0x3ceae852	0.028675232
134	0x3e5a557b	0.2132167
135	0xbcc2c91c	-0.023777537
136	0xbd75a518	-0.0599719
137	0x3e7e053d	0.24806686
138	0xbd83c0e7	-0.064332776
139	0x3cbb0ac0	0.022832274
140	0xbd259154	-0.0404218
141	0xbd8d424c	-0.06897411
142	0x3cfd80f2	0.030945275
143	0x3cf046cd	0.029330635
144	0xbd24f9c2	-0.04027725
145	0xbd03c960	-0.032174468
146	0x3ba70dc1	0.005098075
147	0x3d86cf34	0.065824896
148	0xbbf3a09d	-0.007434918
149	0xbd113be9	-0.035457525
150	0x3cf07df5	0.029356936
151	0x3c802a67	0.015645219
152	0xbdc9a76e	-0.09846388
153	0x3dd7aef7	0.10531419
154	0xbe3cfe69	-0.18456425
155	0x3db3a3cf	0.087714784
156	0x3d1086cb	0.0352848
157	0x3e54886e	0.20755169
158	0x3cfd71a5	0.030937979
159	0x3e1d5468	0.1536423
160	0xbd4d8dce	-0.050184064
161	0xbd1f1b96	-0.038844667
162	0xbd63153b	-0.05544017
163	0x3d785820	0.060630918
164	0xbe15154a	-0.14558902
165	0xbdb2751a	-0.087137416
166	0x3c7704b2	0.015076803
167	0xbe85cbff	-0.261322
168	0xbdcfe9ee	-0.101520404
169	0xbbfd3f76	-0.0077285124
170	0xbe1ae054	-0.15124637
171	0xbe264fca	-0.16241375
172	0xbc4f0a41	-0.012636722
173	0xbbd494f6	-0.006487484
174	0x3cb2d6f8	0.02183102
175	0xbd50cdb4	-0.050977424
176	0x3df2ee73	0.11861887
177	0xbe1f5693	-0.15560369
178	0x3db1b06e	0.086762294
179	0x3e255afc	0.16147989
180	0x3e774fdd	0.24151559
181	0xbdcd3903	-0.1002064
182	0x3d869d75	0.06573001
183	0x3d17933d	0.03700565
184	0x3cc839dc	0.024441652
185	0x3ba600e0	0.0050660223
186	0xbe157b44	-0.14597803
187	0xbd5dbd1a	-0.05413542
188	0x3dfc701b	0.1232607
189	0x39de7c37	0.00042435687
190	0x3dc31b59	0.095267005
191	0x3d8e1b2e	0.06938778
192	0x3dbf9a46	0.09355597
193	0x3dd7d287	0.10538202
194	0x3cd083d0	0.025453478
195	0xbd4dca91	-0.05024201
196	0x3b605f40	0.003423646
197	0x3d85b784	0.065291435
198	0xbce9d49c	-0.028543763
199	0xbdad32b6	-0.08456938
200	0x3c9ec4c7	0.01938094
201	0xbbbb5427	-0.005716819
202	0x3d16d94a	0.036828317
203	0x3db8efde	0.09030126
204	0xbd2bdf69	-0.041961107
205	0xbe56c04d	-0.20971794
206	0xbd9e2135	-0.077211775
207	0xbe0d5c8f	-0.1380484
208	0xbcd74d86	-0.026282083
209	0x3e6a4e23	0.2288137
210	0xbd6507f1	-0.055915777
211	0xbdf4f518	-0.119608104
212	0x3e65299b	0.22379152
213	0xbe1789f8	-0.14798725
214	0xbe3735b8	-0.17891586
215	0x3d349855	0.044090588
216	0xbce3a3f4	-0.02778814
217	0x3cc8b612	0.02450088
218	0xbdbfc82b	-0.09364351
219	0xbeaeb824	-0.34124863
220	0xbbf522a0	-0.0074809343
221	0xbd80f234	-0.062961966
222	0xbb915ef8	-0.00443637
223	0x3e176a12	0.14786556
224	0xbd96fe4e	-0.073727235
225	0x3d9c3255	0.076267876
226	0xbdd4aa20	-0.10384011
227	0x3b2d7800	0.002646923
228	0xbe125849	-0.1429149
229	0x3c9825a0	0.018572628
230	0x3ec16927	0.37775537
231	0xbcd90c26	-0.02649505
232	0xbe24848c	-0.16066188
233	0x3d24653d	0.04013561
234	0xbd32dad9	-0.04366574
235	0xbd71bb32	-0.059016414
236	0xbd34a05f	-0.044098254
237	0x3d6fe65d	0.0585693
238	0xbd42f1c2	-0.04759384
239	0x3e0f3d2a	0.13988176
240	0x3b659165	0.003502929
241	0x3adcd897	0.0016849217
242	0x3c9f4a8e	0.01944473
243	0x3d7bcd62	0.061475165
244	0xbc159b54	-0.009131271
245	0x3ec4932f	0.38393542
246	0x3e6ef6d2	0.23336342
247	0x3c8a3e34	0.016875364
248	0xbd9c21e6	-0.07623653
249	0xbbc43146	-0.005987319
250	0xbd6f5cbc	-0.058438048
251	0xbcb63529	-0.022242146
252	0x3deec116	0.11657922
253	0x3dd4ff7a	0.10400291
254	0x3d94658d	0.07245932
255	0xbcc0ed95	-0.023550788

fc1.bias f4 [256]
0	0x3dd1c136	0.1024193
1	0xbde38508	-0.11109358
2	0xbe505b98	-0.2034744
3	0xbdff491d	-0.12465117
4	0xbd059155	-0.032609303
5	0xbd6c1d99	-0.057645414
6	0xbe8b353a	-0.27189046
7	0x3d9d4af2	0.0768031
8	0xbd9ef8a7	-0.077622704
9	0x3e30b52f	0.17256616
10	0xbe1e06ae	-0.15432236
11	0x3d5c6b47	0.053813245
12	0x3c95f20b	0.018303892
13	0x3d952140	0.072817326
14	0x3df38f98	0.11892623
15	0x3e71a55a	0.23598233
16	0x3e0bc662	0.13649896
17	0x3cc821ae	0.024430122
18	0xbe755b70	-0.23960662
19	0xbe80cd08	-0.25156426
20	0x3c876af5	0.016530493
21	0xbd98184a	-0.07426508
22	0xbd8d25ab	-0.0689195
23	0x3e26ed3c	0.16301435
24	0xbd738772	-0.059455343
25	0xbdfaa169	-0.12237818
26	0x3e1a5330	0.15070796
27	0xbc629c6b	-0.013831238
28	0x3ab552ae	0.0013833845
29	0xbe5e55c4	-0.21712404
30	0xbe3ad119	-0.18243827
31	0xbdec676e	-0.11543165
32	0xbd56d5fe	-0.052450173
33	0xbd880341	-0.06641246
34	0xbe69ccc7	-0.22832023
35	0x3dae7bc1	0.08519698
36	0xbe447ee9	-0.19189037
37	0xbdc5e731	-0.09663237
38	0x3dd3ef72	0.10348405
39	0x3dbf5e6b	0.09344181
40	0xbe561504	-0.20906454
41	0xbdc0df9e	-0.094176516
42	0x3ddfaafb	0.10921284
43	0x3e3439b8	0.17600143
44	0x3e9f5d33	0.31125793
45	0xbde5540f	-0.111976735
46	0x3db69a1c	0.08916113
47	0xbe432775	-0.1905802
48	0x3e0e3aed	0.13889666
49	0x3ca02ad2	0.019551668
50	0xbe3c177c	-0.18368334
51	0x3e11e257	0.14246498
52	0xbe05e4f0	-0.13075614
53	0xbdf65424	-0.12027767
54	0xbe481489	-0.19539084
55	0x3db9357c	0.090434045
56	0x3cd7f417	0.026361508
57	0x3e5e62d8	0.21717393
58	0xbe572182	-0.21008876
59	0x3e231eac	0.15929669
60	0xbdd340c0	-0.103150845
61	0xbe273174	-0.16327459
62	0xbe166923	-0.14688544
63	0x3e162f9b	0.14666598
64	0xbd753f50	-0.059874833
65	0xbddfff9b	-0.10937425
66	0x3e1d61cb	0.15369336
67	0xbcd3631b	-0.025804093
68	0xbd4e0f87	-0.050307777
69	0xbd972f83	-0.07382109
70	0x3c34000d	0.01098634
71	0x3d5b5b1d	0.05355369
72	0xbe5c540a	-0.21516433
73	0x3d909e80	0.070614815
74	0xbc447d5c	-0.011992779
75	0x3da8f52c	0.08249888
76	0xbe2fa646	-0.17153272
77	0x3cef4036	0.029205423
78	0xbdc8150a	-0.09769638
79	0xbce200df	-0.027588306
80	0x3e42ceb2	0.1902416
81	0x3d690dcc	0.056897923
82	0xbe1b5078	-0.15167415
83	0x3d8d922b	0.06912645
84	0xbbd5d20a	-0.0065252827
85	0x3d47a337	0.04873964
86	0xbe9e5b0f	-0.30928847
87	0x3ab1c11e	0.0013561582
88	0xbe3eb4d6	-0.18623671
89	0xbc9b7ca4	-0.018980332
90	0xbdb51e65	-0.08843688
91	0x3dcca53d	0.09992454
92	0xbd1606a8	-0.03662744
93	0x3e3b1ce5	0.18272741
94	0xbd0a6912	-0.03379161
95	0xbc452cb3	-0.012034583
96	0xbe23cfda	-0.15997258
97	0xbe634103	-0.22192769
98	0xbdf54508	-0.11976057
99	0x3daa12ac	0.08304343
100	0x3daa3396	0.083106205
101	0x3c7e4502	0.015519382
102	0x3de2081f	0.11036705
103	0x3e11caa6	0.1423746
104	0x3d71dd89	0.059049163
105	0xbdea9b68	-0.11455423
106	0xbd6a9324	-0.05726923
107	0xbd9d95a2	-0.07694556
108	0x3de87efa	0.11352344
109	0xbe254d37	-0.16142736
110	0x3e8004bc	0.25003612
111	0xbd7ad246	-0.06123569
112	0xbe414ee6	-0.18877754
113	0xbe6a5bbf	-0.22886561
114	0xbce2a32d	-0.027665699
115	0xbd3501bd	-0.04419111
116	0xbdd52348	-0.1040712
117	0xbdb3423b	-0.08752867
118	0x3da1204b	0.078674875
119	0xbe1151bf	-0.1419134
120	0x3e0b3294	0.13593513
121	0x3dd743fd	0.105110146
122	0xbdf75d8b	-0.12078389
123	0x3c9118cd	0.017712021
124	0x3d801b67	0.062552266
125	0xbd340ab9	-0.04395554
126	0xbe07b146	-0.13251218
127	0x3d1f0e17	0.038831796
128	0xbe2ddbcd	-0.16978379
129	0xbe6fef43	-0.23431115
130	0xbe042a29	-0.12906708
131	0xbdbcac19	-0.092125125
132	0x3e1aed04	0.15129477
133	0xbe0efe5f	-0.13964222
134	0xbd5708a6	-0.052498482
135	0x3cd20153	0.025635397
136	0xbe0e4083	-0.13891797
137	0xbe592aba	-0.21207705
138	0xbe8e607a	-0.2780798
139	0xbbef9642	-0.0073116133
140	0xbe2c3f24	-0.16820961
141	0xbc436c65	-0.011927699
142	0xbd290831	-0.041267578
143	0xbe438e34	-0.19097215
144	0xbe3c3263	-0.18378596
145	0xbe23f2c1	-0.16010572
146	0xbde940f3	-0.11389341
147	0x3d76237e	0.06009244
148	0xbd9501f2	-0.07275762
149	0xbe87c8f1	-0.26520494
150	0xbe4ec55f	-0.20192479
151	0xbe002a14	-0.12516052
152	0xbb19c33d	-0.0023462318
153	0xbe1114a6	-0.14168033
154	0x3d4f2e5e	0.05058133
155	0xbd4e0b45	-0.050303716
156	0xbe0bd119	-0.13653983
157	0x3db0526c	0.08609471
158	0xbd42ba17	-0.04754075
159	0xbd52ae08	-0.0514355
160	0xbd110e28	-0.03541389
161	0xbd4b1504	-0.04958059
162	0x3e392cae	0.1808345
163	0x3e2ad5a8	0.16683066
164	0x3dafb745	0.08579878
165	0xbdbc98c2	-0.09208824
166	0xbe39dd55	-0.18150838
167	0xbe339212	-0.1753619
168	0xbe39d412	-0.18147305
169	0xbd4bf095	-0.049789984
170	0x3e12c5a0	0.143332
171	0x3e9065e6	0.28202742
172	0xbdfbf101	-0.12301827
173	0xbd5c4661	-0.053778056
174	0xbd443d0f	-0.047909793
175	0x3d82d657	0.06388538
176	0xbdcd3e76	-0.10021679
177	0xbe43141a	-0.19050637
178	0xbcb3fa2a	-0.021969873
179	0x3d229ae9	0.039698515
180	0xbe6f6242	-0.23377326
181	0xbc753d77	-0.014968268
182	0x3c730cff	0.0148346415
183	0xbe4748ad	-0.19461317
184	0xbd5f4a8f	-0.054514464
185	0x3d8dd950	0.06926215
186	0x3e0e304c	0.13885611
187	0xbe2f3cc7	-0.17113028
188	0xbe4c9654	-0.1997922
189	0x3de44757	0.111464195
190	0xbd8c6e0e	-0.06856929
191	0xbcc311e0	-0.023812234
192	0x3e105958	0.14096582
193	0xbd49eb25	-0.049296517
194	0xbd43e10f	-0.047822054
195	0xbc9d197f	-0.019177197
196	0x3dd84045	0.105591334
197	0x3d819252	0.063267365
198	0xbe1d940e	-0.1538851
199	0xbd130383	-0.03589202
200	0x3dc239c4	0.09483674
201	0x3e35a8db	0.17740194
202	0x3ddfa1c7	0.109195285
203	0x3d8a2c63	0.06746747
204	0xbd810d9c	-0.06301424
205	0xbe5f8cf1	-0.21831109
206	0xbddf98a9	-0.109177895
207	0xbdbc5eff	-0.091978066
208	0x3d54117f	0.051774498
209	0x3d36cf38	0.044631213
210	0xbd00aced	-0.031414915
211	0xbd4128a4	-0.0471579
212	0xbd27690c	-0.040871665
213	0x3dbe08f2	0.0927905
214	0xbe1cbe05	-0.15306862
215	0xbb5ad746	-0.0033392473
216	0xbe5d80ac	-0.21631116
217	0xbe27df19	-0.16393699
218	0xbdee15e6	-0.116252705
219	0x3cecf405	0.028924951
220	0xbc3a02cf	-0.011353209
221	0xbde4ad09	-0.11165816
222	0xbd8c2ac7	-0.06844097
223	0xbe9908cf	-0.29889533
224	0x3e2495b1	0.16072728
225	0xbe1fa4ef	-0.15590261
226	0xbe2e3b9e	-0.1701493
227	0xbe456a13	-0.19278745
228	0xbe8d7896	-0.27631062
229	0x3d9fb760	0.07798648
230	0x3c188c0f	0.009310736
231	0xbd75e11e	-0.06002914
232	0xbe1c45b1	-0.1526096
233	0x3c9e9ee2	0.01936287
234	0xbe2de076	-0.16980156
235	0xbe0f91d4	-0.14020473
236	0x3cf5558a	0.029948015
237	0x3d1a3c9a	0.03765545
238	0xbde4794f	-0.1115595
239	0xbd7c86ae	-0.061651878
240	0xbe2f9da7	-0.17149983
241	0xbe62d25a	-0.22150555
242	0x3b6f0c5c	0.0036475873
243	0xbdad0ee4	-0.08450106
244	0x3cc92371	0.024553033
245	0xbe8b7b2c	-0.2724241
246	0xbd26408c	-0.0405889
247	0x3dba80d7	0.091066055
248	0x3dda4d83	0.106593154
249	0x3e06cc86	0.13163957
250	0xbdaff171	-0.08590973
251	0xbe76b25c	-0.24091476
252	0xbe23112a	-0.15924516
253	0x3d6bb612	0.057546683
254	0xbe640f90	-0.22271562
255	0xbd2a6ee0	-0.041609645

fc2.weight f4 [256, 256]
0	0xbe82672e	-0.25469345
1	0xbd752ecf	-0.059859093
2	0xbdb87890	-0.090073705
3	0x3d4b31a0	0.049607873
4	0xbdd93f09	-0.10607726
5	0x3e3cb551	0.18428542
6	0x3e2cbc20	0.16868639
7	0xbdb6dfad	-0.089293815
8	0x3cc3141d	0.023813302
9	0xbd8542f8	-0.06506914
10	0xbdb7acb6	-0.08968489
11	0x3de81606	0.11332326
12	0x3ddaa016	0.10675065
13	0x3e540671	0.20705582
14	0x3e07ee80	0.13274574
15	0x3c0a8717	0.0084550595
16	0xbe05697b	-0.13028519
17	0xbc1f52d0	-0.009724334
18	0x3e335534	0.17512971
19	0x3e0a69d0	0.13516927
20	0x3ca35da8	0.01994212
21	0xbd380c11	-0.044933382
22	0x3d024c03	0.03181077
23	0x3d638b3c	0.055552706
24	0x3dfe6d4d	0.12423191
25	0xbd0d1474	-0.034443334
26	0xbc24d268	-0.01005993
27	0x3e1e57e7	0.1546322
28	0x3de6aec1	0.112638004
29	0x3b9a6c7b	0.004712639
30	0xbdb96486	-0.090523764
31	0xbd181048	-0.037124902
32	0xbddfcf48	-0.10928208
33	0x3e7d5687	0.24740039
34	0x3c0952fb	0.0083816005
35	0x3db4fddc	0.08837482
36	0xbd4f5c4d	-0.050625134
37	0xbe0b9c10	-0.13633752
38	0xbe0c7204	-0.13715369
39	0x3b5aad8c	0.0033367602
40	0xbd88aff8	-0.066741884
41	0xbd794a71	-0.06086201
42	0x3e35c234	0.17749864
43	0xbe7e49d9	-0.24832858
44	0xbcfa403d	-0.03054821
45	0xbecfb1de	-0.4056539
46	0xbd5b0477	-0.053471055
47	0x3cae7fa0	0.02130109
48	0x3e54c7d4	0.20779353
49	0xbd742eb4	-0.059614852
50	0x3de21b16	0.110403225
51	0x3e38bbbc	0.18040365
52	0x3e3b6fac	0.18304318
53	0x3d4019e6	0.0468997
54	0x3cd6c0ff	0.026215075
55	0xbe3f218e	-0.18665144
56	0xbe21cff3	-0.15801983
57	0xbe839569	-0.25699928
58	0xbd94ea98	-0.07271308
59	0xbdb21f69	-0.08697397
60	0x3d8f4764	0.069960386
61	0x3db6b35b	0.08920928
62	0xbd907d9a	-0.070552066
63	0x3dcba48e	0.09943496
64	0xbe5354f5	-0.20637877
65	0xbd4d6ac9	-0.050150666
66	0xbd35b8ef	-0.04436582
67	0xbc56f432	-0.013119744
68	0x3e1c5b3a	0.15269175
69	0x3d877c63	0.06615522
70	0x3db3bec1	0.08776618
71	0xbf08e102	-0.53468335
72	0xbd8d285d	-0.06892464
73	0x3c2958cc	0.010336112
74	0xbe1150d1	-0.14190985
75	0xbd8b316a	-0.06796534
76	0xbe3e4016	-0.18579134
77	0xbdad5dd4	-0.08465162
78	0x3d8e5a8d	0.06950865
79	0x3dd8f5a0	0.10593724
80	0xbe0c9586	-0.13728914
81	0x3e14a020	0.14514208
82	0x3cf7ec45	0.03026403
83	0xbdebd318	-0.11514872
84	0x3d7139a5	0.058892865
85	0x3e18643b	0.14881985
86	0xbe24b15a	-0.16083279
87	0xbcb2fa2f	-0.021847812
88	0x3d753e11	0.059873644
89	0xbe87ed6b	-0.26548323
90	0xba996deb	-0.0011705732
91	0xbd61ec3e	-0.05515694
92	0x3cb2ba2d	0.021817291
93	0x3dcb028b	0.099125944
94	0xbce519a2	-0.027966324
95	0xbe00bb70	-0.12571502
96	0xbd855b37	-0.065115385
97	0x3e616c05	0.22013862
98	0x3cfbe226	0.030747484
99	0xbcf04c15	-0.029333154
100	0xba0f0471	-0.0005455679
101	0xbda45ac3	-0.08025124
102	0xbd334dc0	-0.04377532
103	0x3d9e3641	0.07725192
104	0xbd22b75c	-0.039725646
105	0xbe3dc898	-0.18533552
106	0xbe40b9f3	-0.18820934
107	0x3c9db477	0.019251091
108	0x3e327b82	0.17429927
109	0xbddd8f30	-0.108183265
110	0xbeac3e8b	-0.33641466
111	0xbe465f51	-0.19372298
112	0xbdf54196	-0.119754
113	0xbe053c7d	-0.13011356
114	0xbc9338e3	-0.017971462
115	0xbe0a6db4	-0.13518411
116	0xbcad4fb4	-0.02115617
117	0xbe0ae750	-0.13564801
118	0x3ddea511	0.10871328
119	0xbec196ae	-0.37810272
120	0x3d90b6b5	0.070660986
121	0xbb83b1fa	-0.004019019
122	0x3dd5b75d	0.104353644
123	0x3dc93bb6	0.09825842
124	0x3da3afdd	0.07992528
125	0x3de54caa	0.11196263
126	0x3e33a0c7	0.175418
127	0xbe9c5d70	-0.30540037
128	0xbc85e3ed	-0.016344035
129	0xbc35439b	-0.011063482
130	0xbe7b2383	-0.24525265
131	0x3e10c5d3	0.14137964
132	0xbcef3b82	-0.02920318
133	0xbe634b77	-0.22196756
134	0xbd005cff	-0.031338688
135	0xbdc845ca	-0.09778936
136	0x3b684d1f	0.0035446358
137	0x3d95f7bc	0.07322642
138	0xbd9f4ba0	-0.07778096
139	0xbd88600a	-0.06658943
140	0xbca267aa	-0.019824822
141	0xbea71e77	-0.3264043
142	0xbd725a12	-0.05916793
143	0xbe25e26f	-0.16199659
144	0x3c0919f8	0.008368008
145	0xbdc6bb1e	-0.097036585
146	0xbe439aeb	-0.19102065
147	0x3daa66d5	0.08320395
148	0x3d8076b0	0.06272638
149	0x3e83454c	0.25638807
150	0xbd5fa84d	-0.054603864
151	0x3e8d37f4	0.2758175
152	0x3d7fc6c2	0.06244541
153	0x3d078eca	0.03309516
154	0xbceabd81	-0.028654816
155	0x3e6c9f2d	0.23107596
156	0xbd1a5a0d	-0.037683535
157	0xbd8abefc	-0.06774709
158	0x3d8a3fec	0.067504734
159	0x3def6048	0.11688286
160	0xbdd1e116	-0.1024801
161	0xbeb5abc4	-0.3548261
162	0xbd95fa19	-0.07323093
163	0xbe007959	-0.1254629
164	0xbcf64ad6	-0.030064981
165	0x3d7801d5	0.060548622
166	0x3db95ea8	0.09051257
167	0xbdadffe9	-0.084960766
168	0xbdce5a08	-0.10075766
169	0xbe0bdd64	-0.13658673
170	0x3cb37857	0.021907968
171	0xbe5ce2ec	-0.21570939
172	0x3e2e4e69	0.17022099
173	0x3de63d41	0.11242152
174	0x3d5f25fa	0.054479577
175	0xbe1da695	-0.15395577
176	0xbea38f38	-0.31945205
177	0x3c127087	0.008937961
178	0xbc5e9fab	-0.0135878725
179	0x3c239dd5	0.009986361
180	0x3dc0e148	0.09417969
181	0xbe5a21b4	-0.21301919
182	0x3e1c49b6	0.15262493
183	0xbbfbd776	-0.007685597
184	0xbd341ab8	-0.043970793
185	0xbd6ef01e	-0.058334462
186	0xbe891afe	-0.26778406
187	0x3ce5a5b5	0.028033117
188	0x3e2822c6	0.16419515
189	0x3d4aaf64	0.04948367
190	0xbd17e397	-0.03708228
191	0xbd75f203	-0.060045253
192	0x3c3f3873	0.011671173
193	0x3d94ef3d	0.072721936
194	0x3d6a8203	0.057252895
195	0xbda970c9	-0.08273465
196	0xbd3db413	-0.04631431
197	0xbe3da3bb	-0.1851949
198	0x3df2d1be	0.118564114
199	0x3dc9185c	0.09819099
200	0xbe3faed2	-0.18719032
201	0x3e2689f4	0.16263562
202	0x3de75f67	0.112974934
203	0xbd996ef0	-0.07491863
204	0xbb2f6309	-0.002676191
205	0xbdd37497	-0.10324972
206	0xbe3f44cc	-0.18678588
207	0xbe8a451b	-0.27005848
208	0xbd3d66e1	-0.04624069
209	0xbe06949a	-0.13142624
210	0x3c915e53	0.017745173
211	0x3d9e317e	0.07724284
212	0xbd9046dd	-0.07044766
213	0x3cdd1ef7	0.026992304
214	0x3ce610e6	0.02808423
215	0x3d848431	0.06470526
216	0xbd87a0ff	-0.066225044
217	0xbe48e061	-0.19616844
218	0x3d49a768	0.049231917
219	0xbde5a086	-0.11212258
220	0x3dc4d3b9	0.096106954
221	0x3d7632dc	0.060107097
222	0x3dbedc2f	0.093193404
223	0xbd6032c1	-0.054735903
224	0xbe3e598c	-0.18588847
225	0x3e2855c9	0.16438974
226	0x3c4c7d41	0.012481035
227	0x3ca20f22	0.019782607
228	0xbd8f10ad	-0.069856025
229	0xbdec63f1	-0.115425
230	0xbe5d4f6a	-0.21612325
231	0x3da97c4d	0.082756616
232	0x3d0658e9	0.032799635
233	0x3e492488	0.19642842
234	0xbd8e6e1c	-0.069545954
235	0xbe2ed281	-0.17072488
236	0xbd32dd71	-0.043668214
237	0x3dbad12c	0.091219276
238	0x3e6bed88	0.2303983
239	0xbd498657	-0.049200382
240	0xbdba1e33	-0.09087791
241	0xbdf70a7f	-0.12062549
242	0xbddbe0da	-0.107362464
243	0xbd07a66b	-0.033117693
244	0x3e194a9e	0.1496987
245	0xbe265134	-0.16241914
246	0xbcdd62ab	-0.027024588
247	0x3d482056	0.048858963
248	0xbdfe224c	-0.12408885
249	0xbd64bb91	-0.05584294
250	0xbe064a00	-0.13114166
251	0xbd0229a4	-0.031777993
252	0xbe087ca2	-0.13328794
253	0xbd973ab5	-0.07384244
254	0xbe081b32	-0.13291624
255	0xbd915637	-0.07096522

fc2.bias f4 [256]
0	0xbbf6558b	-0.0075175217
1	0x3d12cde0	0.03584087
2	0x3d009ad9	0.031397674
3	0xbd36d266	-0.044634245
4	0x3c550c24	0.013003383
5	0xbcf71302	-0.03016043
6	0x3ccee9cb	0.025257966
7	0xbd26682b	-0.040626686
8	0xbd1b629d	-0.03793584
9	0x3d9f171d	0.077680804
10	0x3d06d7b8	0.03292057
11	0x3dfc408f	0.12317001
12	0xbc47e956	-0.012201628
13	0xbc39d0c1	-0.011341275
14	0xbdab1a76	-0.083546564
15	0xbd6d9cbe	-0.05801081
16	0xbde82579	-0.11335272
17	0xbb0ed3ea	-0.002179379
18	0xbc535f77	-0.012901179
19	0xbd84d211	-0.064853795
20	0x3b4bed35	0.0031116728
21	0xbc9bcb53	-0.019017851
22	0xbc07f903	-0.008299115
23	0x3dd19e64	0.10235289
24	0xbd8147aa	-0.06312497
25	0x3de17fab	0.11010679
26	0x3c0372dd	0.008022991
27	0xbcbe7168	-0.023247436
28	0xbd0d391d	-0.034478296
29	0xbd014a27	-0.031564858
30	0xbd70ee15	-0.058820803
31	0x3dc042bd	0.09387729
32	0xbbabc760	-0.005242273
33	0xbd9d4e68	-0.076809704
34	0x3d535f26	0.051604412
35	0xbce73da8	-0.028227642
36	0x3a94fba4	0.0011366499
37	0xbd5471c2	-0.0518663
38	0x3d53bdd8	0.05169472
39	0xbd4f0780	-0.050544262
40	0xbd03b247	-0.03215244
41	0x3d807e2e	0.06274067
42	0x3dd853e3	0.10562875
43	0x3d326a29	0.043558273
44	0x3cf6c94a	0.030125279
45	0x3d121aa2	0.03566993
46	0xbd2bfac7	-0.041987207
47	0xbd577c8d	-0.052609015
48	0xbc98e501	-0.018663885
49	0xbd2e3d18	-0.042538732
50	0x3dd171cb	0.102267824
51	0x3d144792	0.036201067
52	0x3d390c07	0.045177486
53	0x3c611203	0.0137372045
54	0x3cd5914b	0.026070258
55	0xbc8ae646	-0.016955506
56	0xbc46a6a0	-0.012124687
57	0xbdfde614	-0.123973995
58	0x3d6ab918	0.057305425
59	0x3d1c3a7e	0.03814172
60	0x3d6fbc53	0.05852921
61	0xbd993343	-0.074804805
62	0x3ccb3be2	0.024808828
63	0x3ca26cda	0.019827295
64	0x3d16919f	0.03675997
65	0x3d2ba535	0.0419056
66	0x3ce529cc	0.027974032
67	0xbd2d2319	-0.0422698
68	0xbddcb908	-0.107774794
69	0xbe3925ff	-0.180809
70	0xbc79d2b9	-0.015247994
71	0xbd312912	-0.04325206
72	0xbcba3454	-0.02273003
73	0x3d3f3845	0.046684522
74	0x3d42c80a	0.047554053
75	0x3cb2ca5e	0.021825012
76	0xbd306d49	-0.043072972
77	0xbdc2188e	-0.0947734
78	0xbc9b0518	-0.018923327
79	0xbd1981ae	-0.037477188
80	0xbc642b64	-0.013926361
81	0xbd946975	-0.07246677
82	0x3cc1bab3	0.023648595
83	0xbd061d54	-0.032742813
84	0x3da071d9	0.07834215
85	0xbd1b6b45	-0.037944097
86	0x3b87ebeb	0.0041479967
87	0x3d61f93e	0.055169336
88	0xbd2e9e78	-0.042631596
89	0xbd86ee27	-0.06588393
90	0x3cf4843c	0.02984821
91	0xbd842b65	-0.06453589
92	0xbd8f481e	-0.06996177
93	0xbd2ee6c9	-0.042700563
94	0x3bdcead0	0.006741859
95	0xbd79b7f9	-0.060966466
96	0xbcdd694c	-0.027027749
97	0xbbba1ee5	-0.0056799524
98	0x3c502a19	0.012705349
99	0xbd82ea34	-0.06392327
100	0x3d22f5f5	0.039785344
101	0x3d3b4ac6	0.045725606
102	0xbd45f64e	-0.048330598
103	0x3d53eb29	0.051737938
104	0xbc6c274a	-0.014413664
105	0xbe0dce8c	-0.13848323
106	0x3c785e9b	0.015159274
107	0xbdb59580	-0.088664055
108	0x3de05c88	0.10955149
109	0xbe1a6d68	-0.15080798
110	0xbd0e5e86	-0.034758113
111	0x3d74ac5c	0.059734687
112	0x3d14de29	0.03634468
113	0xbdcc2db7	-0.09969657
114	0xbdbac702	-0.09119989
115	0x3b4a985a	0.0030913563
116	0x3b510919	0.0031896292
117	0x3b9af8d7	0.004729371
118	0xbd2b1782	-0.041770466
119	0x3c9a85f6	0.018862706
120	0x3dcbd48d	0.0995265
121	0x3d17bfd2	0.03704817
122	0xbde2db17	-0.11076944
123	0xbdaf8f2e	-0.08572231
124	0xbdcc53ab	-0.09976896
125	0xbc5380c5	-0.012909119
126	0x3d410b85	0.047130127
127	0xbb5d5ee4	-0.0033778483
128	0x3bf05c2e	0.0073352074
129	0x3d268fd0	0.040664494
130	0x3cf955b0	0.030436367
131	0xbcb4c747	-0.02206768
132	0xbd3fc40c	-0.046817824
133	0x3d303bce	0.043025784
134	0xbce61c80	-0.028089762
135	0xbd12f3cf	-0.035877045
136	0xbc73f10d	-0.014889014
137	0x3cf5d160	0.030007064
138	0x3d2d33a1	0.042285565
139	0xbd99ff4a	-0.07519396
140	0xbe1a6fa4	-0.1508165
141	0x3ba812d8	0.0051291995
142	0xbcfd6705	-0.030932913
143	0x3d2637d6	0.040580593
144	0x3ca36d33	0.019949531
145	0xba83062d	-0.0009996347
146	0x3d215389	0.039386306
147	0xbd078890	-0.03308922
148	0xbdb901c2	-0.090335384
149	0x3d8775e8	0.06614286
150	0xbcd21121	-0.025642933
151	0x3d783c21	0.06060422
152	0x3d1040e0	0.03521812
153	0x3da3cdad	0.07998214
154	0x3d1904ab	0.037357967
155	0x3c049702	0.008092644
156	0xbc7a9012	-0.015293138
157	0xbdcb7049	-0.09933526
158	0x3d040a4d	0.032236386
159	0x3dae0093	0.08496203
160	0x3d94875c	0.0725238
161	0xbe7cac99	-0.24675216
162	0xbc8d5a97	-0.01725511
163	0xbce24cf6	-0.027624588
164	0xbd9c8530	-0.07642591
165	0x3d28bff8	0.0411987
166	0xbdb4b523	-0.088236116
167	0x3df0179a	0.11723252
168	0x3d99fd9c	0.07519075
169	0x3d4bceaf	0.049757656
170	0xbd9bd91e	-0.07609771
171	0xbd8e77f6	-0.069564745
172	0x3c395a2e	0.011313004
173	0x3ac5791c	0.0015066001
174	0x3d24963d	0.04018234
175	0x3a42b562	0.0007427541
176	0x3d86fa72	0.065907374
177	0xbb01994c	-0.001977521
178	0xbd15d57b	-0.036580544
179	0xbc258445	-0.010102336
180	0x3d299acc	0.04140739
181	0x3cff9196	0.03119735
182	0xbc965d95	-0.01835517
183	0xbc82e3f0	-0.01597783
184	0xbe22ada7	-0.15886556
185	0x3d190f5d	0.037368167
186	0xbd216719	-0.039404962
187	0xbe1fb44b	-0.1559612
188	0xbdbf77e8	-0.09349042
189	0xbcfeb296	-0.031091016
190	0xbd8af10e	-0.06784259
191	0x3d8abce6	0.06774311
192	0xbd8a0db7	-0.06740897
193	0xbb215c99	-0.0024621843
194	0x3cc88aff	0.024480341
195	0xbd570e87	-0.05250409
196	0x3d49ee28	0.04929939
197	0x3d6206ac	0.055182144
198	0xbbf0d53e	-0.007349639
199	0xbd3ae79f	-0.045631047
200	0xbd37ff50	-0.04492122
201	0x3da6197e	0.08110331
202	0x3dc0b5f5	0.094097055
203	0x3d1a9b54	0.03774579
204	0xbd823e13	-0.06359496
205	0xbd344175	-0.044007737
206	0xbd92fcd6	-0.07177131
207	0x3c746126	0.01491574
208	0xbdb1ffa7	-0.0869134
209	0xbdbd1945	-0.092333354
210	0x3d864665	0.065563954
211	0x3d1b07a8	0.0378491
212	0xbdec19a6	-0.115283296
213	0xbcea16c4	-0.028575309
214	0xbe09c245	-0.13453014
215	0xbdb57445	-0.08860067
216	0xbcd1d344	-0.025613435
217	0xbd9f3676	-0.077740595
218	0xbd235369	-0.039874468
219	0x3cc9c162	0.024628345
220	0x3d999519	0.07499141
221	0xbdb60bf5	-0.088889994
222	0x3c8989e4	0.016789384
223	0xbc454a5f	-0.012041657
224	0xbba6a087	-0.0050850543
225	0x3da1d397	0.07901686
226	0x3b4185c1	0.0029529186
227	0x3d801376	0.06253712
228	0xbc2cb474	-0.01054107
229	0xbdb3ea6e	-0.08784948
230	0x3d070e3d	0.032972563
231	0xbc7fa4d2	-0.015603261
232	0xbd09ac2b	-0.033611458
233	0xbdbc4c95	-0.09194294
234	0xbdaa67c2	-0.083205715
235	0xbdd783d8	-0.10523194
236	0x3c7d5fb0	0.015464708
237	0xbe06cd2f	-0.13164209
238	0x3d22a43c	0.039707407
239	0x3c754768	0.014970638
240	0xbd3fb94c	-0.046807572
241	0x3b92c1de	0.004478677
242	0xbe0cc1b2	-0.13745764
243	0xbd731d84	-0.05935432
244	0x3b0e6dd6	0.0021732948
245	0xbd8955ce	-0.06705819
246	0x3d9e8397	0.077399425
247	0x3c9782b0	0.018494934
248	0xbca3f2a8	-0.020013168
249	0x3ccf2d08	0.025290027
250	0x3d6f47be	0.058418028
251	0x3d6d424e	0.05792456
252	0x3d5be60b	0.053686183
253	0x3d803dbd	0.06261776
254	0x3cd4665d	0.025927717
255	0x3ce299df	0.027661262

fc3.weight f4 [4, 256]
0	0x3e021a68	0.12705386
1	0x3ec00265	0.37501827
2	0xbc93e1d1	-0.018052014
3	0x3ec8743c	0.3915118
4	0xbec9cd34	-0.3941437
5	0xbd651219	-0.055925462
6	0x3eadabf9	0.33920267
7	0xbeeacf4e	-0.45861286
8	0x3f4a5eb0	0.7905073
9	0xbe8a3774	-0.26995432
10	0xbdeec77a	-0.11659141
11	0x3c8fc9ac	0.01755222
12	0x3e102256	0.14075598
13	0xbe3d0167	-0.18457566
14	0xbf2dcb6e	-0.67888534
15	0xbe276210	-0.16346002
16	0xbc9ee0dd	-0.019394333
17	0xbddaa7da	-0.106765464
18	0xbe6c093e	-0.230504
19	0xbebeab31	-0.37239984
20	0xbdf74787	-0.1207419
21	0x3e3c7d44	0.1840716
22	0x3ea0af33	0.31383666
23	0x3f48e05c	0.78467345
24	0x3f121dbb	0.57076615
25	0xba908124	-0.0011024815
26	0x3f00f392	0.5037166
27	0xbd0a30b7	-0.033737864
28	0x3e8ce001	0.2751465
29	0xbeddfc91	-0.43356755
30	0xbe73707a	-0.23773375
31	0xbd5ad83b	-0.05342887
32	0x3d4f8cf3	0.05067153
33	0xbe455f9c	-0.19274753
34	0xbe0d0b47	-0.13773833
35	0x3d00918d	0.031388808
36	0xbe724150	-0.23657727
37	0xbf7a54d4	-0.9778569
38	0xbd91c7a2	-0.07118155
39	0xbe970142	-0.29493147
40	0xbf079b52	-0.52971375
41	0xbc3a13bd	-0.011357245
42	0x3d3e1a39	0.046411727
43	0xbe68affb	-0.22723381
44	0xbf18f901	-0.5975495
45	0xbec4a355	-0.38405862
46	0xbcb6ed89	-0.022330062
47	0x3ea61557	0.32438156
48	0xbe8feace	-0.2810883
49	0xbe2e6fc7	-0.17034827
50	0x3e53fec7	0.20702659
51	0x3df05c9d	0.117364146
52	0x3e78b33f	0.24287127
53	0x3df5ed90	0.12008202
54	0xbe8b0c22	-0.27157694
55	0xbf4d7db6	-0.80269945
56	0xbeaf3065	-0.3421661
57	0xbed28a95	-0.41121355
58	0xbe72707e	-0.23675725
59	0x3e5095ae	0.20369598
60	0x3ee6dc0d	0.4508976
61	0xbf115fdd	-0.567869
62	0xbce497ca	-0.02790441
63	0x3eaffe19	0.3437355
64	0x3e1a6f07	0.15081416
65	0x3ea53a1a	0.3227089
66	0x3dae457a	0.08509345
67	0xbe29f940	-0.16598988
68	0x3f1c9c49	0.6117597
69	0xbf363699	-0.7117706
70	0x3f106eb4	0.5641892
71	0xbf0ae01b	-0.5424821
72	0xbe958264	-0.29201043
73	0x3ec9bc77	0.394016
74	0xbe97597d	-0.29560462
75	0x3d19969b	0.037497144
76	0x3e383884	0.17990309
77	0x3e227f7f	0.15868948
78	0xbe2cd1b9	-0.16876878
79	0x3eaf6a12	0.34260613
80	0x3e81829c	0.2529496
81	0xbf28713f	-0.657978
82	0x3ef60970	0.48054075
83	0x3daacb38	0.08339542
84	0xbe7d906d	-0.24762125
85	0x3e8acebd	0.27110854
86	0xbdc992f0	-0.09842479
87	0x3ea6250d	0.32450143
88	0xbdbbdb79	-0.091727205
89	0xbd78918a	-0.060685672
90	0xbc670f45	-0.014102762
91	0x3ece1aec	0.40254915
92	0xbf0fc58d	-0.56160814
93	0xbf38d78a	-0.72203887
94	0xbe246f21	-0.16058017
95	0x3e1f04f2	0.1552923
96	0xbf100b3d	-0.5626715
97	0x3e5c7b6b	0.21531455
98	0x3e66e249	0.22547258
99	0xbe48ec83	-0.19621472
100	0x3f0a46b0	0.5401411
101	0x3d9ee456	0.077583954
102	0x3c1ba2b9	0.009499245
103	0xbd9a5649	-0.07535989
104	0x3ee920a7	0.45532724
105	0x3e4d6bc5	0.20060642
106	0x3ec6cb7e	0.38827127
107	0xbf09dae3	-0.5384962
108	0x3dcd688b	0.100297056
109	0x3f0d9c47	0.55316585
110	0xbe8afbf5	-0.27145353
111	0xbddc13d3	-0.10745969
112	0x3e9d5e57	0.30736038
113	0x3ee16d9b	0.44028935
114	0x3e234641	0.15944768
115	0xbe33bbab	-0.17552058
116	0xbe6c3143	-0.23065667
117	0xbeada85c	-0.3391751
118	0xbe590f66	-0.2119728
119	0x3d2e175a	0.04250274
120	0xbdb70184	-0.08935836
121	0x3df09fea	0.11749251
122	0xbe9ccca6	-0.30624884
123	0xbd21746c	-0.03941767
124	0xbe41790f	-0.18893836
125	0xbf0e0a19	-0.5548416
126	0x3edc36ba	0.43010503
127	0x3f2699f8	0.6507869
128	0xbf49a73c	-0.78770804
129	0x3e8e0f1e	0.27745908
130	0xbe7c95b7	-0.24666487
131	0xbf285925	-0.65761024
132	0xbe55f24a	-0.20893207
133	0xbdfa5fc4	-0.12225297
134	0x3eca7858	0.3954494
135	0xbda9726a	-0.08273776
136	0x3e3e1ee6	0.18566474
137	0xbe9cb56c	-0.30607164
138	0xbdb9fba4	-0.090812
139	0xbf4578b0	-0.7713728
140	0x3e775d0c	0.24156588
141	0x3e603178	0.21893871
142	0xbeece5ef	-0.46269175
143	0x3ee17e5b	0.44041714
144	0x3e384d19	0.1799816
145	0xbf25eb38	-0.6481204
146	0xbe9398c6	-0.28827494
147	0xbd896d9b	-0.06710359
148	0xbf2ec5c5	-0.6827052
149	0x3e491030	0.19635081
150	0x3cfb8d3b	0.030706992
151	0x3e1430b2	0.14471701
152	0xbddef0f7	-0.10885804
153	0x3f082a6b	0.53189725
154	0xbf62be82	-0.8857194
155	0xbe9f5ee3	-0.3112708
156	0xbe6691a4	-0.22516495
157	0xbe5d2397	-0.21595608
158	0xbf08c470	-0.5342474
159	0x3c430187	0.01190222
160	0x3f23f9d2	0.6405307
161	0x3f7277ee	0.9471425
162	0xbf07df56	-0.5307516
163	0xbcd22d49	-0.02565636
164	0x3c82204f	0.015884547
165	0xbd72d7be	-0.05928778
166	0xbf46a5b3	-0.77596587
167	0x3d8fe7b2	0.07026614
168	0x3d27b4e5	0.040944
169	0xbe9efbac	-0.31051385
170	0xbf00cd2e	-0.5031308
171	0xbe79309e	-0.24334952
172	0xbf329e82	-0.69773114
173	0xbf0b3fb5	-0.54394084
174	0x3d80f1c9	0.06296117
175	0xbc6e21ef	-0.014534458
176	0x3b4a15bb	0.0030835706
177	0x3e17bcb5	0.1481808
178	0xbd8cbc2b	-0.06871828
179	0xbb355123	-0.002766677
180	0xbdd79519	-0.10526485
181	0x3e77ea01	0.24210359
182	0x3e773e44	0.24144846
183	0xbf415ce9	-0.75532395
184	0x3dd5edeb	0.1044577
185	0x3cec7417	0.02886395
186	0xbf1466b2	-0.579692
187	0x3ed7062d	0.419969
188	0xbea9d50d	-0.33170357
189	0xbecb5b8f	-0.3971829
190	0xbeffc0f8	-0.4995191
191	0x3dd81ed2	0.105527535
192	0xbe8cd27c	-0.27504337
193	0x3d1e339b	0.038623434
194	0xbc381e36	-0.011237672
195	0xbed04c3b	-0.4068316
196	0x3d46cdaf	0.048536
197	0x3e02679f	0.12734841
198	0xbd69a899	-0.057045553
199	0xbdad9ed0	-0.08477557
200	0xbec8705f	-0.39148232
201	0x3e36bd38	0.17845619
202	0x3e348c22	0.17631581
203	0xbcbfcc54	-0.02341286
204	0x3f1c047b	0.60944337
205	0x3f0a5127	0.5403008
206	0xbeae4630	-0.34037924
207	0xbd8128a8	-0.06306583
208	0xbda44ee1	-0.080228575
209	0x3f15ae1f	0.5846881
210	0xbeafacc5	-0.343115
211	0x3dabc35f	0.083868735
212	0x3f1ad0d9	0.60474926
213	0xbedea076	-0.43481797
214	0x3e77ad88	0.2418729
215	0xbf306645	-0.6890605
216	0xbedaea24	-0.4275676
217	0xbe87b3ab	-0.26504263
218	0xbddfe09a	-0.10931511
219	0x3f267f03	0.65037555
220	0xbed7b763	-0.421321
221	0xbea46bf4	-0.32113612
222	0xbdb94c3c	-0.09047744
223	0xbc2fc375	-0.010727753
224	0x3e323385	0.17402466
225	0xbea7e565	-0.32792202
226	0x3d365c9d	0.044521917
227	0x3dbcc06f	0.09216391
228	0xbf093458	-0.53595495
229	0xbe24d70c	-0.16097659
230	0xbdbee985	-0.09321884
231	0xbd2294d5	-0.03969272
232	0xbebd11e3	-0.3692771
233	0xbef58082	-0.47949606
234	0x3e84c17a	0.2592886
235	0xbf135e79	-0.5756603
236	0xbef404ca	-0.47659904
237	0xbef00187	-0.46876165
238	0xbe3179da	-0.17331639
239	0xbd65dd81	-0.056119446
240	0xbe89d05f	-0.26916787
241	0xbf041bb8	-0.51604795
242	0x3f3c7cf6	0.73628175
243	0x3e7df607	0.24800883
244	0x3ec305c4	0.38090336
245	0x3ec56818	0.3855598
246	0x3db7562c	0.08951983
247	0x3f1472f3	0.579879
248	0x3e23e14d	0.16003914
249	0xbeb65cc9	-0.35617664
250	0x3e88db85	0.2672998
251	0xbe302384	-0.17201048
252	0xbe9a9d6e	-0.30198234
253	0x3daad868	0.083420575
254	0xbdec7646	-0.11545996
255	0x3d1a6dd1	0.037702385

fc3.bias f4 [4]
0	0x3ca5f1bc	0.02025687
1	0x3dacee53	0.08443894
2	0x3aeed688	0.0018221894
3	0x3d97ca26	0.07411604
