checkpoints/checkpoint_critic_ddqn_4.pth (torch_old, 304178 bytes, 5 tensors)

fcs1.weight f4 [256, 33]
0.011562021 0.14379722 0.008153353 -0.042952478 0.051377553 0.042794302 -0.03441385 0.052122325
0.07488818 0.016806684 0.010534015 0.09017975 -0.03919689 0.022419587 0.0076120845 0.070132926
0.07006591 -0.020596053 0.11922109 -0.04160704 -0.099499226 0.020388601 0.0083629545 -0.009835398
-0.050451677 0.09752329 -0.02546245 0.11720286 -0.022616042 0.05109015 -0.11850155 0.020274766
-0.10896546 -0.11521877 0.078307934 0.011369715 0.0051137484 0.011857284 0.0027097277 0.037645716
-0.0038605542 0.0021253687 -0.034765072 0.010755973 -0.014212542 0.017964926 0.11653523 -0.06723555
0.0029873587 -0.03345534 -0.006733609 -0.01602616 0.013344081 0.0001331504 -0.0014081466 0.013085004
0.021638934 0.006394191 -0.021565167 -0.071465544 0.10195004 -0.037664235 0.0114473775 -0.031220116
0.03391771 0.2056378 0.045160387 -0.03223851 -0.011462165 -0.058000688 0.05187473 0.05189772
-0.021525975 -0.0090369955 0.017354859 -0.0077464175 0.013533467 0.022772353 -0.0012183752 0.036215607
0.071138844 0.0071268007 -0.012462474 0.04469232 0.029098624 -0.0065648453 0.029886713 -0.007782902
-0.024049876 -0.0005555542 0.006558979 -0.0074426807 -0.022334274 0.066462 -0.021946937 0.05361893
-0.046886172 0.01849357 0.06186184 -0.012547316 0.030056745 0.056385342 0.042765193 -0.015376276
0.032581713 0.07434735 0.013641327 -0.024598073 0.04637437 -0.01673031 0.0014051549 0.009397624
0.08913118 -0.05863597 -0.094345115 -0.02439638 0.023566678 0.017394463 0.013629265 0.0008083274
-0.0066483384 0.009453094 0.050541785 -0.016079536 -0.035306804 -0.032803077 -0.02645939 0.096967876
-0.015151218 0.056873668 -0.022331007 0.40614125 -0.0014608845 0.23116021 0.041656807 -0.019064175
-0.044323746 -0.020270284 -0.017426705 -0.044348616 0.09509501 -0.041833956 0.00464549 0.045756247
-0.040920395 -0.01901338 0.033364125 0.0280005 -0.008177865 -0.07921374 0.0669945 0.00015846208
0.011497538 -0.0009044067 -0.001112194 -0.01792423 -0.0021081525 0.029213356 0.059468605 0.035446376
0.0034491133 0.04573536 -0.02440638 -0.010656625 0.23198277 0.028878277 -0.093027085 0.08749016
-0.005560937 -0.10115305 -0.009271523 0.017223908 -0.00993087 0.048708577 -0.00590317 0.045899455
-0.02416727 0.010233034 0.053450555 0.024179012 -0.011616335 0.033565205 7.655624e-05 0.058886636
0.014139578 -0.007227648 -0.032867882 -0.0023872699 0.003425488 -0.011388661 -0.026767854 -0.016725617
0.07207429 -0.012898315 0.04400678 0.0048163487 0.021717638 -0.034659367 -0.081286535 0.11054449
-0.10532255 -0.033719067 -0.05425205 0.052087154 -0.017567946 -0.025864223 0.0028322479 -0.0061918222
-0.038210206 0.016846051 -0.035275806 0.10815835 -0.11416981 0.12379254 0.019887557 -0.0006830167
-0.030814929 0.028849386 -0.011818343 0.00085628853 0.022768242 0.013681647 -0.053739138 0.047509633
-0.05845536 0.11167782 -0.06631371 -0.05274736 -0.0024053557 0.012658566 -0.08141882 -0.06142246
-0.028079987 -0.008961972 -0.06146053 -0.00443724 -0.042463508 -0.01024322 -0.066892825 0.04375571
-0.030900411 0.03261114 0.0047460175 -0.031539448 0.03615328 0.0014207396 -0.0002061426 0.0070682857
-0.0053001535 0.0064192982 -0.012630833 -0.0063012615 -0.01947431 0.013706496 0.040411107 0.0016382751
00000000: a26e 3d3c 943f 133e a495 053c f0ee 2fbd
00000010: 4571 523d 1449 2f3d 8af5 0cbd 387e 553d
00000020: f95e 993d 2cae 893c dc96 2c3c 29b0 b83d
00000030: eb8c 20bd 48a9 b73c cb6e f93b daa1 8f3d
00000040: b77e 8f3d 0eb9 a8bc 302a f43d 256c 2abd
00000050: 40c6 cbbd ff05 a73c c604 093c a624 21bc
00000060: 6ba6 4ebd 4aba c73d a196 d0bc 0e08 f03d
00000070: 4745 b9bc e843 513d f1b0 f2bd 4417 a63c
00000080: 4829 dfbd d2f7 ebbd e95f a03d 0b48 3a3c
00000090: 3b91 a73b 0e45 423c b095 313b 6532 1a3d
000000a0: 5a01 7dbb c549 0b3b d265 0ebd d239 303c
000000b0: b9db 68bc 2e2b 933c 06aa ee3d cbb2 89bd
000000c0: 90c7 433b 7708 09bd 9ba5 dcbb 4b49 83bc
000000d0: 22a1 5a3c 4a9e 0b39 8f91 b8ba 7c62 563c
000000e0: 2244 b13c 5d86 d13b 6fa9 b0bc 875c 92bd
000000f0: 2fcb d03d d045 1abd c88d 3b3c 54c1 ffbc
00000100: 4ced 0a3d b792 523e 19fa 383d 870c 04bd
00000110: cecb 3bbc 2192 6dbd 997a 543d b492 543d
00000120: 3e57 b0bc e80f 14bc c72b 8e3c a9d5 fdbb
00000130: 7abb 5d3c 168d ba3c e3b1 9fba d156 143d
00000140: 3eb1 913d f087 e93b 682f 4cbc 4b0f 373d
00000150: 3d60 ee3c ea1d d7bb fbd4 f43c b707 ffbb
00000160: 3f04 c5bc 9ca2 11ba b4ec d63b bbe1 f3bb
00000170: 5ef6 b6bc 3b1d 883d 10ca b3bc 869f 5b3d
00000180: b70b 40bd d47f 973c d762 7d3d 4293 4dbc
00000190: 9039 f63c 51f4 663d 8e2a 2f3d c7ec 7bbc
000001a0: 6774 053d 6c43 983d df7f 5f3c e681 c9bc
000001b0: 0df3 3d3d 010e 89bc 2d2d b83a 7ef8 193c
000001c0: 688a b63d 452c 70bd 0338 c1bd ebda c7bc
000001d0: e80e c13c d57e 8e3c 484d 5f3c efe5 533a
000001e0: 4eda d9bb 26e1 1a3c e704 4f3d 3bb9 83bc
000001f0: de9d 10bd 855c 06bd 5dc1 d8bc 1897 c63d
00000200: d03c 78bc 5df4 683d 84ef b6bc bff1 cf3e
00000210: 267b bfba 43b5 6c3e 54a0 2a3d 792c 9cbc
00000220: d18c 35bd de0d a6bc 73c2 8ebc e5a6 35bd
00000230: 2cc1 c23d 155a 2bbd 3239 983b e76a 3b3d
00000240: 259c 27bd f3c1 9bbc d2a8 083d 4e61 e53c
00000250: 74fc 05bc d03a a2bd 6a34 893d d728 2639
00000260: 2b60 3c3c b515 6dba 0ac7 91ba d6d5 92bc
00000270: ee28 0abb d950 ef3c 5a95 733d 3830 113d
00000280: 850a 623b 0055 3b3d e3ef c7bc 2099 2ebc
00000290: e48c 6d3e 2392 ec3c fc84 bebd 0a2e b33d
000002a0: 8538 b6bb 5529 cfbd 96e7 17bc 2719 8d3c
000002b0: 16b5 22bc a582 473d 616f c1bb 1101 3c3d
000002c0: 70fa c5bc 75a8 273c f8ee 5a3d 1013 c63c
000002d0: 7152 3ebc ab7b 093d d28c a038 1d33 713d
000002e0: b0a9 673c e8d5 ecbb 79a0 06bd be73 1cbb
000002f0: 277e 603b 8297 3abc 4248 dbbc 2904 89bc
00000300: af9b 933d 7453 53bc 7440 343d 76d2 9d3b
00000310: 30e9 b13c fbf6 0dbd 8e79 a6bd 2665 e23d
00000320: 59b3 d7bd 011d 0abd 6637 5ebd 5759 553d
00000330: a7ea 8fbc 35e1 d3bc 3c9d 393b c5e4 cabb
00000340: 4e82 1cbd bb00 8a3c 5d7d 10bd 2082 dd3d
00000350: ddd1 e9bd f186 fd3d 3beb a23c 7a0c 33ba
00000360: 976f fcbc 8c55 ec3c b9a1 41bc 8d78 603a
00000370: 7784 ba3c fd28 603c 921d 5cbd 7699 423d
00000380: e36e 6fbd 57b7 e43d 7bcf 87bd 9e0d 58bd
00000390: 2ca3 1dbb e065 4f3c e9be a6bd 1e96 7bbd
000003a0: 0008 e6bc 3cd5 12bc 09be 7bbd 4466 91bb
000003b0: 37ee 2dbd 2ed3 27bc 1bff 88bd 3039 333d
000003c0: dc22 fdbc 4293 053d 7b84 9b3b 822f 01bd
000003d0: 7615 143d 1c38 ba3a fc27 58b9 149d e73b
000003e0: e9ac adbb fa58 d23b 8ef1 4ebc d07a cebb
000003f0: 9788 9fbc 3691 603c 1e86 253d 64bb d63a

fcs1.bias f4 [256]
-0.08832617 -0.15282355 0.0404672 -0.05717417 0.012860889 -0.05812396 -0.23078741 0.018193107
0.040113132 0.12110738 -0.2038637 0.10303004 -0.07101582 0.13381605 0.048398715 0.12500422
0.029247858 -0.06806085 -0.1426873 -0.18528244 -0.023186814 -0.14935046 -0.062049385 0.13704835
-0.097563066 -0.05354499 0.17437433 -0.027338048 -0.059908148 -0.13817103 -0.12480841 -0.07765414
0.059392635 -0.17384243 -0.1946913 0.08410567 -0.19646394 -0.19135046 0.024615029 0.072979204
-0.22812918 -0.023501275 0.13643335 0.1409198 0.074242964 -0.15124457 0.04802255 -0.047784474
0.12304621 0.01608688 -0.19182362 0.0356427 -0.104435116 -0.06032157 -0.09601341 0.004548025
-0.02877272 0.119236834 -0.21523976 0.00651735 -0.10701404 -0.15764607 -0.042557824 0.06285687
-0.07855278 -0.13327739 0.07814983 0.0007698703 0.071934186 -0.19629976 0.14935426 -0.120712176
-0.19996178 0.08803781 0.09550607 0.053907577 -0.14979911 -0.014828075 -0.15703067 -0.05323735
0.1264601 -0.046635497 -0.15851243 0.025566936 0.06890208 0.1187816 -0.2298767 -0.10690627
-0.07007983 0.06631266 -0.07396375 -0.008239711 0.07466537 0.08206566 -0.03618342 -0.0337022
-0.020365898 -0.14090642 -0.122856736 0.1261392 0.02605368 0.024078036 0.0014678704 0.0025825507
-0.00040878265 -0.050366808 -0.075340904 -0.053700805 -0.019500764 -0.02645531 0.09465633 -0.09021753
-0.20578681 -0.28055656 0.06415404 -0.041666172 -0.06363565 -0.06369667 0.07204876 -0.04781184
0.10085854 0.0853176 -0.035802055 0.044864576 0.049303375 0.007871544 -0.18416114 -0.15281741
-0.14799261 -0.2084236 -0.12073864 -0.14438279 0.1094377 -0.110178865 -0.09968685 -0.035378337
0.002686624 -0.18327807 -0.1350545 -0.07382696 0.015009597 -0.044994906 0.072505094 -0.04002789
-0.094515786 -0.11064337 -0.08611781 0.11838976 0.111006446 -0.1496975 -0.16911829 -0.01639772
-0.01369908 -0.0803176 -0.008785361 -0.017140536 -0.16421863 0.069269225 -0.083018154 -0.11806918
-0.019496417 -0.13273074 0.07504319 0.042849235 0.061837837 -0.117064305 -0.12863247 -0.13805985
-0.082005605 -0.058177076 0.12203159 0.08173624 -0.14931606 -0.020196853 -0.014389247 0.02224395
-0.16141848 -0.08967302 -0.13193896 -0.12686624 -0.068922095 0.026853116 -0.10552868 -0.10259005
-0.0788262 0.031919725 0.018684788 -0.17110875 -0.16048932 0.07599911 -0.16397832 -0.02431539
0.059265923 -0.08248638 -0.11381081 -0.16720791 0.053394087 0.060496543 -0.21910469 0.0032544432
0.11676357 0.16741814 0.04519015 0.15451053 0.072638884 -0.17338884 -0.22857726 -0.1530411
0.03905653 0.007894409 -0.15751524 -0.02418578 -0.13257626 0.033544682 -0.21030597 0.033218205
-0.111983374 -0.21497872 -0.043218233 0.0806321 0.04636376 -0.12288328 0.015042108 -0.20811358
0.17565109 -0.17405593 -0.105431005 -0.2018355 -0.102584764 0.13940975 0.04722911 -0.06755989
-0.14932647 0.053302735 -0.079052344 -0.085283086 0.0042043948 0.018783769 -0.2162213 0.0194046
-0.16991028 -0.16211815 -0.06226861 -0.007998705 0.028723117 -0.12636837 -0.011935778 0.049331352
0.002581521 0.120356284 0.0068284264 -0.15576057 -0.15615422 0.027460499 -0.12141914 -0.17316708
00000000: 5ae4 b4bd c77d 1cbe efc0 253d 762f 6abd
00000010: 7ab6 523c 6413 6ebd 8953 6cbe b609 953c
00000020: ab4d 243d 2507 f83d a5c1 50be 6a01 d33d
00000030: be70 91bd 1307 093e bb3d 463d 1b01 003e
00000040: 3499 ef3c 7d63 8bbd 9f1c 12be aeba 3dbe
00000050: 46f2 bdbc 54ef 18be 7f27 7ebd 6756 0c3e
00000060: 25cf c7bd fe51 5bbd 2f8f 323e 0bf4 dfbc
00000070: 3f62 75bd b57c 0dbe 8d9b ffbd 2209 9fbd
00000080: b145 733d c003 32be 285d 47be 983f ac3d
00000090: d82d 49be 60f1 43be 75a5 c93c 1f76 953d
000000a0: b29a 69be bf85 c0bc 2fb5 0b3e 484d 103e
000000b0: b20c 983d dbdf 1abe 4bb3 443d a7b9 43bd
000000c0: a7ff fb3d a2c8 833c 696d 44be 14fe 113d
000000d0: 14e2 d5bd c013 77bd aea2 c4bd 9907 953b
000000e0: c4b4 ebbc 7132 f43d d067 5cbe 7f8f d53b
000000f0: 2d2a dbbd f96d 21be 1d51 2ebd 1abb 803d
00000100: 48e0 a0bd de79 08be 050d a03d 1fd1 493a
00000110: 3b52 933d ce02 49be 53f0 183e f237 f7bd
00000120: c8c2 4cbe 2b4d b43d b098 c33d 31ce 5c3d
00000130: f064 19be 74f1 72bc a6cc 20be 680f 5abd
00000140: c27e 013e dd04 3fbd 1551 22be c071 d13c
00000150: 891c 8d3d c443 f33d cc64 6bbe adf1 dabd
00000160: 0486 8fbd efce 873d 4e7a 97bd daff 06bc
00000170: 28ea 983d 0a12 a83d 1135 14bd 510b 0abd
00000180: 62d6 a6bc c649 10be 509c fbbd a22a 013e
00000190: 876e d53c 4d3f c53c 8f65 c03a 0340 293b
000001a0: e151 d6b9 6d4d 4ebd 554c 9abd 60f5 5bbd
000001b0: 11c0 9fbc ceb8 d8bc 2edb c13d f8c3 b8bd
000001c0: c7b9 52be 1ca5 8fbe 3163 833d 26aa 2abd
000001d0: 6853 82bd 6673 82bd 4d8e 933d 59d6 43bd
000001e0: ec8e ce3d feba ae3d 2da5 12bd ebc3 373d
000001f0: 56f2 493d a6f7 003c bd94 3cbe 2b7c 1cbe
00000200: 608b 17be ff6c 55be d245 f7bd 15d9 13be
00000210: df20 e03d 75a5 e1bd 9f28 ccbd e0e8 10bd
00000220: 1212 303b 3fad 3bbe ba4b 0abe 9732 97bd
00000230: d0ea 753c 944c 38bd 8d7d 943d 49f4 23bd
00000240: 7e91 c1bd fe98 e2bd 895e b0bd 5576 f23d
00000250: 5957 e33d 4d4a 19be 582d 2dbe 8354 86bc
00000260: 1b72 60bc 8e7d a4bd 7af0 0fbc 4f6a 8cbc
00000270: ee28 28be 06dd 8d3d 6c05 aabd 41ce f1bd
00000280: f3b6 9fbc 91ea 07be 3eb0 993d ae82 2f3d
00000290: ac49 7d3d 69bf efbd 3bb8 03be 905f 0dbe
000002a0: 8ef2 a7bd 164b 6ebd b3eb f93d 5465 a73d
000002b0: 4fe6 18be df73 a5bc e0c0 6bbc f238 b63c
000002c0: e34a 25be 7da6 b7bd 021b 07be 39e9 01be
000002d0: 0727 8dbd 11fb db3c 6c1f d8bd bb1a d2bd
000002e0: a16f a1bd 42be 023d d710 993c 2237 2fbe
000002f0: 5057 24be 6ca5 9b3d efe9 27be 1231 c7bc
00000300: d3c0 723d 9fee a8bd a415 e9bd 8d38 2bbe
00000310: c2b3 5a3d 39cb 773d fb5c 60be 7f48 553b
00000320: bd21 ef3d a96f 2b3e 4f19 393d 0238 1e3e
00000330: b2c3 943d d88c 31be 2810 6abe ceb6 1cbe
00000340: bdf9 1f3d 8d57 013c ad4b 21be 4221 c6bc
00000350: 12c2 07be 2666 093d 735a 57be d00f 083d
00000360: 8a57 e5bd 6223 5cbe 9a05 31bd 7122 a53d
00000370: ede7 3d3d 3baa fbbd 2c73 763c ba1b 55be
00000380: e1dd 333e b83b 32be 36ec d7bd f7ad 4ebe
00000390: f617 d2bd 6ec1 0e3e 5073 413d d75c 8abd
000003a0: 0ae9 18be f853 5a3d 32e6 a1bd e6a8 aebd
000003b0: 05c5 893b 6be0 993c 1e69 5dbe 65f6 9e3c
000003c0: f6fc 2dbe 4d02 26be 5f0d 7fbd 000d 03bc
000003d0: be4c eb3c b666 01be 488e 43bc ac0f 4a3d
000003e0: bc2e 293b 5b7d f63d fec0 df3b b37f 1fbe
000003f0: e4e6 1fbe d7f4 e03c 99aa f8bd b652 31be

fc2.weight f4 [256, 260]
0.0059106895 -0.0072786924 0.009381893 0.019380722 0.09318463 -0.04959723 0.029746175 0.037731677
-0.00031458808 -0.02088028 -0.011507213 0.015171037 -0.01421511 0.03018014 0.038307056 0.00086023245
0.047630217 -0.0011720652 -0.008971994 0.1341323 0.023123067 -0.01960384 0.07435986 -0.06463265
-0.0842421 0.071615435 0.009840701 0.046402577 0.0020217802 -0.019611306 -0.013768413 0.02392709
0.00083775877 0.17030635 -0.07007634 -0.059085164 -0.08940131 0.01422176 0.00047445658 -0.07027335
0.085358515 -0.014707173 0.014280037 0.06565089 0.0771892 -0.08489238 0.01583491 0.0626465
-0.039291162 -0.007933954 -0.041946612 0.123808436 -0.0075632273 -0.017980251 -0.03421464 0.058256883
0.011864848 0.029560229 -0.037639 -0.1404489 -0.13510232 0.024514727 0.06637315 -0.062669605
-0.08087232 -0.056310754 -0.04513853 -0.03806956 0.012638168 -0.019774258 0.047780707 0.03979496
-0.08548789 0.025550274 -0.015862085 0.005538367 0.07749478 -0.05569875 0.034271207 -0.053910203
-0.039540786 -0.003913291 0.08013384 -0.0017371316 -0.10187501 -0.017368805 -0.047418464 -0.027725987
0.034805313 -0.12148588 -0.15965767 -0.024358517 0.043470774 0.05263252 0.038142182 -0.03621337
0.006630548 0.040761527 0.080225475 -0.034480713 0.05499733 -0.05716735 -0.01193713 -0.0068103983
0.024311373 -0.13630848 0.0062929466 0.0108761005 0.022004265 0.024240905 -0.09385216 0.04053762
-0.11747011 -0.06311413 -0.077701606 0.041581158 0.06261949 -0.033305883 0.04277133 0.094288364
0.12485599 0.05083805 0.0222704 0.028841814 -0.08766008 0.011893056 -0.03926469 -0.15505117
0.0414405 -0.05179469 -0.0088813035 -0.064717025 -0.02467402 0.0153116975 -0.010446513 0.0058699334
0.0042580673 0.03483405 -0.05816123 -0.07073125 0.065255105 -0.06166254 0.019552264 0.031888083
-0.05547789 -0.07440302 -0.044948537 -0.0037175813 -0.03387816 0.11599911 -0.011766878 -0.21119978
0.09341245 -0.01975121 -0.07017016 0.082121156 -0.013661089 0.037402328 0.008992341 -0.06633435
-0.021029918 0.008406432 -0.00028007195 0.02759399 0.025593476 0.007864932 -0.018865783 -0.04218117
-0.17909457 0.014353042 -0.044979095 -0.018160842 0.02217251 -0.034631927 0.011055406 -0.07787611
0.024778727 0.033326793 0.09737839 -0.08600298 0.05170891 -0.00094859226 0.00025424495 -0.07314205
-0.032889903 -0.04046296 -0.042378567 -0.14536749 -0.08440738 -0.098503225 -0.065565154 -0.10073426
0.02934204 0.028810978 0.039649185 0.010009676 -0.12768883 0.009376883 0.0271694 0.06849841
-0.0014279813 -0.028397914 -0.03682906 0.054943487 0.059105787 -0.07353656 -0.030993542 0.014726067
-0.03580243 -0.02198539 -0.04653646 -0.03508011 0.0077305334 -0.04515041 0.07507833 -0.015178895
0.017902505 -0.040717952 -0.09643082 0.028986892 0.059003044 0.043865584 0.047480267 -0.057555936
-0.054436974 -0.025383212 -0.042811286 -0.003091992 0.07492958 -0.031627484 -0.058197483 -0.05895273
-0.012325078 0.055153895 0.046630047 -0.104916394 0.06736444 -0.08544402 -0.04197088 -0.009317981
-0.042188846 0.03447766 0.019247707 -0.0191306 -0.07910226 0.07663135 -0.09069384 -0.03547554
0.0483217 -0.14877056 -0.0015938606 -0.0384606 -0.021314146 0.018022818 0.024505366 -0.15273333
00000000: 75ae c13b 1982 eebb 83b6 193c 52c4 9e3c
00000010: 95d7 be3d 7726 4bbd 40ae f33c 888c 1a3d
00000020: 4cef a4b9 1f0d abbc c088 3cbc f18f 783c
00000030: 7ee6 68bc 573c f73c dce7 1c3d 3981 613a
00000040: e717 433d fb9f 99ba 45ff 12bc fa59 093e
00000050: 966c bd3c 3b98 a0bc fb49 983d 1f5e 84bd
00000060: 1f87 acbd 1dab 923d e43a 213c a110 3e3d
00000070: d87f 043b e4a7 a0bc e994 61bc bf02 c43c
00000080: 0a9d 5b3a ca64 2e3e 2f84 8fbd 4903 72bd
00000090: 0918 b7bd 6302 693c 7cc0 f839 79eb 8fbd
000000a0: 72d0 ae3d 5bf6 70bc d1f6 693c f973 863d
000000b0: 5f15 9e3d 0edc adbd 37b8 813c cf4c 803d
000000c0: c5ef 20bd 6afd 01bc 36d0 2bbd 478f fd3d
000000d0: f3d4 f7bb 524b 93bc a624 0cbd c59e 6e3d
000000e0: c864 423c 4b28 f23c 5a2b 1abd d6d1 0fbe
000000f0: 4358 0abe 1cd3 c83c a5ee 873d ec58 80bd
00000100: 63a0 a5bd 1ba6 66bd 2ee3 38bd d4ee 1bbd
00000110: 5210 4f3c a0fd a1bc b4b5 433d 0a00 233d
00000120: 4614 afbd cf4e d13c 34f1 81bc 317b b53b
00000130: 95b5 9e3d 5f24 64bd f75f 0c3d f2d0 5cbd
00000140: 85f5 21bd 103b 80bb 361d a43d 77b0 e3ba
00000150: d8a3 d0bd 0649 8ebc dd39 42bd 9c21 e3bc
00000160: 0490 0e3d 97cd f8bd 4d7d 23be 838b c7bc
00000170: 690e 323d 3395 573d fa3a 1c3d 7854 14bd
00000180: 1145 d93b 8ff5 263d 414d a43d a63b 0dbd
00000190: e144 613d 5028 6abd f493 43bc c329 dfbb
000001a0: a528 c73c 7394 0bbe 1035 ce3b ac31 323c
000001b0: 4a42 b43c dd94 c63c 9035 c0bd c70a 263d
000001c0: 2b94 f0bd fb41 81bd 0522 9fbd 0151 2a3d
000001d0: a63e 803d c06b 08bd fd30 2f3d 421a c13d
000001e0: 7fb4 ff3d 8f3b 503d 6a70 b63c ab45 ec3c
000001f0: 2187 b3bd 18db 423c 03d4 20bd bcc5 1ebe
00000200: 84bd 293d ab26 54bd e382 11bc 5c8a 84bd
00000210: 2c21 cabc eadd 7a3c da27 2bbc 9258 c03b
00000220: 4287 8b3b 26ae 0e3d 783a 6ebd 8cdb 90bd
00000230: 78a4 853d dc91 7cbd 122c a03c 149d 023d
00000240: c93c 63bd 9c60 98bd f51b 38bd aaa2 73bb
00000250: d3c3 0abd f190 ed3d ddc9 40bc c144 58be
00000260: 074f bf3d 4acd a1bc 5fb5 8fbd 232f a83d
00000270: c3d2 5fbc 2f33 193d 9d54 133c 4eda 87bd
00000280: ef46 acbc 22bb 093c 9fd6 92b9 cb0c e23c
00000290: 69a9 d13c eadb 003c 6a8c 9abc 2ac6 2cbd
000002a0: 9164 37be 0529 6b3c 003c 38bd 0cc6 94bc
000002b0: 20a3 b53c 35da 0dbd bc21 353c 837d 9fbd
000002c0: c2fc ca3c ad81 083d 526e c73d 5522 b0bd
000002d0: b9cc 533d f3aa 78ba 2e4c 8539 80cb 95bd
000002e0: 90b7 06bd 7dbc 25bd 2695 2dbd 37db 14be
000002f0: c7dd acbd 0fbc c9bd 0647 86bd c44d cebd
00000300: b85e f03c 0005 ec3c 2f67 223d a0ff 233c
00000310: dcc0 02be 7fa1 193c 5d92 de3c e548 8c3d
00000320: 1a2b bbba bea2 e8bc 12da 16bd 6c0c 613d
00000330: e918 723d 569a 96bd 2be6 fdbc 9a45 713c
00000340: 92a5 12bd b41a b4bc 049d 3ebd 29b0 0fbd
00000350: 6a50 fd3b a3ef 38bd abc2 993d e6b0 78bc
00000360: 46a8 923c dec7 26bd 867d c5bd eb75 ed3c
00000370: 2dad 713d 66ac 333d ab7a 423d c6bf 6bbd
00000380: 4ef9 5ebd 74f0 cfbc e35a 2fbd 05a3 4abb
00000390: ae74 993d d28b 01bd 7c60 6ebd 6b78 71bd
000003a0: 20ef 49bc 0de9 613d 26ff 3e3d 68de d6bd
000003b0: 5ef6 893d 46fd aebd a8e9 2bbd 72aa 18bc
000003c0: 36ce 2cbd 7238 0d3d 5ead 9d3c c7b7 9cbc
000003d0: 5e00 a2bd e6f0 9c3d b1bd b9bd cd4e 11bd
000003e0: faec 453d 4f57 18be 16e9 d0ba dd88 1dbd
000003f0: 019b aebc 97a4 933c 7abf c83c 2066 1cbe

fc2.bias f4 [256]
-0.017830472 -0.053409137 0.023242082 0.004850773 0.0075772265 -0.023254177 0.05897975 0.04610058
-0.051879838 -0.036814664 0.012673366 0.016759317 0.07347543 0.02150587 0.021706501 -0.0032783912
0.11863516 0.005890297 0.005103176 -0.033301733 -0.050187413 -0.026303787 -0.0127561875 0.017881608
0.027154205 0.040835805 -0.050387144 0.036028188 0.045977615 0.0761375 -0.010009552 0.08655949
0.055905074 0.027207568 0.035269372 0.068918206 0.014874497 -0.012455825 -0.029132936 -0.0432118
-0.069814265 -0.052791897 -0.096756816 0.019877952 -0.0906363 0.041859765 -0.0073063006 -0.036415294
-0.019014219 -0.018685725 0.0028032241 0.028191771 -0.009770876 0.046587203 0.014376096 0.049272254
0.01295049 0.036618277 0.050341073 0.021485135 0.065658465 0.04853254 0.021493059 -0.043496516
0.033353597 0.029318566 0.07571776 -0.046572924 -0.03407426 0.030394446 -0.05714859 -0.013396381
-0.01782846 0.020603988 0.04939598 -0.020636126 -0.0985568 0.026137173 -0.046801165 0.023406086
0.0006334103 0.006979179 -0.010417485 -0.008029822 -0.06646805 0.032884207 -0.029430993 0.09047389
0.012423011 0.057424966 0.06557127 -0.015594233 0.0038517383 -0.022568535 -0.008589589 0.04505007
-0.053691607 -0.008937322 0.008263515 0.0674884 0.039620373 -0.05453162 -0.03976481 -0.05931561
-0.017377913 0.025870949 0.057492718 0.02622293 -0.022372244 -0.02861103 -0.00030586706 0.020844346
-0.014425673 -0.016341498 -0.026485195 -0.011970151 -0.034714524 0.03023696 0.11411043 0.01296427
0.012868495 -0.047968056 -0.031963903 0.047116753 -0.030858213 -0.02487396 0.051091745 0.03180238
-0.041143473 -0.0036788932 0.0689788 -0.026992721 -0.039924383 -0.027328657 0.02255615 -0.05463453
-0.013740151 0.07103044 0.021813698 -0.085502386 0.056134272 0.0008382859 -0.06508767 -0.0373237
-0.09925587 0.07607048 -0.02303136 0.02928625 -0.08895879 -0.09798243 -0.0012511977 -0.06201944
-0.00321097 -0.06779074 0.04225082 -0.03239888 0.008217951 -0.016462604 -0.005137337 -0.048404828
-0.007068766 -0.013839206 -0.05900976 0.057051457 0.04061652 -0.03152842 0.0069807586 -0.06840713
-0.069558874 -0.0058239154 -0.027503198 0.02423717 -0.008004732 0.0112015195 -0.039251175 -0.04706367
-0.01859144 -0.038526963 0.08339546 0.054556243 0.044056628 0.050392278 0.03702222 -0.08084603
-0.05162285 0.06533207 -0.016537648 0.018035883 0.016630735 0.020258922 0.0323562 0.091046065
0.026981669 -0.013770327 0.044773877 0.048714295 -0.037809413 0.035158288 0.00046961842 0.04241412
0.043683045 -0.041283056 -0.0190132 0.0070509966 -0.003066317 0.032321658 0.029349467 0.039280258
-0.03406835 -0.039544236 0.06033319 0.009560444 0.01150201 0.009365587 0.017521877 0.0024176775
-0.026495507 -0.040564686 -0.017081358 0.0051308754 0.039983645 0.060006674 0.09794508 -0.017583296
-0.028371852 -0.02844828 0.006412588 0.05753445 0.020886092 -0.0396548 0.044804465 -0.095421456
0.03920257 0.040010147 -0.056054432 -0.042606656 -0.016873645 -0.07262419 0.04375519 -0.0266657
0.029206946 0.0521299 -0.038640674 0.018169364 -0.033327308 -0.036567584 0.022075899 0.030595748
-0.057731096 -0.064541504 -0.04028785 -0.08386225 0.03218677 0.045382787 0.017552748 0.0044554924
00000000: 3611 92bc 8ac3 5abd 2e66 be3c 3cf3 9e3b
00000010: 624a f83b 8b7f bebc c094 713d f6d3 3c3d
00000020: f47f 54bd f9ca 16bd f3a3 4f3c d64a 893c
00000030: 497a 963d 142d b03c d5d1 b13c 47da 56bb
00000040: fef6 f23d 6403 c13b 8b38 a73b 6667 08bd
00000050: 5191 4dbd 0a7b d7bc 54ff 50bc 737c 923c
00000060: 7f72 de3c 7243 273d c062 4ebd 4b92 133d
00000070: 0653 3c3d faed 9b3d 1bff 23bc 1a46 b13d
00000080: b8fc 643d 68e2 de3c 9e76 103d fd24 8d3d
00000090: 2ab4 733c 8413 4cbc 32a8 eebc dbfe 30bd
000000a0: c8fa 8ebd 513c 58bd 7028 c6bd 16d7 a23c
000000b0: 869f b9bd 2575 2b3d b169 efbb 3428 15bd
000000c0: b5c3 9bbc ce12 99bc 4cb6 373b 6ef2 e63c
000000d0: 0616 20bc 39d2 3e3d b889 6b3c b4d1 493d
000000e0: 4b2e 543c 0cfd 153d 7132 4e3d 9801 b03c
000000f0: f277 863d 0fca 463d 3612 b03c 6729 32bd
00000100: c89d 083d 7d2d f03c ea11 9b3d 40c3 3ebd
00000110: 7491 0bbd c6fd f83c a414 6abd 7f7c 5bbc
00000120: fe0c 92bc b2c9 a83c 7053 4a3d 180d a9bc
00000130: 26d8 c9bd a01d d63c 94b2 3fbd 1fbe bf3c
00000140: 720b 263a 99b1 e43b 19ae 2abc 848f 03bc
00000150: 6720 88bd 97b1 063d 4419 f1bc 604a b93d
00000160: e289 4b3c 7136 6b3d 3b4a 863d f47e 7fbc
00000170: 726d 7c3b a6e1 b8bc 59bb 0cbc 6c86 383d
00000180: bbeb 5bbd d86d 12bc b263 073c 5c37 8a3d
00000190: f948 223d 8c5c 5fbd 6de0 22bd edf4 72bd
000001a0: 205c 8ebc 50ef d33c 7c7d 6b3d 78d1 d63c
000001b0: ff45 b7bc ae61 eabc c85c a0b9 c3c1 aa3c
000001c0: a859 6cbc 9bde 85bc 7bf7 d8bc 741e 44bc
000001d0: d130 0ebd 80b3 f73c bbb2 e93d 1768 543c
000001e0: 61d6 523c 277a 44bd 95ec 02bd 7ffd 403d
000001f0: 5dca fcbc 7ac4 cbbc 9445 513d 3643 023d
00000200: 0f86 28bd 9619 71bb c244 8d3d d71f ddbc
00000210: c087 23bd 59e0 dfbc adc7 b83c 75c8 5fbd
00000220: 5f1e 61bc 6878 913d a4b2 b23c e01b afbd
00000230: 0ded 653d 6ac0 5b3a af4c 85bd bce0 18bd
00000240: a946 cbbd d7ca 9b3d 43ac bcbc b8e9 ef3c
00000250: 0730 b6bd 03ab c8bd 3aff a3ba 1908 7ebd
00000260: 236f 52bb dfd5 8abd 320f 2d3d b0b4 04bd
00000270: 96a4 063c 95dc 86bc 1b57 a8bb 2444 46bd
00000280: 1ba1 e7bb d6bd 62bc 38b4 71bd caae 693d
00000290: 825d 263d f223 01bd d9be e43b 0a19 8cbd
000002a0: e274 8ebd 8bd6 bebb 634e e1bc 088d c63c
000002b0: 4826 03bc 9486 373c d7c5 20bd d6c5 40bd
000002c0: 134d 98bc 73ce 1dbd 3dcb aa3d 5e76 5f3d
000002d0: b974 343d 2268 4e3d 9da4 173d 9a92 a5bd
000002e0: 7b72 53bd d2cc 853d f679 87bc fdbf 933c
000002f0: 2e3d 883c 0af6 a53c ef87 043d 5c76 ba3d
00000300: a908 dd3c f09c 61bc d064 373d a488 473d
00000310: 0bde 1abd 2302 103d 1e37 f639 6eba 2d3d
00000320: feec 323d 6c18 29bd 92c1 9bbc 0c0c e73b
00000330: 43f4 48bb b763 043d 4b6e f03c 56e4 203d
00000340: 418b 0bbd 23f9 21bd ef1f 773d 69a3 1c3c
00000350: ed72 3c3c 1e72 193c 0a8a 8f3c e671 1e3b
00000360: 1b0d d9bc 2827 26bd 34ee 8bbc e720 a83b
00000370: e4c5 233d 8fc9 753d 6e97 c83d d80a 90bc
00000380: 166c e8bc 5e0c e9bc b020 d23b 3ea9 6b3d
00000390: 4f19 ab3c 126d 22bd e384 373d 536c c3bd
000003a0: e092 203d aee1 233d 5599 65bd 5184 2ebd
000003b0: 993a 8abc febb 94bd a438 333d 0772 dabc
000003c0: 6843 ef3c 2986 553d af45 1ebd ebd7 943c
000003d0: 3782 08bd e4c7 15bd 84d8 b43c efa3 fa3c
000003e0: 7177 6cbd 562e 84bd df04 25bd f9bf abbd
000003f0: 46d6 033d 4de3 393d c8ca 8f3c 61ff 913b

fc3.weight f4 [1, 256]
0.011799432 -0.04078265 0.05965919 -0.07442565 0.0719213 0.018249918 0.037109934 0.03761052
0.030100413 -0.0111726755 -0.015556714 0.018152703 0.033978473 -0.014479254 0.05287852 0.024469763
0.043233436 -0.018437525 0.024487885 -0.020004384 0.040639736 -0.02979996 -0.012430112 0.009884764
-0.012492286 0.021980746 0.081218205 0.013683468 0.053910304 0.018134393 -0.02808505 0.07270361
-0.018810043 -0.0149037475 -0.019696994 0.07752073 -0.06702401 0.05354527 0.015683057 -0.037919037
-0.03693742 -0.024734315 -0.028467093 0.028277842 -0.14308712 0.048411615 -0.01649881 -0.031029848
-0.01721976 0.011345241 -0.00977665 -0.01392741 0.021932054 -0.03622991 0.01722367 0.010994495
0.0107208025 -0.01311827 0.063439764 -0.01727521 -0.023877041 -0.017411418 0.021929251 -0.021524765
0.032374527 -0.016280506 0.028726593 -0.04216628 0.03940952 -0.056270637 -0.035963763 -0.0051387344
0.019319635 -0.008621359 -0.037110317 -0.09789512 -0.028915226 -0.021198923 0.028800689 -0.015822448
0.03344164 0.010468214 -0.018330147 0.0113797495 -0.053367153 -0.04726923 0.11495353 0.048522178
-0.008644089 -0.0049292324 0.027636178 0.018391417 -0.011810471 -0.026205406 -0.04275275 0.0143754035
0.039114557 -0.02504413 -0.03928353 0.016988968 0.008409471 -0.075834066 -0.01645782 -0.035235014
-0.0146131525 0.020558245 0.05448387 -0.018439053 0.039128873 -0.034994666 -0.018674888 -0.098418884
-0.013148473 0.018043503 -0.008989129 -0.07768765 -0.028934281 0.039573282 0.032569468 -0.019670326
-0.028550198 -0.030400729 -0.016985187 0.013988592 0.023114707 -0.041507307 0.02241386 -0.010507891
-0.01639661 -0.014616793 0.08273321 -0.012536635 0.026271239 -0.009005588 -0.035832744 -0.017049598
-0.027152345 0.039684795 0.026329137 -0.0209036 0.069426306 0.11886284 -0.0122472355 -0.060115986
0.053331066 0.015752032 -0.025012346 -0.32393235 -0.045187224 0.12047917 0.044720866 -0.026112609
-0.04615215 0.030019378 -0.013286062 0.0855758 -0.04166509 0.020361753 -0.011494695 -0.037147578
-0.091687314 -0.02677144 -0.018312568 0.013925996 0.015616588 0.041665737 -0.013037241 -0.014096672
-0.049091123 0.027180806 -0.014297673 0.019146929 -0.030159185 0.033758655 -0.03054603 -0.007491645
-0.044341374 -0.024862658 0.112756886 0.027594434 0.0337794 0.019903066 0.3148118 -0.02385663
-0.01997488 0.025659436 -0.02457222 0.019062646 -0.07606727 0.022445338 0.025083775 0.041736327
-0.012822888 -0.011183182 -0.14288518 0.03481068 0.04186195 -0.011219189 -0.037395306 -0.01388842
-0.015521042 -0.07012488 0.023185508 0.028500196 -0.02156455 0.090377115 0.027846139 0.007696155
-0.08677508 -0.02031675 0.017984103 0.01487353 0.023054438 0.019219203 0.025328767 -0.029914185
-0.0332239 0.018286489 -0.02094905 -0.013223123 0.015426858 0.04118971 0.02625779 0.015003357
-0.03734091 -0.04955627 0.028982097 0.025971578 0.016809449 0.019298553 0.02595413 0.031158274
0.016692212 -0.03925267 -0.017401954 -0.021070203 -0.049449578 -0.049569543 -0.041609436 0.023226371
-0.03986026 0.12092028 -0.018740552 -0.024235185 -0.051625054 -0.017123744 0.010636712 -0.11144473
0.06628031 -0.022893332 -0.07554775 -0.09539186 -0.061145883 0.017979639 0.047815375 -0.017305935
00000000: 6852 413c b50b 27bd 325d 743d 7a6c 98bd
00000010: 794b 933d da80 953c 9600 183d 7d0d 1a3d
00000020: 2495 f63c 990d 37bc 96e1 7ebc fab4 943c
00000030: 032d 0b3d 653a 6dbc 2697 583d d074 c83c
00000040: 8b15 313d 4b0a 97bc d19a c83c 3ce0 a3bc
00000050: da75 263d 0c1f f4bc aba7 4bbc b5f3 213c
00000060: 72ac 4cbc f710 b43c bb55 a63d a030 603c
00000070: 0dd1 5c3d 948e 943c 9e12 e6bc a1e5 943d
00000080: 8517 9abc d92e 74bc 975b a1bc 30c3 9e3d
00000090: e243 89bd 4952 5b3d c179 803c fe50 1bbd
000000a0: b14b 17bd 9e9f cabc d233 e9bc efa6 e73c
000000b0: 6e85 12be 424b 463d 8328 87bc 4f32 febc
000000c0: 7410 8dbc 64e1 393c 3e2e 20bc cb2f 64bc
000000d0: daaa b33c d065 14bd a718 8d3c 4122 343c
000000e0: 4ea6 2f3c 03ee 56bc b5ec 813d be84 8dbc
000000f0: c999 c3bc 64a2 8ebc f9a4 b33c b454 b0bc
00000100: 279b 043d b25e 85bc 0854 eb3c 8db6 2cbd
00000110: e06b 213d 0a7c 66bd bd4e 13bd d462 a8bb
00000120: 3644 9e3c 9a40 0dbc fd00 18bd 3d7d c8bd
00000130: a0df ecbc 5da9 adbc 6cef eb3c 149e 81bc
00000140: 1afa 083d df82 2b3c 1b29 96bc 2172 3a3c
00000150: 8497 5abd 619d 41bd c26c eb3d 31bf 463d
00000160: f09f 0dbc 6685 a1bb 4465 e23c 99a9 963c
00000170: b580 41bc b8ac d6bc 821d 2fbd d086 6b3c
00000180: 9636 203d 5929 cdbc c4e7 20bd 732c 8b3c
00000190: e1c7 093c e44e 9bbd 8dd2 86bc 9752 10bd
000001a0: 016c 6fbc c469 a83c 7a2a 5f3d 7f0d 97bc
000001b0: 9945 203d 9156 0fbd 14fc 98bc d78f c9bd
000001c0: b16c 57bc f8cf 933c 2447 13bc b41a 9fbd
000001d0: 9607 edbc 9817 223d 9067 053d aa23 a1bc
000001e0: 1be2 e9bc f30a f9bc 8524 8bbc 6830 653c
000001f0: 0e5b bd3c 9103 2abd 459d b73c 4a29 2cbc
00000200: 2f52 86bc 467b 6fbc 0770 a93d 7566 4dbc
00000210: c836 d73c 2c8c 13bc 5bc5 12bd 99ab 8bbc
00000220: 986e debc 868c 223d 34b0 d73c 073e abbc
00000230: 612f 8e3d 5c6e f33d a1a8 48bc 2e3c 76bd
00000240: ad71 5a3d 680a 813c b1e6 ccbc 76da a5be
00000250: 3d16 39bd c8bd f63d 3a2d 373d 1cea d5bc
00000260: 090a 3dbd 33eb f53c c8ad 59bc 5d42 af3d
00000270: 03a9 2abd b1cd a63c 3f54 3cbc 0f28 18bd
00000280: 8fc6 bbbd c74f dbbc 3d04 96bc dc29 643c
00000290: b8dc 7f3c b1a9 2a3d 279a 55bc baf5 66bc
000002a0: c613 49bd 48aa de3c c940 6abc 05da 9c3c
000002b0: 6510 f7bc 8446 0a3d ab3b fabc 797c f5bb
000002c0: 4d9f 35bd c6ac cbbc 15ed e63d b90d e23c
000002d0: 455c 0a3d c10b a33c 032f a13e fb6e c3bc
000002e0: 5ca2 a3bc bd33 d23c ae4b c9bc 4429 9c3c
000002f0: 28c9 9bbd 49df b73c 7d7c cd3c b6f3 2a3d
00000300: 1717 52bc aa39 37bc 7e50 12be a595 0e3d
00000310: 7077 2b3d b0d0 37bc d22b 19bd 418c 63bc
00000320: f84b 7ebc a29d 8fbd 89ef bd3c 3e79 e93c
00000330: 24a8 b0bc a317 b93d 961d e43c 0730 fc3b
00000340: 22b7 b1bd 506f a6bc 6653 933c 1bb0 733c
00000350: a9dc bc3c 9771 9d3c 467e cf3c 980e f5bc
00000360: c915 08bd 8ccd 953c 589d abbc cca5 58bc
00000370: efc0 7c3c 8bb6 283d 941a d73c a4d0 753c
00000380: c8f2 18bd 84fb 4abd dd6b ed3c 59c2 d43c
00000390: f8b3 893c 0018 9e3c c19d d43c a33f ff3c
000003a0: 1bbe 883c 68c7 20bd 8b8e 8ebc 6b9b acbc
000003b0: a48b 4abd 6f09 4bbd a86e 2abd 3b45 be3c
000003c0: 8344 23bd 0da5 f73d c985 99bc de88 c6bc
000003d0: cb74 53bd 1847 8cbc 9b45 2e3c 223d e4bd
000003e0: f9bd 873d cc8a bbbc c7b8 9abd cf5c c3bd
000003f0: 1b74 7abd 094a 933c 0eda 433d 2dc5 8dbc
