checkpoints/checkpoint_critic_ddqn_1.pth (torch_old, 304178 bytes, 5 tensors)

fcs1.weight f4 [256, 33]
000000 19 28 97 bd 54 ea 19 3d 45 86 68 bd ed 92 6c bc
       -0.07380695 0.03757699 -0.056768674 -0.014439327
000010 af 52 b9 3d 3d 90 bd 3b 26 31 41 bc 3c e4 02 bd
       0.09048974 0.005785017 -0.011791503 -0.031955943
000020 8d 66 44 3d 07 3f bf 3b ce 97 8e bb d3 20 e2 3c
       0.047949363 0.005836371 -0.0043515926 0.027603542
000030 83 5d 05 bd 71 50 0f 3e 1d 17 44 bd d8 dd 1f 3d
       -0.032559883 0.1399553 -0.047873605 0.039029926
000040 a5 23 91 bc 9f c1 e2 bc aa 2a a6 bb 4a 7c c7 ba
       -0.017717192 -0.027680216 -0.005071004 -0.0015219536
000050 7b ec 58 bd b2 b0 3c bc 27 53 69 3b 73 02 0f bc
       -0.0529599 -0.011516737 0.0035602541 -0.008728611
000060 2b f8 53 bc ec 44 19 3d a3 0f cc bd 47 0d 11 3e
       -0.012937586 0.037419245 -0.0996392 0.14165221
000070 5c 0a 9a 3a e8 43 51 3d a7 61 12 be 44 17 a6 3c
       0.0011752355 0.05109015 -0.14295064 0.020274766
000080 20 23 2e be 49 fc 84 bc 1d 02 72 3c e4 19 02 3d
       -0.17005587 -0.01623358 0.014771012 0.031762972
000090 fc a5 89 3c 0b 3f 0e 3d 72 d0 9e bc 63 08 81 3d
       0.01680278 0.03472809 -0.019386504 0.06300428
0000a0 98 e5 73 bc d2 00 cb 3b b3 dd c9 3c 79 ec 80 3c
       -0.014886282 0.006195166 0.024641847 0.015737759
0000b0 87 4d 10 bc 57 ec 32 3c 49 2c 04 3e ea 23 67 bd
       -0.008807546 0.010920606 0.12907518 -0.056430735
0000c0 bc f7 9e bd 2f 89 ba bc d7 8b 36 3c 05 8b c2 3c
       -0.07762095 -0.022770492 0.011141739 0.02374793
0000d0 cb 27 f3 bc ec 78 c9 ba eb 34 42 bc f8 6e 4a 3a
       -0.02968206 -0.001537112 -0.011853437 0.0007722224
0000e0 ca 0f 56 3c cc 59 8a bb 5b ea b7 bc 12 59 a4 bd
       0.013065288 -0.0042221304 -0.022450617 -0.08024801
0000f0 6e a8 d8 3d 4d 29 8f 3c c8 8d 3b 3c 41 9b 0f bd
       0.105790004 0.017475748 0.0114473775 -0.03506017
000100 4c ed 0a 3d fd 9e bf bd a3 4e dd 3c bf 6c 27 bd
       0.03391771 -0.093564965 0.027015036 -0.040875193
000110 02 9e 39 3a 14 a8 88 bd d4 b1 82 3d 7a 0c 10 3b
       0.0007080735 -0.06672683 0.06381574 0.0021980093
000120 e8 05 78 3c dd 31 3b 3b 0f 6b 8a 3d 00 73 90 bc
       0.015138127 0.0028563656 0.06758701 -0.017632961
000130 ca c5 74 3c 05 9b 0d 3c 35 5b 54 3c dc 74 5c bb
       0.014939735 0.008642917 0.012961199 -0.003363899
000140 4d 9d 1b 3d 56 c2 3c bc 5f ab b8 3c 93 b0 64 3d
       0.03799181 -0.011520943 0.022542654 0.055832457
000150 bc af 79 3b c5 53 fb bb e7 d0 eb 3b d2 64 38 3c
       0.003809913 -0.007669898 0.007196534 0.011254506
000160 2b 91 24 bc 26 ea 23 3c 61 94 9f 39 d1 6f b3 bc
       -0.010044376 0.010004556 0.00030437394 -0.021903904
000170 7a 89 bb 3c 9e 32 c6 bc 52 51 89 bc 86 9f 5b 3d
       0.022892702 -0.024194058 -0.01676241 0.05361893
000180 00 48 33 3d d4 7f 97 3c b2 06 1f bc 4f aa 4c bd
       0.043769836 0.01849357 -0.009706186 -0.049967106
000190 86 01 48 3d ae b4 5a 3d fc 9e 3e 3d 91 11 bd bc
       0.048829578 0.053394966 0.046538338 -0.023079665
0001a0 a0 bb 07 3d 2d f9 32 3c 55 8d 05 3b 57 48 83 3c
       0.033137918 0.010923666 0.002037843 0.016025705
0001b0 12 2c 4e 3c fe fa 45 bc 37 58 9a 3b 10 f4 22 bc
       0.012583749 -0.012083767 0.004710223 -0.009945884
0001c0 be 6d cc 3d 2d d2 68 bd 6e 21 ad bd c4 21 46 bc
       0.09981869 -0.056841064 -0.08453642 -0.012093011
0001d0 a0 4a be 3c 32 c9 6a bd 6d ed a9 3c b8 9f c2 bb
       0.023228943 -0.05732078 0.020743096 -0.00593945
0001e0 f2 1f cf bc f0 dc 08 3a 23 2e c5 3c f0 5b 82 bc
       -0.025283787 0.00052209105 0.024069851 -0.01591298
0001f0 4b 46 f8 bc 0a de 82 bd 02 f1 cf 3c 46 98 8b 3d
       -0.030306956 -0.06390007 0.025383476 0.06816153
000200 d0 3c 78 bc 40 d9 a4 3b 84 ef b6 bc 2c c5 b7 3e
       -0.015151218 0.005030781 -0.022331007 0.35892618
000210 2d 78 a7 bc b1 4f 86 bd d7 13 66 bd 46 cf a0 3b
       -0.020443046 -0.06558169 -0.056171264 0.0049075214
000220 a2 f9 70 bd 23 12 c1 bc 78 93 91 bd 8a 5c 7c bc
       -0.05883182 -0.023568219 -0.071082056 -0.015402922
000230 be 07 f1 3d 05 7e 9d bd 0f e9 39 3d b1 97 37 bc
       0.11769055 -0.07690052 0.045388278 -0.0112056
000240 5e 29 53 ba 21 d3 28 3d bc e6 4d 3e c4 dc 27 3c
       -0.00080551754 0.041216973 0.2010755 0.010245506
000250 ba 7b 05 ba 83 06 af bd 3e 2a 10 3d 74 c9 39 3c
       -0.0005091984 -0.08546164 0.035196535 0.011339534
000260 37 eb c9 bc 0b 4e 35 3d 69 1b c5 bb f6 2d 12 bd
       -0.024648292 0.04426388 -0.0060152304 -0.035688363
000270 58 ce ff 3c e1 55 1d bd fa e4 2c 3d b2 01 77 3d
       0.031226322 -0.03841198 0.042210557 0.06030435
000280 2b e7 42 3c 00 55 3b 3d 67 c9 49 bd 20 99 2e bc
       0.011895935 0.04573536 -0.049264338 -0.010656625
000290 01 dc 46 be 78 49 18 3d 3c 73 69 bd 12 9d 9b bc
       -0.19419862 0.03717944 -0.05699466 -0.018995795
0002a0 e1 56 79 3c ad a0 cd 3c dc 44 6f 3d 63 a9 1d 3c
       0.015218467 0.02510103 0.05841528 0.0096229045
0002b0 d2 36 b4 bc 30 aa ab bd db b8 ac bc ec 0a 7a 3c
       -0.021998797 -0.0838207 -0.02108424 0.015261393
0002c0 b7 41 fc 3c dc de 49 bc 5b 0d 4a 3d a8 ae aa 3c
       0.030793054 -0.0123212 0.049329143 0.020835236
0002d0 a0 f6 08 bd a5 89 1e 3d 03 1d 25 3d 71 a3 43 bd
       -0.033438325 0.038705487 0.04031087 -0.04776329
0002e0 ad a2 ab bc b6 85 80 bc 84 a6 70 bc bf c8 d4 bc
       -0.020951593 -0.015688758 -0.014688138 -0.02597463
0002f0 35 20 8c 3c 05 ae dd 3b a8 ec 9b bc 66 03 20 bd
       0.017105201 0.0067651295 -0.019033745 -0.03906574
000300 a4 7b 41 3d 2b fb e3 3c 74 40 34 3d a6 eb f2 3c
       0.047237054 0.027829727 0.04400678 0.029653382
000310 30 e9 b1 3c 8b 19 40 3c 05 32 c6 bd 60 b4 1c 3e
       0.021717638 0.01172484 -0.09677509 0.15303183
000320 ef 24 19 be 4f 1a 0f 3c bc 0f 63 3b 77 19 da bc
       -0.14955495 0.0087343 0.003464683 -0.02662347
000330 d9 fd 51 3d cd 5f aa bb c8 1d 3d 3d 01 62 05 3d
       0.05126748 -0.0051994086 0.04617098 0.032564167
000340 8f c7 df bc 03 b8 8e ba f2 ff 21 bc 41 a0 bd 3d
       -0.027316837 -0.001088858 -0.009887682 0.09259082
000350 0a 53 da bd ee f7 21 3e ca 33 a8 bb fc bf 59 3c
       -0.1066037 0.15817234 -0.005133127 0.013290402
000360 00 34 26 bd 4c 8e 25 3c 59 ed 31 3c 24 7c 81 bc
       -0.040576935 0.010104727 0.010859811 -0.015806265
000370 78 b8 15 3c e4 6a f9 3c 4d d2 f9 bc 79 43 1d 3d
       0.009138219 0.030446477 -0.030495787 0.038394425
000380 ab 5c 88 bd 02 22 de 3d 73 33 6b bd 9e 0d 58 bd
       -0.066583 0.1084633 -0.057422113 -0.05274736
000390 6f 7c 54 3a e0 65 4f 3c a1 bc 92 be ec 9a a5 bc
       0.00081057 0.012658566 -0.28659537 -0.020215474
0003a0 4d 99 f3 bc ab 47 8f 3c 9a 6a ab bd 2a e9 1d 3c
       -0.029736185 0.017490229 -0.08369942 0.00963811
0003b0 e3 1f 2d 3d 43 fb 8e 3d a5 e7 eb bc 4a 86 12 bc
       0.042266738 0.06981518 -0.02879698 -0.00894315
0003c0 73 ac 39 3d c6 80 a7 3b 85 87 02 bd a1 d6 38 bc
       0.045330476 0.0051117865 -0.031867523 -0.01128164
0003d0 3f 04 0b 3d 76 a4 96 bb 58 39 12 3b 8c 27 1f bb
       0.033939596 -0.004597242 0.0022312012 -0.0024285046
0003e0 8a cc c1 3a 65 86 d1 bc 19 aa 2e bd 16 af 83 bc
       0.0014785689 -0.02557678 -0.042642687 -0.016074698
0003f0 be 9a 73 3c 32 e6 f1 bc 1a 91 6f 3d 67 3d 2c 3c
       0.014868436 -0.029528711 0.05848799 0.010512686

fcs1.bias f4 [256]
000000 33 f7 e6 bd 3e 6c 20 be 35 45 06 3e 76 44 df bd
       -0.11277618 -0.15666291 0.13112338 -0.1090173
000010 cd 8e 44 bc 4d 58 08 bd c2 08 69 be 69 6e 93 bb
       -0.011996937 -0.033287335 -0.22757247 -0.004499246
000020 33 19 20 3d 30 9b 79 3d 3d 29 83 be cd bb e1 3d
       0.03908653 0.060939014 -0.256174 0.11022148
000030 e8 5e df bd b5 67 40 3d af b7 01 3e 0a 6c fa 3d
       -0.10906774 0.046973903 0.12667726 0.12227638
000040 85 17 7c bc ba a2 fe bc fd 28 d3 bd 1b 49 29 be
       -0.015386467 -0.031083453 -0.10310552 -0.16531794
000050 77 d6 dd bc 93 02 3e be ea 7e 1b bd 07 29 0d 3e
       -0.027079804 -0.1855567 -0.03796283 0.13785182
000060 4d e1 26 be 30 4b 32 bd b7 31 4a 3e a7 76 bf bc
       -0.16296883 -0.043528736 0.19745527 -0.023372008
000070 63 62 92 bd 0e 75 16 be 65 65 b0 bd b6 e0 99 bd
       -0.07147672 -0.1469309 -0.086130895 -0.07513563
000080 76 91 4f 3d 1e 62 21 be b2 9d 23 be 3b cb be 3d
       0.05067583 -0.15760085 -0.15978125 0.09316107
000090 a7 a4 43 be f9 fe 2f be 24 e7 19 3d 5a 52 1f 3d
       -0.19105779 -0.17187108 0.03757395 0.038896896
0000a0 e0 1f 0e be 70 88 39 bd 9a 6b ae 3d cb 86 f4 3d
       -0.13879347 -0.045296133 0.08516617 0.11939772
0000b0 6e a3 a5 3d 40 16 d8 bd d9 21 c9 3d 41 2a 08 bd
       0.08087812 -0.10551119 0.09820909 -0.03324342
0000c0 ab 0d 89 3d 9d 5b 51 3d 26 fa 37 be 74 72 8c 3d
       0.0669206 0.05111276 -0.17966518 0.06857768
0000d0 64 19 e8 bd eb 49 63 bd 31 6f a9 bd 60 2b d2 3d
       -0.11332968 -0.055490416 -0.08273161 0.102621794
0000e0 1e bf 7a bd 08 c0 ac 3d 32 b0 73 be 8e 90 14 3c
       -0.06121742 0.084350646 -0.23797682 0.009067668
0000f0 7c c0 0e be 7f 0e e9 bd fb 71 82 bc d3 dd 54 b9
       -0.13940614 -0.11379718 -0.01592349 -0.00020300531
000100 2e ac d3 bd f3 00 f3 bd fe d6 00 3e 71 45 58 3d
       -0.10335575 -0.118654154 0.12582013 0.0528006
000110 58 0b ca bb b6 82 b9 bd 24 b1 20 3e b5 c3 2e be
       -0.006165903 -0.09058134 0.15692574 -0.17066844
000120 33 3a 5c be 78 b3 a5 3d 47 b4 9c 3d dc 44 46 3d
       -0.21506576 0.080908716 0.07651573 0.048405513
000130 5f 6b 23 be e3 0d 9e bd 17 77 6d be 2d b2 30 bd
       -0.15958928 -0.077174924 -0.2318996 -0.04313867
000140 6a 08 10 3e ba 89 05 bd 6a a2 31 be 23 d0 1a bc
       0.1406571 -0.03260205 -0.17347112 -0.009449038
000150 3b dd e6 3d 45 fd 9f 3d 8b 84 4b be 80 7d ee bd
       0.11272665 0.07811979 -0.1987478 -0.11645031
000160 86 2a 1e bd d3 2e ca 3d f4 bb f8 bd 3e ed 57 3d
       -0.038614772 0.09872212 -0.12145224 0.052716486
000170 fd f1 32 3d 7a dc c7 3d f4 0a c8 bc 1b 84 c0 bd
       0.04368781 0.097588494 -0.024419285 -0.09400197
000180 51 34 af bc a9 09 06 be 1a 1c c6 bd 5c 22 6f 3d
       -0.021387251 -0.13089623 -0.09673329 0.058382377
000190 2a 9a 6a 3c 83 dc 77 bd 51 01 ab bc f7 b4 73 3d
       0.014318982 -0.06051303 -0.020874651 0.059498753
0001a0 11 34 2f 3d aa c1 08 be af e9 8a bd da ea 51 bc
       0.042774264 -0.13355127 -0.06782853 -0.012812341
0001b0 ac 09 50 3c fc 30 0a bb c9 da c5 3d 2c a1 24 bd
       0.012697618 -0.0021086326 0.096608706 -0.040192768
0001c0 c4 a0 51 be d9 9c 4c be 4a 4e 84 3d 6c 9a 20 bd
       -0.20471483 -0.19981708 0.06460245 -0.03920977
0001d0 f5 b6 12 bd d8 7a 0c be 68 4f 3c 3d a4 b3 97 bc
       -0.035819013 -0.13718736 0.045974165 -0.018518277
0001e0 8b dd ad 3d 55 d9 d4 3d b7 b5 50 bd 53 b0 0e 3d
       0.084895216 0.10393015 -0.050954547 0.034836125
0001f0 56 be 9f 3d bb 01 25 3d 95 d4 ff bd f3 a9 e1 bd
       0.077999756 0.040284853 -0.12491719 -0.11018743
000200 71 51 f1 bd 05 75 62 be 5f 21 c0 bd 87 a8 3c be
       -0.11783112 -0.22114952 -0.09381365 -0.18423663
000210 53 9b 9a 3d 13 3a ce bd 6d 07 96 bd 7f 05 e4 bc
       0.07549157 -0.100696705 -0.07325635 -0.027834652
000220 d4 9b 09 bc 52 be 1b be 02 1d 00 be ce 09 46 bd
       -0.008398969 -0.1520932 -0.12511066 -0.048349194
000230 46 43 bc 3b 47 50 5e bc f4 cd 77 3d d4 63 c7 bc
       0.0057453243 -0.013568944 0.060499147 -0.024339594
000240 88 27 a8 bd 69 94 ec bd 25 dd e3 bd a0 16 00 3e
       -0.08210665 -0.115517445 -0.11126164 0.12508631
000250 24 f1 26 3b f5 74 43 be 1d d7 27 be f5 da 82 3c
       0.002547332 -0.19087584 -0.16390653 0.015973547
000260 0d 04 2d bd 35 49 83 bd 04 23 04 bd b3 62 86 3c
       -0.04224019 -0.064104475 -0.032259956 0.016404485
000270 11 6f fc bd 34 e3 4c bc 3d e9 98 bd 18 c4 e9 bd
       -0.12325872 -0.012505341 -0.07466362 -0.11414355
000280 4a ef 8a bc 19 47 24 be 76 fd 61 3d d8 c4 b1 3d
       -0.016959805 -0.16042747 0.05517336 0.08680123
000290 99 6c b6 3c 50 10 f3 bd af df d4 bd 55 79 d3 bd
       0.02226858 -0.11868346 -0.10394227 -0.103258766
0002a0 79 a0 ef bd 59 4f c2 bd 08 2b b4 3d f5 c9 b0 3d
       -0.117005296 -0.094877906 0.0879727 0.0863227
0002b0 bf 9e 28 be ef 8e 1a bd fc d6 30 bc e9 16 cb 3c
       -0.16466807 -0.03773397 -0.010793444 0.024791198
0002c0 b1 82 cd bd c3 f2 d4 bd 2a 4c 1d be 64 26 b3 bd
       -0.10034693 -0.103978656 -0.15361086 -0.08747557
0002d0 05 a5 c4 bd d8 82 99 3c 6f cd c1 bd 1d 4e 1a be
       -0.096017875 0.018739149 -0.094630115 -0.1506886
0002e0 8b f9 a6 bd 3f 97 18 3c 6a 1d 89 3b a1 76 f8 bd
       -0.08153065 0.009313404 0.0041844146 -0.12132002
0002f0 e2 81 ea bd 6b fd 9c 3d bd 69 22 be 45 58 3e bd
       -0.114505544 0.07665523 -0.15860648 -0.0464709
000300 45 9f d6 3c 44 d9 a3 bd af 82 b9 bd ce 58 42 be
       0.026198993 -0.080004245 -0.09058129 -0.18979189
000310 6d 99 27 bc ad 10 eb 3d 7f 64 63 be 45 65 ad 3d
       -0.010229451 0.1147779 -0.22206305 0.08466581
000320 9d 2b dd 3d 85 f0 38 3e c8 f5 85 3c 51 55 d0 3d
       0.10799334 0.18060501 0.01635255 0.10172523
000330 6e 14 3f 3d d0 55 24 be d1 9d 0b be 72 61 21 be
       0.046650343 -0.1604836 -0.13634421 -0.15759829
000340 a1 ce 07 bd 2c ac 9f 3d 6e 6d 20 be 51 35 78 ba
       -0.03315604 0.07796511 -0.15666744 -0.0009468394
000350 9c ad 0d be db b3 5e 3d 35 dc 10 be 0e 25 2a 3c
       -0.13835758 0.054370742 -0.14146502 0.010384811
000360 c6 56 fc bd d1 84 03 be 65 89 69 bd 08 74 af 3d
       -0.12321238 -0.12843634 -0.057015795 0.08567053
000370 5b ff 59 bd 57 52 06 be c3 22 35 3d 2c 41 44 be
       -0.05322204 -0.13117348 0.044222604 -0.19165486
000380 90 64 07 3e b4 dd 48 be 32 a6 97 bd 86 ae 76 be
       0.13221955 -0.19615823 -0.07404746 -0.24090013
000390 62 14 09 be 80 20 00 3e 57 9c 42 3d 1d a7 97 bc
       -0.13386682 0.12512398 0.04751238 -0.018512303
0003a0 3a 1e 68 be d6 f1 09 3d 2a 8b ba bd ca 53 97 bd
       -0.2266778 0.0336779 -0.09108575 -0.07389028
0003b0 5a 50 09 3b 57 b5 c9 3d b2 1a f2 bd 84 90 a0 bc
       0.0020952434 0.09849041 -0.11821498 -0.01960016
0003c0 4e 4b 47 be f6 3f 3c be f3 73 81 bd 8d d9 21 bd
       -0.1946232 -0.18383774 -0.06320944 -0.039514113
0003d0 7c 39 d0 3c 5d 24 d6 bd ec 7d 86 bd 03 ba 8d 3d
       0.025418036 -0.104561545 -0.065669864 0.069202445
0003e0 82 84 1d 3b 36 9a b4 3d 33 9c 9c bc 1b 68 29 be
       0.002403528 0.08818476 -0.01911745 -0.1654362
0003f0 ae 7d d8 bd e3 a6 e0 3c c7 bd f5 bd 77 3b 49 be
       -0.105708465 0.027423328 -0.11999088 -0.1965159

fc2.weight f4 [256, 260]
000000 35 49 3e 3b 65 a8 6a bd 8f d5 73 39 43 be 62 bd
       0.0029035334 -0.0572895 0.00023253843 -0.05535723
000010 74 77 99 3d e0 e9 51 bd ea e8 74 3d fa f1 cc 3d
       0.07493487 -0.05124843 0.059792437 0.10007091
000020 fd 31 c2 3c d6 50 04 3d cd d3 91 3d 90 de 2e bc
       0.023705477 0.032303654 0.07120476 -0.01067318
000030 ae d9 6c 3b ce d2 bc 3d 70 9b 13 3d 41 57 0e bd
       0.003614049 0.09219895 0.03603691 -0.03475118
000040 35 e9 6e 3d 3b e9 22 3b c4 36 71 3d ce f6 8b 3d
       0.058327872 0.0024858254 0.05889012 0.06834184
000050 5d cb 11 bc 0e 9b 0e be 87 00 27 3c 9a 8b 0c bd
       -0.008898583 -0.13926336 0.010192997 -0.034312822
000060 83 b3 4f be a7 f8 94 bd f0 4a aa 3c a3 b3 9c 3d
       -0.20283322 -0.07273989 0.020787686 0.076514505
000070 4c 7e 29 3d 34 37 0d be ad c5 6a bb 4c 51 49 3d
       0.04138021 -0.1379059 -0.003582339 0.049149796
000080 26 98 d8 3c db b5 04 be d0 73 93 3c 7e 22 06 3d
       0.026439738 -0.12959997 0.01799956 0.032747738
000090 09 81 85 bd 37 f9 c8 3d 26 bd f9 3b d7 a8 ab 3c
       -0.06518752 0.09813159 0.007621425 0.020954533
0000a0 06 8c 14 3d 3b 61 19 be 45 5c e0 3c 91 f5 71 3d
       0.03626635 -0.14978497 0.027387748 0.05907208
0000b0 d5 56 75 3d 0e ca d6 bd ba 86 a8 bb ee 37 ad bc
       0.059897263 -0.104877576 -0.005143014 -0.021144833
0000c0 e3 b9 02 bb 29 45 14 be a1 4a dc 3c 84 c7 92 3c
       -0.0019947223 -0.14479508 0.026891055 0.017917402
0000d0 66 22 63 3d d5 17 63 3d c5 58 9b bd 41 18 c6 3d
       0.055452727 0.05544265 -0.07585291 0.09672595
0000e0 ba 12 68 3c c8 8f ad 3c 9a cc 7a 3c 9b 88 e8 3c
       0.014164621 0.021186724 0.01530757 0.028385451
0000f0 eb 55 16 be b9 a8 71 ba b2 c9 34 3d 7c 82 d2 bd
       -0.14681213 -0.0009218562 0.044137664 -0.10278794
000100 50 8e 1e bd 3b 64 a6 bc c6 a9 a0 bc 17 69 f2 bc
       -0.03870994 -0.020311465 -0.019612204 -0.029591126
000110 44 9b 99 3d 34 81 09 3d dd 9b 0c 3d 7c 2e 54 bc
       0.07500318 0.033570483 0.03432833 -0.012950536
000120 10 fa 09 bd 2a 24 63 bd 68 8a fa bc de 07 34 3d
       -0.033685744 -0.05545441 -0.030583575 0.043952815
000130 f2 94 89 39 13 17 13 3c 74 3d c4 3c b5 30 46 3d
       0.0002624165 0.008977669 0.023955084 0.048386294
000140 b5 ed c9 3b 99 4a 15 bc e1 79 14 3d 20 54 41 3d
       0.00616237 -0.009112024 0.036249045 0.04719937
000150 e4 29 7a bc 2d 26 0b bd 81 55 b9 3d d7 13 2c 3c
       -0.015268777 -0.033971954 0.09049512 0.010502777
000160 b6 cb 47 3c 6c 0d f2 bd 0b 22 ff 3c 3f 9a 49 3d
       0.012194565 -0.11818966 0.031144163 0.049219366
000170 b9 36 3e 3d 84 00 3a 3c 72 a8 b4 3d 8d 40 69 bc
       0.046438906 0.011352662 0.08821191 -0.0142365815
000180 63 c2 39 bc 8a 41 91 bb a3 59 91 bd eb a7 8d bd
       -0.011337849 -0.0044328617 -0.07097175 -0.069167934
000190 bc 78 84 3c f1 d2 85 3c 51 b4 7b bd 0f 40 9d bc
       0.016170852 0.016335936 -0.06145126 -0.019195585
0001a0 ac 52 df 3b 28 e4 dd bd 77 0a 81 3d 4d 3a 66 bb
       0.006815275 -0.10834533 0.06300824 -0.0035129965
0001b0 02 ce 8f 3c fd a9 a7 3c 4d c6 b8 bd 93 92 3f 3d
       0.017554287 0.020466799 -0.09022198 0.046770643
0001c0 bc e4 a6 bd 7d e5 64 3d ed 28 8e 3d 4f a4 17 bd
       -0.08149096 0.05588292 0.069414 -0.03702193
0001d0 0e 6d d7 bd 82 26 a6 bc 89 49 7d 3c 9b 4a 39 3c
       -0.105188474 -0.020282034 0.015459427 0.011309291
0001e0 88 a8 82 3d 24 56 d7 3c 7a 51 83 bd 14 42 98 3d
       0.06379801 0.026286192 -0.06412025 0.074344784
0001f0 76 55 2a bc 2f f3 17 3d 34 c2 39 3c d4 56 08 3e
       -0.010396352 0.037097152 0.011337806 0.13314372
000200 a7 4e 38 3d 4c 5b af 3d ea 7e 30 3d d7 cc 5f 3d
       0.044996884 0.08562335 0.043089785 0.05463871
000210 01 d5 eb 3d 3c 4d 8f bd 22 16 75 3c 19 55 d7 3c
       0.11515237 -0.06997153 0.01495889 0.026285695
000220 f3 bc a7 bb 21 8e 1c 3d 14 c1 c9 bd cc c5 15 bd
       -0.00511896 0.038221482 -0.0985128 -0.036565587
000230 ef 47 64 3d 5c 3f 9d bd f2 02 99 bd a8 9a 12 3d
       0.055732664 -0.076781005 -0.07471265 0.035792023
000240 f0 af 64 3d 05 19 36 bd 55 c5 c7 bd bc 92 ac 3c
       0.05583185 -0.044457454 -0.09754435 0.021066062
000250 a6 39 ad bd 6c 7c 5e 3d 52 13 ab bd 63 10 9a bd
       -0.08458261 0.054317877 -0.083532944 -0.07522657
000260 fd 58 c6 bb 21 e1 83 bd c9 77 a0 bd 53 8d 0f 3e
       -0.0060530887 -0.06439424 -0.07835347 0.14018755
000270 5b 78 8d bc e6 9e 9e 3b f6 b3 8f bc fc 42 4a bc
       -0.017269304 0.0048407195 -0.017541867 -0.012345072
000280 24 3c 18 be 21 f4 a9 bd d4 78 55 bd 86 01 80 3c
       -0.14866692 -0.08298517 -0.052117184 0.015625726
000290 56 97 a1 3d 16 64 fb 3c 09 7e 7a 3c ba 14 91 bd
       0.07890193 0.030687373 0.015288838 -0.070840314
0002a0 01 b3 08 3c 7e 69 1f bd 14 08 30 be 4d 76 c5 3b
       0.008343459 -0.038918965 -0.17190582 0.0060260654
0002b0 6e 53 ed 3c 2a 78 11 3d c9 b5 02 3d 66 3c 69 bb
       0.028970446 0.035514988 0.031911645 -0.0035588979
0002c0 68 1d c0 bb cc c8 9e bd 27 9e 16 3d b7 a0 32 be
       -0.0058628805 -0.07753143 0.03677192 -0.1744412
0002d0 86 01 8b 3d 8d 53 54 bd 76 b4 9b bd c8 e7 9b ba
       0.067874 -0.051837493 -0.076027796 -0.0011894638
0002e0 25 4c bc 3c de df 82 bd 2d 99 55 bd 7c 6f d7 bd
       0.022985527 -0.063903555 -0.052148033 -0.10519311
0002f0 ab 22 a0 bd 15 86 4e bc 0a 62 c8 bd a7 cf c2 bd
       -0.078191124 -0.01260521 -0.097843245 -0.09512263
000300 86 75 6a 3d a5 2f 8b bc 7f 1c ae 3c 27 6e 8b bd
       0.057240985 -0.016990492 0.021253822 -0.06808119
000310 99 23 cb bd ba 14 08 be 96 96 87 3d 41 2b c4 3c
       -0.09918899 -0.13289157 0.06620519 0.023946406
000320 45 5a 5f bd 10 96 74 bd 01 cc b5 bd 09 17 07 3d
       -0.054529447 -0.059713423 -0.08876801 0.032980952
000330 2a 39 58 3d 5e 17 df bb b5 a5 5d 3d ee 9f 44 bd
       0.05278889 -0.0068082055 0.05411311 -0.048004083
000340 d3 ed b1 bd eb b1 2d bd 5e 87 67 bd 97 b6 42 bc
       -0.086879395 -0.042406004 -0.05652558 -0.011884353
000350 13 7f f2 3d f5 9f 53 bc 0a 91 83 bd bd 3c 4a 3c
       0.11840644 -0.012916555 -0.064241484 0.012343583
000360 8b 71 fd bb 24 16 9d 3a 54 43 2e bc df 34 d8 3c
       -0.0077344826 0.0011984748 -0.010636169 0.026392398
000370 d1 4e a5 bd 6a e2 5b bc 96 39 c3 3c ce 6d 69 bd
       -0.08071674 -0.013420681 0.02383117 -0.056989484
000380 0a 32 07 bb ab 90 45 3c e5 3f 46 bd fb 6f 0c be
       -0.002062919 0.012058417 -0.04840078 -0.13714592
000390 00 5d 80 3d 22 f1 10 bd 1d 89 54 bd ff 34 b0 bc
       0.06267738 -0.035386212 -0.051888574 -0.021509646
0003a0 a3 6c f1 3c d4 76 16 3d 49 81 ec 3d a5 86 63 bb
       0.029470747 0.036734417 0.11548097 -0.0034717706
0003b0 c2 7c 0c be ea 13 c4 bd 2c 3c 9c bc f4 a6 4c 3c
       -0.13719466 -0.09574111 -0.019071661 0.012490977
0003c0 56 3b 24 3b 23 e7 06 3e a5 18 17 bc 7f 80 33 be
       0.002505978 0.13174109 -0.009222184 -0.17529486
0003d0 1c 76 69 bd a4 7d 95 bd a6 e6 09 3d 84 41 fa bc
       -0.056997404 -0.07299355 0.03366723 -0.030548818
0003e0 91 c9 82 3c b3 b0 99 bd f3 b8 e9 3a 45 ff d8 bd
       0.015965255 -0.07504406 0.0017831608 -0.10595564
0003f0 fc d6 dd bb 5c 59 02 3c 1d 11 e9 3c a6 1d 2e be
       -0.006770013 0.007955875 0.028450543 -0.17003497

fc2.bias f4 [256]
000000 1f ec 17 bd 66 06 79 bd 6e 9d cd 3c 61 6d 21 3d
       -0.037090417 -0.060797118 0.025099482 0.039410952
000010 5a cc 28 3d b2 38 94 bc a0 ef 91 3d 79 86 7f 3c
       0.04121051 -0.01809344 0.07125783 0.015596026
000020 24 34 85 bd 6f 7e 0a bd 50 ec c5 3c 29 1a 82 3b
       -0.06504086 -0.033811983 0.024160534 0.0039704037
000030 23 cb 66 3d 52 a9 90 3b 55 78 17 3d 47 68 a1 3c
       0.05634607 0.004414716 0.036979992 0.019703044
000040 71 90 b9 3d 34 11 96 3c dd fd fe bc bd 2e 4e bd
       0.09060753 0.01831875 -0.03112691 -0.05033754
000050 78 bd c2 3c d0 08 dd bc cb 42 86 bb e2 e4 e3 bb
       0.023771986 -0.026981741 -0.004097318 -0.006954775
000060 0e 1e 2f 3d df 84 88 3d 30 a2 4b bd 5b 5e 3b 3d
       0.04275327 0.06665968 -0.04971522 0.04574428
000070 83 0d 5f 3d f3 2c b4 3d c0 9b 1b bc 20 0a 97 3d
       0.054456245 0.08797636 -0.009497583 0.07374978
000080 a1 21 36 3d a1 e4 99 bc 4f 28 10 3d 12 4b e4 3b
       0.044465665 -0.018785777 0.03519469 0.006966957
000090 be 9f 39 bc fb 3a bd bc 13 ca 4d bd 58 08 61 bd
       -0.011329589 -0.023099413 -0.05024154 -0.054939598
0000a0 9d ce 44 bd 25 34 5b bd ea 78 95 bd f4 d5 60 3d
       -0.048048604 -0.053516526 -0.07298453 0.05489154
0000b0 87 ba 7b bd bf ac 68 3d 9d b9 7b ba b3 03 b3 bc
       -0.061457183 0.05680537 -0.00096025487 -0.02185235
0000c0 60 4d b9 3c f2 d0 fd bc 3c 79 99 bc e3 1c aa 3d
       0.022619903 -0.030983422 -0.018734567 0.08306291
0000d0 eb 82 76 bc ec 9f 0c 3d a9 e4 cd bc 10 9e 93 3d
       -0.015045862 0.0343322 -0.025133448 0.072078824
0000e0 e4 c7 93 3c 4c ad e1 3c 74 17 47 3b 23 8c 98 3c
       0.018039651 0.027548455 0.003037897 0.01862151
0000f0 d8 27 4b 3d 18 bb 3f 3d 78 9a 33 3d 66 61 1d bd
       0.049598545 0.046809286 0.043848485 -0.038422965
000100 14 8e 27 3d e6 83 9d 3c 32 73 88 3d 5e 6f 70 bd
       0.04090698 0.019227933 0.06662597 -0.058699958
000110 41 66 16 3c c6 b8 4a 3d 2f a6 49 bd b2 22 a5 bc
       0.009179653 0.04949262 -0.04923075 -0.020158146
000120 86 b5 1f bc 57 78 14 3d 38 c5 82 3d 68 e5 c4 bc
       -0.009747868 0.036247578 0.06385273 -0.02403517
000130 0e 8a b9 bd c4 66 50 3d 91 da f4 bc ca b9 bc 3c
       -0.09059535 0.050879255 -0.029889377 0.02303781
000140 97 cd e4 3c c6 7a 24 3c 4b be 9e ba 78 d7 4c bd
       0.027930064 0.010039037 -0.0012111155 -0.050010175
000150 df 03 7a bd 26 94 4a 3d d7 ec ae 3c 0c 11 b1 3d
       -0.061038848 0.04945769 0.021353168 0.086458296
000160 7b b2 bd 3c 56 f3 11 3d 41 96 d9 3c 22 b9 03 bc
       0.023156395 0.035632454 0.026560904 -0.008039745
000170 38 8c 1e 3c 13 90 57 bd 08 93 84 3c fc 1a 69 3d
       0.009676985 -0.052627634 0.016183391 0.0569105
000180 09 c3 90 bd 70 3c 42 3b 69 ec ff 3b 39 7d 84 3d
       -0.0706845 0.0029638074 0.0078101647 0.06469197
000190 75 ae 85 3d e7 ee 7b bd 4f c2 52 bd e5 0b 20 bd
       0.06527416 -0.061507132 -0.05145484 -0.039073844
0001a0 a7 bd 42 bd 86 54 18 bd 15 f1 46 3d 40 26 20 bc
       -0.047544148 -0.037189983 0.048569757 -0.0097747445
0001b0 9e eb b0 3a 68 1f 98 bc 63 9f 9d 3c 2d 98 39 3c
       0.0013497954 -0.018569663 0.01924104 0.011327785
0001c0 03 b3 1c bb e6 db 35 bc 65 f2 59 bc d3 63 fe bc
       -0.002391041 -0.011099791 -0.01330242 -0.03105346
0001d0 78 bd 97 bc 25 56 26 3d 1f 7f 91 3d e3 7f ff 3c
       -0.018522963 0.040609498 0.071043245 0.03118891
0001e0 1a d8 ab 3c a2 04 b1 bd 09 b7 29 bb 3d 21 bd 3c
       0.020977069 -0.08643462 -0.002589645 0.023087138
0001f0 1c eb 20 bd 8c 49 13 bd f2 a5 45 3d 9c 80 18 3d
       -0.039286718 -0.03595881 0.04825396 0.037232026
000200 63 b2 6e bd bf 71 91 3a c6 e5 83 3d 38 5f 06 bd
       -0.05827559 0.0011096521 0.0644031 -0.03280565
000210 02 ec 48 bd c1 48 0a bd cf e8 7c 3c 32 e1 86 bd
       -0.0490532 -0.03376079 0.015436365 -0.06585921
000220 6e 7a cb bc 6b dd bf 3c 85 f5 0e bd a3 23 b0 bd
       -0.024838652 0.02342101 -0.034902114 -0.08600547
000230 57 78 82 3d 1e b5 23 3b b0 34 a8 bd 77 f3 45 bd
       0.06370609 0.002497978 -0.08213174 -0.04832789
000240 7c 9e 8d bb 38 58 cd 3d 37 a7 21 bd ec 55 53 3a
       -0.0043218713 0.10026592 -0.03946611 0.00080618146
000250 a5 43 95 bd e0 21 6c bd 33 51 f3 3c 25 90 86 bd
       -0.07288293 -0.057649493 0.029701805 -0.06570462
000260 6d dd cf 3c 90 82 97 bd 8c 37 77 3c da 7c 38 bd
       0.025374139 -0.0739795 0.015088927 -0.045040943
000270 6d 54 76 39 2d da 45 3c 31 8c 06 3a fe db 5f bd
       0.00023491839 0.012075943 0.00051325845 -0.05465316
000280 6f 7a 93 3c 2e 40 a1 bc 9e 33 98 bd 1c 1f 9b 3d
       0.018002717 -0.019683924 -0.0743172 0.07574293
000290 5d 0b 0d 3c 7e 5c 97 3b 3f f0 0c 3c 64 cd 70 bd
       0.008608666 0.00461918 0.008602201 -0.058789626
0002a0 4e 60 8c bd db 8d ca 3c 47 b6 82 bc 3d e5 79 3d
       -0.06854306 0.024725845 -0.015956057 0.061009634
0002b0 ca 2a 9e 3c b4 70 12 3c 9e 35 19 bd db 0f b8 bc
       0.019307513 0.008938003 -0.03740465 -0.022468498
0002c0 72 6b 2e 3c 91 fa c7 bc 3a ec bb 3d 6a 99 30 3d
       0.010645734 -0.024411472 0.09175916 0.043115057
0002d0 df 98 00 3d c4 b4 6e 3d b3 2c 0e 3d d0 ad ad bd
       0.03139579 0.05827786 0.034710597 -0.08480418
0002e0 c8 7f 6f bd 70 8b 25 3d 98 7b fd bc b2 05 68 bc
       -0.05847147 0.04041618 -0.030942723 -0.014161514
0002f0 96 10 eb 3c 7f 9c f3 3c f6 96 c5 3c 40 ee c7 3d
       0.028694432 0.02973771 0.024119835 0.097622395
000300 db 55 8b 3c fd 24 b5 bc f7 c0 45 3d 59 6e 8e 3c
       0.017008713 -0.022112364 0.04827973 0.017386602
000310 fa fd b9 bc 43 41 22 3d 0c 1e 7f bc 6f 92 22 3d
       -0.022704113 0.03961302 -0.015571129 0.03969043
000320 c3 c8 0f 3d 00 e0 12 bd 66 07 1f bd 6c c5 66 bb
       0.03510357 -0.035858154 -0.038825415 -0.0035212887
000330 a6 bc da 3b 9d f4 18 3d 84 37 b3 3c 77 e4 e0 3c
       0.0066753207 0.037342656 0.021877058 0.02745269
000340 dd c2 e0 bc 40 8c dc bc 02 78 9a 3d ee 0c b9 3c
       -0.027436668 -0.026922345 0.07542421 0.022589173
000350 3c d3 4e bb 24 69 17 3d d5 c7 90 bc f2 f2 c0 3b
       -0.003155901 0.036965504 -0.017673412 0.0058883363
000360 ab 2f 49 bc 72 b8 67 bc bf 08 12 bd a2 7a 09 3c
       -0.012279431 -0.014143096 -0.035652872 0.008391054
000370 29 55 2b 3d 16 94 86 3d 42 44 eb 3d da ac 0e bd
       0.041829262 0.06571214 0.114876285 -0.034832813
000380 44 71 b1 bc 72 28 19 bd 40 6a 19 bd a5 9c 6a 3d
       -0.021660455 -0.037392087 -0.037454844 0.057278294
000390 c2 dd df bc 47 7e 3c bd 44 3c 03 3d b8 e1 95 bd
       -0.027327422 -0.046018865 0.032039896 -0.07318443
0003a0 cb ad a4 bd 62 1e 44 3d 02 60 76 bd ff 0a 2a bd
       -0.08040961 0.047880538 -0.060150154 -0.041514393
0003b0 a7 38 1a bc 4c 4f 99 bd 8e 64 35 3d 8c 87 7d bd
       -0.009412921 -0.07485828 0.04428535 -0.061896846
0003c0 7d bb b4 3d 65 b8 eb 3c 2c c8 04 bd ad c9 76 ba
       0.08824823 0.02877445 -0.03241746 -0.00094142073
0003d0 38 aa 21 bd 6e b3 ff bc 84 58 12 bd c6 72 7c 3c
       -0.039468974 -0.031213488 -0.035728946 0.0154082235
0003e0 33 e8 ab bd d6 fa 62 bd eb a0 cc bc cf 38 bc bd
       -0.08393898 -0.055414997 -0.024979075 -0.09190523
0003f0 8d a6 8a 3c 2d 7a 8a 3c f9 03 0d 3d 9c 49 66 3c
       0.01692512 0.016903961 0.034427617 0.014055636

fc3.weight f4 [1, 256]
000000 f1 76 c7 3c 73 79 17 bd 57 a4 c9 3d ee 11 e2 bc
       0.024348708 -0.036981057 0.098457985 -0.02759644
000010 bc c3 bc 3c 96 e8 d6 bc 4d dc 67 3d 75 84 3c 3c
       0.023042552 -0.026233952 0.05660658 0.01150619
000020 70 b0 f4 bc 30 73 43 bc 9a 19 be bc fe 31 91 3c
       -0.029869288 -0.011929318 -0.023205567 0.017724033
000030 a5 6a c3 3c d7 31 80 bd 51 25 29 3d 8a 25 ca 3c
       0.023854563 -0.06259506 0.041295353 0.024676103
000040 7a 86 dd 3c d6 74 cf bc 26 87 b2 bc 27 6f d1 bc
       0.027041662 -0.025324266 -0.02179296 -0.025565697
000050 08 08 79 3d d3 91 dd bc 9f 22 53 bc c0 c8 f2 3b
       0.060798675 -0.027047073 -0.012886672 0.007409185
000060 91 93 c7 bb 37 a6 a5 3c 7d 11 a2 3d 28 08 87 3c
       -0.0060905893 0.020220859 0.07913492 0.016483381
000070 d6 d8 1d 3d e3 70 e9 3c d5 9f e8 bd 91 a7 b3 3d
       0.03853687 0.028496211 -0.113586105 0.08772195
000080 4e d2 ab bc fa e7 49 bc 08 72 79 bb fe bf f9 bc
       -0.020974305 -0.012323374 -0.0038062353 -0.030487057
000090 44 4c 5f bc e2 40 5d bc 27 62 c2 3c 08 af 73 bc
       -0.013629023 -0.013504239 0.023728443 -0.014873274
0000a0 b1 9a 2c bd 10 41 43 bd 60 de 9a bc a2 a1 0e 3d
       -0.042139713 -0.04766947 -0.018904865 0.034822114
0000b0 21 73 a3 bc cb e4 95 3d 29 f2 42 bd 28 19 7c bc
       -0.019952359 0.073190294 -0.047594223 -0.015386857
0000c0 6d ca eb 3c 09 e9 27 3c 8e 1f 19 bd a6 b3 1d 3d
       0.028783048 0.010248431 -0.03738361 0.038501404
0000d0 92 69 d7 3c 30 91 9c bd aa 2a ce 3c 63 7a 16 3d
       0.026295457 -0.0764488 0.025166828 0.03673781
0000e0 b0 65 81 3c cf 3d 0c bd bc b8 8e bc a6 30 cf bd
       0.015795559 -0.034238633 -0.017422073 -0.10116701
0000f0 45 44 25 bd 25 7f 95 bc 08 29 ae 3c 5f 70 82 bc
       -0.04034831 -0.018249104 0.0212598 -0.015922723
000100 b5 e0 9b 3c 51 3b b9 bc fb 87 b4 3c 90 69 00 be
       0.019028047 -0.022611292 0.022037497 -0.12540269
000110 38 76 b3 3c b6 7b ba 3c f6 25 06 bd 1d e5 8a bc
       0.021906957 0.022764068 -0.032751046 -0.016954953
000120 f0 1a 20 3c 04 f9 09 bd 22 f3 db bc 39 8f f1 bc
       0.009772047 -0.033684745 -0.026849333 -0.02948724
000130 63 d1 8b bc 9a 57 04 bd cc 0b 80 3c ee 7c 21 be
       -0.017067617 -0.032310106 0.015630625 -0.15770313
000140 60 c5 8c 3d 32 09 a9 3c 6a 94 8a bd 57 a2 66 3d
       0.06873584 0.020634267 -0.06766589 0.056307163
000150 22 7c b8 bd 36 5c f2 bb d4 a3 8c 3d 2a 14 c5 3d
       -0.090080515 -0.0073962463 0.06867185 0.096229866
000160 e0 46 ba bc be 7e bf bc 3f 8a d5 3c f3 c7 a5 3c
       -0.022738874 -0.023375865 0.026066897 0.020236945
000170 80 57 30 bc bf 5e fb bc 05 53 87 bc e2 20 18 3d
       -0.010763049 -0.030684827 -0.016519079 0.037140734
000180 50 2f a5 3d 27 7c a0 bd 7a be 83 bc f5 c1 74 3c
       0.08065665 -0.0783618 -0.016082037 0.014938821
000190 0c 10 a4 3c 41 89 26 bd e6 a1 82 bd 7f 08 07 3e
       0.020027183 -0.04065824 -0.06378536 0.13186835
0001a0 a5 fe da bc cb 44 c0 bd 23 6e e3 3d 72 d4 b5 bd
       -0.026732752 -0.09388121 0.11104991 -0.08878411
0001b0 32 85 82 3c f9 b3 72 bc c8 d3 05 bc 47 66 9b bc
       0.015932653 -0.014813417 -0.008168168 -0.018969668
0001c0 b0 d9 a5 bc a2 33 f5 3c 5b ee 58 bd b5 80 6a bc
       -0.020245403 0.029931847 -0.05296169 -0.014312913
0001d0 7d b3 d7 bd 0d 05 a2 3d 4c ea dc 3c e0 1d 8c bc
       -0.105322815 0.079111196 0.02696719 -0.01710409
0001e0 b2 06 82 bc 08 56 fe bc 36 2d 45 bd a6 91 8c 3d
       -0.015872333 -0.031046882 -0.04813882 0.06863718
0001f0 72 f4 de 3c 39 a1 69 bc 56 82 d8 3c 7e 2b 26 bc
       0.02721617 -0.01425963 0.026429337 -0.010142205
000200 ee 50 3d bc b8 d9 74 bc d1 fa e7 3d 2c da 84 bd
       -0.01155494 -0.014944486 0.11327136 -0.064869255
000210 ea 5f 88 3c c9 f8 f4 bc c1 58 a8 bd 39 76 9e bc
       0.016647298 -0.029903786 -0.082200535 -0.019343482
000220 25 25 50 bc b6 12 3f bd 94 7a c1 bc ac 61 33 bd
       -0.012704168 -0.046648704 -0.02361802 -0.04379432
000230 3b 5e 0f 3d 47 e8 50 3d ec a6 87 bc 17 80 83 bc
       0.035001975 0.051002767 -0.016559087 -0.016052289
000240 cf c9 d0 3c f7 9b de 3c 6e ac ac bc 61 fb 46 bd
       0.025486855 0.02717398 -0.021078315 -0.048579577
000250 44 46 33 bd 64 0c da 3c bf 22 c3 3c d2 3b dd bc
       -0.043768182 0.026617236 0.02382028 -0.027006064
000260 bb e3 20 bc 98 93 45 3c 1e ff b3 bc ea 76 68 bc
       -0.00981992 0.012059115 -0.021972235 -0.014188508
000270 55 5f 10 bd 9a f2 e2 3c aa d1 ef bb 8b 1c 46 bd
       -0.035247166 0.027703572 -0.007318695 -0.048367064
000280 3f f3 6c bc 9b 9d 34 be 50 53 8e bc b7 fd 29 3d
       -0.014462291 -0.17638247 -0.01737371 0.041501727
000290 b7 9a 6f 3d 0f 64 e4 3c 85 97 af bc 36 03 10 bd
       0.058497157 0.027879743 -0.021434555 -0.035159312
0002a0 83 fa 8d bd a6 23 3f 3c e6 65 d8 bc e6 82 80 3d
       -0.06932547 0.011666214 -0.026415776 0.06274967
0002b0 05 44 ec bd eb 67 d7 3c ed 44 2c bd d4 0e 31 bd
       -0.11536411 0.02629467 -0.04205792 -0.04322703
0002c0 4c 5e 45 bd f0 bb ce bc 0a ae b4 3d d3 9c 93 3c
       -0.04818563 -0.0252361 0.08822258 0.018019116
0002d0 1f 19 f4 3c 47 9f 99 3c 63 84 81 3e cf 60 9b bc
       0.029797135 0.018752707 0.25296316 -0.01896706
0002e0 ce 79 0e bd c2 39 aa 3c ab 2a 04 bd 96 8e b0 3c
       -0.03478413 0.020779494 -0.032267254 0.021552365
0002f0 81 0b 86 be dc b2 f9 3c 2c 64 b8 3c 8a 68 2a 3d
       -0.26180652 0.030480795 0.022508703 0.041603602
000300 90 c5 2c bc a9 81 0f bc 9d b8 26 bc 15 c0 34 3c
       -0.010545149 -0.008758941 -0.010175851 0.011032124
000310 73 9f ad 3c 3f 50 12 bc e7 d6 9d bc a9 a4 71 bc
       0.021194195 -0.008930265 -0.019267512 -0.014748731
000320 ad f4 b3 bc 07 6a 0d bd 5b f3 67 3c 1e 12 cf 3c
       -0.021967256 -0.034524944 0.014157142 0.025277194
000330 c0 ee 3a bd 9a 0e 50 3e 39 9d b7 3c f6 89 51 3d
       -0.045637846 0.2031807 0.022413837 0.05115696
000340 75 c3 c6 bc 61 1e 1a bd 26 ef a4 3c 76 bb 9a 3c
       -0.024263123 -0.037626628 0.020133566 0.018888216
000350 f4 10 51 3d 82 44 43 3d 31 41 a6 3d c5 74 ff bc
       0.05104156 0.047672756 0.08117903 -0.03118361
000360 37 3e 27 bd d0 66 88 3c 21 21 a6 bc 59 99 37 bc
       -0.040830817 0.016650587 -0.020279469 -0.0112059945
000370 3a 33 ca 3c 98 7d 8b 3d 2a c3 00 3d 09 92 fc 3c
       0.02468263 0.068110645 0.031436123 0.030831354
000380 e6 51 64 bd 57 2c cb bc 4c 2c c1 3c 66 2d 8c 3c
       -0.055742167 -0.024801416 0.023580693 0.017111491
000390 76 87 80 3d bb 08 1f 3d af 0f 14 3d 4a ed c9 3c
       0.06275837 0.038826685 0.03614777 0.024649281
0003a0 10 f7 1b 3d a8 cf 94 bc 4d a4 4a bd 50 c8 86 bc
       0.038077414 -0.018165424 -0.049473096 -0.016452938
0003b0 06 ad 11 bd 7a 7b 7a bd 39 f5 49 bd 65 df f0 bd
       -0.0355654 -0.061152913 -0.04930613 -0.11761359
0003c0 5c 7c af 3c af 1e ec 3c f9 1d 79 bd 52 93 9f bd
       0.021421604 0.028823225 -0.0608196 -0.07791771
0003d0 f4 76 e5 bd 95 73 94 bc 52 00 fc 3c 67 2f 35 bd
       -0.11204329 -0.01812152 0.030761871 -0.04423466
0003e0 08 06 0f 3d 10 4a 96 bc 00 8d b6 bd a8 ca 50 bd
       0.03491786 -0.018345863 -0.08913612 -0.050974518
0003f0 43 81 97 bc dc fd c2 3c eb 2f 1e 3d 41 d3 da bd
       -0.018494254 0.02380269 0.038619917 -0.10684825
