checkpoints/checkpoint_critic_ddqn_11.pth (torch_old, 304178 bytes, 5 tensors)

fcs1.weight f4 [256, 33]
000000 e1 ca 92 bd 46 14 a8 3d ee 5e 87 bd a6 c2 09 3d
       -0.07167602 0.08206992 -0.06609903 0.033632897
000010 90 8d 26 3d 04 43 9c 3c cc 19 44 bd 8b d8 79 bc
       0.04066235 0.019074924 -0.047876164 -0.015249382
000020 6b 0a aa 3d b5 f5 a2 bd 8c 8d 54 bc d1 34 0c bc
       0.08302768 -0.07957021 -0.0129732005 -0.008557514
000030 34 0f 25 bd 85 d6 c3 3d 88 f8 dd bc 50 8c 40 3c
       -0.040297702 0.09562401 -0.027096048 0.011752203
000040 de a1 85 3c 0c c6 41 3d 6d 5b bc bc 81 73 44 3c
       0.016312536 0.047308013 -0.022992814 0.011990429
000050 4d 51 f9 bc 9e 16 46 3d 27 61 db 3b e0 aa 20 3b
       -0.030434275 0.048361413 0.006694931 0.0024515912
000060 27 3a b1 bc e4 9e 68 3d de 6c ba bd 8f e5 e4 3d
       -0.021634175 0.056792155 -0.09102796 0.11176597
000070 7b 49 0c 3d e8 43 51 3d 4a 8e e7 bd 44 17 a6 3c
       0.034249764 0.05109015 -0.11306436 0.020274766
000080 bd ff b5 be 56 5c 37 bd 1c ce ee 3c 94 71 0b 3d
       -0.35546675 -0.044765793 0.029151015 0.034043863
000090 84 a2 45 3c d0 eb 40 bd fe 88 b4 bc 23 a3 a5 39
       0.0120626725 -0.04709989 -0.02203798 0.000315928
0000a0 6d b8 c9 bb 6d 42 91 3c 8b 51 1c 3b 92 92 2a bc
       -0.0061560185 0.01773187 0.0023852314 -0.010410922
0000b0 5c 36 bd bb 3e 87 05 bc 5b f4 c4 3d 44 0f 3f bd
       -0.0057743024 -0.00814992 0.096169196 -0.046645418
0000c0 9c ac 75 bd 45 e2 8c bb 61 f6 21 39 f0 0c 0c 3d
       -0.059979066 -0.0042994344 0.0001544594 0.034192026
0000d0 1a c7 68 ba d1 3e 4c bc e9 45 c6 3b 04 6a bc 3b
       -0.0008879766 -0.0124661485 0.0060508144 0.0057499427
0000e0 74 46 5e 3c 17 54 88 bb 74 4f 80 bc e3 a3 78 bd
       0.013566602 -0.004160415 -0.015662886 -0.06070317
0000f0 1a 82 09 3d 6b f7 98 3c c8 8d 3b 3c b7 33 18 3d
       0.03357134 0.018672666 0.0114473775 0.037158694
000100 4c ed 0a 3d 57 b1 86 be bd 05 66 3c 98 86 e5 bc
       0.03391771 -0.26307175 0.014039454 -0.02801828
000110 78 91 78 3c e0 25 93 bd 11 12 55 3d 1b 00 0d bd
       0.015171401 -0.071849585 0.052019183 -0.03442393
000120 bd 24 0e 3d b4 59 ea 3c 64 81 ce 3d 5b 39 b6 bb
       0.034703005 0.028607227 0.10083273 -0.0055610365
000130 a7 dc 04 3d 76 1f 6a 3c 0a f9 c3 3c 8a 97 7f 3c
       0.032436993 0.014289727 0.023922462 0.015600095
000140 12 11 7f 3d a1 6b 3d bc 34 dd a3 3b 0a 65 82 3d
       0.06227214 -0.011561305 0.0050007347 0.06366928
000150 ba 88 35 3d ba dc de 3c 5e 08 28 3c 62 1b 27 3b
       0.044319846 0.02720486 0.010255901 0.00254985
000160 e0 dc 55 bb d7 23 8a 3c 84 0d 83 3b fb 24 96 bb
       -0.0032632872 0.016862793 0.003999414 -0.004582045
000170 dc 5c 80 3c fe 9a a2 3c 90 7c c2 bc 86 9f 5b 3d
       0.015669279 0.019849297 -0.023741037 0.05361893
000180 cd 59 8f b9 d4 7f 97 3c 4f da 81 bc 97 71 0b 3d
       -0.00027341992 0.01849357 -0.015851168 0.034043875
000190 b6 78 3a 3d d9 3d 57 3d ec 9a 13 3d 3d 12 94 bd
       0.045525275 0.052549217 0.036036417 -0.07230041
0001a0 b2 0f 99 bc ed aa 8b 3d b3 f7 82 3c af ec 3c 3d
       -0.018684242 0.06819711 0.015987253 0.046124157
0001b0 a6 52 ba 3d 9b b2 ff 3c d5 7b e7 3b 69 01 a4 3b
       0.09097795 0.031213095 0.0070643225 0.005005051
0001c0 44 02 5c 3d 7d af 81 bd 94 b9 08 be 4f 11 b0 3b
       0.0537131 -0.063323 -0.13352042 0.005373157
0001d0 02 3f 24 bd ef 93 0d 3c 7c 16 fe bb 13 6b 1c bc
       -0.04009915 0.008641227 -0.007754145 -0.009547013
0001e0 a5 f8 03 bd bb e6 7a 3b 82 ef 97 3c 96 fb c4 bc
       -0.032219548 0.0038284499 0.018546823 -0.024045747
0001f0 21 d6 e5 bc c6 a4 d5 bc 1e e2 94 3d 55 54 b8 3d
       -0.028056206 -0.026079547 0.07269691 0.0900046
000200 d0 3c 78 bc 47 31 2d bd 84 ef b6 bc 33 69 96 3e
       -0.015151218 -0.042283323 -0.022331007 0.29377136
000210 2c 4a ed bb ac 6a 08 bc d3 ae 93 3d 39 ed a2 3d
       -0.007241508 -0.008326214 0.072110794 0.07955403
000220 54 17 12 be e1 6c e2 bd 5f 43 d2 bd a6 dc 53 ba
       -0.14266711 -0.11055923 -0.10266756 -0.00080818904
000230 88 00 24 3e 12 2b 8b bd 8d a0 9e 3b 16 50 87 bc
       0.16015828 -0.067953244 0.0048409165 -0.01651768
000240 76 0e d9 bc 06 b1 0c 3d 26 ff d8 3d ed ec 9d bc
       -0.026496153 0.03434851 0.10595541 -0.019278014
000250 46 05 e7 3c ad 60 c6 bd ae 74 11 3e fb 14 0c bc
       0.028200757 -0.09686408 0.14204666 -0.008549924
000260 b4 f0 81 3d 86 41 08 3d ef 96 b5 3c d5 f8 e8 bc
       0.063447386 0.033265613 0.022166697 -0.028438965
000270 6c 96 30 bc 45 80 b8 3c 81 cc 15 3c 81 25 a6 3d
       -0.010778051 0.022522101 0.009142996 0.08112622
000280 e3 b8 ae 3c 00 55 3b 3d 80 89 8f bd 20 99 2e bc
       0.021328395 0.04573536 -0.07008648 -0.010656625
000290 cd 7a 6a bd c6 b0 21 bd f4 ca 0b bd 2d 96 13 3d
       -0.05724602 -0.039475225 -0.034129098 0.03603189
0002a0 7e b7 5b 3d a0 39 a0 bd c0 c0 0a 3d a9 00 39 3d
       0.05364179 -0.07823491 0.033875227 0.045166645
0002b0 db 89 2f bc 32 a6 7d bc 17 68 32 3c 46 15 76 3b
       -0.01071402 -0.015481519 0.010889075 0.00375493
0002c0 5b 89 59 3b 93 fe 07 bc 16 db a4 3d 16 04 1a bc
       0.0033193443 -0.008300441 0.080496 -0.009400388
0002d0 59 53 94 bc 2b c4 19 bd 15 c8 9e 3d 2f 07 26 3c
       -0.01810615 -0.037540596 0.07753006 0.010133549
0002e0 47 01 f2 bb 7a 8b 29 bc 5a 90 31 bc c0 88 8c bb
       -0.007385406 -0.010348195 -0.010837639 -0.004288763
0002f0 55 3e 23 3c 9b b3 66 bc 26 8a 9a 3b f1 9a af bc
       0.009963592 -0.014080907 0.0047161756 -0.021436187
000300 be 01 b5 3d aa 96 35 3b 74 40 34 3d 61 47 3c bc
       0.08838223 0.002770821 0.04400678 -0.011491627
000310 30 e9 b1 3c 90 50 2b 3d 45 0c ab bd f4 37 e0 3d
       0.021717638 0.041824877 -0.083519496 0.10948172
000320 59 2f e3 bd 67 c9 a3 bc 38 ec 30 bc 68 17 09 bd
       -0.11093015 -0.019993497 -0.010798506 -0.033469588
000330 d2 2f 1b bc e2 09 3a bc 17 35 a0 3c d2 fc 92 3d
       -0.0094718505 -0.011354895 0.019556565 0.07177128
000340 1e 12 c0 bc 65 2b 42 3c 1e cd 44 bc 6d 77 ef 3d
       -0.023446139 0.011851166 -0.012011794 0.116927005
000350 18 9a 03 be 2b 98 18 3e a0 ec 32 3c ff fa 05 3c
       -0.12851751 0.14901797 0.010920674 0.008177518
000360 2d 2c 32 bd 8e 34 62 3c 01 42 b0 bc 55 d6 e4 bc
       -0.04349916 0.013806475 -0.021515848 -0.027934233
000370 e6 c2 36 3b 6d 5e 7b 3c 52 43 0c bd 8d f1 e3 3c
       0.0027887165 0.015342337 -0.03424389 0.027825141
000380 17 0e 90 bd 30 d1 f2 3d 81 00 9c bd 9e 0d 58 bd
       -0.070339374 0.118563056 -0.076172836 -0.05274736
000390 45 36 18 bc e0 65 4f 3c af 85 a9 bd 05 c6 14 be
       -0.009290283 0.012658566 -0.08277451 -0.14528663
0003a0 28 57 c5 bc 82 2e 41 3d 96 f7 24 bd 6b a3 85 bc
       -0.02408941 0.047163494 -0.04027518 -0.016313275
0003b0 c4 22 94 3d 8e 11 c6 3b 1b b9 b3 3d d1 80 b5 bc
       0.072331935 0.006044573 0.087755404 -0.022156151
0003c0 3f 3f 55 3b 21 b5 ad bc 5e fd a2 bc fb 4d ee bb
       0.0032538918 -0.021204533 -0.019896206 -0.0072724796
0003d0 be 8e 80 3d bc af 3a 3c 93 d5 85 bb b6 8a fb 3b
       0.06277226 0.011394437 -0.004084298 0.0076764477
0003e0 df b3 77 bc b8 33 f7 bc 78 fb 8f 3b 7e a9 75 bd
       -0.015118568 -0.030176029 0.004393991 -0.059976093
0003f0 e1 2a 70 bd 1e 4a 71 3c 56 d4 cf 3c f4 41 85 3c
       -0.058634643 0.014727144 0.025369804 0.0162668

fcs1.bias f4 [256]
000000 80 c1 a9 bd d1 f0 ac bd 15 57 b2 3d 92 15 20 be
       -0.0828886 -0.084443696 0.08708016 -0.15633228
000010 13 6d 06 bd 0c 70 98 bd e0 5f 73 be 3a 6c 07 3d
       -0.032818865 -0.07443246 -0.23767042 0.033062197
000020 3f f0 75 3d 43 05 a4 3d 58 81 63 be 3f f7 91 3d
       0.06004357 0.08008816 -0.2221731 0.071272366
000030 be ab 02 bd c2 40 5b 3d d4 61 bc 3d d4 eb 18 3e
       -0.031902067 0.053528555 0.09198347 0.14933711
000040 12 06 05 bc a3 03 20 bd b9 1d 18 be 2b 7f 4d be
       -0.008119123 -0.03906597 -0.14855088 -0.20068042
000050 3e 65 de 3c f8 c4 37 be 53 0a 69 bd 23 fe c6 3d
       0.027147885 -0.17946231 -0.05689461 0.097164415
000060 c8 4a 29 be e6 43 cc bc 1a b8 2a 3e d8 a4 12 3b
       -0.16532433 -0.02493472 0.16671792 0.0022376087
000070 0c aa 93 bd 44 95 2e be 45 2e 23 be cd 15 e8 bd
       -0.07210168 -0.17049128 -0.15935619 -0.11332283
000080 1a 30 80 3d ba 28 06 be a1 74 16 be 2c 74 11 3d
       0.06259175 -0.13101473 -0.14692928 0.03551118
000090 4a 33 54 be b8 4a 1f be ae 8f 71 3a 37 c9 67 3d
       -0.2072269 -0.15555847 0.00092148304 0.056588378
0000a0 6d b9 36 be b6 f5 2a bd e7 fe 8e 3d a7 5e 10 3e
       -0.17844172 -0.041738234 0.069822125 0.14098607
0000b0 a4 c2 0a 3c e7 8b cf bd c2 bc 5a 3d d6 ae c4 bd
       0.0084692575 -0.10134106 0.05340267 -0.0960366
0000c0 8c 2e 8d 3d 63 da 92 3d 7f d0 51 be 56 0b 59 3c
       0.06893644 0.0717056 -0.20489691 0.013247332
0000d0 c3 0f f9 bd 72 a4 ca bc 3d 0f ee bd 1d c7 82 bc
       -0.121612094 -0.024736617 -0.11624 -0.015964085
0000e0 23 1f 82 bd c9 9c b8 3d 45 47 7d be af 7e 41 bd
       -0.06353595 0.090142794 -0.24734218 -0.047239956
0000f0 82 da 24 be 43 c1 eb bd 59 dc c9 bd b5 f5 a0 bc
       -0.16098979 -0.11511471 -0.09856481 -0.019648412
000100 7f dd cb bd c4 31 3c be d7 cc 1c 3e 58 cb b7 bc
       -0.099543564 -0.18378359 0.15312515 -0.022435829
000110 b8 76 dc 3a ae dd db bd 0d ff 1b 3e e9 6c 22 be
       0.0016820049 -0.107356414 0.15234013 -0.15861858
000120 08 00 56 be d8 3a 7a 3c dc 8e 91 3c a1 8a 8d 3d
       -0.2089845 0.0152728185 0.017768316 0.06911207
000130 15 4e 4a be 90 cf a4 bd c0 77 1f be 2c 25 5b bd
       -0.19756348 -0.08047402 -0.15573025 -0.053502247
000140 72 e8 08 3e 93 8a 73 bd 70 e2 2e be 77 60 7e bc
       0.13369921 -0.059458327 -0.17078567 -0.015525929
000150 39 41 89 3d 7d 06 d1 3d 50 b4 59 be 89 40 85 bd
       0.06701893 0.10206316 -0.2126019 -0.0650645
000160 8b 5c 65 bd dd c0 bb 3d 00 3e b1 bd 2b 77 a0 3d
       -0.05599646 0.09167645 -0.08654404 0.078352295
000170 86 2f 50 3d cf 42 fd 3d d3 0e 13 bd ad 31 9b bd
       0.050826572 0.12366258 -0.03590281 -0.07577834
000180 fc 7b 1e bc e5 5d 39 be 22 bf 89 bd f6 1b df 3d
       -0.009673115 -0.18102224 -0.06725909 0.10894005
000190 d5 f4 b3 3c 61 2e 21 3d 19 56 a0 bc b3 98 f2 3c
       0.021967331 0.03935087 -0.019572305 0.029613828
0001a0 4a 19 96 3d 35 1d 96 bd 86 5e 6f bd 0c f5 ed bc
       0.07329042 -0.073297895 -0.058439754 -0.029047512
0001b0 42 2e 7c 3d 63 34 3d 3c 41 99 d5 3d 0a bc 7c bd
       0.061567552 0.0115481345 0.104296215 -0.061702766
0001c0 f1 37 47 be 28 29 79 be 44 40 3a 3c a1 2a 37 bd
       -0.19454934 -0.24332106 0.011367861 -0.04471839
0001d0 df ad 3f bd b8 98 b0 bd 24 66 69 3d 24 87 08 bd
       -0.046796676 -0.08622879 0.056982175 -0.033332005
0001e0 03 83 d3 3d e8 ef be 3d e5 df 72 bd 2a 04 88 3c
       0.10327723 0.09323102 -0.059295554 0.016603548
0001f0 24 d8 e0 3d 63 3e a9 bb 78 54 04 be a4 e5 cf bd
       0.109787256 -0.005164908 -0.12922847 -0.10151222
000200 93 e9 fb bd f4 c9 70 be 93 66 84 bd 3a 2b 12 be
       -0.1230041 -0.23514539 -0.06464877 -0.14274302
000210 79 9c 7b 3d d8 80 a5 bd 71 c8 fd bd 99 9b 6b bc
       0.06142852 -0.080812156 -0.12391747 -0.014380359
000220 a6 6c 3a bd c5 24 34 be ad 9b e8 bd 9c 83 8a bd
       -0.04551377 -0.17592151 -0.11357818 -0.06763384
000230 65 a1 02 bd ae 3a 47 bd a6 5e 60 3d 3d 61 0e bd
       -0.0318922 -0.048639946 0.054777764 -0.034760702
000240 61 bf ba bd 76 37 07 be a9 18 0f be 55 b1 fd 3d
       -0.09118534 -0.1320475 -0.13974251 0.12387339
000250 0a 6b 96 38 94 4a 35 be 20 c0 2c be bd 3a b3 3b
       7.172495e-05 -0.1770423 -0.16870165 0.0054696486
000260 8a 5d 02 bd d0 69 cc bd 22 f4 b0 ba 3a 4a d4 3c
       -0.031827487 -0.0998112 -0.0013500492 0.0259143
000270 d2 c5 08 be e1 83 05 3d 8c b4 e7 bd a7 66 06 be
       -0.13356712 0.032596473 -0.113137335 -0.13125096
000280 a0 35 cd 3c 21 2d 04 be 94 cc c6 3d d0 b4 b8 3d
       0.025049984 -0.1290784 0.09706989 0.09018862
000290 98 84 57 3d 08 ca 9c bd 63 f3 c7 bd a5 08 c9 bd
       0.052616686 -0.07655722 -0.09763219 -0.09816102
0002a0 ac 10 ef bd 85 86 c1 bd b4 dd 8e 3d 2b 4d c1 3d
       -0.11673102 -0.09449486 0.0697588 0.09438547
0002b0 62 02 03 be 4c f9 52 bb d2 8d 7b bd db 8c e0 3c
       -0.12793878 -0.003219205 -0.061414547 0.027410915
0002c0 94 f7 47 be ca 3b ca bd bb 42 0f be 21 9b e7 bd
       -0.19528037 -0.09874685 -0.139903 -0.11308885
0002d0 dd 81 c2 bd fe 4c 62 bd 03 ea 2b bd c8 d6 da bd
       -0.09497426 -0.055249207 -0.041971218 -0.106854975
0002e0 40 b1 50 bd e9 ae 99 3c 21 d7 f4 3c 00 b2 11 be
       -0.05095029 0.018760161 0.029887738 -0.14228058
0002f0 ef b2 21 be d1 10 1f 3d 8f 4e 33 be 06 f6 e3 3c
       -0.15790914 0.038834397 -0.17510436 0.027827274
000300 4f d2 b9 3c da 84 a3 bd 6d e0 b9 bd 32 6f 54 be
       0.02268329 -0.07984324 -0.09076009 -0.20745543
000310 1d cb a0 bb 34 54 9a 3d 63 2b 6d be b5 b4 14 3d
       -0.0049070255 0.07535592 -0.23161082 0.03630515
000320 aa 45 e7 3d a5 91 29 3e 62 e9 4f 3c 32 59 ce 3d
       0.11292584 0.16559465 0.01268992 0.100756064
000330 47 4c 8d 3c ad e1 2c be 10 46 5e be 34 68 2d be
       0.017248286 -0.16882963 -0.21706414 -0.16934282
000340 d4 da 70 3d 1c e4 5c 3c 5c 04 ed bd 15 79 32 bb
       0.05880244 0.01348212 -0.11573097 -0.0027232815
000350 ff 1a 2b be 64 ff bb 3c 9b ed 01 be 3b a8 c5 3c
       -0.16709517 0.022948928 -0.12688296 0.02412807
000360 d0 ac 87 bd 0e f7 21 be 62 56 e0 bd ce 88 b4 3d
       -0.06624758 -0.158169 -0.10953976 0.08815156
000370 c7 64 ad bc ad 7a 24 be d2 cf 48 3c 71 7c 43 be
       -0.021166218 -0.16062422 0.0122565795 -0.1909044
000380 a6 a0 e9 3d cb 47 3c be 35 42 51 bd c0 fb 3b be
       0.114075944 -0.18386762 -0.05108853 -0.18357754
000390 2a 41 f1 bd e9 c0 0d 3e 1e b1 82 bc a8 0f 3f bd
       -0.11780007 0.1384312 -0.015953597 -0.04664579
0003a0 71 8b 17 be 55 65 2b 3c 5e ca bb bc 5d 0d 66 bd
       -0.14799286 0.010461171 -0.022923645 -0.056165088
0003b0 34 f4 c2 3b a2 a5 16 3d 18 ad 65 be 0a 4e ca 3b
       0.0059495214 0.036779054 -0.22429311 0.0061738538
0003c0 57 90 40 be 88 da 74 be 63 31 82 bd 04 73 57 bd
       -0.18805061 -0.23911488 -0.06357076 -0.05259992
0003d0 23 9c 28 3d 2b 43 03 be 5e fe c3 3b 47 d9 22 3d
       0.04116453 -0.12818591 0.0059812507 0.039757993
0003e0 42 e4 1f bd 99 b6 ca 3d 8f ea 4e 3c 00 74 2a be
       -0.039036043 0.09898109 0.012629165 -0.16645813
0003f0 4b 9b 24 be 2c e4 2a 3a 06 21 ff bd 3a 9f 1a be
       -0.16074865 0.00065189856 -0.124574706 -0.15099803

fc2.weight f4 [256, 260]
000000 71 a1 89 bc 90 57 a5 bd c8 7e 68 bc 46 54 8c bc
       -0.016800614 -0.08073342 -0.014190383 -0.017130028
000010 1c 79 17 bd 1b fe 51 bc 00 8f 53 3d 63 b8 90 3d
       -0.036980733 -0.012816931 0.051650047 0.07066419
000020 97 ac de bd 2c 94 ca 3b 79 78 d4 3d 4f 7d 03 3d
       -0.10872763 0.0061822142 0.10374541 0.032101925
000030 a8 57 37 be ec 2f 9d 3d c7 2a 4f 3d 27 7f 5f bd
       -0.17904532 0.07675156 0.050577905 -0.05456462
000040 02 fb 4e 3d d9 25 16 bd 12 34 87 3d ed 17 0e 3e
       0.05053235 -0.036657188 0.066017285 0.13876314
000050 f2 93 5b 3d 3a 6d 4d bd 89 66 17 3c 32 0c 7e bd
       0.05360789 -0.050152995 0.009240755 -0.06202335
000060 09 f1 e0 bd a1 f8 83 3d 4d 6d 69 3d 25 58 65 3a
       -0.10983474 0.064439066 0.056989003 0.00087487913
000070 60 75 0c 3d f1 75 29 be fc cd df 3b 90 4e 36 3c
       0.034291625 -0.16548897 0.006829975 0.011127129
000080 43 87 b1 ba af 11 19 3e 31 40 43 3d 3f c2 97 bd
       -0.001354434 0.14948152 0.04766864 -0.074100964
000090 b7 db 05 bc 03 4c ed 3c b2 26 18 3b 33 59 25 bd
       -0.00817006 0.02896691 0.0023216424 -0.04036827
0000a0 70 bd f3 3d 8c 25 94 bc e5 ad 83 3d b1 40 a4 3d
       0.11901367 -0.01808431 0.06429652 0.080201514
0000b0 7e 90 a2 3c 42 fb a0 bc c2 ce 61 bd 0c e6 17 bd
       0.01984429 -0.019651059 -0.05512882 -0.037084624
0000c0 6e f3 29 be 65 04 8a bd 5c 73 e4 ba a2 79 26 3c
       -0.16596767 -0.067391194 -0.0017429399 0.010160835
0000d0 57 42 8a bc 38 01 4c 3d 12 a4 53 3d e2 e1 a3 3d
       -0.016877336 0.04980585 0.05167014 0.08002068
0000e0 c5 bb 79 ba 50 7f ab bc fa 7d 57 bc 24 aa eb bd
       -0.0009526576 -0.02093473 -0.013152594 -0.11507061
0000f0 52 6e 86 bd d3 2b 87 bc 16 c6 87 bd 3b 7e 5c bd
       -0.06564011 -0.01650039 -0.06629579 -0.05383132
000100 60 63 29 be 64 08 0b bb e9 df 78 bc ff 40 cc bb
       -0.16541815 -0.0021214718 -0.015190103 -0.006233334
000110 d8 9e 92 3d 85 37 d0 3c a1 d3 6c 3d b8 5b 47 bd
       0.07159203 0.025417099 0.057819013 -0.048671454
000120 9f 01 83 bd 29 e7 04 bd d5 a4 16 bd 93 26 fa bc
       -0.063967936 -0.032447014 -0.03677829 -0.030535972
000130 94 43 07 bd 1b d9 f0 bb 68 be 4d bc 7d 2e be bd
       -0.033023432 -0.0073500997 -0.012557603 -0.09286211
000140 89 85 31 be c5 62 13 be f6 0a e0 bd de 95 6a 3d
       -0.17336096 -0.14393146 -0.10939591 0.05727183
000150 c0 2a 29 bd 95 32 f6 bc 15 65 d8 3d 71 e4 55 3c
       -0.041300535 -0.030053416 0.10566155 0.013054953
000160 e5 29 33 3c a0 32 df bc 27 78 11 be aa 8d 30 bd
       0.010935281 -0.02724582 -0.1420599 -0.04310385
000170 61 16 82 3d 16 e2 a3 3d 89 78 c8 3d 8d 1c a0 3c
       0.06351925 0.08002107 0.09788615 0.019544864
000180 c9 04 3a 3b f6 99 09 3d 50 0e 19 be 82 ac 13 bc
       0.00283842 0.033594094 -0.14946866 -0.009013297
000190 41 cf 95 3d 46 36 53 bc f5 95 28 bd 70 70 11 bd
       0.07314921 -0.012891358 -0.041158635 -0.03550762
0001a0 ff 61 64 3d 32 6f e3 bd ec d2 e5 bd 23 7a 0c bd
       0.05575752 -0.11105193 -0.11221871 -0.034296166
0001b0 e3 83 0b 3d 67 91 26 bc 9a a4 b9 bd be 25 20 3d
       0.034061324 -0.010166503 -0.090645984 0.039098494
0001c0 4f ab 0e be 6d 2e 23 3d 93 18 07 3e 99 51 18 3d
       -0.13932537 0.039839197 0.13192968 0.037187193
0001d0 2a 92 61 3a c3 77 93 3c a7 66 8e bc 66 ee 28 3d
       0.0008604849 0.018001443 -0.017382933 0.04124298
0001e0 1f 60 0e 3e 07 16 95 bd 58 80 8a bc 10 91 f1 bc
       0.13903855 -0.07279592 -0.016906902 -0.029488117
0001f0 09 a3 8d bd af 58 8b 3d 2c 98 45 bd 9e 9c 46 bc
       -0.06915862 0.068040244 -0.048240826 -0.012122301
000200 e0 cf 28 be 51 a5 76 bd 50 e8 36 3d 28 a5 54 3c
       -0.16485548 -0.06021625 0.044655144 0.012978829
000210 8e 01 9e bd 9e b3 8d bd 4a 0b 1b 3c c0 5a e2 bc
       -0.0771514 -0.06919025 0.009463141 -0.027631164
000220 81 d9 a0 bc 17 9d 00 3d 99 4e b0 bd f2 fa 9c bd
       -0.019634964 0.031399813 -0.08608741 -0.076650515
000230 e3 e7 8e bd ae e2 b5 bd f3 47 22 3c 77 c7 0c 3d
       -0.06977823 -0.08881126 0.009904849 0.034369912
000240 c2 86 83 3c 8e 2f 8e bd a2 7b 0f bd 54 7a 7e bc
       0.016055468 -0.06942664 -0.035030015 -0.015532095
000250 c9 1b 51 bc 1a d3 88 bc 3b d1 a7 3d 19 40 29 bd
       -0.012762972 -0.016702224 0.081942044 -0.041320894
000260 ce 36 c4 3c 9a ca a1 bc 91 bc 25 bb fb b3 89 3d
       0.023951914 -0.019749928 -0.0025289396 0.06723782
000270 28 69 70 bd 8c 08 bd 3d 41 11 f6 3c 6a ab 03 bd
       -0.058694035 0.09230146 0.030037524 -0.032145895
000280 d3 86 9a bd 34 74 29 bc 85 c5 f4 bc ef ab a2 3c
       -0.07545247 -0.010342646 -0.02987934 0.019857375
000290 a6 d3 6a 3d a5 99 78 3d bf 55 0b bd 04 b9 fb 3b
       0.05733075 0.0606934 -0.03401732 0.0076819677
0002a0 81 1b ce bd f5 e1 9c 3d 23 49 95 bd 3d c7 df bb
       -0.1006384 0.076602854 -0.0728934 -0.006829171
0002b0 0f 57 d3 3b b6 09 c6 bd 6b 6f e6 3c c6 8b af bc
       0.006449587 -0.09669821 0.0281293 -0.021428954
0002c0 e3 79 3b bd 6e 8f c9 3c 87 1b b2 3c 90 62 4c be
       -0.045770537 0.024604525 0.021741642 -0.19959474
0002d0 2d 6e 28 3e 6f 05 9b bc 1c 30 ed 3c ea f8 2f bc
       0.16448279 -0.01892349 0.028953604 -0.010740498
0002e0 46 fe 38 be a5 22 65 3c 05 3c 13 bd 1b 1f 83 bd
       -0.18065748 0.013985311 -0.03594591 -0.06402417
0002f0 41 d5 8e bd 30 df fa bc 5a 72 93 bc 9e a6 98 bd
       -0.06974269 -0.030624002 -0.017998863 -0.07453655
000300 02 ee 68 bc fb 0e 91 bd 18 9f 57 3d 7b 39 c2 3c
       -0.014216902 -0.070829354 0.052641958 0.02370905
000310 69 10 4e bd 6e 98 33 bd db c4 9d bd 63 16 b7 3c
       -0.05030862 -0.04384654 -0.07703563 0.022349542
000320 5b 2b 25 bd 0f 09 4e bd 73 b8 41 bd 95 56 7c 3d
       -0.04032455 -0.050301608 -0.047295045 0.06160601
000330 b4 fe 95 3b 6b 1a 94 bc 56 a3 d6 3c 67 aa 83 bd
       0.004577482 -0.018079003 0.026200932 -0.06428986
000340 1b 9f 40 3c 6e 08 29 bd 67 de 8e 3c 1f 0d 2c bd
       0.011756684 -0.041267805 0.017440034 -0.0420047
000350 05 03 a1 bc c1 37 1a 3d 56 45 a2 bd 30 85 4b 3b
       -0.01965476 0.037650827 -0.07923381 0.0031054728
000360 8b 91 c0 3d 26 69 28 ba ba d9 27 3d 17 7d fd 3d
       0.0940276 -0.000642436 0.040979125 0.123773746
000370 69 3e c7 bd 51 60 b1 3d e8 38 aa 3c e8 04 19 be
       -0.09728701 0.08660949 0.020779088 -0.14943278
000380 77 5c 80 bd 5a 9c 4c 3c 14 00 79 bd 7d 29 13 3e
       -0.06267636 0.012488449 -0.06079109 0.14371295
000390 0d 10 61 3d 38 33 ef bd 7c 5f ae bb b9 85 ec bc
       0.054946948 -0.11679691 -0.005321441 -0.028872358
0003a0 5a 91 c7 bd 7b 70 2e 3d 7f 0a e1 3c f2 ce 64 bc
       -0.097445205 0.04258774 0.027470825 -0.013965355
0003b0 e6 de a4 bd 0e 01 92 bd 61 d0 3e bd 7e e8 a0 bd
       -0.08050327 -0.071291074 -0.046585444 -0.07856844
0003c0 fd 54 ea bd e0 8b 87 3d 02 ee 15 bd 60 65 b6 bd
       -0.114419915 0.06618476 -0.036603935 -0.089060545
0003d0 90 79 a4 bd 3b ed 84 bc 69 77 6c 3d 32 d8 49 bd
       -0.08030999 -0.016226402 0.057731066 -0.049278446
0003e0 0c fd 13 3c 6b bd 5a bd 58 48 8e bc 59 8a 04 3d
       0.009032499 -0.0534033 -0.01736848 0.0323585
0003f0 21 5d d6 bb 6a dc 1f 3d cb 6f 85 3d 7c 6c e3 bd
       -0.0065418635 0.039028563 0.065154634 -0.11104676

fc2.bias f4 [256]
000000 ce cb 8a bc a5 3f 23 bd ca 1d 13 3d 4d 08 39 3d
       -0.016942885 -0.039855618 0.03591708 0.045173932
000010 fc b2 64 3d 7f f5 fc bc e2 69 4c 3d 53 7c 47 3d
       0.055834755 -0.03087878 0.049905665 0.04870255
000020 cf 91 30 bd 75 75 0a bd 85 3a 42 3c 5f d4 f8 3c
       -0.043107804 -0.033803422 0.011854772 0.030374704
000030 24 68 19 3d f7 72 08 bc bc 26 2f 3d da c6 6e bc
       0.037452832 -0.008328191 0.04276155 -0.014573777
000040 fc 52 c3 3d e2 03 a0 3a 39 be f1 3b 49 1c 1c bd
       0.095373124 0.0012208188 0.0073774126 -0.038112912
000050 33 49 04 ba c6 94 16 bd e1 3e 1e 3b c7 20 2a bd
       -0.0005046308 -0.036762975 0.0024146365 -0.041535165
000060 b6 7d d8 3c c7 77 78 3d 01 8b 64 bc 8a 3b 36 3d
       0.026427131 0.060661104 -0.013949157 0.044490375
000070 2e ce 33 3d c7 9e fc 3c c7 69 97 bc a3 32 93 3d
       0.0438978 0.03083743 -0.018483056 0.071873926
000080 0e dc 09 3d a1 d2 69 3c be e6 46 3d 1b 3a b9 3d
       0.033657126 0.014271409 0.048559897 0.09044286
000090 69 8a e1 3b 9f 3b f1 bc ae da 04 bd 6a 9a 33 bd
       0.006882955 -0.029447375 -0.03243511 -0.043848433
0000a0 f2 04 6f bd fb 00 6f bd 38 08 d8 bd 27 bc 21 3d
       -0.058354326 -0.058350544 -0.105484426 0.039486077
0000b0 4a 42 20 bd 0e 76 6c 3d 96 52 0f 3c 18 a3 8e bc
       -0.03912572 0.057729773 0.008747717 -0.017411754
0000c0 24 dc d9 bc dc 98 64 bc 36 b8 27 bc 90 7a f1 3c
       -0.026594229 -0.01395246 -0.01023679 0.029477388
0000d0 27 06 f3 bc 80 9c 18 3d 98 8f cf 3c 8b 11 a5 3d
       -0.02966602 0.037258625 0.025337026 0.08059987
0000e0 b5 dc 2c 3c 21 ff a5 3c b3 1b 9f 3c 1b 22 d8 3c
       0.0105506675 0.020263257 0.019422388 0.02638345
0000f0 ab 98 66 3d 03 69 2d 3d 06 24 97 bc c5 cc 08 bd
       0.05629794 0.042336475 -0.018449795 -0.03339841
000100 ac 94 ed bb 14 19 ab 3b 9a e2 55 3d 7a 6c 73 bd
       -0.007250389 0.0052214954 0.052218057 -0.059429623
000110 54 5b da 3b 8d 86 82 3d 44 de 54 bd 07 79 bf bc
       0.006663719 0.0637332 -0.05196978 -0.02337314
000120 c9 31 13 ba 85 05 8e 3c 27 81 31 3d 1b 3d 80 3d
       -0.00056150235 0.017336616 0.04333606 0.06261655
000130 7e 95 a8 bd 8b 32 5d 3d 03 7c d6 bc 92 d8 ef 3c
       -0.08231638 0.05400328 -0.02618218 0.029278073
000140 03 77 dd bc ea f0 ff bb 52 ce 9a bc 9a 78 12 bd
       -0.027034288 -0.0078107016 -0.01889721 -0.035759546
000150 22 79 96 bd f7 00 6d 3b 34 a4 b3 3c de 2e c6 3d
       -0.07347323 0.0036163905 0.021928884 0.09676908
000160 32 00 71 bb 86 ed 48 3d db db 7f 3d 34 83 0f bd
       -0.0036773798 0.049054645 0.06246553 -0.035037234
000170 f2 01 b0 3c 62 cc 95 bd 2b 3a bd 3a ab 35 84 3d
       0.021485303 -0.073143736 0.0014436891 0.06455549
000180 12 c6 87 bd b4 28 76 bc e1 1a a2 bc 08 1e 2f 3d
       -0.06629576 -0.015024353 -0.019788207 0.04275325
000190 f1 6c e5 3c 79 46 6f bc a1 fc e5 bc 15 fd 7f bd
       0.028006049 -0.014604204 -0.028074564 -0.062497217
0001a0 de 42 28 bb bc 15 7e 3d 61 1f 84 3d ec 6d e1 3c
       -0.0025674622 0.062032446 0.064512976 0.027518235
0001b0 7d 10 e2 bc b8 a0 ab bc 54 f3 a6 ba 8c 3e 8e 3c
       -0.027595753 -0.02095066 -0.0012737312 0.017363809
0001c0 9b 50 b9 bc 39 80 e9 3c e6 16 f4 3b 5c 9b ca bc
       -0.022621443 0.028503524 0.007449019 -0.024732284
0001d0 32 04 16 bd 82 f6 87 3c 91 ce 10 3e d2 bd 8f 3c
       -0.036625095 0.016597036 0.14141299 0.017546568
0001e0 c6 06 2d 3b 27 d0 78 bd 50 35 0c b9 4a 7b 83 3d
       0.0026401742 -0.060745385 -0.00013371301 0.0642
0001f0 71 e1 4a bd 98 4c 12 bd 5a 72 14 3d 40 f7 08 3d
       -0.049531404 -0.035717577 0.036241867 0.03343892
000200 a9 b1 29 bd 1f f3 ec bb 64 89 80 3d 8d 81 0d bd
       -0.041429196 -0.0072311307 0.06276205 -0.034547377
000210 f7 9f 3a bc 85 23 04 bd 68 a6 15 3d 2a 85 7f bd
       -0.011390678 -0.032260437 0.03653565 -0.062382855
000220 5f 1d 8e bc d0 4c cd 3c 23 70 8e bc 60 6d a5 bd
       -0.01734799 0.025061041 -0.017387455 -0.08077502
000230 79 53 45 3d 3d 73 44 3b 81 3f 91 bd 37 68 ab bc
       0.04817531 0.0029975914 -0.070921905 -0.020923717
000240 70 58 ea bc f4 5a 95 3d 5c 59 c7 bc 83 8c 4e 3c
       -0.028606623 0.072927386 -0.024334602 0.012606743
000250 f2 bc 68 bd 8f cf 2d bd ad f3 ad 3d 96 d2 72 bd
       -0.056820817 -0.04243427 0.08493743 -0.05928286
000260 f6 dc e8 3a 51 30 7c bd 1b 5b f0 3c 51 ad 34 bd
       0.0017766047 -0.061569516 0.029340317 -0.0441106
000270 bd a5 36 bc ff 83 bb 3c a9 ac 9c bb c4 05 5f bd
       -0.0111479135 0.02289009 -0.004781325 -0.054448858
000280 32 2a 6d bb 6d 8f 07 bb 38 3b ef bd f7 76 ba 3c
       -0.003618848 -0.0020684854 -0.11681217 0.022761805
000290 c1 eb 11 3c 9d c1 4f bd a7 02 e1 bc f9 b9 43 bd
       0.008906306 -0.050721753 -0.027467085 -0.04778478
0002a0 ac 86 5d bd 36 45 47 bc 7c 97 01 bd 5b 8d 61 3d
       -0.05408351 -0.012162497 -0.031638607 0.055066448
0002b0 9d 82 28 bb 25 80 8d 3c d9 b5 30 bd 9e 0f a4 bc
       -0.0025712617 0.017273018 -0.043142173 -0.020026978
0002c0 11 11 50 bb aa 3c 30 bc f6 62 b1 3d fc 60 7e 3d
       -0.0031748454 -0.010756651 0.086614534 0.06210421
0002d0 ef cd ed bc 6f ad 16 3d 2c d8 46 3d a6 0c 9e bd
       -0.02902886 0.036786493 0.048546 -0.07717256
0002e0 f1 89 57 bd 46 5d 81 3d 8f 80 04 bd 75 75 92 3c
       -0.052621786 0.063166186 -0.032349166 0.017878274
0002f0 46 35 a1 3d 98 15 e7 3c f2 ed 0f 3d ce 15 eb 3d
       0.07871489 0.028208539 0.03513903 0.11478768
000300 84 2c c9 3c 48 69 5f bc c7 3e 2d 3d 44 8a 25 bc
       0.02455736 -0.013635941 0.042296197 -0.010103766
000310 74 4d 03 bd b0 ee 2e 3d 20 c6 bc bc 87 00 96 3c
       -0.032056287 0.0427081 -0.023043692 0.018310798
000320 56 8e 36 3d ee 50 74 3c 60 f5 3e bd 48 64 97 3c
       0.044569336 0.014911873 -0.046620727 0.018480435
000330 0b 02 0a 39 b0 90 fd 3c df 17 0c 3d 33 e1 6f 3d
       0.00013161467 0.030952781 0.034202453 0.058564376
000340 e0 fa 1c bd 89 ba c0 bc df e1 97 3d 9e 54 e2 3b
       -0.03832519 -0.023526447 0.07416128 0.00690706
000350 8f 04 55 3c 29 64 b3 3c 7a 36 fa bc fa e3 db 3b
       0.013001575 0.021898346 -0.030543555 0.0067105265
000360 79 b1 b6 bc ef c1 aa bb 9b 07 1d bc 8e a9 a1 3c
       -0.022301422 -0.005211107 -0.009584333 0.01973417
000370 fb 1c 9f 3d 79 6b 8c 3d 62 c1 c6 3d 19 cc 97 bd
       0.077691995 0.06856436 0.097048536 -0.074119754
000380 30 93 97 bc 0f fe 01 bd 8c 78 ce bb de 71 81 3d
       -0.018502802 -0.03173643 -0.0063009914 0.063205466
000390 4c 36 ab 3c 04 c5 9e bc 72 ca c8 3b e5 23 7b bd
       0.020899914 -0.019381054 0.006127649 -0.06131353
0003a0 ca a9 09 bc ae d6 2e 3d 68 17 76 bd 7a 6c eb bc
       -0.008402297 0.042685203 -0.060080916 -0.02873825
0003b0 1f 23 37 bc 06 ec 8d bd 06 cc 09 3d 5f b6 2a bd
       -0.011177807 -0.069297835 0.033641838 -0.04167783
0003c0 4a 7d 85 bb 38 37 5f 3d 2d 15 41 bd 85 e0 97 3c
       -0.0040737735 0.05449602 -0.047139335 0.018539676
0003d0 af e6 9a bb b7 43 c3 bc b0 66 ea 3b 6f fb 33 3c
       -0.0047272067 -0.023836 0.0071533546 0.010985239
0003e0 5a 80 14 be 05 f3 59 bd 47 26 ac bc c2 97 89 bd
       -0.14502087 -0.053210277 -0.021014346 -0.06718399
0003f0 f3 79 16 3d 8c 3e df 3c 85 eb 1a 3c 57 28 6e 3d
       0.036737394 0.027251504 0.009455566 0.05814394

fc3.weight f4 [1, 256]
000000 cf 5b e4 3c f0 01 bc bc 8a 6d 5b 3d 44 31 ca bc
       0.027875809 -0.022950143 0.05357126 -0.024681695
000010 f4 b2 7e 3c 0a d0 e5 bd 32 ad 76 3d 1c 55 e5 3c
       0.015545595 -0.11221321 0.060223766 0.027994685
000020 28 87 ce bd 41 59 ad bc 28 55 1b be df d5 9c 3c
       -0.10084373 -0.021160724 -0.15169203 0.01914495
000030 57 2e 84 3c 75 55 81 bd 83 7a ca 3d da 72 75 3d
       0.016135378 -0.06315128 0.098866485 0.059923984
000040 33 3a ca 3c 71 da 8c bc 46 b5 66 3c de 09 a8 bc
       0.024685955 -0.017194005 0.014081305 -0.020512518
000050 19 b9 d7 3c 6f af 90 bd e5 a4 f0 bc ee c7 69 3d
       0.026333379 -0.07064711 -0.029375503 0.057075433
000060 a0 6d c4 bc 41 af d9 3c e7 fe 07 3d 85 c1 7c 3c
       -0.023978055 0.026572825 0.03320208 0.015426998
000070 77 ac e9 3c 64 27 53 bd 3f 5f 02 be 4f 67 1c 3d
       0.02852462 -0.051551238 -0.12731646 0.03818446
000080 78 55 4f bc 5e dc 16 bd 7a 2e 33 bc 06 37 c0 3d
       -0.012654655 -0.036831252 -0.010936374 0.09385495
000090 4a b1 8c bd 00 ec 29 3d 5d d9 db 3c 68 a5 10 bd
       -0.06869753 0.041484833 0.026837045 -0.035313994
0000a0 4f 08 ac bc bc 76 20 bd c3 18 55 bd 67 91 cd 3c
       -0.021000056 -0.039175734 -0.052025568 0.025093747
0000b0 99 0b 69 3d 23 80 7d 3d 4f 59 d3 bc 39 56 39 bd
       0.056895826 0.06188978 -0.025799422 -0.045248244
0000c0 52 4f 2f bc 3a b1 19 3c 7d 99 b7 bd a1 f6 05 bd
       -0.010700064 0.009380633 -0.089648224 -0.032705907
0000d0 95 60 00 3d 7f a6 c8 bc 71 74 4d 3d 71 8a 01 3d
       0.031342108 -0.024493454 0.050159875 0.03162617
0000e0 94 fc ac 3c 59 f3 fd bc 15 6b a0 bc 8d e8 d5 bd
       0.021116532 -0.030999826 -0.01958231 -0.10444746
0000f0 86 96 cd bd 0a bb 28 bd 7a b1 84 bd 36 2f a1 bc
       -0.10038476 -0.041194 -0.064791635 -0.019675832
000100 e8 f5 19 3d 26 0a 2d bd c8 07 01 3d 63 8b 1f bd
       0.03758803 -0.042246006 0.03150156 -0.03895129
000110 c2 2c 8b 3c fe 64 b9 3c 5e d0 45 bd e9 00 a5 bc
       0.016989116 0.022631165 -0.048294418 -0.020142036
000120 12 11 8f 3c ba fd ea bc 63 73 d3 bc c2 26 de 3d
       0.017464194 -0.02868544 -0.025811857 0.10847236
000130 7a 5d 2c bc 69 05 9c bc 6a 51 db 3c b7 a8 a4 bb
       -0.010520333 -0.019045549 0.02677222 -0.005024995
000140 f5 a4 52 3c a8 ad 74 3c f1 0a 96 bd f3 c6 f7 3c
       0.012856712 0.014933981 -0.07326306 0.030246234
000150 79 cc 7e bc 7c 4a 20 bd 1e a4 81 3d 32 55 55 3d
       -0.01555168 -0.039133534 0.06330131 0.0520832
000160 cf 18 ab bd f6 16 e4 bc 86 a3 c3 3c 48 5b c1 3d
       -0.08354341 -0.02784298 0.023881685 0.09441239
000170 bc 46 df bb 2a b4 dd bd ec a4 4e bd ef a0 29 3d
       -0.006813852 -0.10825379 -0.05045025 0.041413244
000180 01 17 46 3d 91 8a 8b bc 15 c9 dc bc 43 82 79 3c
       0.048361782 -0.017033847 -0.026951352 0.015228811
000190 f2 84 89 3c f3 9a 0f 3d c6 4a 67 bc 86 ba 0c bd
       0.016787026 0.03505988 -0.0141169485 -0.03435757
0001a0 ca 50 97 bc 5a 3f 83 3c 99 a9 7c 3d bc 1a bc bc
       -0.01847114 0.01602142 0.06168518 -0.022961967
0001b0 f1 c5 e1 3c 17 b0 ba bc 6a ba 3a bc 5e ff 99 bc
       0.027560206 -0.022789044 -0.011396984 -0.018798526
0001c0 1b 4f a8 bc 2e 11 8e 3d 01 3f ba bc 6e 75 1a bd
       -0.020545533 0.069368705 -0.02273512 -0.037709646
0001d0 e7 7c 89 bd 6c ec 3f 3d 2e cb 7d 3d ce ff 39 bc
       -0.06713276 0.04685633 0.061961345 -0.0113524925
0001e0 35 8d b4 bc 71 df 8a bc a9 28 35 bd 6c 03 89 3c
       -0.022039989 -0.016952248 -0.04422823 0.016725264
0001f0 c0 de 55 3d c4 df 7f bd 23 c4 78 3c 5a 2f d2 bd
       0.052214384 -0.06246926 0.015183481 -0.10262938
000200 3f fe 01 bd 81 3c 0d bd 92 34 7c 3d 55 9a 80 bd
       -0.03173661 -0.03448153 0.061573572 -0.062794365
000210 a1 a8 bb 3c 7a 10 eb bc cf a4 23 bd a1 a5 25 bd
       0.022907557 -0.02869438 -0.039952096 -0.04044116
000220 d3 4c 6c bc f7 65 8f bd e9 8d 02 3d b5 80 9c bd
       -0.014422613 -0.0700187 0.031873617 -0.076417364
000230 e6 8d 94 3d e6 f7 56 3d e7 6c 80 bc 25 a8 cd bd
       0.072536275 0.052482508 -0.015676929 -0.10041837
000240 09 ce 7f 3c 09 b8 96 3c 3f ef b0 bd 84 b2 83 bd
       0.015613087 0.018398302 -0.086393826 -0.064305335
000250 c8 76 c5 bc b1 e1 2e 3d 70 f7 e4 3c 27 ae 6a bc
       -0.02410449 0.042695705 0.027950019 -0.014323748
000260 88 c7 7d bc 2c ca b9 bc f4 b1 47 bc b7 44 a5 bc
       -0.0154894665 -0.02267941 -0.012188423 -0.020174367
000270 d0 bb f8 bc 87 a8 33 3d 9c 84 9c bc f2 9b d0 bc
       -0.030362993 0.043861892 -0.019106202 -0.025464986
000280 db 88 76 bd d9 da 6d bc b9 6c 39 bd b0 e2 14 3d
       -0.06018911 -0.014517509 -0.0452697 0.036349
000290 94 64 ce 3c 95 5d c9 3d 78 eb 60 bd 56 03 68 bd
       0.025194444 0.098323025 -0.05491206 -0.056643806
0002a0 93 ea d0 bc b7 74 f7 3c 50 81 c1 bc a6 a1 14 3d
       -0.025502479 0.030207021 -0.023621231 0.036286972
0002b0 fd 9f 65 bd a5 d8 d9 3c 99 dd 8b bd 7a 35 91 bc
       -0.05606078 0.026592562 -0.06829376 -0.017725695
0002c0 e0 65 5c bc 41 58 39 bc c0 38 11 3e d7 c2 ed 3c
       -0.013452023 -0.011312545 0.14181805 0.029023571
0002d0 7e 55 d7 bd a3 81 b7 3c 23 74 58 3e b3 4f 81 bc
       -0.10514353 0.022400683 0.21138053 -0.015785074
0002e0 a8 50 14 bd 95 ab b3 3c d7 af bf bc 15 1a 05 3d
       -0.036209732 0.021932403 -0.023399277 0.032495577
0002f0 b7 b8 9d 3d eb d6 b4 3c e2 d1 03 3d b9 31 1a 3d
       0.07701247 0.022075137 0.03218258 0.037645075
000300 7b 54 84 bc d6 b3 89 bc 9f 33 f7 bc 2a 85 36 3d
       -0.016153565 -0.016809385 -0.030175982 0.04456059
000310 4f 13 5d 3d ae 46 96 bb 8e 5e 78 bc 5e 29 07 bd
       0.053973492 -0.0045860624 -0.015159262 -0.032998435
000320 ab 8e dc bb cd 6d 7f 3c e9 55 e0 3c 62 bb 92 3c
       -0.0067308745 0.015590143 0.027384715 0.017911617
000330 94 6e ab bd 77 91 a9 3d 70 d9 0c 3d 96 64 ce 3c
       -0.083707005 0.08279698 0.034387052 0.025194447
000340 00 71 32 bd 22 63 2c bd 43 b5 ca 3c 0e 53 5b 3d
       -0.043564796 -0.042086728 0.024744635 0.053546004
000350 d6 f0 90 3c 53 33 48 3d b5 99 35 bd 3e 02 00 bd
       0.017692965 0.04887707 -0.04433604 -0.03125214
000360 53 84 4f bd 20 61 b7 3c ee 23 29 bd 7b ff 24 bc
       -0.050663304 0.02238518 -0.04129403 -0.010070677
000370 5e c7 0c 3d d3 20 3e 3c b6 e1 f6 3c 08 ef e8 3d
       0.03436982 0.011604506 0.030136924 0.113737166
000380 20 01 f0 bd 6b 09 ca bd 02 f4 2f 3d 14 33 9c 3c
       -0.117189646 -0.098650776 0.042957313 0.019067325
000390 9e 6a 8d 3c 02 28 df 3c e8 be 1a 3d 82 e4 f3 3c
       0.017262753 0.027240757 0.03777972 0.029772047
0003a0 8a 1a 7a 3c e5 2f f1 bc e1 6e 70 bd e0 88 4a bc
       0.0152651165 -0.029441783 -0.058699492 -0.012361735
0003b0 6c b3 05 bd fe 82 45 bd 91 c5 57 bd 13 5e c9 3c
       -0.032641813 -0.048220627 -0.05267865 0.02458099
0003c0 dd 73 13 bd c5 6a 13 3e b7 4d c8 bc 6a 06 23 bc
       -0.035999168 0.14396198 -0.02445112 -0.00995026
0003d0 8d 1d 98 bd 6e d1 50 bd 5e fc 5f 3c 54 96 3a bd
       -0.07427511 -0.050980978 0.013671009 -0.04555352
0003e0 95 aa 59 3d b1 ef 40 bd c3 f6 32 bd fa 18 1c be
       0.053141195 -0.047103588 -0.04369236 -0.15243903
0003f0 c2 f4 6c bc 51 b3 d0 3c b8 82 92 3c 6d 20 03 3d
       -0.014462652 0.02547613 0.017884597 0.032013346
