checkpoints/checkpoint_actor_ddqn_6.pth (torch_old, 303163 bytes, 6 tensors)

fc1.weight f4 [256, 33]
00000000: bc20 1bbe b9f2 77be 8d97 3cbe e555 3239
00000010: fbba f63b c0a9 833d 5199 9e3b 06e8 2cbd
00000020: fcaa ea3d aa42 b23d 1044 58bd 32cc 07bd
00000030: 8de9 a03c 4d9f a73e 8bf9 e53d 9e00 943e
00000040: ea0a f63d cb5f 00bd 4f0d 713d 4a7f 893c
00000050: 4e2d 60bd e994 043d bcac 33bd 9ee3 803d
00000060: a236 803c f5af 6c3d dc74 6dbe 380b 07be
00000070: 2001 23be 2693 19bd d356 193d 446c 253d
00000080: 9993 15bc b85c 303e 045b cf3c 2d2c aabe
00000090: 7626 18bc d7f5 87bc 4d6e a5bd 4d02 123a
000000a0: 4833 68bb 4ccf f33c 424f 89bc b32b 0e3d
000000b0: bb97 43bd a654 103c 1a15 63bd cf03 0dbe
000000c0: 74a0 823e ab22 f93d ee74 f93c c8f3 8b3d
000000d0: 29b5 ef3c f0fc 863c d82c 193e 2e76 20bc
000000e0: f47c 4a3c d738 513b a9cf db3c d06b a43b
000000f0: 8170 a1bd 2fbd 3dbd a614 613d 28d7 9f3b
00000100: daed 663d 2b05 36bd d557 823d 2cc2 5e3d
00000110: 50b1 30be e7bb 93be a8ba f13c 05e6 1d3e
00000120: 16a4 c8be 3755 1d3d 190a 64be 07ba f4bd
00000130: fff6 87bc f945 353e 4739 41bb e33e 273c
00000140: 2918 883e 5870 053e 4624 6abd 23ee 013e
00000150: 5e5a 373c 26d8 443d 04b6 10be 4128 373d
00000160: 2963 89bb 4854 323e a5e9 05bd 1650 0fbe
00000170: 2ad3 773d 6dd0 d63d d504 58bb 2895 dbbc
00000180: 0faa babd 9c46 653d 3018 3d3e 1f91 953e
00000190: 5d47 4e3d 23ee 7ebd 4464 b93d 7be4 393e
000001a0: b8df 853d e314 1f3e 687d 03be db29 bebd
000001b0: b2fa 90bd 2b56 973d 2074 aabb 7a1e b1bd
000001c0: c2f0 a0bd 07ac 19be d384 a4bc efd7 333e
000001d0: 77b0 93bd 41fb 04be b89e 9abc e394 223e
000001e0: 2a34 98bd 32d6 803c 307c b13c ec62 dabd
000001f0: 4444 8f3d 90d9 113d f44e 1b3e d807 903d
00000200: 08e5 05bd ec5b 1abe 8610 0a3d e789 9d3d
00000210: 77f9 ec3d 0193 c53b 7fa4 653e 5a80 233d
00000220: 0b06 02be 5427 843c db59 183e 021b 893d
00000230: 4443 11be 64ae d23d a9ea 8fbb b0a0 afbb
00000240: 6399 74bb b588 b6bc 6455 02be 4167 2dbe
00000250: eb27 46bd 3064 6fbd 9323 9a3d 9155 b9bb
00000260: 2a94 ecbd 1df2 003c e11b 64bd b6b7 cebd
00000270: 8282 0dbd 422d 3ebd af03 b9bd 8d2e cf3d
00000280: d1cd 93bd 961b 1fbd 6bfe 41bb 2058 783d
00000290: 1292 38be 85c4 15be 2b4c 9b3e b1e4 4fbe
000002a0: 9f0a 2abb 5451 70bd cfd6 abbd 0387 7b3c
000002b0: c629 d43c bcc1 8d3d 10f7 da3d 65b3 35bd
000002c0: c225 093e 0d67 a73c bc44 183d ae08 63be
000002d0: bd4b 313e 074d f23d 81f4 efbb 051c 9f3d
000002e0: 81be b4bc 6e8f ad3d 596f 55bc a940 bfbc
000002f0: 7827 39bd c22e 4cbe 5e0e 3d3b 9602 ac3b
00000300: 7def 403d 931c 76bb d083 d03c 5664 78bb
00000310: 405f 603b 6720 183f adfe 86be 815f 2e3e
00000320: b6fe f0bb 8961 7d3d db6a 18be 4b44 8dbe
00000330: 78db 8b3c f6c9 d4bd 710a dc3d a467 283e
00000340: 0bb9 cebd 5ade 903d 9462 83bd cc77 553d
00000350: 1459 813e 1a90 333d fc36 b8bd ca8b 27be
00000360: 4501 c93c c996 75bd ff36 00bc 1c8c b4bc
00000370: 7bf9 a03d 9327 b53c 9c1a 053e 62bd e1bd
00000380: 7f1c 57be 7ca8 cf3c b36b 46be 0078 2d3b
00000390: 6c69 bcbd a025 983c 4b75 e53e 7f56 0ebe
000003a0: 0227 43be 24ad b5bd d902 4e3d 6dd4 51bd
000003b0: 8736 c13d 1720 eebc accb 46bd ced0 56bd
000003c0: 1e2b 12bd 4003 00bb 6296 183d 8548 8ebd
000003d0: edee 5a3c fc5f 0f3e 321f 0dbd 7d54 1dbc
000003e0: 4c0c 963c 1b30 19bd d425 b13c 7e5e 09be
000003f0: e990 d03d 71ce ca3d fe9d ec3d 4961 253d
-0.15149206 -0.24213685 -0.18417187 0.00017007401 0.007529614 0.064288616 0.004840054 -0.042213462
0.11458394 0.087041214 -0.052799284 -0.03315372 0.019642616 0.32738724 0.11229237 0.2890672
0.120138004 -0.031341355 0.058850583 0.016784329 -0.054730706 0.032368574 -0.043865904 0.062934145
0.015651051 0.057784993 -0.2318911 -0.13187873 -0.15918398 -0.037493847 0.037436318 0.040386453
-0.009129428 0.1722287 0.025311954 -0.33236828 -0.009286514 -0.016596718 -0.08077679 0.0005569801
-0.0035430957 0.029761933 -0.016761426 0.034709644 -0.047752123 0.008809244 -0.055440046 -0.13770984
0.2551304 0.121648155 0.030451264 0.06833607 0.029261189 0.016478032 0.14958513 -0.009793801
0.012358893 0.0031924748 0.026832419 0.005017735 -0.078827865 -0.046322998 0.054951333 0.0048779435
0.056379177 -0.044438522 0.06364409 0.054384395 -0.1725514 -0.28854296 0.02950795 0.15419777
-0.39187688 0.038411345 -0.22269477 -0.119495444 -0.01659727 0.17702474 -0.0029483603 0.010207864
0.26580933 0.13031137 -0.0571635 0.12688498 0.011190979 0.048057698 -0.14131933 0.044716123
-0.004192729 0.17414963 -0.032693524 -0.13995394 0.060504116 0.10488973 -0.0032961864 -0.026804522
-0.09114467 0.05597554 0.18466258 0.2921228 0.050361026 -0.062238824 0.09052327 0.18153565
0.065368116 0.15535311 -0.12840807 -0.09285327 -0.07079066 0.07389482 -0.0052018315 -0.08648391
-0.07858421 -0.1500703 -0.020082867 0.17562841 -0.072113924 -0.12986471 -0.018874511 0.15877108
-0.074318245 0.015727136 0.021665663 -0.10663399 0.069954425 0.035607874 0.15166837 0.07032746
-0.032689124 -0.15074128 0.033707164 0.076923184 0.11571019 0.006029487 0.22426032 0.039917327
-0.12697618 0.016132034 0.14878027 0.066946045 -0.14185816 0.102871686 -0.0043919873 -0.0053597316
-0.003732287 -0.022281984 -0.12727886 -0.1693392 -0.048377912 -0.058445156 0.075263165 -0.0056559523
-0.115516976 0.007870224 -0.05569065 -0.10093634 -0.03454829 -0.04642988 -0.09033906 0.10116301
-0.07216991 -0.038844667 -0.0029601108 0.060630918 -0.18024471 -0.14625748 0.3033155 -0.20302083
-0.0025946272 -0.05867131 -0.08390581 0.0153520135 0.025898825 0.069217175 0.10691655 -0.044360537
0.1339331 0.02043488 0.037174925 -0.2217128 0.17314048 0.11831098 -0.0073228483 0.07769016
-0.022063496 0.08474623 -0.013027036 -0.023346262 -0.045203656 -0.19939712 0.0028847675 0.0052493317
0.047103394 -0.0037553653 0.025453478 -0.0037901602 0.003423646 0.5942444 -0.26366177 0.1702862
-0.0073545827 0.061860595 -0.14884512 -0.27591166 0.017072424 -0.103900835 0.10744179 0.16445786
-0.10093888 0.0707366 -0.06415287 0.0521162 0.25263274 0.043838598 -0.089948624 -0.16361919
0.024536738 -0.059958253 -0.007825612 -0.022039466 0.078600846 0.022113597 0.12998432 -0.1102245
-0.21006964 0.025348894 -0.19377021 0.002646923 -0.09199795 0.018572628 0.4481605 -0.13900183
-0.19057849 -0.088709146 0.050295684 -0.051227976 0.094342284 -0.029068036 -0.04853408 -0.052445225
-0.03568565 -0.0019533187 0.03725279 -0.06947426 0.013362628 0.14001459 -0.03445358 -0.009602663
0.01831641 -0.037399393 0.021624483 -0.13414952 0.101838894 0.09902657 0.11553572 0.04037598

fc1.bias f4 [256]
00000000: 0c5e 533d 8766 89bd 9ba7 1b3d 11ee 35be
00000010: 6ac5 a23c 1866 37bc 8246 62be bf1d b23c
00000020: 901e a13d 572c 39bc c98b 5ebe c045 9f3d
00000030: d44d 3abe bb74 103d d7a3 8d3e 303e 093e
00000040: a1c2 4cbc a0ac bc3d 8674 82be 33aa 72be
00000050: 5477 45bd f60d 15be c35f c63c 0138 da3d
00000060: bbd2 9ebd 4062 a3bd 85ce 5c3e e0eb 343b
00000070: 0a08 643c 1f70 88be e52a 2fbe bec9 e0bd
00000080: ffd0 28bd 4dc4 46be baba babd e930 a53d
00000090: d820 71be 8992 01be 8f98 123e 7b09 7d3d
000000a0: 47c5 d4bd ef77 04bd 3e32 663d 83c8 fc3d
000000b0: 77b1 443e af3b 96bd 1f9b 913d 8ef4 3fbe
000000c0: 494d 223e 5e58 a13d c074 18be b03c c93c
000000d0: 36e8 36bd 4796 4c3e 67cc 2ebe 1573 f03d
000000e0: 2bc7 9cbc e872 c93d d651 a5be 1a6b 6c3d
000000f0: 6a8c 0bbe 8259 9cbd c0e2 c7bd 5926 143d
00000100: 53bf 7dbe 619b f8bc cd85 2f3e c454 d8bd
00000110: d7f5 d4bd 11c1 c0bd d251 743a 5799 23bd
00000120: c4c4 74be 3ba1 303e 214d e83c 3520 913d
00000130: e0a5 8ebe 51a7 09be 1661 dcbd debe a73d
00000140: 3b76 003e aa25 bf3b a9f1 1bbe e359 a9bc
00000150: 79e8 b3bc 176b f2bb 3262 adbe 0a04 8cbd
00000160: 441c d7bd 8e36 b23d 4e6f dcbd ad92 513c
00000170: fb23 07bc 87a1 223e 6ebf 6fbd e325 f6bc
00000180: 60fd 0bbe 31a3 5cbe 8ca8 82bd 4060 4d3d
00000190: 460f b33d 7bc9 023e c01c adbc 846f 3a3e
000001a0: 0116 efbd 52ce 52bd 08bf 11be ff12 7cbd
000001b0: ca42 be3c 49a5 9c3d 4e94 bc3d 1d0c d53c
000001c0: bc56 a4be e63a 0dbe f18b eebc ad7e a0bd
000001d0: c840 2bbd 0288 14be d52c 983d 9893 b6bd
000001e0: b461 c23d 4cbb 823e 6b6d d2bd 1922 23bc
000001f0: c168 a03d 5f6b 35bd 4151 95bd 4200 5bbc
00000200: 38cc 67be b519 48be 8fe0 fcbb 811d 3cbe
00000210: ff5b c73c 6bef 6abe 9b52 cd3a 8f1d 80bd
00000220: 8c62 b3bc 5264 d7bd fa31 5dbe ad8a b4bd
00000230: 0357 04be 3098 033d 444b bb3c fda9 453c
00000240: 655b 41be 7d3f 2bbe 1e21 38be 180e 5b3d
00000250: d998 e63c 220e b2be 984f 0ebe d4b3 2fbd
00000260: 66bd bc3d d3c4 a83d 5383 a13d f8c7 cdbd
00000270: 5c9f 133c 9e3d c63d 02b2 39bd 4b2e 0e3c
00000280: b56e 96bb 328f 26be 3662 f83d f32f ed3c
00000290: 3e2d f93c ffd3 b1bd 5990 60be 0e83 24be
000002a0: 778b 3abe eb8d 5f3b 6489 f73d 5651 5d3e
000002b0: e8cd 14be cd14 ab3c 7674 78bd 57fc 283d
000002c0: 4f6e 4abe 1f5f 52be 1e13 63bd 35b5 22bd
000002d0: c841 dabd 6404 943c d684 b7ba a3b7 cbbd
000002e0: df42 72bd b78c 90bd 8586 223e ecd0 24be
000002f0: cba2 5dbe bb73 9b3d 3a58 3abd 9a4f 29bd
00000300: 0868 8d3d 016d 1bbe ffc1 aebd c5c6 a3bd
00000310: b3ec 03bd 2364 633d f7ec 57be 0854 893c
00000320: edfb 413d 008b 2f3e ae6a d63d 190a e83d
00000330: 9a7b 96bd 7161 30be aa39 1ebe 24e0 85be
00000340: c2f5 0c3d 12e2 d93d 6bac 8abe 14fc e2bd
00000350: 5429 30be 1e6b 603d acc9 68be 7b20 073b
00000360: 1d0a 02be 02cc 75be a190 0fbe ed04 3e3c
00000370: 4bdc bfbc 749d 20be 489c 163e 1ebe 7bbe
00000380: 1b46 b23c faaf 24be d54e 8fbe 073a 57be
00000390: 6c96 34be 3dd8 193e 37ca fc3b 0891 1fbe
000003a0: b602 21be 7138 ba3d 5b4e e7bd 001b b13a
000003b0: 3b6e 93bd 5f4d 913d 6cdb 69be 99cf 0dbd
000003c0: ca20 9cbe 08eb 1dbe 325c d0bb cedf 073d
000003d0: 35cf 173e 6d16 75be 4577 0e3d 0845 5b3d
000003e0: 7186 183d 2a4a 453e 3ad8 3e3c a394 97be
000003f0: 023e 1ebe ed55 8c3d 01e3 29be 4c4a 07be
0.051603362 -0.06709009 0.038001638 -0.17766596 0.019869525 -0.011193775 -0.22097209 0.0217427
0.078671575 -0.011302075 -0.21733011 0.07776976 -0.18193752 0.035267573 0.27664062 0.13402629
-0.012497575 0.09212613 -0.25479525 -0.23697738 -0.048209503 -0.14556107 0.024215585 0.10655213
-0.077550374 -0.07977724 0.21563156 0.0027606413 0.013917932 -0.26648042 -0.17106207 -0.10975979
-0.04121494 -0.1941082 -0.091176465 0.080659695 -0.23547685 -0.12653555 0.14316009 0.06177662
-0.1038919 -0.03234094 0.05620026 0.12342932 0.19208322 -0.073356025 0.07109665 -0.18745634
0.15849794 0.07878183 -0.14888287 0.02456507 -0.044655047 0.19979201 -0.17070161 0.117407
-0.01913794 0.0983637 -0.32288998 0.057719328 -0.13627782 -0.0763426 -0.09760046 0.036169384
-0.24780016 -0.030347528 0.17140885 -0.10563043 -0.10398453 -0.094118245 0.00093200535 -0.03994116
-0.23903185 0.17249005 0.02835709 0.07086221 -0.27860928 -0.13442732 -0.10760705 0.08190702
0.12545101 0.0058333473 -0.15228905 -0.020672744 -0.021961438 -0.00739802 -0.3386398 -0.06836708
-0.10503438 0.08701812 -0.10763417 0.012791318 -0.0082483245 0.1588193 -0.05853217 -0.030047363
-0.13670874 -0.21546628 -0.06379804 0.05014062 0.087431476 0.12772171 -0.021131873 0.18206602
-0.11674119 -0.051466294 -0.14233029 -0.061541554 0.023225207 0.07648713 0.092079744 0.026006753
-0.32097423 -0.13791999 -0.029119464 -0.078366615 -0.041809827 -0.14505008 0.07430426 -0.0891487
0.09491292 0.2553352 -0.10274776 -0.00995686 0.0783248 -0.04429185 -0.072908886 -0.013366761
-0.22636497 -0.19541056 -0.007717199 -0.1837063 0.02433586 -0.22942893 0.0015664877 -0.06255638
-0.021897577 -0.105171815 -0.21601096 -0.08815513 -0.12923817 0.03212756 0.022863038 0.012064454
-0.1888252 -0.16723438 -0.17981383 0.053480238 0.028149055 -0.34776407 -0.1389755 -0.042896107
0.092158124 0.08240666 0.07886376 -0.10047907 0.009010162 0.09679721 -0.045335777 0.008678029
-0.004590834 -0.16265562 0.12128107 0.028953528 0.030417081 -0.08683013 -0.21930064 -0.16065618
-0.18217264 0.003411169 0.12086752 0.21613058 -0.14531672 0.020883942 -0.06065794 0.041256275
-0.19768642 -0.20544098 -0.055438153 -0.039723594 -0.10657078 0.0180685 -0.001400138 -0.09947135
-0.059145804 -0.07058089 0.15871628 -0.16095322 -0.21644132 0.07590433 -0.045494296 -0.04133568
0.06904608 -0.151783 -0.085330956 -0.07996897 -0.032208156 0.05551542 -0.21086489 0.016763702
0.047359396 0.17142868 0.10469566 0.11330051 -0.07347794 -0.17224671 -0.15451685 -0.26147568
0.03441406 0.106388226 -0.2708467 -0.11083236 -0.17203265 0.054789655 -0.22733182 0.0020618725
-0.1269917 -0.24003604 -0.14020015 0.011597854 -0.023420474 -0.15685064 0.14708054 -0.24584243
0.021761945 -0.16082755 -0.27989832 -0.2101823 -0.17635506 0.15023895 0.0077145356 -0.15582669
-0.1572369 0.090927966 -0.11294242 0.0013512075 -0.07198759 0.070948355 -0.22837609 -0.03462181
-0.30493766 -0.15421689 -0.006358647 0.03317242 0.14825137 -0.23934336 0.034781713 0.05353263
0.03723759 0.19266573 0.011648232 -0.29605588 -0.15453342 0.068523265 -0.16590501 -0.13211936

fc2.weight f4 [256, 256]
00000000: 53cb 0cbe da3a 60bd 2df6 f8bd b682 50be
00000010: 8546 01be 684b ecbd ad11 133e 0373 03be
00000020: 79aa 713d 6167 513e 524f 7a3d 6173 fc3d
00000030: ee6a 423e dbfe 3fbe a723 51be a6c0 18be
00000040: 05c1 a03d ff53 31be ce6e 19be 4baa 473d
00000050: a0d6 543d 78dc ca3c 1bd7 8e3c 40a5 f83d
00000060: e5c9 653e d2fa cd3c c8b1 e0bd e5ce 4f3e
00000070: b5d6 023e c1e1 6b3d e4a6 053e 34da 9cbe
00000080: 209c 65be 4e8a 9ebe 4d03 12be c1d3 18be
00000090: a919 8bbc d338 14be 29cc cabd 992b 5abe
000000a0: cce2 eebd f19d 2abd d0e4 573e 2f38 e7bd
000000b0: 0081 02bf 8e23 a2be ef68 283e 4e57 4b3d
000000c0: a9db a9ba b3da 1cbe 8e2a 313c 0bef c13d
000000d0: 3ace 49be c511 9cbd fc3e 9f3d fe95 0abe
000000e0: f371 a9be a100 8c3e eb2f a5bd 5c97 5d3d
000000f0: ffc4 063e 762e cc3d 5a6e 7cbe 3384 e5bd
00000100: d2c4 81be 669d 67bc 4a94 24bc 3c9e 55bd
00000110: 9649 01be dc4e c3bd 01f4 28be 5bec 40be
00000120: 4263 7dbe f143 203e abff cd3c b3a4 cc3d
00000130: 3723 22bd 7976 4f3e 204b 2a3e c6e3 d8bc
00000140: cdf5 8cbe e6a9 2c3d 080f 4ebd b723 393e
00000150: 7c1e 6fbc 5b8e 8c3e f4f7 0ebd 57bf 9dbd
00000160: 4d21 9b3e b06f 28be 4a08 6a3c b784 3b3e
00000170: cdc4 163c e0d9 b2bc 8fb7 f23c cdcd a3bc
00000180: 3d54 5a3d 2387 73be 44d7 af3d da04 39be
00000190: 70f5 3dbe 13c4 123d 5f2c 643c d1ed 673d
000001a0: 1404 ba3e 41ca 853d e424 0b3e 54f0 76bd
000001b0: 63c5 a43e 7a6f 94bd d1da 87be dd1c 21be
000001c0: 24b7 3e3e e966 263e 4b60 293e 2bcc 15be
000001d0: 91f2 0f3e 6506 cbbd cc1a f83d 0724 823e
000001e0: 1e9a 57be 7680 e3bd e1c9 f4bd 79bd 8dbd
000001f0: b750 0e3e 7f93 02be 5ecc 59bc 8b27 80be
00000200: 8b18 dabc 0506 08be 7500 7fbe d874 e9bd
00000210: 8cda 3c3e 1f85 6ebe 4bcf 173e 70d8 b2be
00000220: b69b 273e fabb 95bd 3a65 b7bd 9b34 2dbe
00000230: 13f5 8fbe 41fb 343c 1361 c2bd ad54 e33d
00000240: badd d0bd 39d1 5dbd d5d8 d6bd 531b 1e3e
00000250: d256 53bb 8423 0cbd 2dd5 5f3e cd08 d63d
00000260: 0fef 15be 11e6 413e 6653 a7be bc43 79bd
00000270: 869f 23bc 2947 a83d b600 653c 6298 3ebe
00000280: f367 28be 8305 d3bd ecf6 813d cf3f 52be
00000290: 9fd0 cbbd 8e5d e73c f95e bb3c 613a 073e
000002a0: 9c84 c7bd a20f c93d a495 ec3d 067b 6f3e
000002b0: 8db8 6d3c cabb 99ba e102 88bd 9818 ed3d
000002c0: 5046 7d3c d7c2 e9bd f279 ad39 4090 8bbe
000002d0: ced7 52bd aabc cc3d 54f2 2cbd d869 103c
000002e0: a17a d7bd cdb1 0a3d fa6e 29be 1cd8 9c3d
000002f0: 4541 83be ddad fab9 2610 efbc ffa1 a5be
00000300: 363c aabd b610 d33d 162e 9a3e 8827 54bd
00000310: f80a 8b3c 1344 80bd 7c98 513d c009 cebd
00000320: 0362 cebc 0a37 a1ba 512d 853e 3c00 bfbe
00000330: f66c 61be 92e6 ee3b f421 08be c316 653c
00000340: fc4c b03d 2cb5 503d c703 1cbd 968e 073d
00000350: 7cf0 3f3e 1510 44be 5a6f 1d3e 20e6 c13d
00000360: 0f5f f43d 1b95 c63d 382d 24bd 0ae7 76bc
00000370: aefe 0fbe 0507 173e c3b3 043e f2ad 5dbe
00000380: 382b c4bc 5b10 333c d5ed 4bbd 37ee 8cbe
00000390: 5e13 09be 8c0f 1e3d a992 70be d085 533d
000003a0: 7957 4e3c 21f4 de3d 3acc 8abd 5871 683e
000003b0: 268e 5d3e 7e8c 9d3d 144e c23e a021 1dbe
000003c0: c5ee 4ebe 020d b53d 8c14 3e3d 47c4 393e
000003d0: 9c37 f23d 95c0 2f3d c914 b23d a5c4 d6bb
000003e0: 3822 3fbe 9e96 023e 0524 cebd 48e5 afbd
000003f0: 8d77 663d d027 94bd 12c4 ec3d 6c1e 7dbe
-0.13749437 -0.054743625 -0.12156329 -0.20362362 -0.12624557 -0.1153782 0.14362212 -0.12836842
0.059000466 0.20449592 0.061110802 0.12326694 0.18986103 -0.18749563 -0.20423757 -0.1491724
0.078493156 -0.17317198 -0.14983675 0.04874639 0.051962495 0.02476333 0.017436555 0.12140894
0.22440298 0.025144015 -0.10971409 0.20293768 0.12777217 0.057588343 0.13051945 -0.30635226
-0.22422838 -0.30964893 -0.14259072 -0.14924528 -0.01698001 -0.14474802 -0.09902222 -0.21305694
-0.11664352 -0.04165453 0.21083379 -0.11290013 -0.5097809 -0.3166775 0.16446279 0.049643807
-0.0012959141 -0.15317802 0.0108133685 0.09469422 -0.19707575 -0.07620577 0.07775685 -0.1353378
-0.3309475 0.2734423 -0.0806578 0.054099426 0.13161086 0.09969799 -0.24651471 -0.112068556
-0.25345474 -0.014136648 -0.0100451205 -0.052152857 -0.12625727 -0.095365256 -0.1649933 -0.18840162
-0.24744895 0.15650918 0.025146326 0.099923514 -0.039584365 0.20260037 0.1663022 -0.026475798
-0.2753128 0.042154215 -0.050307304 0.1808003 -0.01459467 0.2745236 -0.034904435 -0.07702511
0.30298844 -0.16448855 0.014284203 0.18312345 0.009202194 -0.021832407 0.029628543 -0.019995594
0.053302992 -0.2378202 0.085859805 -0.18068257 -0.18550658 0.035831522 0.0139265945 0.056623284
0.36331236 0.065327175 0.13588291 -0.06028779 0.32181844 -0.07247825 -0.2653413 -0.15733667
0.1862455 0.16250195 0.16540639 -0.14628665 0.14057375 -0.09913329 0.12114486 0.25418112
-0.21054885 -0.11108486 -0.11952568 -0.06920905 0.13897978 -0.12751578 -0.013293354 -0.2503017
-0.026623031 -0.13283546 -0.24902518 -0.11399239 0.18442744 -0.23292969 0.1482517 -0.34930754
0.16367993 -0.07311244 -0.08954854 -0.16914599 -0.28116664 0.011046232 -0.09491172 0.11100135
-0.10198541 -0.05415461 -0.10490576 0.15440111 -0.0032247794 -0.034213558 0.21858664 0.10450897
-0.14641975 0.1893542 -0.32680815 -0.060855612 -0.009986764 0.08216698 0.01397722 -0.18612817
-0.16445903 -0.10303786 0.06345925 -0.20532154 -0.09951901 0.028242853 0.022872435 0.13205864
-0.0974209 0.09817435 0.11551979 0.23386773 0.014509332 -0.0011728939 -0.06641174 0.115769565
0.015458658 -0.11414116 0.00033087988 -0.27258492 -0.05147534 0.09996922 -0.04222329 0.008814298
-0.105214365 0.03386097 -0.1654624 0.07658407 -0.25635734 -0.00047813254 -0.029182505 -0.32350156
-0.083122656 0.10305922 0.30113286 -0.051795512 0.016973004 -0.06262984 0.05117081 -0.100604534
-0.02519322 -0.0012299728 0.26011136 -0.37304866 -0.22014222 0.0072906697 -0.13294202 0.013982478
0.086084336 0.05095403 -0.03808954 0.033094965 0.18744081 -0.1914676 0.15374509 0.09467721
0.119321935 0.09696408 -0.040082186 -0.015069732 -0.14061996 0.14748771 0.12959199 -0.21648386
-0.02394639 0.010929192 -0.04978736 -0.27525494 -0.13386294 0.038589045 -0.23493446 0.051641285
0.012594097 0.10886408 -0.067772344 0.22699487 0.21636257 0.076928124 0.37950194 -0.15344858
-0.20208271 0.08840372 0.046406314 0.1814128 0.11827013 0.04290827 0.08695371 -0.0065542036
-0.18665397 0.12752768 -0.10065464 -0.08588654 0.056266356 -0.07234156 0.11560835 -0.24718636

fc2.bias f4 [256]
00000000: ad67 20be 25f9 56bd 8d7a 0e3d 57ba 60be
00000010: 8225 abbd e636 813c 7a9e a63d 0a21 e7bc
00000020: c5e5 f13d 336a a63d fabd 043b 6375 873d
00000030: 8a0b 173b b87a 03be b57a 19be 4091 bbbc
00000040: 9242 9fbd 92fc 3c3d d50c e2bd 0ebc 58bd
00000050: b2a5 79bd f6d8 51bd eca0 3e3d b58c 2a3e
00000060: 9937 66bd df22 723d e57d c4bd a238 8bbd
00000070: 622c 4f3c 0d13 90bc 1a97 2dbd 5aed cf3d
00000080: b804 573d c257 25bb 04bc 393d c332 603d
00000090: c45c af3d 7136 93bd 7ae7 d13d 4ef8 a9bd
000000a0: 446a ccbd da5b 453d 4ba9 e33d f243 f83c
000000b0: 3c46 75bd 201f 423d 5049 fe3b a56f 93bd
000000c0: 0813 0abc 1096 b7bc a8dc 573d 4ff5 fbbb
000000d0: be4d c33d bc54 2b3d bd74 c23d 6d98 a9bd
000000e0: 9785 f73c aa72 b33c e801 fa3c c442 89bd
000000f0: 0770 373d 13b1 b43d 2174 b43c 5d3c a7bc
00000100: 68bd 643c e253 323d f392 24bd d597 1cbd
00000110: 9612 64bd e1d0 b3bd 060d c5bc 6f7d 833c
00000120: bda5 ce3c 2d5a c73c 4d83 6d3d 8c12 933d
00000130: 5c60 6abd ef46 6b3d 0c9d 89bb 787b 1ebd
00000140: 73a7 fd3c 2780 3dbc c189 cbbd 79d3 25bd
00000150: c748 8e3d 7af5 1dbd 1a3c eb3a 820b ebbd
00000160: 7c3c f63c a00b df3b bfdb dcbb fd18 a5bd
00000170: 03fd 23be f818 31bd 8f28 debd bed7 fbbc
00000180: 6176 1b3c d03f 883c fdfb b5bd 2e60 bdbd
00000190: 2161 313d d852 a83d 61ad bbbd dba3 ab3c
000001a0: 44ea 67bd 40f3 8dbc 474f 203d b2b4 86bc
000001b0: f3e7 9f3d acbf 0dbd 920b 35be 554a 123d
000001c0: 395b a93c 6286 78bb 9fb4 1dbd 4d22 d03c
000001d0: eb2a 3dbd ef3b 94bb 9e16 50bd dd92 5cbd
000001e0: 0bc9 07bd bad4 cd3c 6a81 0abd e50e 5fbd
000001f0: f881 1ebe 1c19 aebd 9d61 803d 11f2 713a
00000200: 7d9f 843d ca8b 3dbd c924 5d3d e803 fe3c
00000210: 6744 eabd ccd7 bf3b 938d 8a3c 3aae 33bc
00000220: 8083 ffbc 19a9 5f3d 85d4 79bd 33f1 7a3d
00000230: b070 96bd 40d6 4fbd ad6c f7bd f56b 173d
00000240: e614 83bd 38cd 0fbd 87df 5a3d 56de 25bd
00000250: 1739 0b3d e00a 893d 774a 39be 3c0a 603d
00000260: 3916 5fbd 1fa4 8abd 72be 223b 9193 49bb
00000270: 9590 adbd a7e6 6dbd 66d4 b3bc 2275 e13c
00000280: c63e 173d 378d 61bc a3ff c63c b656 2ebd
00000290: 071c 99bd 0cf5 5f3d aa07 b63c e67e ec3c
000002a0: 6126 8b3b fd20 143d 3061 a1bd bdb5 eebc
000002b0: 33aa 613c fcea ddbd 761d 57bc ef52 a83d
000002c0: 12e4 3cbd 73ea ac3d 3b0a b83c 28d6 3ebd
000002d0: 4810 eb3b 6f91 893d 4d37 44bd f4db d0b9
000002e0: fbb4 38bd 6c50 8b3d 7f55 093d 7140 a7bc
000002f0: bee6 b3bd 430f 793b b442 a0bd 84f4 7d3d
00000300: 6b12 bcbd 95f8 143c 3a35 00bc 9063 91bd
00000310: 9ed8 223b 8ed7 e63c bb14 37bd 4ee2 b7bd
00000320: 7775 15bd 92f8 0d3d d419 ecbc 09bb 3dbc
00000330: bef2 173c 7a9b 3a3b 8cbe cabd 7cbf 143d
00000340: 2af7 b1bd f911 84bc 616d ab3b 2252 973b
00000350: a914 30bd bcd9 47be f883 5bbd c438 81bd
00000360: c1cb 373d 823e 8a3c 5a2d bdbc 2534 33bd
00000370: 0e30 b0bd 603d 45bd 8634 f43c b439 153d
00000380: 3d79 d0bd 34bd 8a3d 0cc9 a43c a798 00be
00000390: f948 823d ce5e d9bd 6e38 b1bc e808 a53d
000003a0: b613 9ebd 6acf 4ebd 2fb5 ca3b 0fb2 3dbd
000003b0: 13cb d9bc 39d7 86bd a2e3 213d f3f0 583c
000003c0: dc5f 4b3d c6ba ae3c 41ec 48be 86ba 4dbd
000003d0: 6e5a 793b 82f5 9cbd 69b2 663d b7a9 9739
000003e0: 853d 5bbd 3ec9 a73d 22d1 30bd 24d3 843d
000003f0: 8c5d 823c c4eb 4ebc 45ce a0bd 0fac 603d
-0.15664549 -0.052483696 0.034784842 -0.21946083 -0.083567634 0.015773248 0.08135696 -0.028213996
0.11811403 0.08125725 0.0020254836 0.066141866 0.002304765 -0.12839782 -0.14988215 -0.022896409
-0.07776369 0.046139307 -0.11037604 -0.052913718 -0.060949035 -0.0512323 0.046540186 0.16655238
-0.056205366 0.059115287 -0.09594325 -0.06797911 0.012644859 -0.01758721 -0.04238043 0.10152693
0.052494735 -0.002522931 0.04534532 0.05473591 0.085626155 -0.07188118 0.10249229 -0.082993135
-0.09981206 0.0481833 0.111162744 0.030305836 -0.059881434 0.047392964 0.0077602044 -0.07199029
-0.008427389 -0.022410423 0.05270067 -0.007689155 0.095363125 0.041828856 0.09494922 -0.08281026
0.030215068 0.021905262 0.030518487 -0.06702188 0.044784572 0.08822837 0.02202803 -0.020414526
0.013961174 0.043537028 -0.040179204 -0.038230736 -0.055681787 -0.08780075 -0.024054062 0.016051022
0.025225515 0.024334991 0.057986546 0.07181272 -0.0572208 0.057440694 -0.0041996296 -0.038691968
0.030963635 -0.011566198 -0.09938384 -0.04048488 0.06947475 -0.038564183 0.0017946989 -0.11476804
0.030058138 0.0068068057 -0.006740063 -0.08061407 -0.16014485 -0.043236703 -0.1084758 -0.030742522
0.009488673 0.01663199 -0.088859536 -0.092468604 0.04330552 0.08218926 -0.09163929 0.020952156
-0.056619897 -0.017327905 0.039138105 -0.016443584 0.07807913 -0.03460662 -0.17680195 0.03571542
0.020673381 -0.0037921895 -0.03850233 0.02540698 -0.046183508 -0.004523746 -0.05080282 -0.053850997
-0.033150714 0.02512585 -0.033814825 -0.054457564 -0.15479267 -0.08500883 0.06268618 0.0009229491
0.064757325 -0.04627589 0.05399016 0.031007722 -0.11438828 0.0058545824 0.016913211 -0.010966832
-0.031190634 0.054604623 -0.06099369 0.06126518 -0.07345712 -0.050741434 -0.12081275 0.03696819
-0.064004704 -0.03510782 0.05343583 -0.04049524 0.033989992 0.06691527 -0.18094812 0.05469726
-0.054464553 -0.06769585 0.0024832753 -0.0030758122 -0.084748425 -0.058081295 -0.021951865 0.027521674
0.0369251 -0.013766578 0.024291819 -0.042563163 -0.07476049 0.054677054 0.022220451 0.028869104
0.0042465185 0.036164273 -0.07879865 -0.029139394 0.013773489 -0.10835835 -0.013129583 0.08218943
-0.046115942 0.08443155 0.022465816 -0.046590954 0.0071735717 0.067171924 -0.0479043 -0.0003983673
-0.04509447 0.06802449 0.0335288 -0.02041647 -0.08784245 0.0038003481 -0.078252226 0.062000766
-0.091832004 0.00909247 -0.00782519 -0.07099068 0.0024848352 0.028178956 -0.044697504 -0.08978711
-0.036488976 0.034660883 -0.02882091 -0.011580237 0.009274183 0.002847402 -0.09899625 0.036315426
-0.08689721 -0.016121851 0.005231545 0.0046179453 -0.042988453 -0.19516653 -0.053592652 -0.06309655
0.04487205 0.01687551 -0.023092914 -0.0437509 -0.08602916 -0.048154235 0.029810201 0.036431983
-0.10179374 0.06774369 0.020115398 -0.12558232 0.06361575 -0.10613786 -0.021633353 0.08058339
-0.07718603 -0.050490774 0.0061861495 -0.046312388 -0.026586091 -0.06584019 0.03952373 0.0132410405
0.049651965 0.021329295 -0.19621374 -0.05022671 0.0038048285 -0.076640144 0.05632249 0.00028927412
-0.053525466 0.08192681 -0.043168195 0.064855844 0.015913747 -0.012629453 -0.07851843 0.054851588

fc3.weight f4 [4, 256]
00000000: 745c 3bbf ddfd cc3e fb29 20be 22fd 223f
00000010: 4c1c 35bf dea0 23bd 0e91 7b3e f099 46be
00000020: 3cf1 263e bcbc d5bd 4c96 5dbe 4fd2 8cbc
00000030: 1b68 e23d 42b2 45be 1a4d 02be 2cc7 cfbe
00000040: ecc6 7ebd f7c4 a23d 8145 aebe 23a6 e1be
00000050: 287c ebbe ed14 293e 81d2 0c3f 70ae aa3d
00000060: 5b68 b33d 0046 ecbb 13e6 0a3f c875 0b3f
00000070: 9f30 5b3e 5114 d2be e269 c6bd 868a 4e3e
00000080: ab28 583d 5a26 883e 53c3 723e 3e62 00bd
00000090: ff50 ee3d ff6c f33e 88ca dc3c d39e 623e
000000a0: 52f3 bdbe c9f0 5fbe 7d22 9cbd d206 94be
000000b0: ebb9 03bf 710f 92bd 5e86 c4bc 5975 363f
000000c0: ed0e 0ebd de64 49be 95dc 12bd 6fad 973d
000000d0: a545 373e 92ff 6d3c 15f1 29be ff45 7bbe
000000e0: f1cb 76bd 70f7 dfbd 12d8 13bf f9a4 153a
000000f0: 3a60 abbd 9d85 8a3d 20a0 40be 65e8 fa3d
00000100: 49f5 323e 8554 94be 0cff 1cbf 4077 abbe
00000110: 2807 433d 5daf 82be 41af 293e 9586 693d
00000120: 92e1 093e 712a e53d 57a1 9cbe b27e 0b3e
00000130: c671 b73e e92f 6b3e ec53 ce3d 4070 aabe
00000140: f15b 64be fcc5 2cbf addd bf3e 6439 06bf
00000150: 2029 50be 8010 653e 7c4e f7be 5a6d 853f
00000160: 1d8b 473d 2453 073d 4bf3 b0bb 0609 823d
00000170: eae4 bb3e 5e36 0d3e f8ff b43e 39bd 423e
00000180: 9f26 d43d a046 0a3f 537f 8a3e 21c3 2dbe
00000190: 7718 94bd 81f9 c03d 1f5a 16be 7b5d 26be
000001a0: 787d 8abe d4fc 33bc 39df 233e 8ae3 16bf
000001b0: d2c4 5d3c 26e0 d73e b859 2d3e f5f9 c6bd
000001c0: 34ea 0c3d 1877 f63e 3648 b23c 962b 16bd
000001d0: 7a47 9c3b 513e 85be d680 3d3e 43e6 d0be
000001e0: 587f 0d3e 7aa6 3f3e 6c76 6dbe 4f69 f43a
000001f0: 94ef aebd a902 69bf 977e 023e bdec 623e
00000200: 8526 8c3e d005 c73e 210d 3e3e ef83 91bd
00000210: 3def acbe 8242 02bd 73ce 693c 98cd 963e
00000220: 2aa9 3e3c 564f e8be 76ec 553e bcf2 183e
00000230: 5903 74be 0b44 c33e 3f07 57be 1cc4 bb3d
00000240: a599 7abe 44a4 463e 37fe 36be 0585 16bf
00000250: a213 b13d 4285 d73e 7ba4 01bf 8c1d 5c3d
00000260: e76d 24bf 78e5 883e 97e4 b3be 2e42 cfbe
00000270: 8841 03be c6fe 29bf 2550 83be 0f15 4abe
00000280: ecab 1e3f b1c9 1bbc 08fc 8ebe 59be 033f
00000290: f677 06be 499f d53d ab1e 5b3e 5cd3 763e
000002a0: 8438 69bb e545 21bd 8c21 eebe 4998 11bf
000002b0: 9696 f8bd 000a 063e 975b b5be 7f82 9c3e
000002c0: c882 573e f64b e23d 007d 9dbc 6961 1ebd
000002d0: 5cb5 5dbe 68c1 cb3d 6924 f33d ca76 03bf
000002e0: a278 d5bc 7df6 85be 6828 39be 03e4 993d
000002f0: f03a 05bf 4784 073d b120 83bd 24b5 653e
00000300: cf15 833d 04a7 4cbe d19b 1ebf 766c ebbe
00000310: 9aae e3bd 3246 2fbe 36e3 463c e809 d9be
00000320: 9205 86bd c493 95bd 3817 57be 961a a1be
00000330: f1d4 ef3d d43b 9c3d 6763 94be 8f43 ffbd
00000340: 12f1 10be 373b d83e 88aa 75be c03a 183e
00000350: fdb0 a83d be6d 3fbe 6fec 903d 0892 53be
00000360: 090f c8bd a2de a23e ee36 d3be 0cf7 013f
00000370: f45b 9ebe ea86 17bf 5248 f6bc 1565 8b3c
00000380: 9b43 983e 5a74 a3be 7d76 39bd 7c72 c63d
00000390: 91f5 863d eac8 fbbe 9913 c33d 2075 9fbd
000003a0: 9180 8fbd 2cf7 47be 9899 bc3c 355d 0cbe
000003b0: 7f29 16be 5b87 ff3d ea30 e9be 141f 873d
000003c0: e9c3 d63b 7d9f 0d3d 9782 033f b8c7 5bbc
000003d0: c6aa b23d adba 243b 9032 08be dac7 223d
000003e0: 4f92 b93b 2e78 89be 7367 e53d 4773 24bd
000003f0: e6e7 9ebd fe20 9abd b595 f3be a1fb 183e
-0.7318795 0.40037432 -0.15641014 0.636675 -0.707463 -0.039948337 0.24567053 -0.1939466
0.16302961 -0.10436389 -0.21639365 -0.017190127 0.11055013 -0.19306281 -0.12724724 -0.40581644
-0.062201425 0.07947724 -0.34037402 -0.44072065 -0.4599316 0.16511889 0.55008703 0.083340526
0.087601386 -0.007210493 0.54257315 0.54476595 0.21405266 -0.41031125 -0.09688164 0.2017003
0.05277316 0.2659176 0.23707323 -0.03134369 0.116365425 0.47544095 0.026952043 0.22130899
-0.370997 -0.21869196 -0.076237656 -0.28911453 -0.51455563 -0.071318515 -0.023989853 0.7127281
-0.034682203 -0.19667384 -0.035854895 0.07406127 0.17897661 0.014526265 -0.16595872 -0.2453842
-0.060253087 -0.10935867 -0.5775157 0.0005708482 -0.08367963 0.06763766 -0.18811083 0.12251357
0.17476381 -0.28970733 -0.6132667 -0.33489418 0.047614247 -0.25524417 0.1657076 0.057013113
0.13464954 0.11189736 -0.30591843 0.13622549 0.3582899 0.22967495 0.100746006 -0.33288765
-0.22300698 -0.674896 0.37473813 -0.5243132 -0.20328188 0.22369576 -0.48302066 1.0423996
0.048716653 0.033038273 -0.0054000965 0.06349377 0.36698085 0.1379027 0.3535154 0.19017495
0.10358929 0.54014015 0.27050266 -0.16968967 -0.07231229 0.09422589 -0.14682816 -0.16246597
-0.2704885 -0.010985572 0.16003121 -0.5894095 0.013535695 0.421632 0.16928756 -0.09715644
0.03440304 0.48137736 0.021762948 -0.03666266 0.004769263 -0.26024106 0.18506178 -0.40800676
0.13818109 0.1871585 -0.23189706 0.0018647107 -0.0854179 -0.91019684 0.12743603 0.22160621
0.27373138 0.38871622 0.18559696 -0.071052425 -0.33776274 -0.031801708 0.014270413 0.2945373
0.011637012 -0.4537303 0.20890984 0.14936346 -0.23829402 0.3813785 -0.20998858 0.09168264
-0.24472673 0.193986 -0.17870413 -0.5879672 0.08646323 0.42093855 -0.506416 0.053739116
-0.642302 0.2673757 -0.35135338 -0.4048018 -0.12817967 -0.6640438 -0.25647083 -0.19734596
0.6198108 -0.009508536 -0.2792666 0.5146232 -0.13131699 0.10430772 0.21398418 0.24104065
-0.0035586664 -0.039373297 -0.4650997 -0.56872994 -0.12138097 0.13089752 -0.3542144 0.3056831
0.21045983 0.11049645 -0.019224644 -0.038667116 -0.21651214 0.09948999 0.11872179 -0.5135313
-0.026058499 -0.26164618 -0.1808182 0.07514193 -0.52043056 0.033085134 -0.0640272 0.22432381
0.06400644 -0.19985586 -0.61956507 -0.45981187 -0.11117287 -0.17116621 0.012139132 -0.4239037
-0.06544031 -0.07303575 -0.21004951 -0.31465596 0.11710537 0.07628599 -0.28982088 -0.12464058
-0.14154461 0.42232677 -0.23990834 0.14866161 0.08236883 -0.18694207 0.07076346 -0.20661175
-0.09768493 0.3181048 -0.41252846 0.5076759 -0.3092953 -0.5919024 -0.030063782 0.017015973
0.2973908 -0.31924707 -0.045279015 0.09689805 0.06589807 -0.49176723 0.09525222 -0.07786012
-0.07006944 -0.19527882 0.023022458 -0.1370743 -0.14664267 0.12476989 -0.4554513 0.065977246
0.006554116 0.034575928 0.5137114 -0.013414316 0.08723979 0.0025135681 -0.13300538 0.039741375
0.0056631933 -0.26849502 0.11201372 -0.040149 -0.07759075 -0.07525824 -0.47575155 0.14939739

fc3.bias f4 [4]
00000000: dc22 973c adfe 8d3d 1c57 1dbb da81 623d
0.01844924 0.06933341 -0.002400822 0.055299617
