checkpoints/checkpoint_critic_ddqn_10.pth (torch_old, 304178 bytes, 5 tensors)

fcs1.weight f4 [256, 33]
-0.05101115 0.029170247 -0.01786493 -0.0024459206 0.004206554 0.030400936 0.013035251 -0.049310334
-0.039631043 -0.021887742 0.011114755 0.00542475 -0.018051025 0.062026594 -0.061122436 0.006180567
0.012145432 -0.015293036 0.030088812 0.021457301 -0.012043333 0.053881165 0.028997984 3.369515e-05
0.008122378 0.062199496 -0.03257558 0.16434705 0.043061294 0.05109015 -0.1656455 0.020274766
-0.18400131 -0.025923315 0.03359122 0.0022519317 -0.00010137645 0.048040044 -0.027247295 0.007729995
-0.034865092 -0.0107849585 -0.019435149 0.029405028 0.0073228944 0.015572559 0.09432275 -0.03315041
-0.007901615 -0.005411228 -0.04268663 -0.017102042 0.0044554197 0.012200493 -0.026654536 0.013353073
-0.0034053656 -0.0032985068 -0.01950611 -0.055351745 0.064437635 -0.0044450248 0.0114473775 0.0062927525
0.03391771 0.05851294 0.0072373603 -0.023345046 -0.036275588 -0.032343622 0.091459736 -0.0008888592
-0.0039555277 0.009159058 -0.00048394824 0.010854548 0.009221322 0.0053075547 -0.0063983332 0.01906944
0.02877144 0.011700396 -0.0030382168 0.032264173 0.008758225 0.027444385 -0.0054614125 0.013095294
0.018592369 0.0063325544 0.009310957 -0.011590535 -0.011419052 0.030679416 -0.043907754 0.05361893
-0.011103215 0.01849357 -0.26235786 -0.0054443814 0.03723668 -0.0098514175 -0.0027523958 0.003423409
-0.012412557 0.08472395 -0.0003070639 -0.02134366 0.039311945 -0.012789937 0.0076461597 -0.003226477
0.061753687 -0.07608977 -0.05500137 -0.016092582 -0.005241724 0.021300407 0.019567914 -0.013455128
-0.0028979927 0.0019861585 0.021731 -0.019598126 -0.023127895 -0.054872397 -0.006794156 0.058788907
-0.015151218 0.03720809 -0.022331007 0.32316804 -0.09598842 0.032691605 -0.04237802 0.038041763
0.042804793 0.0025835491 -0.079705685 -0.004411592 0.14085287 0.00834538 0.008003597 0.0026283571
0.043096516 -0.042631373 0.008490288 0.016846156 0.026899692 -0.011972864 0.058579758 0.05576968
-0.015583183 -0.00878612 0.036869418 -0.044430703 0.00341993 -0.003503278 0.10068704 0.05003881
0.02389687 0.04573536 -0.038998798 -0.010656625 -0.13689871 -0.019281205 -0.05520568 0.018019967
-0.036557794 -0.12866963 0.008378827 0.04244745 -0.002429565 -0.08451099 -0.028989064 -0.0050033154
0.0033865927 0.014421943 0.039081838 0.019530622 -0.007966651 0.0041668527 0.022190087 -0.06241609
0.016515078 -0.0089764325 -0.030091135 0.02789448 -0.021497613 0.0011425174 -0.032566987 -0.018382259
0.07592179 -0.0024448636 0.04400678 0.00096904807 0.021717638 0.0061025587 -0.033086233 0.0738636
-0.09520354 -0.060977947 -0.0030296678 0.024375433 0.0022747756 -0.007956517 -0.05803694 0.016866192
-0.036757167 0.009299209 -0.040825654 0.06912582 -0.11978563 0.101296596 -0.010490759 0.01027878
-0.067380816 0.037146643 -0.01263727 -0.026590288 -0.018550029 0.027930105 -0.046478078 0.04815104
-0.026229909 0.12859736 -0.07672892 -0.05274736 -0.019325403 0.012658566 0.13386482 -0.11672583
-0.008631157 -0.014635935 -0.050418895 -0.03595227 -0.018972674 0.06391364 0.032590337 -0.05880484
0.0021588127 -0.029093254 -0.06825402 -0.05312435 0.05817629 -0.0077285487 -0.009371166 -0.036117297
-0.028000781 -0.02331312 0.0069756056 -0.048182633 -0.014291125 -0.018888842 0.027666554 0.035829052
00000000: 11f1 50bd 71f6 ee3c 7959 92bc bd4b 20bb
00000010: 22d7 893b 620b f93c ce91 553c a2f9 49bd
00000020: 2954 22bd ec4d b3bc a91a 363c 1ac2 b13b
00000030: bedf 93bc 990f 7e3d 855b 7abd 5b86 ca3b
00000040: a2fd 463c a48f 7abc d07c f63c 39c7 af3c
00000050: 6651 45bc 7fb2 5c3d 2e8d ed3c e453 0d38
00000060: b913 053c e6c4 7e3d f96d 05bd 984a 283e
00000070: 0a61 303d e843 513d f99e 29be 4417 a63c
00000080: d76a 3cbe 225d d4bc f296 093d 2595 133b
00000090: 119a d4b8 a3c5 443d b835 dfbc e64b fd3b
000000a0: b3ce 0ebd 65b3 30bc 7636 9fbc d0e2 f03c
000000b0: e4f4 ef3b 0c24 7f3c 492c c13d b9c8 07bd
000000c0: c775 01bc ac50 b1bb 2dd8 2ebd 9519 8cbc
000000d0: c5fe 913b 94e4 473c 9d5a dabc d9c6 5a3c
000000e0: 8e2c 5fbb c32b 58bb 47cb 9fbc 83b8 62bd
000000f0: e1f7 833d 92a7 91bb c88d 3b3c 6f33 ce3b
00000100: 4ced 0a3d 44ab 6f3d 6127 ed3b 1c3e bfbc
00000110: b695 14bd bf7a 04bd 3e4f bb3d 5502 69ba
00000120: 5f9d 81bb e00f 163c 6fba fdb9 46d7 313c
00000130: 0715 173c ffea ad3b 1ca9 d1bb 8437 9c3c
00000140: 15b2 eb3c 05b3 3f3c d21c 47bb 7027 043d
00000150: a87e 0f3c 0cd3 e03c a6f5 b2bb a58d 563c
00000160: 064f 983c 5181 cf3b fc8c 183c 3ae6 3dbc
00000170: fa16 3bbc 6653 fb3c 9ed8 33bd 869f 5b3d
00000180: 42ea 35bc d47f 973c c553 86be c866 b2bb
00000190: 7d85 183d d767 21bc 8a61 34bb 465b 603b
000001a0: 0a5e 4bbc c083 ad3d 6bfd a0b9 e6d8 aebc
000001b0: 9005 213d e28c 51bc a38c fa3b 4d73 53bb
000001c0: 6ff1 7c3d f4d4 9bbd 1e49 61bd 97d4 83bc
000001d0: c5c2 abbb 317e ae3c e44c a03c e672 5cbc
000001e0: 40ec 3dbb 362a 023b 3605 b23c 408c a0bc
000001f0: b676 bdbc e1c1 60bd 83a1 debb a3cc 703d
00000200: d03c 78bc 8367 183d 84ef b6bc 4876 a53e
00000210: 9495 c4bd a2e7 053d 9394 2dbd aed1 1b3d
00000220: 1454 2f3d c350 293b bc3c a3bd 1e8f 90bb
00000230: bc3b 103e 10bb 083c 8521 033c 8440 2c3b
00000240: f985 303d 3c9e 2ebd d91a 0b3c f300 8a3c
00000250: be5c dc3c d529 44bc 54f1 6f3d bf6e 643d
00000260: 9b50 7fbc a9f3 0fbc 6304 173d f8fc 35bd
00000270: e820 603b 4097 65bb 0235 ce3d 7ff5 4c3d
00000280: 5ec3 c33c 0055 3b3d 34bd 1fbd 2099 2ebc
00000290: 2d2f 0cbe 9ef3 9dbc 5a1f 62bd 9c9e 933c
000002a0: a0bd 15bd f9c1 03be 5947 093c 61dd 2d3d
000002b0: 5639 1fbb 1914 adbd 797a edbc daf2 a3bb
000002c0: 99f1 5d3b 034a 6c3c 4714 203d affe 9f3c
000002d0: 8e86 02bc 188a 883b fcc7 b53c 04a8 7fbd
000002e0: a14a 873c e311 13bc af81 f6bc f782 e43c
000002f0: c31b b0bc 86c0 953a f664 05bd 6496 96bc
00000300: e27c 9b3d 013a 20bb 7440 343d b707 7e3a
00000310: 30e9 b13c f9f7 c73b 6e85 07bd cd45 973d
00000320: 13fa c2bd 03c4 79bd 648d 46bb fdae c73c
00000330: 6714 153b 0d5c 02bc 24b8 6dbd f82a 8a3c
00000340: af8e 16bd b65b 183c cd38 27bd d791 8d3d
00000350: 2b52 f5bd 9774 cf3d 6fe1 2bbc 5468 283c
00000360: f4fe 89bd 1427 183d 8d0c 4fbc e0d3 d9bc
00000370: 3bf6 97bc adcd e43c cc5f 3ebd 063a 453d
00000380: 1be0 d6bc 07af 033e 0d24 9dbd 9e0d 58bd
00000390: 4f50 9ebc e065 4f3c dc13 093e f40d efbd
000003a0: b269 0dbc 90cb 6fbc 0b84 4ebd b042 13bd
000003b0: 956c 9bbc 28e5 823d 727d 053d 58dd 70bd
000003c0: de7a 0d3b fa54 eebc c3c8 8bbd eb98 59bd
000003d0: 434a 6e3d c43f fdbb 8589 19bc bbef 13bd
000003e0: e561 e5bc 28fb bebc 9f93 e43b 275b 45bd
000003f0: 5325 6abc c6bc 9abc f8a4 e23c 7cc1 123d

fcs1.bias f4 [256]
-0.13546997 -0.115311004 0.076250255 -0.07683895 -0.0017313346 -0.061971463 -0.24770701 0.037941538
-0.0019519825 0.060396794 -0.250397 0.12259904 -0.0291876 0.11991505 0.07464548 0.090440296
0.022506861 -0.04417413 -0.14106897 -0.1803391 -0.014962788 -0.13829458 -0.048334707 0.1288838
-0.1759789 -0.00089383195 0.18939327 -0.015011632 -0.027735138 -0.20289063 -0.14015114 -0.103448756
0.075325936 -0.16769202 -0.1471942 0.13107331 -0.18882789 -0.20149006 0.03588657 0.034399517
-0.19593179 -0.039469894 0.050265945 0.1475469 0.07010011 -0.08054267 0.030469196 -0.110630214
0.12803736 0.02869235 -0.16642348 0.023463825 -0.09681408 -0.054215323 -0.122131415 0.09234129
-0.05119543 0.124063775 -0.21362256 0.033538546 -0.16615161 -0.1282525 -0.017961113 -0.080766276
-0.15478627 -0.14988786 0.13349466 -0.0048833466 -0.029447753 -0.07334605 0.18315549 -0.15147926
-0.21835382 0.07074831 0.025605137 0.063900076 -0.11632307 -0.10371936 -0.24169426 -0.018186802
0.099631466 -0.044165783 -0.15097761 0.031639963 0.09869004 0.09288741 -0.20830084 -0.09425666
-0.061700802 0.07963053 -0.0678356 0.08000962 0.07489902 0.11154223 -0.056742996 -0.09097975
-0.023288183 -0.14128143 -0.12788948 0.114055976 0.054220874 0.032127656 0.0268726 0.01455186
0.0473431 -0.06456739 -0.07253101 -0.017535182 -0.008041983 -0.007081184 0.10682093 -0.067793645
-0.15800686 -0.19874355 0.06836764 -0.06799016 -0.0931599 -0.17670397 0.038281567 -0.04464471
0.08771465 0.063036576 -0.067199886 0.1272482 0.09662739 0.013350001 -0.13667755 -0.053059854
-0.105473734 -0.20229198 -0.11389083 -0.12361789 0.08543748 -0.118581474 -0.066036776 -0.012166601
0.037400857 -0.12229003 -0.111468524 -0.12741177 0.0046483246 -0.04675359 0.010029987 -0.02472959
-0.10825736 -0.11764201 -0.08177649 0.12056419 0.004555375 -0.18493013 -0.22359474 -0.0048541096
0.015966192 -0.073334865 0.032257814 -0.044006117 -0.14455776 0.032805055 -0.089273475 -0.13268141
-0.017964114 -0.13306299 0.04190102 0.053355433 0.012267278 -0.070208766 -0.09359013 -0.15621196
-0.15212907 -0.1242417 0.07190865 0.050699264 -0.17248403 0.061454527 -0.0037041537 0.06673375
-0.093059994 -0.10255776 -0.11534858 -0.13090383 -0.05173035 0.028094387 -0.095169395 -0.147589
0.0019943228 0.04599596 0.019506587 -0.09258603 -0.10246058 0.13049491 -0.16150106 -0.037745893
0.08628172 -0.048181172 -0.084552795 -0.16413131 -0.05298967 0.04245046 -0.21700451 0.012700027
0.1453689 0.15612967 0.06272981 0.11855312 0.015755834 -0.14425313 -0.20974413 -0.17369233
0.0034805776 0.052008547 -0.12964512 -0.053264305 -0.141844 0.018595444 -0.15944578 0.018585764
-0.13805039 -0.11903873 -0.057472754 0.11839035 -0.06191204 -0.12898663 0.07306536 -0.1783029
0.11644492 -0.20224981 -0.07426792 -0.21454623 -0.12654813 0.15596436 -0.01086399 -0.012480904
-0.17553878 -0.057212576 -0.07710006 -0.045280434 0.035964105 0.07016183 -0.10816717 0.009231154
-0.19455054 -0.1710802 -0.06118441 -0.05685293 0.008444212 -0.084169134 -0.008891994 0.0505504
-0.024718197 0.07348361 -0.01559402 -0.17777358 -0.15074441 -0.0031533807 -0.1337204 -0.17109315
00000000: a4b8 0abe 2d28 ecbd 1829 9c3d bd5d 9dbd
00000010: f3ed e2ba cad5 7dbd e8a6 7dbe 9668 1b3d
00000020: aad9 ffba a162 773d 0934 80be 3515 fb3d
00000030: d51a efbc 0696 f53d bbdf 983d c338 b93d
00000040: 4f60 b83c efef 34bd 6274 10be d0aa 38be
00000050: 7b26 75bc 189d 0dbe 9dfa 45bd 1dfa 033e
00000060: d033 34be 0c50 6aba 4ff0 413e 59f3 75bc
00000070: cd34 e3bc 90c2 4fbe c883 0fbe f1dc d3bd
00000080: 7c44 9a3d 75b7 2bbe 14ba 16be 1538 063e
00000090: 195c 41be 6953 4ebe ccfd 123d 82e6 0c3d
000000a0: 58a2 48be 2fab 21bd aae3 4d3d 8916 173e
000000b0: a590 8f3d 8ef3 a4bd 899a f93c 1892 e2bd
000000c0: 3a1c 033e 380c eb3c eb6a 2abe 3537 c03c
000000d0: 7646 c6bd e310 5ebd 0920 fabd 6e1d bd3d
000000e0: 4db2 51bd 2615 fe3d dfbf 5abe b75f 093d
000000f0: a623 2abe a054 03be 2f23 93bc ca68 a5bd
00000100: 4b80 1ebe 347c 19be d3b2 083e 7b04 a0bb
00000110: 6a3c f1bc 7436 96bd 1d8d 3b3e 611d 1bbe
00000120: 2598 5fbe 7de4 903d ddc1 d13c 0bde 823d
00000130: ca3a eebd d16a d4bd b37e 77be 7dfc 94bc
00000140: 950b cc3d 2ee7 34bd e099 1abe e898 013d
00000150: 011e ca3d c13b be3d d14c 55be a309 c1bd
00000160: fbb9 7cbd 5515 a33d 64ed 8abd 15dc a33d
00000170: a864 993d 4170 e43d 586b 68bd 9753 babd
00000180: dcc6 bebc 14ac 10be 76f5 02be 2e96 e93d
00000190: b516 5e3d 4a98 033d ed23 dc3c ed6a 6e3c
000001a0: d7ea 413d e83b 84bd 238b 94bd f1a5 8fbc
000001b0: 85c2 03bc 4709 e8bb efc4 da3d 65d7 8abd
000001c0: 8dcc 21be 6e83 4bbe 5504 8c3d 6d3e 8bbd
000001d0: 9eca bebd e3f1 34be 22cd 1c3d 5fdd 36bd
000001e0: bda3 b33d 5219 813d 18a0 89bd 5a4d 023e
000001f0: 95e4 c53d f6b9 5a3c 33f5 0bbe 4a55 59bd
00000200: 9d02 d8bd a125 4fbe 983f e9bd 602b fdbd
00000210: d8f9 ae3d d8da f2bd 4a3e 87bd 6c56 47bc
00000220: a431 193d 3273 fabd 9c49 e4bd 3b78 02be
00000230: f950 983b b180 3fbd d154 243c b695 cabc
00000240: 09b6 ddbd 4bee f0bd 6f7a a7bd 5cea f63d
00000250: 4145 953b 535e 3dbe 05f6 64be 390f 9fbb
00000260: 88cb 823c 9730 96bd c520 043d c23f 34bd
00000270: f306 14be 985e 063d 03d5 b6bd a3dd 07be
00000280: 7a29 93bc aa41 08be 67a0 2b3d 3a8b 5a3d
00000290: b1fc 483c 9dc9 8fbd 2fac bfbd 07f6 1fbe
000002a0: b9c7 1bbe 6f72 febd d844 933d 08aa 4f3d
000002b0: a79f 30be beb7 7b3d 63c1 72bb b4ab 883d
000002c0: 3d96 bebd ce09 d2bd e03b ecbd a70b 06be
000002d0: 34e3 53bd 3326 e63c 2ce8 c2bd 9221 17be
000002e0: 2fb3 023b 4266 3c3d 47cc 9f3c bf9d bdbd
000002f0: dad6 d1bd 75a0 053e 8960 25be 709b 1abd
00000300: 78b4 b03d 9f59 45bd 042a adbd 0a12 28be
00000310: b20b 59bd 89e0 2d3d 6e36 5ebe c613 503c
00000320: 96db 143e 75e0 1f3e 7d78 803d facb f23d
00000330: 6112 813c 18b7 13be 2ac7 56be 67dc 31be
00000340: 671a 643b ea06 553d b1c1 04be ac2b 5abd
00000350: 8e3f 11be 7955 983c c145 23be 2c41 983c
00000360: 155d 0dbe 94ca f3bd 8d68 6bbd a476 f23d
00000370: 7b97 7dbd 1215 04be 4ba3 953d 0995 36be
00000380: ad7a ee3d 931a 4fbe c719 98bd 02b2 5bbe
00000390: d595 01be 1fb5 1f3e e0fe 31bc b57c 4cbc
000003a0: 70c0 33be bc57 6abd a3e6 9dbd fa77 39bd
000003b0: 194f 133d 01b1 8f3d c086 ddbd 443e 173c
000003c0: 4238 47be a62f 2fbe 819c 7abd 9ede 68bd
000003d0: 9859 0a3c de60 acbd baaf 11bc f00d 4f3d
000003e0: d17d cabc 937e 963d 0f7e 7fbc 470a 36be
000003f0: be5c 1abe f3a8 4ebb 00ee 08be 0b33 2fbe

fc2.weight f4 [256, 260]
-0.030273002 -0.0940138 -0.023760863 -0.05934491 0.054744802 -0.09568548 -0.020809196 0.0424185
0.014641867 0.03595803 -0.13978733 -0.0036227163 0.019855829 0.028296458 0.041617118 0.03411906
0.034567583 0.047469154 0.06569029 0.0799982 0.030513285 0.05348884 0.011682209 0.04485225
-0.06252075 -0.082766354 -0.0059737503 0.037258007 0.04164106 0.06205951 -0.033964295 -0.025092026
0.04769532 -0.034792036 0.058248837 0.06708393 -0.17974715 0.15138967 0.077719904 -0.05965578
0.020872274 0.0040207515 0.05635726 0.12426948 0.06407123 0.005835991 0.019592723 -0.010855261
-0.0075562242 -0.03281585 -0.011259068 -0.030890035 0.013355682 -0.01682305 -0.12162356 0.042156808
-0.0060017314 -0.011260914 0.17224099 -0.023230262 -0.11825379 0.027286218 0.013926002 -0.042542577
-0.12830433 -0.153998 -0.0895674 -0.100080065 0.007434276 -0.030715097 0.044477787 0.06917424
-0.03490901 -0.039526768 -0.0135960085 -0.021761658 0.04184381 0.06158602 0.08564831 0.052858658
0.029984696 0.056586184 -0.053877573 0.01553691 -0.077705115 -0.121676505 -0.07451946 -0.04247426
0.0028334646 -0.054786045 0.002251873 0.05521841 0.022381376 -0.05142101 0.08124995 -0.022414647
-0.011372978 0.054003585 0.06158608 0.012669383 0.052371703 0.03621272 -0.15858036 0.08616284
0.011101563 0.010032383 0.017195322 -0.006025089 -0.03706415 -0.004694301 -0.0070281196 0.10678726
0.08201423 0.02624017 0.04650797 0.024931302 -0.0023497213 0.021575175 0.05715678 0.054568697
0.048935764 -0.13318782 0.014943495 0.015832342 -0.012313612 0.06565617 -0.037979174 -0.04363527
0.07323556 0.0026921707 0.0071574883 -0.10909976 -0.022355098 0.032205045 0.032950167 -0.00721722
0.012116059 -0.028718956 -0.021565452 -0.05295303 0.017910354 -0.16169731 -0.07127187 0.016151894
-0.03969278 0.068753935 0.02384936 -0.06955471 -0.010531547 -0.002095371 -0.0356959 0.026054213
-0.00092671043 -0.17660047 0.026721952 0.06427092 -0.13308442 0.07293688 -0.047765207 -0.059491955
-0.089486286 -0.05758186 -0.03902546 0.05402285 0.048442777 -0.06922339 -0.025438188 -0.00015260247
0.04164355 0.02928778 -0.012872942 0.03404149 -0.08386467 0.11140287 0.021509692 -0.07771074
0.039659694 -0.034214526 -0.024557201 -0.18327563 0.04641371 -0.039102707 0.073762216 -0.016385954
0.008770775 -0.073404945 0.023433195 -0.0039021098 -0.012978328 -0.08203167 -0.060058486 -0.0042992206
-0.021067873 0.03216424 0.0005785269 -0.08536773 -0.02721396 0.0027040278 0.004214789 0.027070869
-0.029844267 -0.015031672 -0.11122423 0.02753618 -0.013008665 0.03703056 -0.14293286 -0.03791013
-0.008791146 -0.0124833295 0.020420443 -0.048821747 0.056726523 -0.022338146 -0.026008172 0.023559337
0.061962858 0.01784562 -0.06274086 0.12860799 -0.08015045 0.039378718 0.030015541 0.03468429
-0.047106586 -0.084826656 -0.05245078 -0.1035421 -0.016766269 0.0168628 -0.08993403 -0.037313826
0.075531065 -0.023601403 0.010868818 -0.053013127 -0.111169405 -0.1080571 -0.11464526 -0.026797226
-0.024015602 0.10871304 -0.0066777794 -0.070658885 -0.10155255 -0.060967434 -0.048664052 -0.08529173
-0.002483548 -0.016669367 0.04566793 -0.08943474 -0.032110687 0.048786994 0.05785145 -0.15537415
00000000: 16ff f7bc 4f8a c0bd 24a6 c2bc a613 73bd
00000010: 163c 603d c0f6 c3bd 0c78 aabc 05bf 2d3d
00000020: 71e4 6f3c ba48 133d 6924 0fbe 186b 6dbb
00000030: b1a8 a23c f9cd e73c b676 2a3d 6dc0 0b3d
00000040: bd96 0d3d 046f 423d a188 863d 19d6 a33d
00000050: fff6 f93c 1d17 5b3d bc66 3f3c feb6 373d
00000060: e10a 80bd 6881 a9bd 73bf c3bb da9b 183d
00000070: d18f 2a3d 1d32 7e3d 251e 0bbd cb8d cdbc
00000080: 2b5c 433d 1882 0ebd 5596 6e3d 4d63 893d
00000090: a30f 38be e505 1b3e 9d2b 9f3d 9f59 74bd
000000a0: 55fc aa3c 82c0 833b dfd6 663d ff80 fe3d
000000b0: c737 833d d73b bf3b eb80 a03c 44da 31bc
000000c0: 349a f7bb ea69 06bd f477 38bc 190d fdbc
000000d0: cad1 5a3c 7ed0 89bc c615 f9bd 9eac 2c3d
000000e0: 2caa c4bb b27f 38bc f15f 303e 644d bebc
000000f0: 0b2f f2bd 5987 df3c e329 643c 2041 2ebd
00000100: 3662 03be a7b1 1dbe 1d6f b7bd c7f6 ccbd
00000110: 3a9b f33b 3a9e fbbc 572e 363d 39ab 8d3d
00000120: c0fc 0ebd d2e6 21bd cbc1 5ebc 8145 b2bc
00000130: 6a64 2b3d 9f41 7c3d 6268 af3d 5282 583d
00000140: 77a2 f53c eac6 673d bbae 5cbd 868e 7e3c
00000150: dc23 9fbd 8831 f9bd a99d 98bd 7df9 2dbd
00000160: a6b1 393b 5567 60bd 2994 133b b32c 623d
00000170: 2659 b73c d69e 52bd 6066 a63d ec9e b7bc
00000180: ba55 3abc dd32 5d3d af41 7c3d 3e93 4f3c
00000190: b683 563d ca53 143d e462 22be 2576 b03d
000001a0: 55e3 353c dd5e 243c 34dd 8c3c 1c6e c5bb
000001b0: 94d0 17bd a7d2 99bb 244c e6bb 47b3 da3d
000001c0: 14f7 a73d a0f5 d63c 247f 3e3d bb3c cc3c
000001d0: c8fd 19bb 6cbe b03c 3a1d 6a3d 6d83 5f3d
000001e0: de70 483d 6362 08be 90d5 743c d4b2 813c
000001f0: 08bf 49bc be76 863d 0d90 1bbd e6ba 32bd
00000200: 86fc 953d 216f 303b 5d89 ea3b b26f dfbd
00000210: 0a22 b7bc 70e9 033d c1f6 063d 6e7e ecbb
00000220: 6f82 463c 0444 ebbc 08aa b0bc 47e5 58bd
00000230: bcb8 923c fb93 25be fcf6 91bd fa50 843c
00000240: e594 22bd ddce 8c3d bc5f c33c b372 8ebd
00000250: 828c 2cbc 7e52 09bb dd35 12bd a56f d53c
00000260: 7cee 72ba c1d6 34be ffe7 da3c 79a0 833d
00000270: 4847 08be ee5f 953d 73a5 43bd d6ad 73bd
00000280: 9644 b7bd f5da 6bbd 29d9 1fbd 1047 5d3d
00000290: ef6b 463d fec4 8dbd bf63 d0bc ea03 20b9
000002a0: 6d92 2a3d edec ef3c 08e9 52bc 176f 0b3d
000002b0: 3dc1 abbd 3027 e43d 1835 b03c cf26 9fbd
000002c0: 3472 223d 8824 0cbd 2f2c c9bc 9bac 3bbe
000002d0: 4d1c 3e3d 292a 20bd a510 973d d63b 86bc
000002e0: 4cb3 0f3c 5555 96bd f9f6 bf3c 8aba 7fbb
000002f0: 0ea3 54bc 3800 a8bd e3ff 75bd 7ae0 8cbb
00000300: 8896 acbc a6be 033d 48a8 173a 47d5 aebd
00000310: d0ef debc 0f36 313b 361c 8a3b bac3 dd3c
00000320: f77b f4bc 6747 76bc 87c9 e3bd 8e93 e13c
00000330: 4c22 55bc 5bad 173d fe5c 12be a747 1bbd
00000340: bd08 10bc e186 4cbc c648 a73c 50f9 47bd
00000350: 125a 683d 7dfe b6bc 170f d5bc 83ff c03c
00000360: c4cc 7d3d fa30 923c 487e 80bd d0b1 033e
00000370: eb25 a4bd 944b 213d 27e3 f53c 1d11 0e3d
00000380: d6f2 40bd 99b9 adbd a1d6 56bd e10d d4bd
00000390: 6a59 89bc db23 8a3c 552f b8bd 62d6 18bd
000003a0: 08b0 9a3d bb57 c1bc 2013 323c 4b24 59bd
000003b0: c9ac e3bd 0a4d ddbd 22cb eabd db85 dbbc
000003c0: 5ebc c4bc f1a4 de3d 46d1 dabb 9bb5 90bd
000003d0: c9fa cfbd fdb8 79bd f553 47bd 6ead aebd
000003e0: 05c3 22bb 328e 88bc 4c0e 3b3d 9029 b7bd
000003f0: 7f86 03bd dfd4 473d a4f5 6c3d 671a 1fbe

fc2.bias f4 [256]
-0.015685886 -0.067896545 -0.0062243273 0.042127565 0.04656343 -0.043479964 0.062363483 -0.038218085
-0.056878578 -0.040677592 -0.012584892 -0.015761625 0.070047684 0.0049300413 0.017422104 -0.0016132921
0.080442585 0.0066539873 -0.019732134 -0.01956217 -0.016175382 -0.03502144 0.014576872 -0.03494036
0.05322045 0.04944822 0.0047851996 0.03370695 0.05295803 -0.0068204063 0.0008445834 0.07749811
0.050628237 0.0020518226 0.035555664 0.018152684 -0.014520595 -0.0026624645 -0.06759417 -0.057966415
-0.081573755 -0.066019274 -0.07286585 -0.010062783 -0.07227 0.058165606 -0.011233669 -0.052478787
-0.02036199 -0.027669167 0.013000837 0.08704872 -0.018222334 0.018638588 -0.045663536 0.050870243
-0.019475808 0.027236225 0.01770388 0.039598797 0.049578674 0.047589462 0.059805382 -0.046037972
0.05556565 0.019700773 0.0751984 -0.06063952 0.024219595 0.047791794 -0.04727805 -0.02644428
-0.00754466 0.041563787 0.051714476 -0.018819565 -0.079859905 0.047832876 -0.04305841 0.03177707
0.009512499 0.0013358985 -0.015582554 -0.013868333 -0.0874089 0.036303923 0.02493568 0.10643473
0.012615292 0.011541639 -0.0030360532 0.018116767 0.0052838353 -0.036876217 0.058193542 0.058829427
-0.043658536 0.005471186 -0.0031908462 0.033314005 0.06214018 -0.090456456 -0.025401661 -0.0693236
-0.0330581 0.056558862 0.054256495 0.037337963 -0.01493555 -0.05085907 0.0046912176 0.015038821
-0.010007201 -0.0043522413 -0.021609753 -0.03424936 -0.039024044 0.040139202 0.09852033 0.015084829
0.012044531 -0.0843749 -0.027806863 0.047777474 -0.039511625 -0.010322609 0.02209588 0.042064298
-0.0273845 0.056020997 0.071453355 -0.018120183 -0.014899522 -0.03320392 0.042298768 -0.008590949
-0.018265594 0.048770133 -0.033954274 -0.06516582 0.07612354 0.035979215 -0.08172036 -0.049627453
-0.07968216 0.07559684 -0.0474618 0.026918588 -0.061005916 -0.05032662 -0.045073766 -0.05248483
0.031764902 -0.03857307 0.04048156 -0.050722316 0.01568807 -0.0012725285 -0.017695326 -0.050734516
0.05647903 -0.025807066 -0.057118777 0.055162635 0.03755822 -0.012428131 -0.002886757 -0.053365555
-0.04557502 -0.016733298 -0.039880767 -0.029852744 -0.005202086 0.02682492 -0.027164593 -0.026413757
-0.04243693 -0.021786073 0.07881282 0.018933441 0.0643536 0.060198307 0.040088207 -0.060497407
-0.04171496 0.05264489 -0.026382433 -0.0025500725 0.0077562924 -0.024942458 0.041546192 0.086446226
0.028793698 -0.037550513 0.024137577 0.07684596 -0.07933012 0.010153984 -0.008813165 0.042161454
0.025152868 -0.048737768 -0.034005158 -0.027524492 0.0064434456 0.0354378 0.021477384 0.031480182
-0.039850455 -0.04027315 0.07107532 0.030123629 0.018456278 0.013020423 -0.028254787 -0.0018467039
-0.034315735 0.0148566 -0.041868556 0.01730369 0.0020629182 0.06786926 0.08686934 -0.006221457
-0.035157368 -0.023950921 -0.038455553 0.038217876 0.0060727345 -0.05398542 0.0017465285 -0.036397714
0.004192033 0.053352397 -0.053774726 -0.024300538 -0.00500931 -0.07682898 0.043499712 -0.048439134
0.031505328 0.051700253 -0.053757075 0.006339258 -0.022270026 -0.05657889 0.019089123 0.014936454
-0.08752331 -0.043847118 -0.024354072 -0.06907782 0.024565166 0.0072333766 -0.0348141 0.011366652
00000000: b07f 80bc 580d 8bbd 71f5 cbbb f48d 2c3d
00000010: 4cb9 3e3d 0c18 32bd da70 7f3d 918a 1cbd
00000020: 83f9 68bd 8c9d 26bd dd30 4ebc 861e 81bc
00000030: 2975 8f3d 2f8c a13b cdb8 8e3c 1a75 d3ba
00000040: 15bf a43d b109 da3b 49a5 a1bc d840 a0bc
00000050: 3c82 84bc a472 0fbd d5d3 6e3c 9f1d 0fbd
00000060: b0fd 593d 378a 4a3d 2acd 9c3b 4c10 0a3d
00000070: 85ea 583d b77d dfbb 0867 5d3a 54b7 9e3d
00000080: 8e5f 4f3d df77 063b d1a2 113d f0b4 943c
00000090: cae7 6dbc be7c 2ebb d06e 8abd 316e 6dbd
000000a0: 2410 a7bd 1d35 87bd b13a 95bd 5fde 24bc
000000b0: 4b02 94bd 0f3f 6e3d 6c0d 38bc fff3 56bd
000000c0: 30ce a6bc 73aa e2bc 7601 553c 9946 b23d
000000d0: 0147 95bc f4af 983c b009 3bbd 515d 503d
000000e0: bb8b 9fbc 811e df3c ba07 913c 5932 223d
000000f0: 0213 4b3d 2bed 423d 7df6 743d 5092 3cbd
00000100: cf98 633d 8463 a13c 9e01 9a3d 2561 78bd
00000110: 2c68 c63c 54c1 433d a1a6 41bd ada1 d8bc
00000120: 3239 f7bb ca3e 2a3d 8fd2 533d 7d2b 9abc
00000130: 978d a3bd 68ec 433d 045e 30bd ac28 023d
00000140: 50da 1b3c 5119 af3a f84d 7fbc 0138 63bc
00000150: 7003 b3bd 6cb3 143d e945 cc3c 74fa d93d
00000160: 5fb0 4e3c 2519 3d3c 85f8 46bb 9d69 943c
00000170: 0624 ad3b 840b 17bd 5a5c 6e3d 20f7 703d
00000180: 4bd3 32bd a247 b33b 841d 51bb 4474 083d
00000190: b486 7e3d 3c41 b9bd 2517 d0bc 88f9 8dbd
000001a0: ee67 07bd 44aa 673d 0f3c 5e3d b1ef 183d
000001b0: 3db4 74bc 9a51 50bd c9b8 993b 6365 763c
000001c0: 3ef5 23bc 3f9d 8ebb f006 b1bc 0f49 0cbd
000001d0: add7 1fbd 0169 243d 07c5 c93d 5c26 773c
000001e0: 6d56 453c bfcc acbd 38cb e3bc 50b2 433d
000001f0: f1d6 21bd 2920 29bc 6b02 b53c 9d4b 2c3d
00000200: 7555 e0bc 4676 653d 2356 923d c770 94bc
00000210: 201d 74bc d500 08bd 7941 2d3d 0dc1 0cbc
00000220: baa1 95bc 31c3 473d a313 0bbd a875 85bd
00000230: a9e6 9b3d f15e 133d 015d a7bd 2846 4bbd
00000240: 6630 a3bd 84d2 9a3d 4e67 42bd 5f84 dc3c
00000250: 57e1 79bd 4923 4ebd 459f 38bd 55fa 56bd
00000260: ea1b 023d ccfe 1dbd fecf 253d 34c2 4fbd
00000270: 4484 803c f9ca a6ba caf5 90bc ffce 4fbd
00000280: 8e56 673d 5769 d3bc 61f5 69bd 37f2 613d
00000290: a6d6 193d 5c9f 4bbc bf2f 3dbb d795 5abd
000002a0: dfac 3abd 4514 89bc 045a 23bd be8d f4bc
000002b0: 4376 aabb efbf db3c 4888 debc aa61 d8bc
000002c0: 59d2 2dbd b578 b2bc 9e68 a13d 4e1a 9b3c
000002d0: d2cb 833d 8092 763d 8833 243d 21cc 77bd
000002e0: 4edd 2abd 2ba2 573d f91f d8bc 1e1f 27bb
000002f0: 7f28 fe3b 2054 ccbc 572c 2a3d b80a b13d
00000300: c3e0 eb3c 91ce 19bd 2bbc c53c 6a61 9d3d
00000310: d477 a2bd e55c 263c 1865 10bc 7db1 2c3d
00000320: 630d ce3c 41a1 47bd fe48 0bbd 0b7b e1bc
00000330: 8a23 d33b 3a27 113d 57f1 af3c 5df1 003d
00000340: 3b3a 23bd 75f5 24bd f08f 913d d4c5 f63c
00000350: 9f31 973c 9d53 553c 9576 e7bc 1a0d f2ba
00000360: a88e 0cbd 1969 733c 5d7e 2bbd 78c0 8d3c
00000370: 0632 073b 0aff 8a3d 8de8 b13d 5ddd cbbb
00000380: 2c01 10bd b934 c4bc 9283 1dbd 598a 1c3d
00000390: cafd c63b d11f 5dbd c6eb e43a c515 15bd
000003a0: 525d 893b 0b88 5a3d e342 5cbd ec11 c7bc
000003b0: 2325 a4bb 8358 9dbd c12c 323d 1d68 46bd
000003c0: bb0b 013d a5c3 533d 6130 5cbd 8db9 cf3b
000003d0: a16f b6bc 44bf 67bd cb60 9c3c 07b8 743c
000003e0: 6c3f b3bd 0999 33bd 3182 c7bc ac78 8dbd
000003f0: e33c c93c f605 ed3b 3b99 0ebd 323b 3a3c

fc3.weight f4 [1, 256]
0.0219826 -0.14922003 0.11696836 -0.046107143 0.020355677 -0.010649173 0.041538194 -0.01652893
-0.01949292 -0.014864745 -0.09926344 0.077825435 0.03852061 -0.024873983 0.078196436 0.01277384
0.02763645 -0.035030685 -0.018720903 -0.02984549 0.024230542 -0.04369616 -0.027101226 0.016150493
-0.019425772 0.026117887 0.031223735 0.016079275 0.04098229 -0.05664967 -0.015453613 0.03339068
-0.013746462 -0.0155535955 -0.014569583 -0.111791916 -0.025140421 -0.024598986 -0.11010429 -0.012304052
-0.022499742 -0.042674936 -0.022173423 0.066418834 -0.01235694 0.08869257 -0.013904788 -0.0731652
-0.012722313 0.01729528 -0.012287502 0.028004995 0.029630987 -0.12847532 0.035623614 0.018375952
0.02191559 -0.039512362 -0.014325044 -0.06882897 -0.0145878075 -0.017461305 0.053012744 -0.011382701
0.0204591 -0.008884266 0.031207932 -0.08394487 0.042049583 0.0926567 -0.05167173 -0.03217943
0.014696536 -0.009922719 -0.04183173 -0.1920386 -0.013038377 -0.028446203 0.05339257 -0.005344062
0.029786626 0.013903968 -0.03724308 0.029016025 -0.05214264 -0.018757403 0.04744285 0.06101506
-0.019657345 -0.048206992 -0.02823639 0.030097429 -0.033518076 -0.039252475 0.010076965 0.02350544
0.040122457 -0.067770295 -0.07479148 0.0151029155 0.019455584 -0.11974064 -0.029332135 -0.035789125
-0.049890257 0.02488649 0.031697508 0.027380018 0.017723745 -0.0401242 -0.011148596 -0.007401583
-0.015769167 0.06289772 -0.0083992155 -0.022194056 -0.04250567 0.05762168 0.07025577 -0.018244408
-0.009313029 -0.032901637 -0.018290538 0.022670807 0.020020708 -0.03865226 0.017238354 -0.016872957
-0.110407226 0.03481804 0.16171151 -0.069640234 0.019936213 -0.028203005 -0.015906546 0.06324538
-0.023971846 -0.03888225 -0.11132965 -0.017112983 0.035814498 0.11250033 -0.038254607 -0.057174146
0.04628571 0.014889823 -0.08272505 -0.20594172 -0.051885784 0.012107988 0.033722535 -0.01589618
-0.03382292 0.013393551 -0.004938737 -0.021789651 -0.08422321 0.017996851 -0.023250693 -0.04014741
0.022728408 -0.03921348 -0.018842734 0.02810721 0.0092608435 0.024020715 -0.012312428 -0.019337557
-0.04153365 0.036989965 -0.022770599 -0.12585378 -0.06608036 0.025596896 -0.07030184 -0.014823886
-0.027069874 -0.0133280745 0.043044172 0.017468328 0.019956755 0.018611442 0.19529626 -0.03590111
-0.023149587 0.018755538 -0.01877734 0.0138177285 0.094174884 0.07829746 0.022438947 0.026248863
-0.047644537 -0.006778705 -0.033344317 0.16089031 -0.03176029 -0.03093011 -0.08765541 -0.0068127103
-0.013175466 -0.032387238 0.025776941 0.061628252 -0.035468463 0.061577175 0.02650629 0.035595145
-0.012008082 -0.018318443 0.028876875 0.009543852 0.017607497 0.025835687 -0.015076954 -0.020784598
-0.038792588 0.037017345 -0.0268821 -0.03336983 0.054134756 0.019344123 0.013420259 0.02819928
-0.06821106 -0.015738761 0.03639206 0.013143704 0.01521028 0.033834495 0.027231881 0.023144927
0.010741198 -0.024475763 -0.023436708 -0.021002742 -0.032363616 -0.036344357 -0.040836096 0.061071992
-0.014762244 0.13664599 -0.02779642 -0.02315346 -0.027560709 -0.025950432 0.017848657 -0.041951064
0.037166327 -0.025204325 -0.022546323 -0.0402843 -0.073287115 0.019988267 0.016480584 -0.020206256
00000000: db14 b43c 23cd 18be 1c8d ef3d d8da 3cbd
00000010: f3c0 a63c de79 2ebc f423 2a3d ae67 87bc
00000020: 9eaf 9fbc 428b 73bc a14a cbbd f162 9f3d
00000030: cac7 1d3d 86c4 cbbc 7425 a03d 5e49 513c
00000040: d665 e23c 567c 0fbd 945c 99bc 877e f4bc
00000050: 217f c63c bffa 32bd 6403 debc 0a4e 843c
00000060: cc22 9fbc 2ef5 d53c ebc8 ff3c afb8 833c
00000070: 0cdd 273d 7c09 68bd 2731 7dbc aac4 083d
00000080: d738 61bc 82d4 7ebc 43b5 6ebc 29f3 e4bd
00000090: 49f3 cdbc d083 c9bc 5c7e e1bd ef96 49bc
000000a0: 6151 b8bc eacb 2ebd 0aa5 b5bc 9906 883d
000000b0: c374 4abc 73a4 b53d e8d0 63bc a3d7 95bd
000000c0: 4071 50bc d5ae 8d3c 8551 49bc bb6a e53c
000000d0: afbc f23c 098f 03be 11ea 113d 2a89 963c
000000e0: 5388 b33c b7d7 21bd 97b3 6abc 34f6 8cbd
000000f0: b301 6fbc 030b 8fbc e423 593d 827e 3abc
00000100: d899 a73c 508f 11bc c7a7 ff3c 4aeb abbd
00000110: 2f3c 2c3d ccc2 bd3d bca5 53bd 94ce 03bd
00000120: bdc9 703c e692 22bc c057 2bbd c4a5 44be
00000130: eb9e 55bc 0308 e9bc 2bb2 5a3d 3e1d afbb
00000140: 1503 f43c 78cd 633c 338c 18bd 04b3 ed3c
00000150: 8593 55bd 20a9 99bc 6f53 423d edea 793d
00000160: 7108 a1bc b274 45bd 0050 e7bc e28e f63c
00000170: 404a 09bd 34c7 20bd db19 253c 7b8e c03c
00000180: 7257 243d 27cb 8abd 472c 99bd 3872 773c
00000190: 5161 9f3c 953a f5bd f249 f0bc 9e97 12bd
000001a0: ba59 4cbd c1de cb3c 3fd5 013d 0f4c e03c
000001b0: 6331 913c 4659 24bd 9aa8 36bc fa88 f2bb
000001c0: 572e 81bc 85d0 803d dd9c 09bc 4fd0 b5bc
000001d0: 6d1a 2ebd b604 6c3d 42e2 8f3d 4c75 95bc
000001e0: ad95 18bc dec3 06bd 0ad6 95bc 21b8 b93c
000001f0: 7802 a43c d551 1ebd 7337 8d3c 2839 8abc
00000200: 2f1d e2bd 5c9d 0e3d b497 253e 8a9f 8ebd
00000210: 4551 a33c fd09 e7bc 724e 82bc cb86 813d
00000220: 9b60 c4bc ff42 1fbd cd00 e4bd 8730 8cbc
00000230: 39b2 123d 9366 e63d ddb0 1cbd 702f 6abd
00000240: 1696 3d3d 72f4 733c c06b a9bd 63e2 52be
00000250: 3086 54bd 9560 463c a420 0a3d b538 82bc
00000260: e789 0abd a070 5b3c 21d5 a1bb 3680 b2bc
00000270: 387d acbd 226e 933c 3d78 bebc 9c71 24bd
00000280: ed30 ba3c 509e 20bd 145c 9abc 1741 e63c
00000290: cbba 173c 17c7 c43c 11ba 49bc cc69 9ebc
000002a0: 301f 2abd ca82 173d 6889 babc d0df 00be
000002b0: 2455 87bd 95b0 d13c 69fa 8fbd e2df 72bc
000002c0: a4c1 ddbc ff5d 5abc 164f 303d bd19 8f3c
000002d0: 597c a33c 0677 983c befb 473e 0b0d 13bd
000002e0: 34a4 bdbc 37a5 993c f0d2 99bc c163 623c
000002f0: c3de c03d 6b5a a03d e2d1 b73c db07 d73c
00000300: eb26 43bd e61f debb 0d94 08bd 6ec0 243e
00000310: 1417 02bd 2461 fdbc ae84 b3bd 283d dfbb
00000320: e9dd 57bc 7ba8 04bd 2a2a d33c e86d 7c3d
00000330: 6147 11bd 5938 7c3d b823 d93c 37cc 113d
00000340: 8cbd 44bc 8f10 96bc 328f ec3c d15d 1c3c
00000350: 993d 903c 5da5 d33c 5405 77bc 7644 aabc
00000360: fae4 1ebd 809f 173d da37 dcbc ceae 08bd
00000370: 68bc 5d3d 9177 9e3c a5e0 5b3c 2d02 e73c
00000380: 3db2 8bbd 93ee 80bc d70f 153d b158 573c
00000390: 8a34 793c 0a96 0a3d 6515 df3c 6e9a bd3c
000003a0: dafb 2f3c 6581 c8bc 57fe bfbc f10d acbc
000003b0: b68f 04bd d2dd 14bd c043 27bd a026 7a3d
000003c0: 57dd 71bc edec 0b3e 51b5 e3bc 53ac bdbc
000003d0: ffc6 e1bc 0096 d4bc 5937 923c e1d4 2bbd
000003e0: b83b 183d 4d79 cebc 11b3 b8bc 2601 25bd
000003f0: 8e17 96bd 6fbe a33c 4a02 873c 9787 a5bc
