checkpoints/checkpoint_critic_ddqn_14.pth (torch_old, 304178 bytes, 5 tensors)

fcs1.weight f4 [256, 33]
0	0xbd5b0436	-0.053470813
1	0x3d22ea88	0.039774448
2	0x3c9e0833	0.019291019
3	0xbc83bc91	-0.016081126
4	0xbd0822e0	-0.033236384
5	0x3c228ec2	0.009921731
6	0x3d0f02bb	0.034914713
7	0xbd60f37a	-0.054919697
8	0xbcc72696	-0.024310391
9	0xbc87558d	-0.016520286
10	0x3c017d07	0.007903344
11	0xb94ce0d1	-0.00019538707
12	0xbd47e087	-0.04879811
13	0x3da34ec8	0.07974011
14	0xbbf21f56	-0.0073889894
15	0xbc69e118	-0.014274858
16	0x3df96ad1	0.12178577
17	0x3da72933	0.08162155
18	0xbc94aab2	-0.0181478
19	0xbd7b75c0	-0.061391592
20	0xbcd4f9e4	-0.025998063
21	0x3d8e4c40	0.06948137
22	0xbc85eff6	-0.016349774
23	0xbcdb7fda	-0.026794363
24	0x3d0de2a2	0.034639962
25	0x3d9b9a8d	0.075978376
26	0xbd89037e	-0.06690119
27	0x3dcd0106	0.10009961
28	0x3d006b9b	0.03135262
29	0x3d5143e8	0.05109015
30	0xbdcfa9c3	-0.10139801
31	0x3ca61744	0.020274766
32	0xbe5909e4	-0.21195179
33	0xbdd5ee33	-0.104458235
34	0x3d835c09	0.06414039
35	0x3cdb2580	0.02675128
36	0xbc3a3fb3	-0.011367726
37	0x3d9253f5	0.0714492
38	0xbd0d20c4	-0.034455076
39	0xba3d726e	-0.0007226829
40	0x3bd21336	0.0064109815
41	0x3c5ac13d	0.013351736
42	0x3ce1a065	0.027542302
43	0xbc7c2ca6	-0.015391504
44	0x3b9be603	0.004757644
45	0xbb69e01e	-0.0035686563
46	0x3e0f52ec	0.13996476
47	0xbdb77dd3	-0.08959546
48	0xbd77d626	-0.060506962
49	0xb7924905	-1.7438559e-05
50	0x3c60f4d9	0.013730251
51	0x3cc33cae	0.023832645
52	0x3c931203	0.017952925
53	0xbb93711f	-0.004499569
54	0x3b1d1243	0.0023967184
55	0x39bc6f70	0.00035941182
56	0x3c33a316	0.010964176
57	0xbcc01fb0	-0.02345261
58	0xbb6f3a41	-0.0036503228
59	0xbda8abec	-0.082359165
60	0x3d9cbd20	0.0765326
61	0x3d11a864	0.03556098
62	0x3c3b8dc8	0.0114473775
63	0xbbbe2574	-0.0058028046
64	0x3d0aed4c	0.03391771
65	0xbe2f4236	-0.17115101
66	0xbc1c4f45	-0.009540384
67	0xbb785595	-0.0037892808
68	0x389ee0eb	7.575921e-05
69	0xbda43811	-0.08018506
70	0x3e291d4d	0.16515084
71	0x3a780964	0.00094618485
72	0xbd1fe84c	-0.039039895
73	0x3c272eeb	0.010204057
74	0x3d820f7c	0.0635061
75	0x3bc4f046	0.006010088
76	0x3c986133	0.018601036
77	0x3be579db	0.0070030517
78	0xbb7ff4e7	-0.0039055885
79	0x3d1fd677	0.03902289
80	0x3d38508f	0.0449987
81	0x39f9af83	0.00047623747
82	0x3d25e8d1	0.040505234
83	0x3d23f42e	0.04002779
84	0x3c4f77fd	0.012662885
85	0x3c3c7b76	0.011504045
86	0x3c3c602d	0.0114975395
87	0xbcb41e68	-0.021987155
88	0x39b58517	0.0003462217
89	0x3c8aeeab	0.016959509
90	0x3b18a55d	0.0023291924
91	0xbc849b6e	-0.016187396
92	0x3af865c2	0.0018951225
93	0x3c6e6b47	0.014551944
94	0xbd06e149	-0.032929692
95	0x3d5b9f86	0.05361893
96	0x3ba4a17e	0.005024134
97	0x3c977fd4	0.01849357
98	0xbe11663b	-0.14199154
99	0x3bd9e425	0.0066495114
100	0x3cfce5e1	0.030871334
101	0xbd023771	-0.031791154
102	0x3c926948	0.017872468
103	0xbd5fa596	-0.054601274
104	0xbc80e94b	-0.015736243
105	0xbcbe7a3a	-0.023251642
106	0xbc25587d	-0.010091898
107	0xbd05f61b	-0.032705408
108	0x3ca5e81e	0.020252284
109	0xbcd67d4b	-0.026182791
110	0x3c3a7edc	0.011382785
111	0x3b39a6b8	0.0028328132
112	0x3cca984a	0.02473082
113	0xbd5a5166	-0.053300284
114	0xbd21dd3f	-0.039517637
115	0xbaad01ff	-0.0013199447
116	0xbc67beb1	-0.0141445855
117	0x3c8dda4c	0.017316006
118	0x3c6f1e15	0.014594574
119	0x3c0ba140	0.008522332
120	0xbc10eb19	-0.008845114
121	0x3c8ac4b9	0.016939508
122	0x3ac746d8	0.0015203608
123	0xbca386d2	-0.019961748
124	0xbc8f918f	-0.017525462
125	0xbd42bd7c	-0.047543988
126	0xbbdb541f	-0.0066933776
127	0x3da77ca1	0.08178068
128	0xbc783cd0	-0.015151218
129	0x3d17fe48	0.037107736
130	0xbcb6ef84	-0.022331007
131	0x3e5af13b	0.21381085
132	0xbdb09325	-0.086218156
133	0x3cb7fcb8	0.022459373
134	0xbd2be7ad	-0.04196899
135	0x3a91e976	0.0011132199
136	0xbd9e26a0	-0.07722211
137	0xbd2b787f	-0.04186296
138	0x3d44eb9b	0.048076253
139	0xbc4a2056	-0.012336811
140	0x3e89ab5a	0.26888543
141	0xbce20a3b	-0.027592769
142	0x3dc38a58	0.09547871
143	0xbc6b9383	-0.014378431
144	0x3ccb99ba	0.024853576
145	0xbc987c7c	-0.018614046
146	0x3da89cb9	0.082330175
147	0xbd761f28	-0.060088307
148	0xbd0c25b3	-0.03421564
149	0xbd4d49ca	-0.0501192
150	0x3aa46ba4	0.0012544286
151	0x3d8340b3	0.06408825
152	0x3c15c390	0.009140864
153	0x3d1527bd	0.03641485
154	0xbb42ca43	-0.0029722608
155	0xbd40582c	-0.046959087
156	0x3d1dbe0a	0.038511313
157	0xbd322548	-0.043492585
158	0x3d7dd824	0.061973706
159	0x3db26288	0.087101996
160	0x3d6033cc	0.054736897
161	0x3d3b5500	0.04573536
162	0xbd9bc613	-0.07606139
163	0xbc2e9920	-0.010656625
164	0xbdadd392	-0.084876195
165	0x3d83abda	0.064292625
166	0xbd5f7908	-0.054558784
167	0xbcc1dcab	-0.023664793
168	0xbcfe7b1e	-0.031064566
169	0xbd7abe48	-0.061216623
170	0x3d8ccd0b	0.06875046
171	0x3d612a32	0.05497188
172	0xbc3ff493	-0.011716026
173	0xbaafb0fc	-0.0013404186
174	0xbb7c0f6e	-0.0038461345
175	0x3c1c881a	0.0095539335
176	0x3c1fe4ed	0.00975917
177	0x3b8bb862	0.0042639235
178	0x3d0ad8f7	0.03389832
179	0x3cbd9006	0.023139965
180	0xbc47e011	-0.012199418
181	0x3ab956ff	0.0014140307
182	0xbb495977	-0.0030723491
183	0xbc7c8dc4	-0.015414659
184	0x3c39bf4c	0.011337113
185	0xbc89e640	-0.016833425
186	0xbd49632d	-0.049166847
187	0xbc207cea	-0.009795407
188	0x3b97cf48	0.004632864
189	0xbc53ac8c	-0.012919556
190	0xbc4ec6b1	-0.012620614
191	0xbd52db67	-0.05147877
192	0x3ce84a82	0.02835584
193	0x3cc6af7b	0.024253597
194	0x3d344074	0.04400678
195	0x3d46cc8b	0.04853491
196	0x3cb1e930	0.021717638
197	0xbc30277c	-0.010751601
198	0xbd94e414	-0.07270065
199	0x3d9f5dbf	0.077815525
200	0xbdebea24	-0.11519268
201	0x3b8abe88	0.004234139
202	0xbc6faac6	-0.014628118
203	0xba8ad70d	-0.0010592655
204	0x3d24d975	0.040246446
205	0xbcc04111	-0.023468526
206	0x3db0a9c0	0.08626127
207	0x3d24aaff	0.040202137
208	0xbd331316	-0.043719374
209	0xbc255faa	-0.010093609
210	0xbc4980ea	-0.012298802
211	0x3dca8e94	0.09890476
212	0xbd8d7176	-0.069064066
213	0x3e063cf5	0.13109191
214	0xbc9e32bc	-0.019311301
215	0x3c3c11c6	0.011478847
216	0xbd368644	-0.04456164
217	0x3c87914a	0.016548771
218	0x3c6c1cb4	0.01441114
219	0xbd322903	-0.043496143
220	0xbb875102	-0.00412953
221	0x3d19bfe2	0.03753651
222	0xbca94b3c	-0.020665757
223	0x3d0d584f	0.034508046
224	0xbd88f422	-0.0668719
225	0x3dd8e4e9	0.10590536
226	0xbd6ed1c4	-0.058305517
227	0xbd580d9e	-0.05274736
228	0x3b5c9cf1	0.003366288
229	0x3c4f65e0	0.012658566
230	0xbe80ada6	-0.25132483
231	0xbe0df203	-0.13861851
232	0xbd237fa8	-0.039916664
233	0xbd6bfccd	-0.057614136
234	0xbc72a71c	-0.01481035
235	0x3dd296c2	0.10282661
236	0x3d087da2	0.033322938
237	0xbd48084f	-0.04883605
238	0x3cf5bada	0.029996324
239	0xbafd6341	-0.0019331948
240	0xba32b2d1	-0.0006816807
241	0xbd10f79e	-0.035392396
242	0xbcc6be47	-0.024260653
243	0xbccc375c	-0.024928741
244	0x3d567f5c	0.052367553
245	0x3c7534c6	0.014966195
246	0x3aeab5e3	0.001790699
247	0xbd75b3cc	-0.05998592
248	0xbad2b1b6	-0.001607469
249	0xbcbac6e1	-0.022799911
250	0x3c013900	0.007887125
251	0xbcde97bb	-0.02717196
252	0x3b7d487b	0.0038647938
253	0x3d0570b5	0.03257819
254	0x3ca5c9a3	0.02023775
255	0x3c4c1bb3	0.012457776

fcs1.bias f4 [256]
0	0xbd91ddba	-0.07122369
1	0xbe0276a4	-0.1274057
2	0x3dbd307a	0.09237762
3	0xbd9d92aa	-0.076939896
4	0xbd1ee674	-0.038793996
5	0xbc6c0782	-0.014406087
6	0xbe666a3e	-0.22501466
7	0x3d2b82cd	0.04187279
8	0x3d9aff79	0.07568259
9	0x3da8d9f9	0.082447
10	0xbe49b679	-0.19698514
11	0x3dd9e92a	0.10640176
12	0xbdcd233c	-0.10016486
13	0x3dc444e8	0.09583455
14	0x3d700e63	0.05860747
15	0x3de3426e	0.11096655
16	0x3d5a14f2	0.05324263
17	0xbc51a916	-0.012796661
18	0xbdac0a32	-0.08400382
19	0xbe29c795	-0.16580041
20	0xbcc40a72	-0.023930762
21	0xbe1a6989	-0.15079321
22	0xbd5a7a50	-0.053339303
23	0x3ded687c	0.115921944
24	0xbe22a02a	-0.1588141
25	0xbd85b7b9	-0.06529183
26	0x3e2ad7a4	0.16683823
27	0xbd14a505	-0.036290187
28	0xbc48e935	-0.012262632
29	0xbe2b6d96	-0.16741022
30	0xbe2a5d79	-0.1663722
31	0xbd5bd77e	-0.053672306
32	0x3ca1e1c1	0.019760968
33	0xbe2f95dc	-0.1714701
34	0xbdda9a65	-0.1067398
35	0x3d2e5603	0.042562496
36	0xbe535787	-0.20638858
37	0xbe307cea	-0.17235151
38	0x3bd473a1	0.0064835106
39	0x3d159ec1	0.036528353
40	0xbe58a13b	-0.21155255
41	0xbcdbb814	-0.026821174
42	0x3d5349c8	0.051584035
43	0x3dd6d54b	0.10489901
44	0x3d6ce8d2	0.057839222
45	0xbdaf4155	-0.08557383
46	0x3d93bc48	0.07213646
47	0xbdb4f250	-0.0883528
48	0x3d586866	0.052833937
49	0x3d28c824	0.041206494
50	0xbe47fb5f	-0.19529484
51	0xbbca838c	-0.0061802324
52	0xbe321cbe	-0.17393777
53	0xbd996d61	-0.074915655
54	0xbdcce300	-0.10004234
55	0x3db6fff9	0.08935542
56	0xbd1cf2ee	-0.038317613
57	0x3d9fa396	0.077948734
58	0xbe63940e	-0.22224447
59	0x3ceb1d82	0.028700594
60	0xbe2868e9	-0.1644627
61	0xbde6cfac	-0.11270079
62	0xbd3b0c97	-0.045666303
63	0xbd397aa4	-0.045282975
64	0xbe012bca	-0.1261436
65	0xbe2ab352	-0.16669968
66	0x3e1f821e	0.1557698
67	0xbbfdf3e8	-0.007750023
68	0xbcbf4212	-0.023346934
69	0xbdbc4126	-0.091921136
70	0x3e198be9	0.14994778
71	0xbe35a29e	-0.17737815
72	0xbe4232b0	-0.18964648
73	0x3cf8b322	0.030358855
74	0x3bf63022	0.007513062
75	0x3db4b7c1	0.08824111
76	0xbdda815a	-0.10669203
77	0xbd680b8c	-0.056651637
78	0xbe5454a7	-0.20735417
79	0xbdc81435	-0.09769479
80	0x3e14e1dc	0.14539284
81	0xbd6b2a01	-0.057413105
82	0xbe4dc8d4	-0.20096141
83	0x3d047ba3	0.03234447
84	0x3d8de448	0.06928307
85	0x3d9d93ee	0.07694231
86	0xbe672052	-0.22570923
87	0xbdd033dc	-0.101661414
88	0xbd46f72c	-0.048575565
89	0x3db16811	0.08662427
90	0xbdb38c12	-0.08766951
91	0x3d293e5d	0.04131924
92	0x3daca10a	0.08429153
93	0x3dff43b2	0.12464084
94	0xbdc1ac33	-0.094566725
95	0xbdb5f140	-0.088839054
96	0xbc3c195d	-0.011480656
97	0xbe18b139	-0.14911355
98	0xbdd3b944	-0.10338071
99	0x3d887777	0.06663411
100	0x3d8c3eb0	0.06847894
101	0x3c0328f5	0.00800537
102	0xbc972fd1	-0.018455418
103	0x3d826b00	0.06368065
104	0x3da3d372	0.07999314
105	0xbdcb61ee	-0.09930788
106	0xbd94c289	-0.07263667
107	0xb9fa02cd	-0.00047685803
108	0xbd217964	-0.039422408
109	0xbbe472e1	-0.0069717024
110	0x3dec4dd9	0.11538286
111	0xbd1f2e76	-0.038862668
112	0xbe8e494a	-0.2779029
113	0xbe5133e9	-0.20429958
114	0x3d1a55ed	0.0376796
115	0xbd5e60d6	-0.05429157
116	0xbdf415b6	-0.119182035
117	0xbe24f83d	-0.1611032
118	0x3c8ec5a6	0.01742823
119	0xbd077de1	-0.03307903
120	0x3d74e765	0.059790988
121	0x3dbbc1f3	0.09167852
122	0xbd8dc83e	-0.06922959
123	0x3d89a8a0	0.06721616
124	0x3d93063a	0.07178922
125	0x3d72f742	0.059317835
126	0xbe0deca1	-0.13859798
127	0xbe035765	-0.12826307
128	0xbddab440	-0.10678911
129	0xbe575766	-0.21029434
130	0xbde93c5f	-0.11388468
131	0xbe01f13c	-0.1268968
132	0x3d7fec5f	0.06248128
133	0xbd80a517	-0.062814884
134	0xbd89b835	-0.06724588
135	0xbc5604d7	-0.013062677
136	0xbd118394	-0.035525873
137	0xbe2ea5fc	-0.17055506
138	0xbde82544	-0.11335233
139	0xbd978e5a	-0.07400198
140	0xbce9aba3	-0.028524226
141	0xbd2d34b3	-0.042286586
142	0x3d01e768	0.031714827
143	0xbcb766ce	-0.022387888
144	0xbdb854ea	-0.09000571
145	0xbde77f44	-0.11303571
146	0xbdaa2b86	-0.08309083
147	0x3dcad1ba	0.099032834
148	0x3c55b074	0.013042558
149	0xbe14188f	-0.14462493
150	0xbe067211	-0.1312945
151	0xbc9662de	-0.01835769
152	0x3b64b3b5	0.0034897153
153	0xbe100675	-0.14064963
154	0xbd209274	-0.03920217
155	0xbd383420	-0.044971585
156	0xbe0e1970	-0.13876891
157	0x3c9b4905	0.018955717
158	0xbdb81152	-0.089876786
159	0xbe08df32	-0.13366392
160	0xbd68d452	-0.05684311
161	0xbdff13c9	-0.124549456
162	0x3d4b6668	0.04965821
163	0x3d93df3c	0.07220313
164	0xba8b77e4	-0.0010640589
165	0xbd8525c0	-0.06501341
166	0xbdc719ce	-0.09721719
167	0xbdc2330a	-0.09482391
168	0xbd9508ef	-0.072770946
169	0xbd9a57f5	-0.07536308
170	0x3c895e57	0.016768618
171	0x3d18dd54	0.03732045
172	0xbe1874a5	-0.14888246
173	0xbcae0b53	-0.021245634
174	0xbd718c32	-0.05897159
175	0xbc8d7209	-0.01726629
176	0xbe09c098	-0.13452375
177	0xbe05a861	-0.13052513
178	0xbe0fc034	-0.14038163
179	0xbe07c155	-0.13257344
180	0xbd09ec37	-0.033672538
181	0x3bf909ef	0.007600061
182	0xbdef91e3	-0.116977476
183	0xbe0e5d4f	-0.13902782
184	0xbd526e6b	-0.051374834
185	0xbc849488	-0.016184106
186	0xbc9ee2a2	-0.019395176
187	0xbdb03ef5	-0.08605758
188	0xbe0e93d1	-0.13923575
189	0x3da3a0fe	0.07989691
190	0xbe243fe4	-0.16039997
191	0x3c96a277	0.018388016
192	0x3d5aaa82	0.053385265
193	0xbdab7a71	-0.08372963
194	0xbd112e05	-0.03544428
195	0xbe414409	-0.1887361
196	0x3d3c2459	0.0459331
197	0x3d614ce5	0.055004973
198	0xbe479f77	-0.19494425
199	0x3d888093	0.066651486
200	0x3e0d9930	0.13827968
201	0x3e30508f	0.1721823
202	0xbbcd455a	-0.006264371
203	0x3dc37875	0.0954446
204	0xbd22bde7	-0.039731886
205	0xbe4074bd	-0.18794532
206	0xbe0795fa	-0.13240805
207	0xbe1de4b4	-0.15419275
208	0x3cfd879f	0.030948458
209	0x3d0d97b2	0.034568496
210	0xbe13b28b	-0.14423577
211	0x3d15dd86	0.036588214
212	0xbde73988	-0.1129027
213	0x3d422d91	0.047406737
214	0xbe1797eb	-0.14804046
215	0xbcef0536	-0.02917729
216	0xbdb8749c	-0.090066165
217	0xbe18a6d5	-0.14907391
218	0xbd97fc4e	-0.0742117
219	0x3dddc09f	0.10827755
220	0x3d241084	0.040054813
221	0xbe1ddd03	-0.1541634
222	0xbbc737a9	-0.0060796333
223	0xbe40f863	-0.18844752
224	0x3d9475a7	0.07249003
225	0xbe50d8dd	-0.20395227
226	0xbd19a0d7	-0.037506904
227	0xbe6e02b1	-0.23243214
228	0xbd3b4c0d	-0.045726825
229	0x3dbe8599	0.093028255
230	0x3ce9684e	0.02849212
231	0xbd6ff558	-0.058583587
232	0xbe144848	-0.14480698
233	0x3bad9115	0.005296836
234	0xbe1154c6	-0.14192495
235	0xbd9e2bc2	-0.0772319
236	0xbd39b8d2	-0.045342274
237	0x3d99e330	0.07514036
238	0xbdbd3595	-0.092387356
239	0x3c1ca960	0.0095618665
240	0xbe3c9dbc	-0.18419546
241	0xbe4d2845	-0.20034893
242	0xbd64f6f9	-0.055899594
243	0xbd85c1e0	-0.06531119
244	0xbc5e7310	-0.013577238
245	0xbe0b3408	-0.13594067
246	0xbce383d3	-0.02777282
247	0x3db41c9a	0.08794518
248	0x3bbb160f	0.0057094167
249	0x3db4db27	0.088308625
250	0xbd4e0c2c	-0.050304577
251	0xbe200dd8	-0.15630281
252	0xbdfaf8f2	-0.12254514
253	0xbc4c1738	-0.012456708
254	0xbdc5014c	-0.09619388
255	0xbe16fbff	-0.14744566

fc2.weight f4 [256, 260]
0	0x3d76afc3	0.060226213
1	0xbc8c9a06	-0.017163288
2	0xbc127bd2	-0.008940654
3	0xbde2f9c1	-0.11082793
4	0xbe0fb25c	-0.14032882
5	0xbe62d08f	-0.22149871
6	0x3df74a2e	0.120746955
7	0xbcd98642	-0.026553277
8	0xbca7a92a	-0.020466406
9	0xbe403480	-0.18770027
10	0x3ad02294	0.0015879446
11	0xbc0d440d	-0.008622182
12	0x3e3bdfc8	0.18347085
13	0xbcdc8cc6	-0.026922595
14	0x3cab73e4	0.020929284
15	0xbcf400c5	-0.029785523
16	0x3d69978a	0.057029285
17	0xbdcd0fbb	-0.10012766
18	0x3d8aaf8d	0.06771765
19	0x3c414359	0.011795842
20	0x3da38884	0.07985023
21	0xbdd155f4	-0.102214724
22	0xbd6d4b77	-0.057933297
23	0xbd301744	-0.042990938
24	0xbbc1aeec	-0.005910745
25	0xbd6fab3e	-0.05851292
26	0x3d614b16	0.05500325
27	0x3d84eaf0	0.06490123
28	0x3cdd1e37	0.026991947
29	0xbd0ece50	-0.034864724
30	0xbc8b79a0	-0.017025769
31	0xbe097575	-0.13423713
32	0x3bc883ca	0.006119226
33	0xbdfd55fe	-0.12369917
34	0xbca1f4fc	-0.019770138
35	0xbc771959	-0.015081727
36	0x3ccc29ed	0.024922336
37	0x3c2b964f	0.010472848
38	0xbd4f2e33	-0.05058117
39	0x3d2b4858	0.04181704
40	0x3d6ecbde	0.05829989
41	0x3d30341d	0.04301845
42	0x3dbc3c34	0.0919117
43	0xbdb3b608	-0.08774954
44	0x3d63354c	0.05547075
45	0xbb85e04f	-0.0040855776
46	0xbbddaa92	-0.0067647183
47	0x3d1786c7	0.036993768
48	0xbced90a9	-0.028999643
49	0xbd868b29	-0.065695114
50	0x3d82d41d	0.06388114
51	0xbd1f28cf	-0.038857277
52	0xbd361c5a	-0.044460632
53	0xba8cf122	-0.0010753016
54	0xbcd2b095	-0.025718966
55	0xbd3a96a3	-0.045553815
56	0xbd389b17	-0.04506978
57	0x3d83527b	0.06412216
58	0xbd29915e	-0.0413984
59	0xbccb8ddb	-0.024847915
60	0x3d819992	0.06328119
61	0x3c06a13a	0.00821715
62	0xbd8d7b5d	-0.06908295
63	0xbd8b9f31	-0.06817473
64	0xbe51f87e	-0.20504948
65	0x3beaecc6	0.007169339
66	0xbd76b032	-0.060226627
67	0xbdc0de33	-0.09417381
68	0x3c172f9a	0.009227658
69	0x3d266e83	0.040632736
70	0xbd836d07	-0.0641728
71	0x3d467cb9	0.04845879
72	0xbdb5f0ee	-0.08883844
73	0xbc2c9c29	-0.010535278
74	0x3dad4781	0.08460904
75	0x3d331b2b	0.04372708
76	0x3c97f005	0.018547067
77	0x3dfade01	0.12249375
78	0x3d10366c	0.03520815
79	0x3d9b5a41	0.07585574
80	0x3c490320	0.012268811
81	0x3a6b8b63	0.0008985309
82	0xbd8486d7	-0.06471031
83	0xbc324c0f	-0.010882392
84	0xbd2b49f3	-0.04181857
85	0xbd1c030e	-0.03808885
86	0xbe007e13	-0.12548093
87	0xbddbbf47	-0.10729843
88	0xbd245f24	-0.040129796
89	0x3da27486	0.07932381
90	0x3e242508	0.16029751
91	0xbd0f1ceb	-0.034939688
92	0x3d4013f9	0.046894047
93	0x3d55a09b	0.05215512
94	0x3d0fb6e4	0.035086527
95	0xbdb6423c	-0.08899352
96	0x3b20f604	0.00245607
97	0x3d4f6317	0.05063161
98	0xbbb5819d	-0.0055391327
99	0xbd1d71ba	-0.038438536
100	0x3dc437e1	0.095809706
101	0xbbffa557	-0.0078016925
102	0x3d9c38c4	0.07628015
103	0x3e02d7c8	0.12777627
104	0x3d0ea662	0.034826644
105	0xbb521908	-0.0032058377
106	0xbcf01d0c	-0.029310726
107	0xbc964c80	-0.018347025
108	0x3d2ca399	0.042148206
109	0xbd9d1049	-0.07669122
110	0x3aaf6073	0.0013380185
111	0x3d811ef1	0.0630473
112	0xbdcd7612	-0.10032286
113	0x3cf44f2d	0.02982291
114	0x3c16f316	0.00921323
115	0xbd89dff8	-0.06732172
116	0x3d9281b8	0.07153648
117	0xbaaa943d	-0.0013014149
118	0x3daeb768	0.08531076
119	0xbd2baf92	-0.041915484
120	0x3c5d8e74	0.013522733
121	0x3cf3ee18	0.029776618
122	0xbd4f15e3	-0.050557982
123	0x39c53044	0.0003761073
124	0x3b89456c	0.004189184
125	0x3d175049	0.0369418
126	0xbe11d8c9	-0.14242853
127	0xbde7a80a	-0.11311348
128	0xbba4ae71	-0.005025678
129	0x3b311535	0.0027020697
130	0xbc11437d	-0.008866188
131	0xbcfcfb5a	-0.030881573
132	0x3d092be6	0.03348913
133	0xbb767548	-0.0037606526
134	0x3d5918db	0.05300222
135	0xbce17ef7	-0.027526362
136	0xbd323241	-0.043504957
137	0x3e0e0b8f	0.13871597
138	0xbd5d5280	-0.054033756
139	0x3c3e6011	0.011619584
140	0x3c9558d0	0.018230826
141	0xbdb44b3b	-0.088034116
142	0x3b007008	0.0019598026
143	0xbc1b1635	-0.009465744
144	0x3cca03c8	0.024660006
145	0xbbf1dce8	-0.0073810704
146	0x3d2334e8	0.039845377
147	0xbcd5aac1	-0.026082398
148	0xbbed95ae	-0.007250509
149	0xbd539854	-0.051658943
150	0xbd9dad78	-0.07699102
151	0xbc7f46a7	-0.01558081
152	0x3d737eee	0.05944722
153	0x3cfb3e6e	0.030669417
154	0xbda9906d	-0.082795
155	0x3d8cb76d	0.06870923
156	0xbe285468	-0.16438448
157	0x3d5d441e	0.05402004
158	0x3bcba4f7	0.0062147337
159	0xbe302a1e	-0.17203566
160	0xbaf395d6	-0.0018584083
161	0xbdf3105b	-0.11868354
162	0xbd33a581	-0.04385901
163	0xba36f9e4	-0.00069799856
164	0xbd836df2	-0.06417455
165	0x3b16d2ae	0.0023013758
166	0x3c0c74b6	0.008572748
167	0xbd8426e7	-0.064527325
168	0xbd76e2f3	-0.06027503
169	0xbce167f1	-0.027515383
170	0x3d0e354b	0.034718793
171	0xbbaf02b0	-0.0053408965
172	0xbb755a6b	-0.0037437927
173	0x3d0b2fd0	0.033981144
174	0xbc8f7435	-0.017511467
175	0x3b8fd6ad	0.004389605
176	0x3d64b8f7	0.05584046
177	0xbcfdccf3	-0.030981516
178	0xbd65049b	-0.055912595
179	0xbdf8f704	-0.121564895
180	0x3cd597b3	0.026073312
181	0xbdfdabd7	-0.123862915
182	0x3d91e315	0.071233906
183	0xbdba6219	-0.09100742
184	0x3cd47d69	0.025938706
185	0x3c05c2d6	0.008164128
186	0x3c20f723	0.009824547
187	0x3c4badd2	0.012431579
188	0x3d557f1e	0.05212318
189	0xbda2ba69	-0.07945711
190	0xbe00f0e2	-0.1259189
191	0xbd7571c8	-0.059922963
192	0xbe17eb1f	-0.14835785
193	0x3d64db14	0.05587299
194	0xbd9329b3	-0.07185688
195	0xbb17b028	-0.0023145769
196	0xbd7eb393	-0.062182974
197	0xbd75a223	-0.05996908
198	0x3c1c3367	0.00953374
199	0xbc3175dd	-0.010831323
200	0x3c7e0bca	0.01550574
201	0xbd741417	-0.05958947
202	0xbd9f02df	-0.077642195
203	0x3de2900c	0.11062631
204	0xbc0032e0	-0.00782463
205	0x3c84ba7a	0.0162022
206	0xbcc49fb1	-0.024001928
207	0xbd942d35	-0.07235185
208	0xbe11454a	-0.14186588
209	0xbcc911eb	-0.024544677
210	0xbdb6e42b	-0.08930238
211	0x3cf98a08	0.030461326
212	0xbcf0c72e	-0.029391851
213	0xbd678fac	-0.0565335
214	0x3e072209	0.13196577
215	0x3cd0d216	0.025490802
216	0x3b76265e	0.003755949
217	0x3cf908a1	0.030399622
218	0xbddcf01a	-0.10787983
219	0x3dcdd7d4	0.100509316
220	0x3d80f70b	0.0629712
221	0x3d4561dc	0.04818903
222	0x3bbce442	0.005764515
223	0xbd967cac	-0.07347998
224	0xbd09946a	-0.033588804
225	0xbdc495b6	-0.095988676
226	0x393f050c	0.0001821706
227	0xbca58f63	-0.020209974
228	0x3d5cc7fd	0.05390166
229	0x3bdffab8	0.006835308
230	0xbe02bab1	-0.1276653
231	0xbd97c83e	-0.0741124
232	0xbd6daeb7	-0.05802795
233	0x3ca7e883	0.020496612
234	0xbd98da8f	-0.07463562
235	0xbc9bbdc4	-0.019011386
236	0xbd668a53	-0.05628426
237	0xbe1c4afa	-0.15262976
238	0xbda1ec89	-0.079064436
239	0xbd11790a	-0.035515822
240	0xbd1e331b	-0.038622957
241	0xbc6a73fe	-0.014309881
242	0xbc521447	-0.012822217
243	0xbde3a835	-0.11116067
244	0xbe0d8ca7	-0.13823186
245	0xbc75141a	-0.014958406
246	0xbc0db702	-0.0086495895
247	0xbe2fb67f	-0.1715946
248	0x3cd42fd5	0.025901714
249	0xbc2e1634	-0.010625411
250	0xbcd0a2b3	-0.025468206
251	0xbcd55b5e	-0.026044544
252	0xbdfea9ea	-0.12434752
253	0xbd28381b	-0.04106913
254	0x3d352975	0.04422899
255	0xbdcd6625	-0.10029248

fc2.bias f4 [256]
0	0xbc918766	-0.017764758
1	0xbd2b5140	-0.041825533
2	0x3d0e6962	0.03476847
3	0x3d12f385	0.03587677
4	0x3d168418	0.03674707
5	0xbd5b5c8c	-0.053555056
6	0x3d0e5031	0.034744445
7	0xbcb81f8a	-0.022475976
8	0xbd1bda76	-0.038050137
9	0xbd5502c9	-0.05200461
10	0xbac4772a	-0.0014989127
11	0x3cbce717	0.023059411
12	0x3da86b55	0.08223597
13	0x3c75da1c	0.015005615
14	0x3c277afd	0.010222194
15	0x3bcc4a34	0.0062344316
16	0x3de959ca	0.11394079
17	0xbc42fcb3	-0.0119010685
18	0xbc193707	-0.009351498
19	0xbd69325a	-0.056932785
20	0xbce084c8	-0.027407065
21	0xbd5ea69c	-0.05435811
22	0x3d1b3af3	0.037898015
23	0xbd09c679	-0.033636544
24	0x3cde54b7	0.027140005
25	0x3d964e11	0.07339109
26	0xbd64176a	-0.055686392
27	0x3bbd832d	0.0057834596
28	0x3d68c3a1	0.05682719
29	0x3dace7e4	0.08442667
30	0xbce41241	-0.027840735
31	0x3d95e6a4	0.07319382
32	0x3d427aaf	0.04748028
33	0x3a93da27	0.0011280224
34	0x3d1159d7	0.03548607
35	0x3ddd8b0a	0.10817535
36	0x3beefab3	0.0072930693
37	0xbc8ed3df	-0.017435012
38	0xbdca945d	-0.09891579
39	0xbd51f3df	-0.051257964
40	0xbd5a379c	-0.05327569
41	0xbd8e595b	-0.06950637
42	0xbd8f6b5d	-0.070029
43	0x3d191e99	0.037382696
44	0xbdcba7b6	-0.09944098
45	0x3d49f497	0.049305525
46	0xb9b22702	-0.0003397987
47	0xbd614209	-0.054994617
48	0xbc272931	-0.010202692
49	0xbd1d0ce7	-0.038342383
50	0xbb9f8ab1	-0.004868828
51	0x3d025f91	0.03182942
52	0xbc58b857	-0.013227544
53	0x3c9bbfb3	0.019012308
54	0xbced2c87	-0.028951896
55	0x3d6b0eaa	0.05738703
56	0x3c5d69c5	0.013513987
57	0x3ca859c8	0.020550624
58	0x3c029e13	0.007972258
59	0x3cf0c5e3	0.029391235
60	0x3d27e754	0.040992096
61	0x3d2d83bb	0.042361956
62	0x3d76414e	0.060120873
63	0xbd403319	-0.04692373
64	0x3d1337d3	0.03594191
65	0xbc6e4c6f	-0.01454459
66	0x3d6e8444	0.058231607
67	0xbd9091a3	-0.07059028
68	0x3cedcf1b	0.02902942
69	0x3db6310d	0.088960744
70	0xbd36dfbd	-0.044646967
71	0xbb86b9ff	-0.004111528
72	0xbd01c106	-0.031678222
73	0x3c293dff	0.010329722
74	0x3d7e4d77	0.062085595
75	0xbcb68855	-0.022281805
76	0xbdb3be69	-0.08776552
77	0x3d33f6f9	0.043936703
78	0xbd3d2d5d	-0.04618584
79	0x3c9c9202	0.01911259
80	0x3cf16875	0.029468754
81	0x3ba2dbf8	0.00497007
82	0xbce7160f	-0.02820876
83	0xbd2a5b80	-0.041591167
84	0xbd76a10f	-0.06021219
85	0x3d033b68	0.032039076
86	0x3c5f9b94	0.013647933
87	0x3db7c65f	0.08973383
88	0x3c331b5a	0.010931814
89	0x3d03d8dd	0.03218924
90	0x3da0d3ba	0.07852884
91	0xbda22337	-0.07916873
92	0x3c48cab1	0.012255357
93	0xbd10959e	-0.035298936
94	0x3c5161c7	0.01277966
95	0x3d64f4c7	0.0558975
96	0xbdb734ea	-0.089456394
97	0x3b06ac33	0.0020549416
98	0x3c7f5dd6	0.015586337
99	0x3d1d9e30	0.038480937
100	0x3d759972	0.05996079
101	0xbd4963d6	-0.049167477
102	0xbd3d4bc1	-0.046214823
103	0xbd927db0	-0.07152879
104	0x3c08980c	0.008337032
105	0xbc5855a9	-0.013204017
106	0x3d7dc2cf	0.061953362
107	0x3d2294c0	0.03969264
108	0xbbabdc20	-0.005244747
109	0xbd0b3166	-0.033982657
110	0xbbd0dcc4	-0.0063739736
111	0x3b61d9a5	0.0034462002
112	0xbc7a7ba4	-0.015288267
113	0xba1e5a67	-0.00060406927
114	0xbc90c004	-0.017669685
115	0x3ca14b2d	0.019689167
116	0xbccc090b	-0.024906656
117	0x3ca392fb	0.019967547
118	0x3db4911f	0.08816742
119	0x3d303cfb	0.043026906
120	0x3c9e4c91	0.01932362
121	0xbd978ef2	-0.074003115
122	0xbb4767c2	-0.0030426835
123	0x3d8feccf	0.070275895
124	0xbd80a669	-0.0628174
125	0xbbcec988	-0.0063106455
126	0x3ce9e374	0.02855084
127	0x3d1facdb	0.038983207
128	0xbd000af2	-0.03126044
129	0x3b17c660	0.0023159012
130	0x3d37ced3	0.044874977
131	0xb83c29b3	-4.486153e-05
132	0xbd7399e9	-0.059472952
133	0xbcfd4083	-0.03091455
134	0x3c881f99	0.01661663
135	0xbc4b1d21	-0.012397082
136	0xbc9d614f	-0.01921144
137	0x3d119c20	0.035549283
138	0xbd368805	-0.044563312
139	0xbd9193e8	-0.07108289
140	0x3d4c3db6	0.04986354
141	0xbc3e2778	-0.01160609
142	0xbd8d1fef	-0.068908565
143	0xbd60b484	-0.054859653
144	0xbd23af06	-0.039961837
145	0x3db19d17	0.08672541
146	0xbd1f45a5	-0.038884778
147	0x3c31276b	0.010812621
148	0xbd8a4bfa	-0.06752773
149	0xbd5b695e	-0.053567283
150	0x3d2240af	0.03961247
151	0xbd69449b	-0.056950193
152	0x3cf8df2d	0.030379856
153	0xbd8d8e5c	-0.069119185
154	0x3d2108f4	0.03931518
155	0xbd101099	-0.03517208
156	0x3c658c51	0.014010505
157	0xbc05ed84	-0.008174304
158	0xbc42a075	-0.011879076
159	0xbd42acfa	-0.047528245
160	0x3bd99903	0.006640555
161	0x3d03c2fa	0.032168366
162	0xbdc90b57	-0.09816616
163	0x3d11a87c	0.03556107
164	0x3d64cf6a	0.055861868
165	0xbad1d04d	-0.0016007513
166	0xbc0a55dd	-0.008443323
167	0xbd5ce2d1	-0.053927246
168	0xbd61a6b3	-0.055090617
169	0xbc75323c	-0.01496559
170	0xbb4f8c03	-0.0031669147
171	0x3d7961ea	0.060884394
172	0xbc7798f4	-0.01511215
173	0x3c05ff74	0.008178581
174	0xbc880b72	-0.01660702
175	0xbca59836	-0.020214181
176	0x3c25e32d	0.010124964
177	0xbcb63207	-0.022240652
178	0x3dbb1d10	0.091364026
179	0x3d76df8d	0.06027179
180	0x3d43c0ab	0.047791164
181	0x3d2c6c35	0.04209538
182	0x3c2dccc2	0.0106079
183	0xbdadeede	-0.08492826
184	0x3bde399f	0.0067817713
185	0x3cfff0b1	0.0312427
186	0x3ac43396	0.0014968987
187	0x3c426199	0.011864089
188	0x3da125f2	0.078685656
189	0xbc649874	-0.013952363
190	0x3cf163ea	0.029466588
191	0x3de54690	0.11195099
192	0x3c0d0498	0.008607052
193	0xbcd057dc	-0.02543252
194	0x3d2d9397	0.04237708
195	0x3cd050dc	0.025429182
196	0x3c8300de	0.015991624
197	0x3d147241	0.036241774
198	0xbd6e7edb	-0.058226448
199	0x3d3dd8c1	0.04634929
200	0x3c72062c	0.014771979
201	0xbcf0730f	-0.02935174
202	0x3c2a8c88	0.010409482
203	0x3c407b61	0.011748166
204	0xbc321578	-0.010869376
205	0x3d79d6d1	0.06099588
206	0x3d1627b2	0.03665895
207	0x3d3a0a5c	0.045420036
208	0xbcdecd70	-0.02719757
209	0xbc9bb315	-0.019006291
210	0x3d2773af	0.04088181
211	0x3c92c786	0.017917406
212	0xbc70a2e8	-0.014687277
213	0x3cf3afa3	0.029746836
214	0xbcb3e8f6	-0.02196167
215	0x3c564a6c	0.013079267
216	0xbc1e232e	-0.009651942
217	0xbd4f3354	-0.05058606
218	0x3c2f71d1	0.010708288
219	0x3c7d9b55	0.015478929
220	0x3d8da9f0	0.06917179
221	0x3daec610	0.08533871
222	0x3ddafb83	0.10692503
223	0xbce6c520	-0.028170168
224	0xbcf02698	-0.029315278
225	0xbc464d18	-0.0121033415
226	0xbdf0630a	-0.1173764
227	0x3d251d03	0.04031087
228	0x3c390015	0.011291523
229	0xbce7070a	-0.028201599
230	0x3b6f0b35	0.0036475186
231	0xbd59f078	-0.053207844
232	0x3b706e8c	0.0036686985
233	0x3cdc2757	0.026874227
234	0xbd6e37af	-0.058158573
235	0xbd086fbe	-0.03330969
236	0xbc690122	-0.0142214615
237	0xbd90d37e	-0.07071589
238	0x3d4532ae	0.048144035
239	0x3b81abfa	0.003957269
240	0x3ae69c28	0.0017594146
241	0x3cfc76d7	0.030818386
242	0xbd610e9b	-0.05494557
243	0xbc5c2d7c	-0.013438579
244	0xbd6ee8d0	-0.058327496
245	0xbd057df5	-0.032590825
246	0x3c8679c9	0.016415494
247	0x3c74fdff	0.0149531355
248	0xbdd80f68	-0.105498135
249	0xbd6f883f	-0.058479544
250	0x3d2af45f	0.041736957
251	0xbdb61906	-0.088914916
252	0x3cb8be3a	0.022551645
253	0x3c8fc61b	0.017550519
254	0x3c8110e4	0.015755124
255	0xba8c48ca	-0.0010702845

fc3.weight f4 [1, 256]
0	0x3dbbab31	0.091635115
1	0xbc104b63	-0.008807036
2	0x3d8fcdaf	0.07021653
3	0xbcfbab48	-0.030721322
4	0x3cb243b1	0.021760793
5	0xbd95407f	-0.07287692
6	0x3cd2ccf6	0.025732499
7	0xbd0a652f	-0.033787902
8	0xbd1fa698	-0.038977236
9	0xbcb0d29e	-0.021584805
10	0xbcde2061	-0.027115049
11	0x3cc2b80c	0.023769401
12	0x3d9d3039	0.07675213
13	0xbc0dc12e	-0.008652015
14	0x3d4691eb	0.048479002
15	0x3c5e636d	0.01357351
16	0x3e26ea0d	0.16300221
17	0xbd03e27a	-0.032198407
18	0xbce57bc3	-0.028013116
19	0xbd8e760d	-0.0695611
20	0x3c5cd210	0.013477817
21	0xbd263c7c	-0.040585026
22	0xbdf235a0	-0.118266344
23	0x3c878931	0.01654491
24	0xbcacabe0	-0.02107805
25	0x3c968c2d	0.018377388
26	0x3d41db41	0.047328237
27	0x3d11380f	0.035453852
28	0x3d1303a9	0.035892162
29	0x3cbea852	0.02327362
30	0xbd24265c	-0.040075645
31	0x3d58423f	0.052797552
32	0xbc37178d	-0.011175049
33	0xbd20876a	-0.03919164
34	0xbc86da42	-0.016461495
35	0x3e3ad6bc	0.18245977
36	0xbcc67cbd	-0.024229402
37	0xbc1b2f70	-0.009471759
38	0xbd514f02	-0.05110074
39	0xbca6da63	-0.020367807
40	0xbd57bad9	-0.052668426
41	0xbc880d85	-0.01660801
42	0xbd00d208	-0.0314503
43	0x3d0c7d4f	0.03429919
44	0xbd0ecc8b	-0.034863036
45	0x3da0df3c	0.078550786
46	0xbcdf3bfc	-0.027250282
47	0xbd272a1b	-0.04081164
48	0xbd1be221	-0.03805745
49	0x3c88d5a6	0.016703438
50	0xbd47b5c0	-0.048757315
51	0xbd359492	-0.04433114
52	0x3c65fe74	0.014037717
53	0xbe04d4e8	-0.12971842
54	0x3d188d48	0.03724411
55	0x3cd0ebe9	0.025503116
56	0x3cbd24b7	0.023088796
57	0xbd841ff1	-0.06451405
58	0xbc9b29cd	-0.01894083
59	0xbd8bf94b	-0.06834658
60	0xbc780872	-0.015138732
61	0xbcb07aad	-0.021542871
62	0x3dcc0ea9	0.09963734
63	0xbcd05513	-0.025431192
64	0x3d2a6fcc	0.041610524
65	0xbd4d7220	-0.050157666
66	0x3cdd098d	0.026982093
67	0xbe13fa6b	-0.14450996
68	0x3cb1bc7e	0.021696325
69	0x3d3a4943	0.045480024
70	0xbe154634	-0.14577562
71	0xbc80c204	-0.015717514
72	0x3d160e0f	0.0366345
73	0xbcd9761d	-0.026545579
74	0xbd1b214a	-0.037873544
75	0xbdf28dfb	-0.11843487
76	0xbd01971f	-0.03163826
77	0xbcbc131b	-0.022958329
78	0x3c9b7155	0.01897494
79	0xbc4f1dc7	-0.012641377
80	0x3d47c71c	0.04877387
81	0x3c4c58bf	0.012472331
82	0xbc88e232	-0.01670942
83	0x3ce9ff35	0.028564075
84	0xbc9e3e9f	-0.01931697
85	0xbcf707c9	-0.03015508
86	0x3d9060ad	0.070496894
87	0x3dd5eaae	0.10445152
88	0xbc780270	-0.0151373
89	0xbd9af962	-0.07567097
90	0x3d8c76a1	0.06858564
91	0x3dc24e23	0.0948756
92	0xbc3795d5	-0.011205156
93	0xbcd9df97	-0.026595874
94	0xbcb04e14	-0.021521606
95	0x3caf6b03	0.021413332
96	0x3d86b3f5	0.06577293
97	0xbc87e6a2	-0.016589466
98	0xbd8b9572	-0.06815614
99	0x3c9310d2	0.017952356
100	0x3c93ed3d	0.01805746
101	0x3d1674c3	0.036732446
102	0xbcef1188	-0.029183164
103	0xbc9655a9	-0.018351393
104	0x3cbea3dd	0.023271495
105	0xbd3565a0	-0.04428637
106	0x3cef6d19	0.029226827
107	0x3ccf069f	0.025271712
108	0x3cba51f8	0.022744164
109	0xbd390380	-0.045169353
110	0xbc84b260	-0.016198337
111	0xbcde176a	-0.027110774
112	0xbca8578e	-0.020549562
113	0x3d80aab5	0.0628256
114	0xbc92e053	-0.017929232
115	0x3c6c8b7a	0.014437551
116	0x3d93b491	0.07212175
117	0x3cdd3fe8	0.027008012
118	0x3cad7e52	0.021178398
119	0xbc09e9a7	-0.0084175235
120	0xbc84d35c	-0.016214065
121	0xbcb2144e	-0.021738198
122	0xbcd53fbe	-0.026031371
123	0x3d105732	0.035239406
124	0x3d9b510d	0.075838186
125	0xbd25f6e6	-0.040518664
126	0x3c76b3c1	0.015057505
127	0xbe0825b4	-0.13295633
128	0xbdd23447	-0.10263877
129	0xbcb97a2e	-0.022641268
130	0x3d3eaf64	0.046553984
131	0xbc2eb8b1	-0.010664151
132	0x3dc31aa3	0.09526565
133	0xbc3afd12	-0.011412876
134	0xbca088fc	-0.01959657
135	0x3d22c2fd	0.039736737
136	0xbc96ee64	-0.01842422
137	0xbd0d9f52	-0.034575768
138	0xbd572449	-0.05252484
139	0xbcd3359d	-0.0257824
140	0x3d1c71fd	0.038194645
141	0x3ca4af55	0.020103136
142	0xbd9b2e4c	-0.0757719
143	0xbcb8bcf1	-0.022551032
144	0x3cd4fce2	0.02599949
145	0x3d055055	0.032547314
146	0xbd63273c	-0.05545734
147	0xbda9407e	-0.08264254
148	0xbc845212	-0.016152415
149	0x3c675185	0.014118557
150	0x3c6aba90	0.0143267065
151	0xbd237801	-0.039909367
152	0xbca33e56	-0.019927185
153	0xbd6dced2	-0.058058567
154	0xbc2e2fe4	-0.010631535
155	0xbc9aa879	-0.018879162
156	0xbcb0b1d9	-0.02156918
157	0x3ca79c64	0.020460315
158	0x3e00938b	0.12556283
159	0xbd2cc1d6	-0.042177044
160	0xbc8e901f	-0.017402707
161	0x3ce522fa	0.02797078
162	0xbd6bfe15	-0.05761536
163	0x3c9baf5d	0.019004518
164	0x3d06a40c	0.03287129
165	0x3d376eb8	0.044783324
166	0xbd448ca7	-0.0479857
167	0xbc8583dc	-0.016298227
168	0xbdad34f3	-0.08457365
169	0x3da4a919	0.08040065
170	0xbd5a04fd	-0.053227413
171	0x3d2b6e3c	0.041853175
172	0xbd042116	-0.032258116
173	0x3d34e7fc	0.04416655
174	0xbe141c92	-0.14464024
175	0xbcc1ebca	-0.023672003
176	0xbca5a332	-0.02021942
177	0xbc8ced74	-0.01720307
178	0x3db19800	0.0867157
179	0x3cd25e43	0.025679713
180	0x3c834331	0.01602325
181	0x3ca4ab75	0.020101288
182	0x3e0171f0	0.1264112
183	0xbcea634d	-0.028611803
184	0x3c4c65e0	0.012475461
185	0x3cec1de4	0.028822847
186	0xbca92b7a	-0.020650614
187	0x3d166081	0.036713127
188	0x3d1f9fb8	0.03897068
189	0x3ca6408c	0.02029445
190	0x3ccd4b75	0.025060395
191	0x3d658701	0.056036953
192	0xbd0ec1f2	-0.03485293
193	0xbc1ea915	-0.009683867
194	0xbdb45cd3	-0.08806767
195	0x3c85ef27	0.016349388
196	0x3cf3edb5	0.029776433
197	0xbc666382	-0.01406181
198	0xbd2ac1d9	-0.041688774
199	0xbc39076d	-0.011293274
200	0xbd15c606	-0.036565803
201	0xbdd37778	-0.10325521
202	0x3c887e23	0.01666171
203	0x3c903b75	0.017606476
204	0xbd8e55e4	-0.06949976
205	0x3e151337	0.14558111
206	0x3d1a1f7d	0.037627686
207	0x3c823a33	0.015896892
208	0xbc425280	-0.01186049
209	0xbded4595	-0.11585537
210	0x3cc35b7d	0.023847336
211	0x3ce3f3db	0.02782624
212	0x3db824fb	0.089914285
213	0x3c8c91e0	0.017159402
214	0xbcaccc1b	-0.021093419
215	0xbd014b07	-0.031565692
216	0xbe11e12b	-0.14246051
217	0x3db986b5	0.090588965
218	0x3cb472a4	0.022027321
219	0xbc4a8526	-0.012360847
220	0x3cb931f7	0.022606833
221	0x3d80dd69	0.06292231
222	0x3d287f9c	0.041137323
223	0x3cf7b3ff	0.030237196
224	0xbdace381	-0.084418304
225	0x3cd0ab2d	0.025472248
226	0x3d15bdda	0.03655801
227	0x3ccb08fd	0.02478456
228	0x3cd46de4	0.025931306
229	0x3c94d1ab	0.018166384
230	0x3d72457c	0.059148297
231	0x3ce04413	0.02737621
232	0x3cabf29b	0.020989707
233	0xbc9fd2d2	-0.019509707
234	0xbcfef8e3	-0.031124538
235	0xbc72175b	-0.014776076
236	0xbd162764	-0.03665866
237	0xbd61f752	-0.055167504
238	0xbd26d609	-0.040731464
239	0x3d0eb592	0.034841128
240	0xbcaea921	-0.021320881
241	0x3d5dc035	0.05413838
242	0xbe01e346	-0.12684354
243	0xbd2de5e8	-0.042455584
244	0xbd1f67d4	-0.038917378
245	0xbbfff52c	-0.007811209
246	0x3c8440e1	0.016144218
247	0xbc9ea770	-0.01936695
248	0x3d0c5ccf	0.034268197
249	0xbc96fe28	-0.018431738
250	0x3c28bd17	0.010298989
251	0xbce1e92e	-0.027577009
252	0xbd166ef3	-0.036726903
253	0x3d978fb0	0.07400453
254	0x3d9a4b15	0.07533852
255	0xbd8bb69f	-0.068219416
