checkpoints/checkpoint_critic_ddqn_5.pth (torch_old, 304178 bytes, 5 tensors)

fcs1.weight f4 [256, 33]
-0.06820156 0.020271597 0.08617444 -0.039792366 -0.013239626 0.031391326 0.07825217 -0.042079855
-0.04067994 -0.011446205 0.01458881 0.0076695615 -0.020468935 0.038601615 -0.032117072 0.036166158
-0.043776553 -0.057790432 0.107696526 0.0016934375 -0.067835346 0.073966816 0.001110619 0.00070313155
0.020287644 0.07747562 -0.010483687 0.119808644 -0.01397024 0.05109015 -0.12110709 0.020274766
-0.12291225 -0.04440054 0.03181457 0.02087241 0.030031728 -0.0457831 -0.019421142 0.059548594
-0.01165296 -0.026602801 0.01609027 0.016756758 -0.00034113624 -0.007480023 0.08617783 -0.046042137
-0.021775015 0.014161528 0.02655324 0.017253563 0.010630726 0.012322968 0.0058681485 0.007640063
0.0066164252 -0.010108366 -0.02319418 -0.060348235 0.049065884 -0.006583352 0.0114473775 0.02166467
0.03391771 -0.05082828 -1.4733252e-05 -0.022666676 0.009644665 -0.024648076 0.0062082293 -0.031759422
0.008699414 0.03171095 0.002032797 0.027044328 -0.013804508 -0.009885015 0.027770538 0.015291058
0.036356743 -0.0070455973 0.010030223 0.024097892 -0.048645344 0.0061090044 -0.0018324795 0.00825868
-0.0078012226 0.026844181 0.008334014 -0.042795163 0.0038223919 0.017831327 -0.056345303 0.05361893
0.0017446798 0.01849357 0.016184634 0.0023926964 0.06530253 0.005243988 0.02943064 -0.022528019
0.01494075 0.036683504 -0.0086433375 -0.02929595 0.058630858 -0.00035177375 -0.012070228 -0.0229602
0.119588144 -0.0821709 -0.08971982 0.0060479944 0.01911731 -0.023948912 -0.002811345 -0.0030523879
-0.0065189507 0.038625304 0.030698717 -0.023214549 -0.019471122 -0.049660288 0.048526615 0.08029171
-0.015151218 -0.018112736 -0.022331007 0.124064155 -0.019660842 0.030874426 -0.06566187 -0.02871715
0.02071027 -0.12536788 -0.044650733 -0.011200112 0.050779723 -0.09508729 0.04248607 0.029482815
-0.0011367705 0.007668119 0.0495765 -0.006633651 0.025083436 -0.011158734 0.10417119 0.048814453
-0.007006432 0.045303307 -0.009171869 -0.02189158 0.023470817 -0.007816421 0.04471501 0.048101924
0.011509832 0.04573536 -0.037061624 -0.010656625 -0.08752234 0.003719592 -0.053636037 -0.029977279
0.029127885 0.016010275 0.0018831508 -0.008632486 0.0021036337 -0.017458653 -0.046876248 0.042987302
-0.006826219 -0.021572249 0.055297233 0.014540163 -0.009799469 0.04955421 0.005583769 -0.046718165
-0.032032356 -0.0028878374 -0.026925523 0.0033934598 -0.012486841 0.004947473 -0.03491139 -0.033802215
0.06573311 0.037071526 0.04400678 0.011157395 0.021717638 -0.059025276 -0.09929513 0.10124614
-0.101763666 -0.008106421 -0.002318744 0.020022627 0.020401705 -0.021218516 0.051090382 0.04571661
-0.046370123 -0.007354007 -0.014559816 0.110273905 -0.09967192 0.122774355 0.022750722 0.001216844
-0.025660101 0.0071048867 0.017829336 -0.04128591 -0.0004341043 0.035721038 -0.029336743 0.036021896
-0.069385335 0.100103736 -0.060189065 -0.05274736 0.009169045 0.012658566 -0.15234803 -0.05949347
-0.020009607 -0.024640728 -0.029707959 0.039204564 0.024564978 0.05819147 -0.0023548356 -0.046707567
0.017522974 0.025731325 -0.042611007 -0.04814411 0.03282697 -0.019035557 -0.012134265 -0.04007858
-0.008471064 -0.049655966 0.0010883977 -0.016950363 -0.017501745 -0.008689816 0.023129145 0.032660633
00000000: 42ad 8bbd 9f10 a63c 3a7c b03d 52fd 22bd
00000010: 04eb 58bc 3194 003d ac42 a03d ed5b 2cbd
00000020: 02a0 26bd dd88 3bbc e705 6f3c f250 fb3b
00000030: 78ae a7bc ba1c 1e3d 318d 03bd f722 143d
00000040: 0b4f 33bd a9b5 6cbd ff8f dc3d 55f6 dd3a
00000050: 42ed 8abd ea7b 973d 3192 913a 5c52 383a
00000060: 4632 a63c 8aab 9e3d c5c3 2bbc 3c5e f53d
00000070: 6fe3 64bc e843 513d fe06 f8bd 4417 a63c
00000080: 6bb9 fbbd 57dd 35bd ff4f 023d 9efc aa3c
00000090: 1905 f63c 0f87 3bbd 1619 9fbc 3ae9 733d
000000a0: 0fec 3ebc 1eee d9bc becf 833c 7845 893c
000000b0: 88da b2b9 fb1a f5bb 017e b03d ae96 3cbd
000000c0: 8461 b2bc c105 683c 2e86 d93c 5857 8d3c
000000d0: 7f2c 2e3c 46e6 493c 9949 c03b 7e59 fa3b
000000e0: 99ce d83b 8f9d 25bc b901 bebc b62f 77bd
000000f0: 4ff9 483d 29b9 d7bb c88d 3b3c 1b7a b13c
00000100: 4ced 0a3d 5131 50bd d62e 77b7 77af b9bc
00000110: a804 1e3c c3ea c9bc 676e cb3b 2b16 02bd
00000120: fd87 0e3c 57e3 013d ad38 053b 118c dd3c
00000130: 4e2c 62bc c2f4 21bc 0a7f e33c 5987 7a3c
00000140: cfea 143d c1de e6bb ce55 243c f168 c53c
00000150: 5740 47bd 0b2e c83b cf2f f0ba 6a4f 073c
00000160: 66a1 ffbb 54e8 db3c 638b 083c fb49 2fbd
00000170: 1881 7a3b 0113 923c 55ca 66bd 869f 5b3d
00000180: bdad e43a d47f 973c a395 843c c9ce 1c3b
00000190: 55bd 853d c2d5 ab3b 8718 f13c ae8c b8bc
000001a0: 0cca 743c 7141 163d c99c 0dbc 0ffe efbc
000001b0: e926 703d 466e b8b9 35c2 45bc 0817 bcbc
000001c0: a1ea f43d 3849 a8bd 06bf b7bd 412e c63b
000001d0: e89b 9c3c 8230 c4bc 8b3e 38bb 920a 48bb
000001e0: ec9c d5bb 9135 1e3d e07b fb3c 702c bebc
000001f0: e781 9fbc 9668 4bbd d8c3 463d fb6f a43d
00000200: d03c 78bc 2961 94bc 84ef b6bc 5915 fe3d
00000210: c60f a1bc 5dec fc3c bb79 86bd 3b40 ebbc
00000220: 96a8 a93c 7060 00be b0e3 36bd ad80 37bc
00000230: 66fe 4f3d 20bd c2bd e005 2e3d f285 f13c
00000240: b0ff 94ba d844 fb3b ba10 4b3d 195f d9bb
00000250: c77b cd3c 1fd3 36bc b457 d53d aaf1 473d
00000260: 3696 e5bb f68f 393d 9b45 16bc f955 b3bc
00000270: df45 c03c 7210 00bc 1627 373d 8606 453d
00000280: bc93 3c3c 0055 3b3d eecd 17bd 2099 2ebc
00000290: ea3e b3bd 66c4 733b 76b1 5bbd e992 f5bc
000002a0: 9a9d ee3c fb27 833c 0ed4 f63a 456f 0dbc
000002b0: 1edd 093b 7305 8fbc 4f01 40bd 7413 303d
000002c0: 7aae dfbb 49b8 b0bc 5a7f 623d dd39 6e3c
000002d0: f48d 20bc 5bf9 4a3d 0df8 b63b 8c5b 3fbd
000002e0: 5c34 03bd df41 3dbb ea92 dcbc cf64 5e3b
000002f0: 9b95 4cbc 691e a23b 3fff 0ebd 3174 0abd
00000300: 159f 863d 50d8 173d 7440 343d 82cd 363c
00000310: 30e9 b13c 7dc4 71bd 3f5b cbbd 235a cf3d
00000320: 7869 d0bd cbd0 04bc 12f6 17bb 7e06 a43c
00000330: 7a21 a73c 74d2 adbc 2644 513d 5741 3b3d
00000340: 99ee 3dbd e2f9 f0bb 4b8c 6ebc 49d7 e13d
00000350: cb20 ccbd 1f71 fb3d b95f ba3c 827e 9f3a
00000360: 2235 d2bc 1cd0 e83b d40e 923c 6a1b 29bd
00000370: 7e98 e3b9 3950 123d 9c53 f0bc b28b 133d
00000380: e619 8ebd 3003 cd3d cf88 76bd 9e0d 58bd
00000390: c339 163c e065 4f3c 1f01 1cbe 6daf 73bd
000003a0: 30eb a3bc 5adb c9bc 1b5e f3bc f794 203d
000003b0: 7e3c c93c 2e5a 6e3d 9653 1abb 6f50 3fbd
000003c0: 578c 8f3c 80ca d23c e188 2ebd c232 45bd
000003d0: 9375 063d 75f0 9bbc ccce 46bc 7029 24bd
000003e0: 38ca 0abc 0e64 4bbd 91a8 8e3a 7ddb 8abc
000003f0: d25f 8fbc bb5f 0ebc 5579 bd3c 28c7 053d

fcs1.bias f4 [256]
-0.09093094 -0.0999387 0.08909694 -0.13215958 0.00020536741 -0.051783457 -0.21921165 -0.0021155616
0.041881062 0.076638855 -0.16177592 0.16551688 -0.028919317 0.07840336 0.10304799 0.1402554
0.008978306 -0.008289793 -0.12451809 -0.18937597 -0.014612483 -0.1159924 -0.03928378 0.11218227
-0.118526295 -0.058532767 0.18507645 -0.05947836 -0.027138406 -0.11572224 -0.12195617 -0.1491639
0.046881363 -0.17238668 -0.19072929 0.08271894 -0.18630362 -0.18550606 0.032127287 0.045382455
-0.18455586 -0.03127173 0.10482464 0.14524612 0.093199566 -0.12336089 0.12575105 -0.12025264
0.086595856 0.0026301162 -0.20199357 0.05422451 -0.057502173 -0.14009847 -0.08126092 0.06374747
-0.059458315 0.07838749 -0.20354198 -0.0012146473 -0.09864051 -0.1038438 -0.016820095 -0.012051509
-0.10198448 -0.1404995 0.13533984 0.026633892 0.00054039806 -0.09857527 0.14806876 -0.0820494
-0.22326279 0.04491422 0.094633505 0.034284115 -0.08022376 -0.008569623 -0.16875978 -0.061899237
0.12917113 -0.047610607 -0.17556405 0.010188595 0.06178268 0.027384765 -0.1774519 -0.08848922
-0.060084168 0.10243995 -0.09565072 0.087367155 0.06471592 0.11239171 -0.03741047 -0.0651002
-0.019821439 -0.15302183 -0.0947712 0.071780175 0.0058215153 -0.022502737 0.00032017374 -0.01685282
0.041789968 -0.105566114 -0.08486854 -0.06760443 0.03188029 0.0097031435 0.16064619 -0.100055344
-0.19220655 -0.21653119 0.09280314 -0.041286815 -0.10682605 -0.19399264 0.0897053 -0.03702586
0.064220555 0.10350477 -0.04873394 0.04968102 0.13672985 0.025453024 -0.1466417 -0.10606038
-0.1290879 -0.22904186 -0.073006354 -0.14476028 0.06473802 -0.105630614 -0.06606073 -0.02407841
0.022845652 -0.159591 -0.124361806 -0.069771335 -0.027677536 -0.03243343 0.03102033 -0.021517532
-0.114382036 -0.10567686 -0.10174345 0.14004968 0.060923494 -0.12152193 -0.24692392 0.00889894
-0.056655165 -0.10988364 -0.007133695 -0.026519474 -0.1173918 0.019777691 -0.12609325 -0.15661225
-0.059988145 -0.11190895 0.073128685 0.061562937 0.0215987 -0.0867384 -0.11549507 -0.13362606
-0.09516493 -0.080175936 0.06512314 0.14307229 -0.1290259 0.042872466 -0.0585196 -0.0021643424
-0.15919524 -0.09700119 -0.13968569 -0.15879881 -0.095916465 0.010421949 -0.099812865 -0.10439745
-0.058683086 0.008079244 0.029210938 -0.08626794 -0.20555454 0.097165644 -0.13714217 -0.023459615
0.058699843 -0.08861465 -0.096351795 -0.21927223 0.025893977 0.041408367 -0.2239037 0.058510937
0.113093704 0.13957596 0.03204897 0.12619154 0.027136602 -0.17562151 -0.16168031 -0.16143775
-0.08196163 0.03674912 -0.050683934 -0.039992273 -0.12252257 0.040198233 -0.1081502 -0.011843377
-0.11365413 -0.15032066 -0.043674752 0.098044984 -0.030610153 -0.14069477 0.03507216 -0.20007224
0.07450617 -0.21317855 -0.07710623 -0.18883744 -0.14311048 0.15542506 -0.039001156 -0.024995256
-0.14610392 0.115586005 -0.06930991 -0.046506904 0.004335527 0.07999311 -0.21697888 0.0029501913
-0.17668895 -0.17878413 -0.06938457 -0.026701152 -0.01957584 -0.10125885 -0.035575666 0.078119725
-0.056684628 0.110643044 0.01361141 -0.15595457 -0.15276715 0.037394874 -0.15799086 -0.17926541
00000000: 003a babd a9ac ccbd 7578 b63d d754 07be
00000010: e557 5739 e41a 54bd 0579 60be 3ca5 0abb
00000020: 7a8b 2b3d d5f4 9c3d 96a8 25be 427d 293e
00000030: 34e8 ecbc f191 a03d d30a d33d 1d9f 0f3e
00000040: bf19 133c e9d1 07bc 5703 ffbd c6eb 41be
00000050: 3269 6fbc 6c8d edbd 07e8 20bd d1bf e53d
00000060: eabd f2bd 0ec0 6fbd ae84 3d3e 959f 73bd
00000070: 5d51 debc c8ff ecbd 28c4 f9bd 6cbe 18be
00000080: ac06 403d 2286 30be 8a4e 43be 8c68 a93d
00000090: 60c6 3ebe 4df5 3dbe e797 033d f4e2 393d
000000a0: 36fc 3cbe c916 00bd 4dae d63d 66bb 143e
000000b0: 6adf be3d a2a4 fcbd e2c4 003e 0447 f6bd
000000c0: 2b59 b13d 075e 2c3b 67d7 4ebe 851a 5e3d
000000d0: 6687 6bbd f975 0fbe 206c a6bd 098e 823d
000000e0: 908a 73bd 9f89 a03d 4f6d 50be cd34 9fba
000000f0: 0904 cabd 0fac d4bd 4cca 89bc b173 45bc
00000100: 3ddd d0bd 1adf 0fbe 8796 0a3e 522f da3c
00000110: 80a9 0d3a d5e1 c9bd 569f 173e 8409 a8bd
00000120: 009f 64be f9f7 373d 36cf c13d 806d 0c3d
00000130: 5b4c a4bd 9b67 0cbc 5dcf 2cbe 0e8a 7dbd
00000140: 7045 043e 5703 43bd 10c7 33be 11ee 263c
00000150: d60f 7d3d 0456 e03c f3b5 35be d639 b5bd
00000160: d11a 76bd 09cc d13d 86e4 c3bd 8ded b23d
00000170: c889 843d a02d e63d b93b 19bd 4153 85bd
00000180: 9260 a2bc c1b1 1cbe 6717 c2bd 7c01 933d
00000190: 69c2 be3b a957 b8bc fedc a739 ed0e 8abc
000001a0: f52b 2b3d 0c33 d8bd 8fcf adbd 3174 8abd
000001b0: e894 023d eff9 1e3c 6f80 243e d1e9 ccbd
000001c0: cbd1 44be 5aba 5dbe 930f be3d 5d1c 29bd
000001d0: 9ec7 dabd 02a6 46be 6ab7 b73d 6ea8 17bd
000001e0: 1186 833d 4ffa d33d 3d9d 47bd 537e 4b3d
000001f0: e902 0c3e dc82 d03c 3e29 16be 2f36 d9bd
00000200: 9e2f 04be f389 6abe 5b84 95bd 0a3c 14be
00000210: 5e95 843d dd54 d8bd d94a 87bd 1640 c5bc
00000220: ce26 bb3c d36b 23be 67b1 febd 46e4 8ebd
00000230: 00bc e2bc ebd8 04bd 591e fe3c 8945 b0bc
00000240: 2141 eabd 1c6d d8bd df5e d0bd 2f69 0f3e
00000250: ea8a 793d 7de0 f8bd a0d9 7cbe dccc 113c
00000260: 3f0f 68bd ad0a e1bd c5c1 e9bb 5e3f d9bc
00000270: 1d6b f0bd d304 a23c 971e 01be f65e 20be
00000280: 21b6 75bd 8530 e5bd 7ec4 953d 6b29 7c3d
00000290: c2ef b03c e7a3 b1bd ae88 ecbd 45d5 08be
000002a0: d5e5 c2bd 4833 a4bd 485f 853d 8b81 123e
000002b0: 5e1f 04be 0a9b 2f3d 40b2 6fbd a4d7 0dbb
000002c0: 1404 23be 8fa8 c6bd c409 0fbe 289c 22be
000002d0: da6f c4bd d3c0 2a3c b06a ccbd 55ce d5bd
000002e0: ad5d 70bd ce5e 043c c74b ef3c 3fad b0bd
000002f0: e47c 52be c8fe c63d ff6e 0cbe 612e c0bc
00000300: 3f6f 703d 997b b5bd 1754 c5bd e688 60be
00000310: 9b1f d43c d29b 293d 0347 65be 2aa9 6f3d
00000320: ac9d e73d 00ed 0e3e c845 033d 5b38 013e
00000330: 944d de3c 20d6 33be 868f 25be f04f 25be
00000340: 80db a7bd 3f86 163d f599 4fbd f0ce 23bd
00000350: 1ded fabd e7a6 243d da7d ddbd b90a 42bc
00000360: 7fc3 e8bd a9ed 19be 4ce4 32bd cfcb c83d
00000370: 25c2 fabc 4a12 10be d3a7 0f3d bddf 4cbe
00000380: b196 983d 7a4b 5abe dfe9 9dbd 9a5e 41be
00000390: 8e8b 12be bf27 1f3e adbf 1fbd dac2 ccbc
000003a0: 449c 15be 5bb8 ec3d 5bf2 8dbd 067e 3ebd
000003b0: 0911 8e3b 6dd3 a33d b62f 5ebe ff57 413b
000003c0: f3ed 34be 3013 37be 7f19 8ebd 60bc dabc
000003d0: 835d a0bc cd60 cfbd cab7 11bd 3cfd 9f3d
000003e0: 242e 68bd d298 e23d 6402 5f3c 8eb2 1fbe
000003f0: fe6e 1cbe 5e2b 193d 5bc8 21be 5a91 37be

fc2.weight f4 [256, 260]
0.0047783824 -0.070118524 0.019250138 -0.123911224 0.02051515 -0.021619488 0.04371751 0.074800536
0.053756993 0.032174475 0.0135950465 0.057672 0.07302821 -0.050597373 0.013914426 0.016648542
-0.10430721 0.08288064 -0.014651008 0.017984211 -0.0016107205 0.04754098 -0.051422138 -0.017403973
-0.14949845 -0.080464646 0.028414482 0.012990616 -0.074289925 0.020564174 0.05513751 -0.04382917
0.056296565 0.039129075 -0.043594427 -0.06670154 -0.01041439 0.05729485 -0.13546954 -0.08824595
0.0657636 0.03510849 0.04212727 0.013130221 0.0027973768 -0.09779176 -0.024770653 -0.057510246
0.004900503 -0.09035778 -0.06348934 -0.033757627 -0.09956016 0.08597262 0.01440068 0.08614002
0.006338084 -0.061064918 -0.0978056 -0.0052055786 -0.026715156 0.06675289 -0.04480303 -0.054926306
-0.017029718 0.0005014687 -0.014896846 -0.026563063 0.03222781 0.022305692 0.069195606 -0.07189742
0.049727205 -0.07486381 -0.03077744 0.0020556746 0.04392493 -0.011548363 0.01078245 0.13546072
-0.060556818 -0.10521851 -0.02535305 -0.003857439 -0.0010184215 -0.034748927 0.030777218 0.01839039
0.0036925562 -0.03632826 0.018887233 0.057162736 0.029780485 -0.024820143 -0.013909756 -0.04731511
0.02015911 0.051834267 0.0901936 -0.11566453 -0.0043888055 0.047438372 0.014575021 -0.10427651
0.06444822 0.017872272 -0.015613191 0.026599538 0.0050155213 0.012516862 -0.059948426 -0.04438787
0.01400054 0.07302855 0.048757166 0.031549457 0.007844517 -0.086650744 0.0020033647 0.021058373
0.03928814 0.06312259 -0.04063574 3.264687e-05 0.028050916 0.08082376 -0.13227357 -0.08721317
0.03157298 -0.08958359 -0.036277488 0.001391601 0.016667794 0.031861365 -0.010460197 -0.0062926686
0.05049541 -0.042653695 -0.27622467 0.034520537 -0.0152388485 -0.030688541 -0.06889403 0.07149124
-0.058843613 -0.008455705 0.007235933 -0.06474005 -0.029111981 0.09665982 0.0830594 0.016607178
0.05052775 -0.044263028 -0.030091377 0.051199947 0.014118851 0.06393691 -0.054542627 0.0061485684
-0.044623833 0.037658717 -0.062195722 0.07129054 0.06496349 -0.015862694 0.061917547 0.0026690569
0.011296294 0.04013742 0.022309797 -0.060916517 -0.13899451 0.0035056835 0.038661882 -0.050627273
0.08237727 -0.038093302 0.036714766 -0.03672945 0.068446524 -0.006567346 -0.04734025 -0.012313167
-0.076018214 -0.084826976 0.03545939 0.03519441 0.042901345 -0.08033598 -0.054117844 -0.021266593
0.026977733 -0.0026864756 0.04368321 0.022612164 -0.0732478 -0.016778976 -0.034138635 0.007952719
-0.0339985 -0.060497273 0.0022545396 0.02638165 0.0037402785 -0.12098719 0.059183583 0.029429441
-0.012709588 -0.016336692 -0.043018136 0.04918585 0.10889097 -0.012478166 0.0050039 -0.077156745
0.030619254 -0.01022237 0.04019702 0.033854637 0.08068076 0.077347204 -0.04069983 -0.07354954
-0.013474445 0.025738887 0.025576621 -0.0024106088 -0.05939408 -0.0371477 -0.06772147 -0.0868858
-0.007299557 0.008044139 0.077934645 -0.073828705 0.023785697 -0.06651864 0.14640306 -0.034659296
-0.09857139 0.008488818 0.009072604 -0.025226444 -0.052054517 -0.007545283 -0.019800646 -0.034429245
0.049452018 -0.06720147 -0.004348989 0.06489306 0.01668849 0.009178253 -0.06913782 0.03960027
00000000: fa93 9c3b 4d9a 8fbd 77b2 9d3c 2bc5 fdbd
00000010: 630f a83c 5a1b b1bc 2211 333d 0631 993d
00000020: 4b30 5c3d 62c9 033d c2bd 5e3c 7a39 6c3d
00000030: d08f 953d 313f 4fbd 55f9 633c 8662 883c
00000040: 059f d5bd 53bd a93d c80a 70bc a053 933c
00000050: d01e d3ba 55ba 423d 05a0 52bd c792 8ebc
00000060: 1f16 19be a6ca a4bd 7dc5 e83c 98d6 543c
00000070: 5125 98bd 3376 a83c dfd7 613d 3786 33bd
00000080: 3a97 663d cf45 203d 1290 32bd d19a 88bd
00000090: 1ea1 2abc 01ae 6a3d 87b8 0abe 4bba b4bd
000000a0: 11af 863d eccd 0f3d a58d 2c3d 2320 573c
000000b0: 3254 373b 0c47 c8bd d3eb cabc dd8f 6bbd
000000c0: 6694 a03b 800d b9bd b306 82bd 7045 0abd
000000d0: 32e6 cbbd 6a12 b03d d4f0 6b3c 2e6a b03d
000000e0: b4af cf3b 351f 7abd 4d4e c8bd 8f93 aabb
000000f0: bed9 dabc bdb5 883d 6283 37bd 68fa 60bd
00000100: e881 8bbc ff74 033a e711 74bc c89a d9bc
00000110: 4f01 043d 6dba b63c 6db6 8d3d f43e 93bd
00000120: c1ae 4b3d 3252 99bd f820 fcbc 7fb8 063b
00000130: a1ea 333d 5835 3dbc e0a8 303c 37b6 0a3e
00000140: 6d0a 78bd cd7c d7bd 33b1 cfbc 16cd 7cbb
00000150: 8e7c 85ba e454 0ebd 8120 fc3c 71a7 963c
00000160: d0fe 713b f1cc 14bd 66b9 9a3c 7923 6a3d
00000170: 34f6 f33c 9d53 cbbc bfe5 63bc 7dcd 41bd
00000180: b824 a53c 2b50 543d 6cb7 b83d 86e1 ecbd
00000190: f8cf 8fbb bd4e 423d 12cc 6e3c ec8e d5bd
000001a0: 6efd 833d df68 923c 78ce 7fbc 46e7 d93c
000001b0: 3e59 a43b 8613 4d3c 7b8c 75bd 0ed0 35bd
000001c0: 8562 653c fe8f 953d 98b5 473d 013a 013d
000001d0: 4a86 003c f275 b1bd e24a 033b 9c82 ac3c
000001e0: 9aec 203d 6b46 813d a971 26bd 4fee 0838
000001f0: 09cb e53c ed86 a53d b972 07be d29c b2bd
00000200: ab52 013d 9a77 b7bd b497 14bd 6266 b63a
00000210: e68a 883c 1081 023d 3f61 2bbc bb32 cebb
00000220: 46d4 4e3d a4b5 2ebd 526d 8dbe 6865 0d3d
00000230: 5dac 79bc 8966 fbbc 5018 8dbd 006a 923d
00000240: 0006 71bd cc89 0abc 681b ed3b 6e96 84bd
00000250: 407c eebc 95f5 c53d 0c1b aa3d c70b 883c
00000260: 30f6 4e3d 264d 35bd 3182 f6bc 09b7 513d
00000270: c152 673c 5bf1 823d 1768 5fbd ee79 c93b
00000280: 7bc7 36bd 0740 1a3d f1c0 7ebd c600 923d
00000290: 940b 853d 7bf2 81bc 419d 7d3d 58eb 2e3b
000002a0: 1714 393c 2367 243d 09c3 b63c 9983 79bd
000002b0: 9454 0ebe 9cbf 653b ec5b 1e3d 8b5e 4fbd
000002c0: 6ab5 a83d b907 1cbd 3962 163d 9f71 16bd
000002d0: b12d 8c3d e432 d7bb dae7 41bd 2abd 49bc
000002e0: 70af 9bbd c4b9 adbd de3d 113d 0328 103d
000002f0: 52b9 2f3d 3187 a4bd acaa 5dbd 4737 aebc
00000300: 6800 dd3c 950f 30bb 2aed 323d 253d b93c
00000310: f102 96bd 1074 89bc f4d4 0bbd 1f4c 023c
00000320: 0342 0bbd fdcb 77bd e6c0 133b 541e d83c
00000330: 761f 753b 22c8 f7bd 7c6a 723d 0316 f13c
00000340: e03b 50bc 87d4 85bc c933 30bd 1a77 493d
00000350: 3b02 df3d 3971 4cbc c1f7 a33b 5b04 9ebd
00000360: 3bd5 fa3c ba7b 27bc a1a5 243d 29ab 0a3d
00000370: f43b a53d 3668 9e3d ddb4 26bd 24a1 96bd
00000380: ebc3 5cbc 5cda d23c 1086 d13c 4efb 1dbb
00000390: 3547 73bd 3028 18bd 8eb1 8abd 2ff1 b1bd
000003a0: 1f31 efbb 90cb 033c 339c 9f3d 8133 97bd
000003b0: 39da c23c ed3a 88bd afea 153e e8f6 0dbd
000003c0: ccdf c9bd af14 0b3c 42a5 143c b0a7 cebc
000003d0: 1e37 55bd 6c3e f7bb f734 a2bc ae05 0dbd
000003e0: 338e 4a3d eda0 89bd f781 8ebb a7e6 843d
000003f0: 4db6 883c 6260 163c 2198 8dbd e533 223d

fc2.bias f4 [256]
-0.02117309 -0.047504276 0.0049268864 0.021458874 0.011209714 -0.053359468 0.06836505 0.038659
-0.03754712 -0.026136918 -0.006116941 -0.001486478 0.056215983 0.017008394 0.016822146 0.009370081
0.11198606 -0.0040452783 -0.03140935 -0.031338833 -0.013951576 -0.019057933 0.025645673 -0.041758634
0.040867954 0.06500528 -0.025893003 0.05048968 0.045061354 0.091105916 0.0037708718 0.080166765
0.05280032 -0.006201878 0.03625853 -0.0005025639 -0.0020571605 -0.0025388715 -0.007191535 -0.045039155
-0.06280599 -0.07087639 -0.07353601 0.047568362 -0.060236372 0.038853843 0.006158813 -0.04794994
0.0442437 0.005362662 0.004054281 0.038476244 0.015650509 0.05153126 0.012326674 0.066362455
0.010930357 0.020826219 0.039559722 0.036391687 0.039801776 0.047785874 0.05157371 -0.04843533
0.011192643 -0.012151243 0.068036206 -0.06534215 -0.013150018 0.08503416 -0.06011769 -0.016502196
-0.01726063 0.022908423 0.03427058 -0.02007255 -0.102185376 0.05216228 -0.11119205 0.023965472
-0.005608025 0.019631589 -0.011891554 -0.027725225 -0.097014196 0.037533022 0.008431116 0.07796693
-0.017857939 0.043511957 -0.017469782 -0.007702357 0.006761499 -0.044343416 0.009943784 0.06788576
-0.05663675 -0.010723072 0.0053736474 0.028439559 0.03426416 -0.05156563 -0.023676943 -0.053234946
-0.02473161 0.06564488 0.037626218 0.012871368 -0.020810472 -0.047185976 -0.0048801834 0.01752193
-0.021744035 -0.010102083 -0.027847186 -0.038524717 -0.021832168 0.04329993 0.11375622 0.03373477
0.0147807505 -0.051376883 -0.025467923 0.047825065 -0.03392826 -0.012132264 0.03883733 0.030780599
-0.042628046 0.009353567 0.03517805 -0.015670767 -0.044708848 -0.02105761 0.023860937 -0.077050254
-0.001371149 0.010582826 -0.038409818 -0.07207152 0.038204364 0.0072255484 -0.062351182 0.017629363
-0.057171684 0.073578164 -0.025387404 0.020944582 -0.07489687 -0.037310693 0.0027751147 -0.07014289
0.018487006 -0.086558685 0.039387725 -0.030825432 0.014925222 0.0047183894 -0.007772463 -0.06416155
0.03363251 -0.014114276 -0.06425285 0.051945236 0.036012292 0.00037078967 0.0037575285 -0.045562185
-0.025849069 -0.027070548 -0.0026882933 0.054030735 -0.00359456 -0.016149793 -0.03014969 -0.046296418
0.01117952 -0.0019349765 0.093837224 0.025543766 0.04040061 0.062434968 0.028700313 -0.07235282
-0.08078205 0.053877678 -0.028604342 0.013058974 0.0457625 0.031332124 0.03417105 0.11088298
0.010250183 -0.015078745 0.035223875 0.054321513 -0.07988714 0.030898917 -0.0065231817 0.044972405
0.029126015 -0.031330593 -0.011751207 0.0016494134 0.00027073416 0.045605257 -0.021769855 0.051017616
-0.03459134 -0.05311861 0.032839935 0.02097432 -0.013404654 0.029828068 0.00534207 -0.010798389
-0.018264372 -0.04178498 -0.027706055 0.014357808 0.05291649 0.04128534 0.10396463 -0.045267664
-0.029973919 -0.04266607 -0.048609156 0.059446394 -0.009506516 -0.029943107 0.04037462 -0.036361232
-0.040618338 0.031048879 -0.05463736 -0.03231387 -0.018762084 -0.06443342 0.03870041 0.0009812695
0.02893509 0.033654895 -0.030726496 0.011346701 -0.032081198 -0.04903257 -0.003438029 -0.0043303934
-0.12952778 -0.041310906 -0.028197762 -0.094458945 0.006939821 0.012880088 0.01863007 0.014378137
00000000: 3073 adbc d893 42bd b871 a13b 85ca af3c
00000010: f3a8 373c 758f 5abd fa02 8c3d e658 1e3d
00000020: 02cb 19bd 171d d6bc 9f70 c8bb edd5 c2ba
00000030: bb42 663d 3055 8b3c 99ce 893c f884 193c
00000040: f358 e53d 418e 84bb 17a7 00bd 265d 00bd
00000050: 2795 64bc 621f 9cbc e016 d23c 1a0b 2bbd
00000060: 2865 273d 7d21 853d 901d d4bc 44ce 4e3d
00000070: 4192 383d bd95 ba3d bb20 773b 792e a43d
00000080: 2645 583d 2039 cbbb d383 143d 7ebe 03ba
00000090: 6dd1 06bb 3263 26bb f8a6 ebbb fa7a 38bd
000000a0: 6da0 80bd a427 91bd 0c9a 96bd 0bd7 423d
000000b0: 6aba 76bd 3525 1f3d decf c93b 2867 44bd
000000c0: e238 353d 45b9 af3b c6d9 843b 4499 1d3d
000000d0: 7f35 803c 7112 533d d1f5 493c 0ae9 873d
000000e0: 3d15 333c bf9b aa3c 6009 223d 730f 153d
000000f0: 3007 233d 1fbb 433d f43e 533d 2064 46bd
00000100: 5961 373c 0216 47bc 9156 8b3d 1bd2 85bd
00000110: 2c73 57bc 6426 ae3d f83d 76bd 9d2f 87bc
00000120: 2a66 8dbc 72aa bb3c 4f5f 0c3d 306f a4bc
00000130: 9146 d1bd 1da8 553d a8b8 e3bd 3d53 c43c
00000140: 86c3 b7bb 6dd2 a03c cbd4 42bc 0320 e3bc
00000150: 61af c6bd 3abc 193d aa22 0a3c 20ad 9f3d
00000160: d04a 92bc 9839 323d ca1c 8fbc 0e64 fcbb
00000170: 918f dd3b 71a1 35bd 41eb 223c b007 8b3d
00000180: f0fb 67bd d3af 2fbc 6c15 b03b 14fa e83c
00000190: 9358 0c3d 7b36 53bd 26f6 c1bc e30c 5abd
000001a0: f299 cabc d370 863d f31d 1a3d 6ee2 523c
000001b0: b97a aabc 1546 41bd f2e9 9fbb 278a 8f3c
000001c0: 8c20 b2bc 3583 25bc c81f e4bc 18cc 1dbd
000001d0: 60d9 b2bc 445b 313d 05f9 e83d 782d 0a3d
000001e0: f62a 723c 9170 52bd 1ba2 d0bc 37e4 433d
000001f0: 5cf8 0abd 67c6 46bc e413 1f3d 9827 fc3c
00000200: bf9a 2ebd b43f 193c dc16 103d fb5f 80bc
00000210: a020 37bd 0281 acbc 0378 c33c 86cc 9dbd
00000220: 20b8 b3ba 9763 2d3c 9d53 1dbd 3c9a 93bd
00000230: 2e7c 1c3d 4bc4 ec3b f463 7fbd 746b 903c
00000240: db2c 6abd 26b0 963d 3ff9 cfbc f993 ab3c
00000250: 8863 99bd 19d3 18bd b3de 353b 13a7 8fbd
00000260: 1072 973c ae45 b1bd 0655 213d 9e85 fcbc
00000270: eb88 743c b89c 9a3b 25b0 febb 2167 83bd
00000280: 3ec2 093d 903f 67bc 0097 83bd 87c4 543d
00000290: a081 133d 8c66 c239 de40 763b 6a9f 3abd
000002a0: 6dc1 d3bc 0ec3 ddbc 142e 30bb 554f 5d3d
000002b0: b692 6bbb 924c 84bc 7cfc f6bc 50a1 3dbd
000002c0: 4e2a 373c 0a9f fdba bb2d c03d 2941 d13c
000002d0: 1c7b 253d cfbb 7f3d eb1c eb3c b72d 94bd
000002e0: 0f71 a5bd d7ae 5c3d a753 eabc 4ff5 553c
000002f0: 7671 3b3d 1d56 003d f1f6 0b3d 9e16 e33d
00000300: 62f0 273c d70c 77bc e946 103d 3c80 5e3d
00000310: de9b a3bd ba1f fd3c 6ac0 d5bb fc34 383d
00000320: ae99 ee3c 8254 00bd 2288 40bc 2131 d83a
00000330: 53f1 8d39 94cc 3a3d b256 b2bc d9f7 503d
00000340: a6af 0dbd e692 59bd 2b83 063d 56d2 ab3c
00000350: 329f 5bbc fe59 f43c 880c af3b baeb 30bc
00000360: 2a9f 95bc ba26 2bbd cff7 e2bc 033d 6b3c
00000370: f6be 583d d11a 293d 68eb d43d 966a 39bd
00000380: dd8b f5bc 9ec2 2ebd 651a 47bd 107e 733d
00000390: 38c1 1bbc 3f4b f5bc dc5f 253d 84ef 14bd
000003a0: 6a5f 26bd 385a fe3c 6dcb 5fbd 8c5b 04bd
000003b0: f1b2 99bc abf5 83bd 5284 1e3d f19d 803a
000003c0: 4809 ed3c b7d9 093d 22b6 fbbc 83e7 393c
000003d0: 9367 03bd 60d6 48bd 8e50 61bb f9e5 8dbb
000003e0: eea2 04be a035 29bd fefe e6bc b173 c1bd
000003f0: 7067 e33b 0107 533c 179e 983c 4792 6b3c

fc3.weight f4 [1, 256]
0.0132991085 -0.028894197 0.056248643 -0.022120396 0.047455847 -0.032685135 0.08196226 0.026643027
-0.024949217 -0.026771 -0.17585236 0.013154694 0.012836788 -0.014812116 0.06527045 0.010146608
0.073403135 -0.034805432 -0.017205782 -0.028605409 0.008650505 -0.071320996 -0.027894614 0.050848946
-0.010269218 0.015598241 0.026017584 0.020744858 0.022260733 0.025124108 -0.0223333 0.055907417
-0.013399717 -0.019564115 -0.01923494 -0.023967894 -0.023723535 0.03509933 0.025958937 -0.027876707
-0.027964093 -0.026990118 -0.04237117 0.038516626 -0.021207308 0.06432438 -0.030396335 -0.021466084
0.11453817 0.041546375 -0.021413969 -0.039635994 0.015488365 -0.04026592 0.013305371 0.026579881
0.027326405 -0.021274203 -0.1246684 -0.009378449 -0.13088354 -0.024466258 0.026592301 -0.021090116
0.082657166 -0.025481429 0.039315514 -0.05563636 0.035565566 0.036421742 -0.020183085 -0.009670534
0.018977566 -0.0076738456 -0.01668255 -0.07426659 -0.027693417 -0.04903421 0.029443651 -0.014129929
0.018372979 0.022482209 -0.035078276 0.022134367 -0.06162045 -0.0073060854 0.050845686 0.07423565
-0.026615188 -0.008486253 -0.07232097 0.018836398 -0.010641819 -0.034910385 -0.011704935 0.034483954
0.046162836 -0.029045954 -0.04459881 0.014087496 0.01423437 0.10598586 -0.02312103 -0.049069278
-0.02934986 0.018168215 0.035233114 0.07880921 0.03567026 -0.040765487 -0.013383021 -0.030061403
-0.028328547 0.04799472 -0.04517631 -0.097493194 -0.032843843 0.13026471 0.06053673 -0.09845293
-0.013708433 0.0131648155 -0.025417976 0.018895445 0.05470501 -0.018719133 0.022436574 -0.028152475
-0.024020325 -0.024353717 0.107720226 -0.014962706 0.021451643 -0.026938865 -0.022593737 -0.09731465
-0.029657958 -0.058557995 -0.018511634 -0.019775834 0.048084084 0.15978721 -0.017530479 0.021786269
0.017405003 0.01994227 -0.027453268 -0.31698984 -0.018173616 0.01621205 0.04061955 -0.034905918
-0.014105927 0.025156913 -0.012213689 -0.043815594 -0.013593224 0.014461422 -0.015062072 -0.026953587
-0.023467245 -0.042015243 -0.018414915 0.035414442 0.017429631 0.019852772 -0.007402888 -0.010575933
-0.043804567 0.01576969 -0.040818512 0.03364512 -0.043667406 0.021773841 -0.026270058 -0.024648545
-0.0279942 -0.022485144 0.18260242 0.015327674 0.025184412 0.021474576 0.15304048 -0.03225706
-0.086118706 0.019375015 -0.018284665 0.024418008 0.022351457 0.027668025 0.026448973 0.059887454
-0.041686382 -0.019962812 -0.01887532 0.038545847 -0.13873708 -0.014482529 -0.06337326 -0.005239105
-0.032435812 -0.03383636 0.018624527 0.02464663 -0.015262944 0.06634258 0.16114709 0.015890349
-0.014055572 -0.01601104 0.08572718 0.013313685 0.0503514 0.021432865 0.014939123 -0.015312817
-0.05504332 0.015571409 -0.052907046 -0.010496095 0.019334972 0.024088407 0.033339947 0.045968298
-0.035037722 -0.05045166 0.03687767 0.047805663 0.015081489 0.02159863 0.028805612 0.015266027
-0.024180688 -0.034078293 -0.056540232 -0.019682758 -0.03296281 -0.06441142 -0.07997252 0.033197805
-0.011414749 0.043132056 -0.012085474 -0.048865717 -0.021871757 -0.01931478 0.017771259 -0.047731616
0.035292733 -0.041927665 -0.070896395 -0.016848968 -0.016827844 0.01858842 0.015032265 -0.010034816
00000000: 81e4 593c 86b3 ecbc fa64 663d d535 b5bc
00000010: 1061 423d d9e0 05bd d4db a73d 7a42 da3c
00000020: 4d62 ccbc db4e dbbc a412 34be c986 573c
00000030: 6451 523c 84ae 72bc 84ac 853d f53d 263c
00000040: 6254 963d 2490 0ebd 24f3 8cbc e455 eabc
00000050: d9ba 0d3c be10 92bd 3f83 e4bc fc46 503d
00000060: 3940 28bc c48f 7f3c d422 d53c 1ff1 a93c
00000070: 245c b63c 13d1 cd3c 53f4 b6bc 2dff 643d
00000080: 7d8a 5bbc ec44 a0bc 9892 9dbc 5158 c4bc
00000090: dc57 c2bc 51c4 0f3d d6a7 d43c b15d e4bc
000000a0: f414 e5bc 611a ddbc 648d 2dbd 9cc3 1d3d
000000b0: f3ba adbc 80bc 833d bc01 f9bc a4d9 afbc
000000c0: fd92 ea3d 882c 2a3d 596c afbc 5a59 22bd
000000d0: e9c2 7d3c e1ed 24bd c5fe 593c 0dbe d93c
000000e0: a0db df3c 3d47 aebc 2552 ffbd 11a8 19bc
000000f0: 5606 06be 766d c8bc 19d8 d93c 2ec5 acbc
00000100: 2948 a93d 6ebe d0bc 4e09 213d f4e2 63bd
00000110: 33ad 113d f72e 153d ff56 a5bc 2971 1ebc
00000120: d776 9b3c e274 fbbb d8a9 88bc 1519 98bd
00000130: 4edd e2bc 19d8 48bd d033 f13c 3881 67bc
00000140: ee82 963c 9c2c b83c 3dae 0fbd 2253 b53c
00000150: ba65 7cbd e367 efbb 9143 503d dc08 983d
00000160: 1808 dabc ed09 0bbc 041d 94bd ca4e 9a3c
00000170: 065b 2ebc 31fe 0ebd 0ec6 3fbc 0c3f 0d3d
00000180: 3e15 3d3d c8f1 edbc 3ead 36bd 3ecf 663c
00000190: 4637 693c 1d0f d93d 5068 bdbc defc 48bd
000001a0: 1e6f f0bc 82d5 943c 9950 103d b966 a13d
000001b0: fb1a 123d b6f9 26bd 7544 5bbc 5543 f6bc
000001c0: 4511 e8bc 1d96 443d cb0a 39bd 83aa c7bd
000001d0: 4487 06bd 1d64 053e 5df5 773d b1a1 c9bd
000001e0: 5699 60bc 3db1 573c 5c39 d0bc 9fca 9a3c
000001f0: 5c12 603d de58 99bc e8cc b73c 05a0 e6bc
00000200: 46c6 c4bc 7281 c7bc 6c9c dc3d 2326 75bc
00000210: 5bbb af3c e5ae dcbc 8016 b9bc e74c c7bd
00000220: 3ff5 f2bc 82da 6fbd b6a5 97bc ee00 a2bc
00000230: d1f3 443d 429f 233e 149c 8fbc 1e79 b23c
00000240: f094 8e3c f95d a33c ade5 e0bc 7e4c a2be
00000250: d6e0 94bc 22cf 843c af60 263d 82f9 0ebd
00000260: 8c1c 67bc df15 ce3c ed1b 48bc fb77 33bd
00000270: 1db6 5ebc 9aef 6c3c e9c6 76bc c5cd dcbc
00000280: 613e c0bc 2d18 2cbd e0da 96bc bc0e 113d
00000290: 96c8 8e3c 48a2 a23c ed93 f2bb ae46 2dbc
000002a0: 6b6c 33bd 702f 813c 5031 27bd 77cf 093d
000002b0: 98dc 32bd 0e5f b23c 4e34 d7bc bfeb c9bc
000002c0: 1854 e5bc c432 b8bc 21fc 3a3e ed20 7b3c
000002d0: 8a4f ce3c 73eb af3c a5b6 1c3e fb1f 04bd
000002e0: 015f b0bd 5ab8 9e3c b9c9 95bc 4608 c83c
000002f0: 671a b73c 0ea8 e23c 84ab d83c 8c4c 753d
00000300: 57bf 2abd 0d89 a3bc 6aa0 9abc 40e2 1d3d
00000310: 1811 0ebe 2148 6dbc d7c9 81bd ccac abbb
00000320: 6adb 04bd ff97 0abd 7792 983c bbe7 c93c
00000330: 6d11 7abc 9ede 873d be03 253e 7a2c 823c
00000340: 5849 66bc 9629 83bc bb91 af3d a421 5a3c
00000350: 453d 4e3d fa93 af3c 39c3 743c 9ce2 7abc
00000360: 1b75 61bd 391f 7f3c 0fb5 58bd d0f7 2bbc
00000370: 6064 9e3c 0d55 c53c 788f 083d 4149 3c3d
00000380: b783 0fbd 66a6 4ebd 0a0d 173d dfcf 433d
00000390: 5a18 773c 9cef b03c bff9 eb3c 5c1e 7a3c
000003a0: 9416 c6bc ae95 0bbd bb96 67bd bc3d a1bc
000003b0: 0304 07bd 22ea 83bd a2c8 a3bd 6cfa 073d
000003c0: ed04 3bbc 3dab 303d 2702 46bc 6b27 48bd
000003d0: 662c b3bc 083a 9ebc 0895 913c 3a82 43bd
000003e0: 1d8f 103d 58bc 2bbd 2132 91bd d906 8abc
000003f0: 8cda 89bc be46 983c e449 763c 1269 24bc
