checkpoints/checkpoint_critic_ddqn_13.pth (torch_old, 304178 bytes, 5 tensors)

fcs1.weight f4 [256, 33]
000000 72 d9 77 bc 85 72 09 3d 22 9f a0 3b ee 25 1d bd
       -0.015127527 0.03355648 0.0049017826 -0.03836625
000010 00 98 08 3d eb df 00 3c 25 00 e0 3c bb 03 99 bc
       0.033348083 0.007865886 0.027343819 -0.018678537
000020 16 29 cf bd f5 5a 8e bd fb 85 bc 3c b0 5b e7 3b
       -0.101152584 -0.069509424 0.023013106 0.0070604905
000030 35 ad 16 bc fd fc 2d 3d 92 95 1d bc bf 94 2b 3c
       -0.009196569 0.042477597 -0.00961818 0.010472476
000040 3d d0 88 3d 05 e4 91 bd 55 34 4e bb 76 0e f3 bc
       0.06680343 -0.071235694 -0.0031464298 -0.029669981
000050 97 e4 d5 ba e4 ef 4e 3d d3 46 78 3c 78 a2 43 3d
       -0.0016318735 0.050521746 0.015153605 0.047762364
000060 26 75 2e bd 7e c4 78 3d 2f 85 32 bd 02 3f 02 3e
       -0.04259219 0.060734265 -0.043584045 0.12719348
000070 c1 8d 01 bc e8 43 51 3d 58 93 03 be 44 17 a6 3c
       -0.007907332 0.05109015 -0.12849176 0.020274766
000080 a0 d0 88 be be cd 87 bc 2d 1c a7 3d 92 7e 00 3d
       -0.26721668 -0.016577598 0.08159671 0.031370707
000090 b1 13 85 3c 66 d8 83 bc 29 a7 56 3d 6a 27 34 3d
       0.016244741 -0.016094398 0.05240551 0.0439829
0000a0 f9 8b 2e bd 58 21 b1 bb a5 14 17 3d b9 90 0a 3d
       -0.042613957 -0.005405586 0.036884923 0.033829425
0000b0 5c 9f 05 bb 24 84 93 bc a3 8a 02 3e 39 31 a0 bd
       -0.0020389175 -0.018007345 0.12748198 -0.078218885
0000c0 91 c1 f3 bc 85 f9 b6 3c 77 78 2a 3c 2f 4a 69 3b
       -0.029755386 0.022335777 0.010404698 0.0035597195
0000d0 ab bf 94 bc 80 ea 32 3c 36 41 01 bd ce 63 61 bb
       -0.0181578 0.010920167 -0.03155633 -0.0034391764
0000e0 73 73 20 3c 9d 05 95 bc 91 81 75 bc 2c f4 af bd
       0.00979315 -0.018191153 -0.014984504 -0.08591494
0000f0 ff 2e c9 3d bb d4 92 bc c8 8d 3b 3c aa 50 e1 bc
       0.09823417 -0.017923703 0.0114473775 -0.027504284
000100 4c ed 0a 3d a0 27 af 3d 89 76 82 3c 37 4f 78 3b
       0.03391771 0.0855248 0.015925663 0.0037889013
000110 e6 b3 d3 3c e4 0e 54 bd 1e a6 30 3d 22 3b c7 bc
       0.025842618 -0.051772013 0.04312717 -0.024320189
000120 02 09 87 3d 81 e2 86 3c 68 bd 9c 3c 3f 5e 2a bb
       0.06593515 0.016465427 0.019133285 -0.0025996116
000130 d6 dc 17 3c 95 c7 95 3c ef 33 a3 3b 7b 05 06 3d
       0.00926896 0.018283645 0.004980556 0.03272007
000140 f0 a1 d4 3c 43 50 21 bb 89 00 25 3d a8 a3 58 3d
       0.025956124 -0.002461449 0.040283713 0.05289045
000150 82 9b ed bc bf b6 0e 3d 05 22 77 3c 46 b2 87 bc
       -0.029004816 0.03484225 0.0150837945 -0.0165645
000160 6c 03 d3 bc 2c fa b3 bb 3f e3 82 3b a3 cf 9d bc
       -0.025758468 -0.0054924693 0.003994375 -0.019264048
000170 a7 9b ef 3c 2d b6 94 ba 69 61 33 bd 86 9f 5b 3d
       0.029249026 -0.0011345797 -0.04379407 0.05361893
000180 1b a8 a9 3c d4 7f 97 3c db cf 80 bd 31 c4 79 3b
       0.020710042 0.01849357 -0.06289645 0.0038111324
000190 b2 f5 c5 3b 5d 2c e0 3c 87 80 e0 3c 00 4f 2d bd
       0.006041252 0.027364904 0.027405037 -0.04231167
0001a0 16 a3 88 3c 4c 36 80 3d 5e db 05 3d 12 56 8f 3c
       0.016679328 0.06260356 0.032679908 0.017497096
0001b0 46 e6 ae 3d 91 72 08 3c e1 91 1d b7 ab 29 5f b8
       0.08540015 0.008328096 -9.391894e-06 -5.320615e-05
0001c0 ee 0a 0c 3d 75 d3 e7 bc 31 12 0b be a9 0b 83 bc
       0.03419011 -0.028299073 -0.13581158 -0.015996771
0001d0 74 d3 54 bc 1d ac ea bc 23 f1 ee 3c 43 57 1c bc
       -0.0129898675 -0.028646523 0.029167717 -0.009542289
0001e0 c6 0e ca bc 96 68 70 3b a3 19 15 3c 2b d8 9d bc
       -0.024665248 0.0036683432 0.009100351 -0.019268116
0001f0 d3 32 96 bc 89 93 84 3c 6d 2e d6 3c 1d 55 c9 3d
       -0.018334782 0.016183631 0.026145184 0.09830687
000200 d0 3c 78 bc 38 e0 8b 3b 84 ef b6 bc 97 b8 95 3e
       -0.015151218 0.0042686723 -0.022331007 0.29242393
000210 50 01 4e bd ce 10 c0 3c 3b c6 87 bc 54 f1 d9 3c
       -0.05029422 0.023445513 -0.016574016 0.026604332
000220 30 66 80 bc 6e 97 96 bd 20 ae 59 bd d0 bb ce bd
       -0.015673727 -0.07353102 -0.053144574 -0.10094416
000230 5f 89 ad 3d 02 e7 d0 3b 4e e0 a6 bb 02 84 00 3d
       0.08473467 0.0063751945 -0.005092657 0.031375892
000240 cd 1a 15 3c ed 77 40 3d 9c b8 cb 3d 92 80 f4 3b
       0.009100628 0.04698937 0.09947321 0.007461616
000250 b3 a3 76 bc 61 a4 0b bd ff 0d c1 3c bb 34 98 3c
       -0.015053677 -0.03409231 0.023566244 0.018579831
000260 9b 1e 8d 3c ce 38 cf 3c 2a 2e b4 ba ef b4 20 bd
       0.017226508 0.025295641 -0.0013746668 -0.03923505
000270 50 ff a4 bc 49 6b c4 3b b5 c5 71 3c a7 a1 8f 3c
       -0.020141274 0.0059942347 0.01475661 0.017533137
000280 20 4e 2c 3b 00 55 3b 3d a7 c4 d4 bb 20 99 2e bc
       0.0026291683 0.04573536 -0.0064931693 -0.010656625
000290 ff aa 2b be 4d d7 3e bd 6c c6 90 bd c1 f6 35 3c
       -0.16764449 -0.046592046 -0.07069096 0.011106194
0002a0 52 ff 0f bc 0b a7 6c 3d d2 43 54 bd fb ea db bd
       -0.0087889 0.057776492 -0.05182249 -0.10738178
0002b0 ea a8 d6 3b dc 46 a5 3d d9 05 08 bd d4 f9 06 3d
       0.006550898 0.08070156 -0.0332087 0.0329531
0002c0 c5 a9 df bc 42 b3 62 bb bf 01 55 3d 79 62 2d 3d
       -0.027302632 -0.003459171 0.05200362 0.04233024
0002d0 8a d9 89 bd af 97 4b bb 95 ce d0 3b d9 a5 1b bd
       -0.067309454 -0.0031065752 0.0063722827 -0.03799996
0002e0 28 35 9c bc 73 6b b1 bc 75 6c 17 bd fe b7 a4 bc
       -0.019068316 -0.021657681 -0.036968667 -0.020107266
0002f0 73 77 26 bc 8a b5 9b 3b 26 09 15 bd 71 14 fc bc
       -0.010160315 0.0047518658 -0.036385678 -0.030771466
000300 0c 4a 67 3d 5c 9c a6 3c 74 40 34 3d 3f 4f a7 3c
       0.0564671 0.02033823 0.04400678 0.02042353
000310 30 e9 b1 3c 32 e4 76 3d df 19 88 bd e3 12 b0 3d
       0.021717638 0.060276218 -0.066455595 0.08597352
000320 d6 da 7e bd 02 17 d2 bb 5b 01 10 bd 53 fa 71 3d
       -0.062220417 -0.006411434 -0.035157543 0.05907662
000330 d0 ea 9b bc 58 4a 0a bd 4e 96 2e bb eb 3a 36 bc
       -0.019032866 -0.033762306 -0.0026639882 -0.011122446
000340 a5 28 b2 bc d1 b6 cc 3a e9 e0 f1 bc 87 cf c2 3d
       -0.021747896 0.0015618448 -0.02952619 0.09512239
000350 d6 2b 83 bd b3 41 04 3e 59 bf af 3c ec b9 2a 3c
       -0.064048454 0.12915687 0.021453546 0.010420304
000360 de e6 55 bd 57 fd 40 3d f0 39 85 3b 4e 57 85 bd
       -0.052222125 0.047116604 0.0040657446 -0.06510793
000370 ce d7 28 bc f1 b2 42 3d 3a 27 a4 bb 65 4c 4d 3d
       -0.010305358 0.047533933 -0.005009559 0.050121684
000380 a1 12 4e bd 7e e5 ca 3d 0d 52 b8 bd 9e 0d 58 bd
       -0.050310735 0.099070534 -0.09000025 -0.05274736
000390 21 23 27 3c e0 65 4f 3c a9 fc 9b 3d 08 45 28 3c
       0.0102012465 0.012658566 0.076165505 0.010270365
0003a0 9e a6 36 3c 03 96 40 bd f1 5d 4f bc d0 54 84 3d
       0.011148123 -0.047018062 -0.012656675 0.06461489
0003b0 c5 67 e0 bb 20 48 53 bc 4e 46 0b bd a1 2b 55 bd
       -0.006848308 -0.012895614 -0.034002595 -0.05204356
0003c0 25 ec 8e 3d 6f 2e 07 bc 5b f1 c2 bc 18 96 9a bd
       0.06978635 -0.008250817 -0.023796728 -0.07548159
0003d0 2b a8 04 3d 02 c3 1b 3a 93 ba b4 b9 ce 71 4d ba
       0.03238694 0.0005941839 -0.00034471284 -0.00078370876
0003e0 73 90 52 3d cd 86 c2 3c de e3 fe bc d3 24 68 bc
       0.05140729 0.023745919 -0.031114515 -0.014168936
0003f0 35 ec c8 3c 8d 1d ee 3c fb c0 0e 3d af 73 aa 3c
       0.024526695 0.029066825 0.03485201 0.020807115

fcs1.bias f4 [256]
000000 37 5a c9 bd 76 af 18 be 45 50 dd 3d e5 d3 e0 bd
       -0.0983166 -0.14910683 0.10806326 -0.10977916
000010 41 1a fc 3c fb 26 2e bd bf 6a 5f be 59 77 1b bd
       0.030774238 -0.042517643 -0.21818064 -0.037955616
000020 33 f9 82 bc 24 99 96 3d 93 6c 6e be 34 28 8b 3d
       -0.015987968 0.07353428 -0.23283605 0.067947775
000030 56 2b 9c bd 76 2a 04 3e 25 59 ba 3d 35 14 d1 3d
       -0.07625453 0.12906823 0.09099034 0.10208932
000040 c6 d3 a9 3b 10 c6 6c bd 03 e4 ed bd e0 57 40 be
       0.005182716 -0.057806075 -0.116157554 -0.18783522
000050 d1 40 70 bd a3 e9 4f be 3b 59 eb bc df 4f 1e 3e
       -0.058655564 -0.20303969 -0.028729072 0.15460156
000060 1c a6 11 be c7 e8 15 bc 6b d0 3c 3e 36 ef af bc
       -0.14223522 -0.009149737 0.1843888 -0.02147637
000070 e8 36 81 bd f5 73 14 be 4f 0a 00 be 50 95 9a bd
       -0.06309301 -0.14497359 -0.12503932 -0.0754801
000080 ee 68 a7 3d 51 eb 53 be bd 52 35 be f9 4b b6 3d
       0.081743106 -0.20695235 -0.17707343 0.089012094
000090 11 50 63 be 55 91 17 be 41 71 86 3b 11 c5 f3 3c
       -0.22198512 -0.14801534 0.0041028564 0.029757055
0000a0 7a 9b 72 be c9 a8 0a 3d 67 03 c0 3d 46 90 1e 3e
       -0.23692122 0.033852372 0.09375649 0.15484723
0000b0 c1 47 52 3d 52 23 ba bd 08 be ae 3d 05 41 37 bd
       0.05133796 -0.09088768 0.08532339 -0.04473974
0000c0 ac 9e f9 3d ef bf a8 3d d7 00 28 be 73 ce 04 3d
       0.121884674 0.082397334 -0.1640657 0.032423448
0000d0 6b 2f e6 bd 24 c9 89 bd 31 cd b6 bd ff 08 a8 3c
       -0.11239513 -0.06727818 -0.08925856 0.020512102
0000e0 76 a9 75 bd 35 f8 4c 3d 6d 03 5f be 81 15 08 3c
       -0.059976064 0.050041396 -0.2177865 0.008305908
0000f0 f5 d6 12 be 29 aa e9 bd dc ff e4 bd eb 85 19 3c
       -0.14339812 -0.114094086 -0.11181614 0.009370307
000100 44 f9 f9 bd 51 78 33 be 93 4d 19 3e 48 8f 5f 3d
       -0.12205747 -0.17526366 0.14970998 0.054580003
000110 7f e2 82 bc 48 73 37 be 6f 03 e3 3d 74 85 15 be
       -0.015977142 -0.1791507 0.11084639 -0.1460169
000120 08 c0 56 be 23 31 ac 3d 86 54 98 3d b7 d0 37 3d
       -0.20971692 0.084078096 0.074379966 0.04487678
000130 4f 68 28 be b6 6e 9c bd 59 0a 28 be 1c 48 58 bc
       -0.1644604 -0.07638304 -0.16410197 -0.013200786
000140 ee a9 19 3e 11 f3 75 bd 1f f9 4b be 26 72 ad 3c
       0.1500623 -0.06004626 -0.19919251 0.021172594
000150 6a 34 9b 3d c6 a2 c2 3d a3 1f 3b be 11 83 e2 bd
       0.075783566 0.09503703 -0.18273787 -0.11060155
000160 16 48 cd bd fb 1d ac 3d 1c 82 d7 bd a0 9d 71 bc
       -0.10023515 0.08404156 -0.10522863 -0.014747053
000170 0b 50 8b 3d f2 ab a1 3d 90 e5 c7 3a fa 7b ff bc
       0.06802376 0.07894124 0.001525091 -0.031187046
000180 d9 7d dd bc ae 56 15 be a5 09 d8 bd 85 75 f8 3d
       -0.027037548 -0.14583847 -0.105487145 0.1213179
000190 53 06 75 bc be 6e 56 3c d8 dd 1e 3c a2 66 0e 3c
       -0.014955121 0.013087926 0.009696446 0.008691462
0001a0 48 6a 00 3d 6e 59 ef bc 92 99 24 bd 7b ee 95 3c
       0.031351358 -0.029217448 -0.04018552 0.018302193
0001b0 c8 61 51 bd ee 41 26 3c 12 df 04 3e 84 a5 b5 bd
       -0.051118642 0.010147555 0.1297572 -0.0886946
0001c0 39 c1 6a be 27 68 4e be 80 dd a2 3b c0 ea f2 bc
       -0.22925271 -0.20156918 0.0049702525 -0.029652953
0001d0 08 78 7e bd ad 29 a3 bd 5c e6 8a 3d 0f 0c 73 bd
       -0.06212619 -0.079669334 0.06782219 -0.05933767
0001e0 3b 8e b5 3d 69 94 bf 3d 4f cc 80 bd 73 50 b5 3d
       0.08865019 0.09354479 -0.06288969 0.08853235
0001f0 1c 28 a0 3d f5 0d 9e 3b 04 cd 2c be 72 ef ab bd
       0.0782015 0.004823441 -0.16875082 -0.0839528
000200 68 6f dc bd 1e 0a 70 be 75 54 01 be f8 96 cb bd
       -0.107634366 -0.2344136 -0.12629874 -0.099409044
000210 32 9d 4b 3d 00 11 c1 bd c8 40 9a bd 03 56 24 bd
       0.04971046 -0.094270706 -0.07531887 -0.04012109
000220 82 a8 1d 3c d2 ae 56 be 0c e2 0b be 03 c5 5f bd
       0.009622695 -0.20965126 -0.13660449 -0.054631244
000230 a5 9c d9 bc d0 d8 86 bd 98 04 20 3d 57 db 3c bd
       -0.026563952 -0.065843225 0.03906688 -0.046107616
000240 a5 cf ad bd 0e 10 e6 bd 0d 84 0b be 6c c7 f8 3d
       -0.08486871 -0.11233531 -0.13624592 0.12147412
000250 77 bd 47 3b 17 81 45 be 8b c3 03 be dd 43 bd 3c
       0.003047792 -0.19287525 -0.12867562 0.023103649
000260 5d 29 21 3c e0 20 cd bd 6e 0f 49 bc 52 22 b6 bc
       0.009836522 -0.10016036 -0.012271745 -0.022233162
000270 30 27 1c be ec 85 a5 3c 4a 4e 15 be 16 17 12 be
       -0.15249324 0.02020546 -0.14580646 -0.14266619
000280 cb 7d 38 3b a4 55 f4 bd 70 0d 1b 3d 61 ce cd 3d
       0.002815115 -0.11930397 0.037854612 0.10049129
000290 62 8f 66 3d 3f fb d4 bd 66 25 92 bd 58 eb ba bd
       0.056289084 -0.10399484 -0.071360394 -0.091269195
0002a0 9c 1a 09 be 79 c8 0d be b6 11 c0 3d 76 ac a8 3d
       -0.13389057 -0.13846005 0.09378378 0.08236019
0002b0 6c f4 ac bd e1 e6 9f 3c b9 6c 26 bd ac 28 4f 3c
       -0.08445057 0.019519271 -0.04063103 0.012643974
0002c0 24 b1 27 be d4 36 e1 bd 2c f9 dd bd e0 85 da bd
       -0.16376168 -0.10996786 -0.108385414 -0.10670066
0002d0 2c e0 bc bd 68 e4 94 3c ed 22 c9 bd 4d c1 2b be
       -0.09222445 0.018175319 -0.09821115 -0.16772957
0002e0 8d d1 25 bd 1c 99 3e 3c fc 25 1b 3d d7 7a de bd
       -0.040483046 0.011633184 0.03787802 -0.108632736
0002f0 20 05 db bd 76 88 5e 3d f2 fc 15 be 26 c9 82 ba
       -0.10694337 0.054329358 -0.14647272 -0.000997816
000300 1a 76 06 3d a8 db 96 bd ad 97 4e bd 1c c5 70 be
       0.032827474 -0.07366115 -0.050437618 -0.23512691
000310 ea fa 1d 3d 27 11 89 3d 7d 0c 5a be ac 03 e7 3c
       0.03856937 0.06692725 -0.21293826 0.028199993
000320 64 fd 19 3e 37 cf 0a 3e 96 20 bb 3b 4e 01 22 3e
       0.15038067 0.13555609 0.0057106717 0.1582081
000330 97 03 3a 3d 54 a8 3d be dc e8 2c be 2f ac 14 be
       0.04541358 -0.18521243 -0.16885704 -0.14518808
000340 03 eb 72 3c 64 a5 81 3d c5 b3 1e be 0a 8b 3c 3b
       0.014826539 0.06330374 -0.15498264 0.0028769397
000350 e9 ad 01 be e3 e5 f9 bc 01 0c 23 be 54 bc 4d 3c
       -0.12663998 -0.030505126 -0.15922548 0.012557108
000360 e9 31 be bd de 3e 3b be 17 b5 9e bd 45 53 d3 3d
       -0.09286863 -0.182857 -0.07749384 0.10318617
000370 7a 7a f5 3c 69 fc 4d be 3a 77 67 3d 29 9a 67 be
       0.029965628 -0.20115818 0.056510188 -0.22617401
000380 e5 a6 01 3e c2 a9 66 be b2 a3 95 bd 66 27 79 be
       0.12661321 -0.22525695 -0.07306613 -0.24331436
000390 cb c9 d3 bd 59 03 fd 3d 0b ae 46 bc ec 13 bb bd
       -0.10341223 0.12354154 -0.012126456 -0.09134659
0003a0 7f 95 df bd e0 0a 67 bb a5 50 2f bd 83 14 8f bc
       -0.10917186 -0.0035254285 -0.042801518 -0.017465835
0003b0 ed b6 c9 3a 5b d3 c7 3d aa f9 10 be ec 7d af bb
       0.0015389599 0.0975711 -0.1415774 -0.005355587
0003c0 1f 11 1d be 74 63 45 be 05 ef 1f bd d0 03 ed bc
       -0.15338562 -0.1927622 -0.039046306 -0.028932482
0003d0 fe 6d 3c bc 56 1c fc bd d2 25 10 3a 77 ff 12 3d
       -0.011500834 -0.12310092 0.00054988 0.03588816
0003e0 58 2d ec bc 14 05 bb 3d e2 b2 23 bc 5e 35 50 be
       -0.028830215 0.09131828 -0.009991379 -0.20332858
0003f0 96 94 ce bd 11 f0 3d 3d 75 fa dd bd 44 d6 56 be
       -0.10086934 0.046371523 -0.108387865 -0.20980173

fc2.weight f4 [256, 260]
000000 f4 2e cc bb 12 d4 48 bd a5 d0 f8 bc df 60 00 bc
       -0.006231183 -0.04903037 -0.030372927 -0.007835596
000010 1e db e7 3c 95 a6 69 bd bb 0f da 3d 7b 67 a8 3b
       0.028302725 -0.05704363 0.106475316 0.005139289
000020 b1 ff 5d 3c 98 e0 fd bd 99 c8 02 bd 5d 79 c1 bb
       0.013549731 -0.123963535 -0.031929586 -0.00590436
000030 e3 83 49 3d 98 33 5e 3d 66 af 3b bc 7f 49 64 bd
       0.049198043 0.054248422 -0.011455392 -0.055734154
000040 c6 18 88 bb 9f 62 35 bd 9a d4 e9 3d 58 48 ec 3d
       -0.004153344 -0.044283506 0.11417504 0.11537236
000050 d3 dc 25 3d 2d 6b c3 3d b8 48 22 bd e3 a4 b3 3c
       0.040493798 0.095419265 -0.03962013 0.02192921
000060 27 48 77 3d f4 43 58 bd 5e 06 55 bb 4b 66 41 3b
       0.060371544 -0.05279918 -0.0032505016 0.0029510434
000070 6d 4d 7b bd 48 c6 47 bd c8 93 a8 bc 48 06 20 bd
       -0.061353136 -0.04877308 -0.02057828 -0.03906849
000080 a7 65 87 3d 6f 4b 8b bd dc 38 ab 3d bf 18 80 bb
       0.066111855 -0.06801497 0.083604544 -0.0039092
000090 24 2e 5f be 05 98 4b 3d a2 2c 0d be ee 38 2f bd
       -0.21794945 0.049705524 -0.13786557 -0.0427789
0000a0 f0 64 13 3d e0 40 87 3d 96 35 d8 bc 6a 1c 37 3d
       0.035984933 0.06604171 -0.02639274 0.044704832
0000b0 2e 54 ef 3c a0 3b 04 bd 7d 6d 0c bd f3 32 df bd
       0.029214945 -0.032283425 -0.034284104 -0.1089839
0000c0 f6 0a e5 bc 69 58 a3 bd 7b 5d b3 bc bf b1 45 bd
       -0.027959328 -0.07975847 -0.02189516 -0.048265215
0000d0 95 3b 30 bc ce fd be 3d 06 01 b3 bd 11 ae 7b 3c
       -0.010756393 0.09325753 -0.087404296 0.015361325
0000e0 eb 9b 6d 3d 71 7d 1d be 26 7b 42 be 5a fd 34 be
       0.058010023 -0.15379883 -0.1899229 -0.17674771
0000f0 c1 4c 48 bd 1d 64 a7 3b 75 8b 32 3d b1 92 0b bd
       -0.048901323 0.00510837 0.043590028 -0.034075443
000100 b9 8e 71 be d8 28 34 be ea f4 bd 3d 40 10 f4 bd
       -0.235896 -0.17593706 0.09275229 -0.11917162
000110 ed fc 87 3d 10 fa 01 3d 2e a9 e7 3c 3c fc f0 3d
       0.06640039 0.03173262 0.028278913 0.1176686
000120 f6 62 ab bd 11 32 5a 3d 88 e1 16 bd a8 67 90 3c
       -0.08368485 0.053270403 -0.036836177 0.017627552
000130 58 99 a8 3d af 8a 93 bd e1 74 87 bc b5 54 c8 3b
       0.08232373 -0.07204186 -0.016535224 0.0061136135
000140 3e d9 c6 bd 3d f4 08 3a 57 f6 72 bc cc 43 41 3d
       -0.097094044 0.00052243826 -0.01482924 0.047183797
000150 d6 21 f7 3c ba 45 d0 bd 86 94 ab 3c 77 ce 12 bc
       0.030167501 -0.10169549 0.020944845 -0.008960358
000160 95 71 77 bc 1b 82 65 bd 4d 60 90 3d 9a cb e4 3c
       -0.015102764 -0.05603228 0.07049618 0.027929116
000170 49 3e f2 3c 0c a6 66 bc 57 17 8c 3d aa 49 f2 bd
       0.029570716 -0.014077675 0.06840389 -0.118304566
000180 b7 75 a2 bc 6c d9 2e 3d 78 5c 3e 3d ad 99 dc bc
       -0.019831521 0.04268782 0.046474904 -0.026928747
000190 18 72 6f bc 58 d8 51 bd 76 3d 80 bd b3 8b 94 bd
       -0.014614604 -0.051231712 -0.06261723 -0.07253208
0001a0 16 2c ee bc 7d e3 e1 3b e7 19 7b bd 0c 6f 57 3d
       -0.029073756 0.006893574 -0.061304 0.052596137
0001b0 e0 87 bd ba dd e6 09 bd 64 5f 37 3c 71 e2 9b bd
       -0.001446005 -0.033667434 0.0111921765 -0.0761155
0001c0 a1 59 e8 bd 07 9c c7 3b 50 7a 72 3c 43 bd 14 bc
       -0.1134522 0.006091598 0.014799669 -0.009078327
0001d0 43 86 06 be 2b c1 37 3e 68 eb e9 3b a8 b7 43 3d
       -0.13137154 0.17944781 0.0071386583 0.04778257
0001e0 bc 67 92 bc 66 b0 4e 3a 09 3f fc 3d d3 10 8e 3c
       -0.01787173 0.0007884562 0.123167105 0.017342007
0001f0 44 b2 84 3d 15 83 39 bc 56 77 93 bd 06 f6 19 ba
       0.06479314 -0.011322756 -0.07200496 -0.0005873147
000200 83 5c a1 bd 97 bb b2 bd ec 89 39 3c 55 d2 c6 bd
       -0.07878973 -0.08727186 0.011324387 -0.097080864
000210 fc 2f bc bc f9 78 ad 3b 60 de ba bd 7b e1 d1 bd
       -0.0229721 0.005293962 -0.09124446 -0.10248085
000220 b7 d7 43 3c 61 3e 97 bd c1 3e 8a ba b0 36 a1 3d
       0.011953286 -0.07384945 -0.0010547267 0.07871759
000230 22 a5 a9 bc b4 1b 0d 3c 5b f0 aa bd 55 e7 20 3d
       -0.020708624 0.008612562 -0.083466254 0.039283115
000240 97 74 c2 3d 9b 4f 83 bd 92 e8 40 bc ed d0 ab bd
       0.09494894 -0.06411668 -0.011774199 -0.08389459
000250 7a 1e 4f 3d a9 c1 a9 3d 1c 91 55 3d 6e f9 bd bd
       0.050566174 0.08288891 0.05214034 -0.092760906
000260 75 0b 2e 3b c2 40 b2 3d fe db fb bc 5d 6d 3e 3d
       0.0026557122 0.08703758 -0.030744549 0.046491016
000270 0f c3 21 be 94 89 2c 3d 1f b1 38 3d 3b 38 64 3c
       -0.15797065 0.042123392 0.04509079 0.013929422
000280 d8 c6 b9 bd c0 7c 6a 3d fa d4 29 bd f7 81 82 3c
       -0.090711296 0.057247877 -0.041462876 0.015931113
000290 44 cd cf 3c 8c ec 17 3d eb 26 dd 3c 9d 31 a9 bd
       0.025366433 0.037090823 0.026996097 -0.08261416
0002a0 df 0f ad 39 2a a5 88 3d cd bb 91 bc cb cb 66 3c
       0.00033008956 0.066721275 -0.017789746 0.014086674
0002b0 76 d4 fe bd 3f 06 78 3d 5b 62 a7 3d ef 71 60 3c
       -0.124428675 0.06055283 0.08173057 0.013699039
0002c0 6c a8 ff 3c f9 e3 38 be 22 ef 83 3d fa 8a 1f 3d
       0.03120824 -0.18055715 0.06442095 0.038950898
0002d0 5a 27 26 bd ec 73 06 3d 5a f3 e5 3c 9b 22 8e bc
       -0.040564872 0.032825395 0.02807014 -0.017350486
0002e0 70 67 c8 bd fb d3 ee bc 69 50 bc bb bc 27 23 be
       -0.09785354 -0.029153815 -0.0057468903 -0.15933126
0002f0 a2 66 87 3c c4 39 46 bd 91 8b 3d bd 55 94 92 bc
       0.016528431 -0.048394933 -0.04627568 -0.017892996
000300 ac 99 3f bd 10 85 73 3b 8c be 2d 3d 17 b2 89 3d
       -0.046777412 0.003715817 0.042418048 0.06723421
000310 89 9c 86 bd e9 4c 40 bd 49 f1 e6 3c 9f 81 aa 3b
       -0.065728255 -0.046948347 0.028191226 0.0052034403
000320 90 e7 86 bd 2a 42 98 bc 1f 2b bb bd 8f 5c 48 3a
       -0.06587136 -0.018586237 -0.09139084 0.0007643187
000330 a5 c7 1a bc ee 3a b9 bd 31 00 b9 3d 10 50 a2 3d
       -0.009447013 -0.09044443 0.0903324 0.07925427
000340 cd 25 98 bd 60 0b ac bc a2 a3 cb bd be b4 34 3d
       -0.07429085 -0.021001518 -0.0994332 0.04411768
000350 87 50 82 bd 41 f3 93 ba 7a da c7 3d 50 7e 56 3b
       -0.063630156 -0.0011287705 0.09758468 0.0032729097
000360 2d 2a 04 3e b4 81 31 bd fd 6e a2 bd 9c c8 8c bd
       0.12906714 -0.043336585 -0.079313256 -0.06874201
000370 11 fc 73 be f4 cb 20 bd 46 1f f9 bc 51 fa 2c bd
       -0.23826624 -0.039257005 -0.03041042 -0.042230908
000380 2c d1 3e 3d f9 82 32 3d 50 fc cd bd 14 d7 54 3b
       0.0465862 0.043581937 -0.100578904 0.003247683
000390 a3 65 df bc 4c 41 6d bd 9e 86 de bd bd 2e b3 bd
       -0.027270144 -0.0579236 -0.1086552 -0.08749149
0003a0 57 92 59 bd c7 2a 37 3d f4 37 b4 3c 48 2b bf bc
       -0.053118076 0.04471853 0.021999337 -0.023336068
0003b0 dc c9 24 be e0 eb 0e bd 69 fe 8e bd 9e 38 7b bd
       -0.16092628 -0.034892917 -0.06982119 -0.06133329
0003c0 c4 02 cd 3c c7 7a f7 3c 14 dd 8e bc eb 4f 14 be
       0.025025733 0.030209912 -0.017439403 -0.14483611
0003d0 a7 bf ec bd 12 48 24 bd 26 a5 ec bd 19 43 b4 bc
       -0.11559992 -0.040107794 -0.11554937 -0.02200465
0003e0 20 b7 d7 bd 2b da bf bd 18 97 6f 3d c6 0a ca 3c
       -0.10532975 -0.09367784 0.058493704 0.02466334
0003f0 1f d0 ac 3c 0a 7c 23 3d 29 52 05 bb a6 4e 4f bd
       0.021095334 0.039913215 -0.002034316 -0.050612114

fc2.bias f4 [256]
000000 6c c3 11 bd ab 71 6c bd 71 ee cf 3c 8a c3 0b 3d
       -0.03558676 -0.05772559 0.025382252 0.034122027
000010 62 b3 93 3b 56 16 7c bb 21 d6 86 3d 73 92 ab bc
       0.004507468 -0.0038465462 0.065838106 -0.020943856
000020 11 46 27 bd 5a 90 0f bd df e3 9c bc 28 33 10 3d
       -0.040838305 -0.035049774 -0.019151626 0.035205036
000030 7b 23 63 3d 22 a4 32 ba e9 71 19 3d 16 78 a7 3b
       0.05545376 -0.0006814619 0.03746215 0.005110751
000040 58 4a d7 3d 8e df af 3a 35 c2 c6 bc 00 13 04 bd
       0.10512227 0.0013418065 -0.024262527 -0.032244682
000050 3c 3a c2 bc cd 85 1c bd 46 35 a3 3c 6d 26 3e bd
       -0.023709409 -0.03821354 0.019922864 -0.046423364
000060 da 5f 25 3d 12 98 66 3d fb 44 03 bc ad 7d 70 3d
       0.040374614 0.05629737 -0.008012052 0.058713604
000070 1b 98 35 3d 46 d4 bd 3d 03 1a 7d bb ce 30 9b 3d
       0.044334512 0.092690036 -0.003862024 0.07577668
000080 44 e1 36 3d de 06 62 3b 40 59 a8 3c ad d4 8f 3d
       0.044648424 0.0034488956 0.02055037 0.070229866
000090 69 38 57 3c 1f dd fb 3c 0c 9e 9b bd 6a 07 3b bd
       0.013136008 0.030745087 -0.075985044 -0.045661367
0000a0 28 50 6e bd 84 75 44 bd 4f fb 82 bd b8 b8 23 3d
       -0.05818191 -0.047963634 -0.063955896 0.039971083
0000b0 9a d2 7c bd 73 04 62 3d 23 f8 84 3a c9 ca da bc
       -0.061724283 0.055180024 0.0010144751 -0.026708024
0000c0 13 98 08 bc 56 66 62 bb 4f ec e6 3b 6d c1 14 3d
       -0.008337039 -0.003454586 0.007047213 0.036317278
0000d0 35 75 2a 3c cb a3 22 3d 50 73 92 bd 67 08 a4 3d
       0.010403921 0.039706986 -0.071509 0.08009415
0000e0 7b 7b ad bc 90 59 b4 3c 06 f2 dc 3c 59 87 b5 3c
       -0.021177044 0.022015363 0.026970875 0.022159265
0000f0 5d ed 32 3d 64 7c 5f 3d 86 06 e0 3c d5 84 69 bd
       0.0436834 0.054561988 0.02734686 -0.057011444
000100 ad 61 4f 3d 6f 2c 69 3c e0 83 c4 3d bc 5b 6d bd
       0.05063026 0.014231785 0.09595466 -0.057948813
000110 31 e2 e5 3c f7 43 3e 3d 4f 65 84 bd ca 24 98 bc
       0.028061958 0.046451535 -0.064646356 -0.01857223
000120 96 2b e7 39 e5 1c de 3c 1f 7f 1c 3d dc c7 06 3d
       0.00044092227 0.027113387 0.03820717 0.032905445
000130 be 3b 9a bd ed 31 08 3d ad d5 9c bd 5a ca eb 3c
       -0.07530926 0.033250738 -0.07657943 0.028783012
000140 37 29 9e 3c 4a eb b0 bb b5 fb 85 bc d2 9c ca 3c
       0.019306762 -0.0053991424 -0.016355375 0.02473298
000150 d9 a2 6c bd e0 1f 81 3c 9d f7 91 bc c4 21 c5 3d
       -0.05777249 0.01576227 -0.017818267 0.09625581
000160 1d f9 76 3c a2 1d 32 3d 5f d9 86 3d b5 fa 04 bd
       0.015074042 0.04348529 0.06584429 -0.032465655
000170 e1 f2 66 3c b3 ee 20 bd 24 5f 34 3c df a4 3c 3d
       0.014095993 -0.03929014 0.011009011 0.04605567
000180 d9 a5 59 bd da db b0 3a e5 a8 06 3b ad 2f 1d 3a
       -0.05313668 0.0013493255 0.0020547446 0.0005996179
000190 bc a6 1f 3d 92 f2 e9 bc 35 95 e7 bc 8a ee 85 bd
       0.03897737 -0.02855805 -0.02826939 -0.06539638
0001a0 45 ec 44 3d 32 f1 5b 3d 23 ae 8b 3d a9 29 5f 3d
       0.048076887 0.05369682 0.06820323 0.05448309
0001b0 0a dd a0 bb e5 66 2e bd f4 4f ae 3a 61 5c 42 3b
       -0.0049091624 -0.042578597 0.0013298974 0.0029657113
0001c0 15 97 fc 3c 0e 35 03 3c 0e b9 58 bc c6 91 1f bd
       0.03083376 0.008008255 -0.013227714 -0.03895738
0001d0 df cb cf bc 40 0e b9 3c 59 af ca 3d 1e 5b 4f 3c
       -0.025365768 0.022589803 0.09896726 0.012656001
0001e0 fe 4e 26 3c 92 ed 94 bd e8 8d ca bc ae 10 52 3d
       0.010150669 -0.072718754 -0.02472587 0.05128544
0001f0 7a 39 48 bd aa b7 09 bd cd b0 d7 3c 1f ab 22 3d
       -0.04888294 -0.03362242 0.026329422 0.039713975
000200 e8 9c 30 bd f1 95 15 3c 6a e1 3d 3d c9 d1 8c bc
       -0.043118387 0.009129987 0.04635755 -0.017189877
000210 5f 7e 4b bd 78 5c 0e bd e8 e7 a7 3c 25 92 86 bd
       -0.049681064 -0.034756154 0.020496324 -0.065708436
000220 7a 1d bb bc 8b 3b ef 3c 59 9c 1a 3c e0 bd b5 bd
       -0.022841204 0.029203197 0.00943669 -0.088741064
000230 bd d7 ba 3c dd 17 e4 3c 4d 3b 7e bd 97 98 36 bd
       0.02280795 0.02784341 -0.062068272 -0.044579115
000240 91 bb f0 bc 22 c0 7a 3d 1e 8a 41 bd 44 68 69 3c
       -0.029386314 0.06121839 -0.04725086 0.01424605
000250 07 b1 92 bd 6c d4 77 bd 20 8c 70 bb 87 9c 69 bd
       -0.071626715 -0.060505316 -0.0036704615 -0.05703404
000260 46 1c 0f 3c 58 30 68 bd c3 fa 04 3d 75 b3 3c bd
       0.008734768 -0.05668673 0.032465708 -0.04606958
000270 5d a1 28 bc 3d 69 52 3c 41 b4 13 3a 40 f4 27 bd
       -0.010292378 0.012842474 0.0005634465 -0.04100442
000280 7a a1 21 bc 43 08 09 bc b5 a7 8b bd 74 ee 08 3d
       -0.009865159 -0.008363786 -0.06819097 0.03343053
000290 ad 0a aa 3b 37 28 02 3c ac a1 23 3c ba dc 74 bd
       0.005189261 0.007944158 0.009987276 -0.059780814
0002a0 76 34 8b bd ec e8 d0 bc 5f 94 3e bd d9 a6 a3 3b
       -0.067971155 -0.02550169 -0.046528216 0.004994255
0002b0 fa ee fd bb 86 85 b1 bc 23 84 d7 bb 7d 05 98 bc
       -0.0077494355 -0.021670114 -0.006577031 -0.018557305
0002c0 05 a8 d8 3b a9 dc 4c bc 2e b2 94 3d f6 95 32 3d
       0.0066118264 -0.012503781 0.072605476 0.043600045
0002d0 39 63 d7 bc fe 55 54 3d 67 a5 0c 3d 95 05 84 bd
       -0.02629243 0.05183982 0.034337427 -0.06446377
0002e0 04 02 22 bd 70 46 34 3d 5f ab 6d bc 56 2f fe 3a
       -0.039552703 0.044012487 -0.01450619 0.0019392769
0002f0 47 95 b2 3d fd 8f fb bc 3f 54 87 3c 50 b2 b0 3d
       0.08719879 -0.030708307 0.016519664 0.086277604
000300 4d 97 09 3c 98 48 c4 bc 3f eb 18 3d 81 c3 df 3c
       0.008397889 -0.023960397 0.037333723 0.027314903
000310 0a b5 c6 bc fe 76 db 3c a3 3f 75 bc cd c7 06 3d
       -0.024256248 0.026790138 -0.014968785 0.03290539
000320 69 6e 2b 3d 45 00 74 ba 86 f6 4a bd 69 6d 01 3c
       0.041853342 -0.00093079015 -0.04955151 0.007899621
000330 2e 05 8c 3c d6 4a 15 3d 88 7a c2 3c ef 48 9f 3c
       0.017092314 0.036448322 0.023740068 0.019443957
000340 87 a2 22 bd 3e 20 f2 bc 07 7d 74 3d 77 9f f1 3c
       -0.03970578 -0.02955639 0.059689548 0.029494984
000350 a2 3f ba 38 8f 19 0e 3d 2c fe 5d 3c b5 2b 15 bc
       8.881024e-05 0.034692343 0.013549369 -0.009104659
000360 21 c7 78 bc c3 72 a3 bc 1f 0c 00 bd 79 23 c1 3c
       -0.015184195 -0.019952184 -0.03126156 0.023576485
000370 d2 b3 5b 3d 13 8e 03 3d 9e d6 b1 3d d1 2f 2f bd
       0.053638287 0.032117914 0.08683513 -0.04277021
000380 cb f2 08 bd 30 66 bc bc 70 03 9f 3c e8 c4 8a 3d
       -0.03343467 -0.022997946 0.019410819 0.06775838
000390 53 a1 f3 3b 49 40 cc bc 90 75 d1 3c 97 8f bb bd
       0.007435003 -0.024932997 0.025568753 -0.09158247
0003a0 4a f9 00 3c fe 8c ee 3c ed b9 47 bd e7 ec 09 bd
       0.007871935 0.029119965 -0.048761297 -0.033673193
0003b0 77 9a 7b bc 32 62 83 bd 2e c7 21 3d 5a 01 be bc
       -0.0153566515 -0.06415214 0.039496593 -0.023194004
0003c0 37 1a da 3c f8 7c f3 3c ac a4 57 bd 5f 5a fd 3b
       0.026623828 0.029722676 -0.052647278 0.0077317203
0003d0 e6 17 11 39 74 58 2c bd 9b b5 0e bd 86 72 45 ba
       0.0001383718 -0.042076543 -0.03484116 -0.0007532019
0003e0 21 95 5a bd 43 fc 94 bd 18 68 32 bd f4 d5 cc bd
       -0.053364877 -0.072746776 -0.043556303 -0.10001746
0003f0 c4 2f 79 3b 9d 31 06 3d 7f d5 d8 3c d0 ec fa 3c
       0.0038022855 0.03276216 0.02646899 0.0306305

fc3.weight f4 [1, 256]
000000 c0 c5 2e 3d 4f 96 2f bd 98 ae 89 3d 5c 13 1d bc
       0.042669058 -0.042867955 0.06722754 -0.009587135
000010 f4 1a dc bc 66 44 59 3c f4 1e 6b 3d 63 fe 66 bc
       -0.026868321 0.013260936 0.057402566 -0.014098736
000020 40 25 bf bd 12 6c d2 bd 5b a0 d6 bd de 44 9e 3c
       -0.09333277 -0.10274519 -0.10479804 0.019319948
000030 b8 9e e5 3c 2d b9 95 bc bb fc c4 3d 9b e1 b9 3c
       0.028029785 -0.018276775 0.09618517 0.022690585
000040 c7 87 6b 3d 9c 93 1c bd b8 ef 69 bc 1c 3e e3 bc
       0.057502534 -0.03822671 -0.014278345 -0.027739577
000050 ca 35 df 3c 37 1a 90 bc ad 6b 38 bd cb 60 52 3d
       0.027247328 -0.017590625 -0.045024563 0.05136184
000060 9c d4 04 bc 27 b5 6c 3c e6 23 14 3d c4 24 81 3c
       -0.008107331 0.014447487 0.036167048 0.015764602
000070 0b fa f5 3c a5 82 a1 3c a9 78 b7 bc 3d 09 c0 3c
       0.030026456 0.019715616 -0.022396402 0.023441905
000080 40 15 b8 bc 7b b1 0b bc 6e 80 9d bc d5 a0 7e 3d
       -0.02247107 -0.008526201 -0.01922628 0.0621651
000090 53 f7 d7 bd 96 af b4 3c 70 82 89 bc c7 7a a4 bc
       -0.1054522 0.022056382 -0.01678583 -0.020078076
0000a0 d5 1c 14 bd 1f 75 02 bd c1 1a 53 bd 56 db a3 3d
       -0.03616031 -0.031849977 -0.051539186 0.080008194
0000b0 63 30 ba bc 60 4c 4c 3d 40 4c 8c bc c5 e3 f8 bc
       -0.02272815 0.049877524 -0.017126203 -0.030382046
0000c0 4a 7b 90 bc f3 f7 94 3c 60 d8 8c bc e5 69 83 bd
       -0.017636914 0.018184638 -0.01719302 -0.06416682
0000d0 8c 27 66 3c d7 a4 56 bd 18 b5 8f 3d 1b 9e 0f 3d
       0.014047515 -0.052403297 0.07016963 0.03506289
0000e0 5a 54 7d 3d 51 89 cf bc a3 0e f2 bc 61 ab 31 bd
       0.061848022 -0.025334032 -0.029547995 -0.04337633
0000f0 8c 5e 78 bc 64 0d 26 bd c5 9f c1 3c fd 16 b1 bc
       -0.0151592605 -0.040540114 0.023635754 -0.021617407
000100 5b 67 4a 3d eb 76 d0 bc f2 8d e3 3c 7e 2d e7 bd
       0.049414974 -0.02544733 0.027777646 -0.11287974
000110 70 68 3b 3d 83 c5 94 3d f3 07 aa bc 71 95 6e bd
       0.045753896 0.07264235 -0.020755744 -0.058247987
000120 56 25 25 3c 52 82 f9 bc 6c f6 8f bc 2f 81 27 3d
       0.010079702 -0.03045765 -0.017573558 0.040894683
000130 e7 8a 61 bc 42 77 16 bd a2 bf 2d 3d bb 0b d8 bb
       -0.013766027 -0.036734827 0.042419083 -0.0065931953
000140 4f 34 56 3d b6 fb cd 3c fa 37 8e bd 5a 5d 0b 3e
       0.05229598 0.02514444 -0.069442704 0.1360983
000150 42 ab 02 bd fa 3a e1 bc 3e 60 83 3d 68 2f a2 3d
       -0.031901605 -0.027493943 0.06414841 0.07919198
000160 2d 0d e9 bc 50 1d 4a bd bf f8 e4 3c 56 b1 5c 3c
       -0.028448666 -0.04934436 0.027950643 0.013470015
000170 b5 23 61 bc 9f 46 8b bd 4c 33 1f bc f2 3a d2 3c
       -0.013741423 -0.06800579 -0.00971682 0.025662873
000180 5e 6c 01 3e 11 c0 d6 bc 94 e4 9f bd 99 76 68 3d
       0.12638995 -0.026214631 -0.0780727 0.05675373
000190 64 04 49 3c a1 64 b9 3d 14 e3 b4 bc 45 78 82 bd
       0.012269113 0.090523966 -0.022080936 -0.06370596
0001a0 78 75 9d 3d 3b 1c 65 3c 7f 67 38 3d ab 82 bb 3c
       0.07688421 0.013983781 0.045020577 0.022889456
0001b0 0a 55 c8 3c 45 f0 0d bd a4 79 5a bc f4 09 07 bd
       0.024454612 -0.034652967 -0.013334665 -0.032968476
0001c0 26 cf 51 3c 44 4d ff 3d 83 2a 35 bc 63 9d cd bc
       0.012805736 0.12465909 -0.011057499 -0.025099462
0001d0 c4 62 16 be 7a f7 36 3d 9b ac d6 3c 45 73 5b bd
       -0.14686114 0.044669606 0.026205352 -0.053576726
0001e0 b1 0e 90 bc 2f 79 6f bd 46 a3 8a bc 93 af bf 3c
       -0.01758513 -0.05846518 -0.016923558 0.02339915
0001f0 a3 8a 8d 3d 72 35 7e bd f0 e1 7b 3c 73 02 07 bc
       0.069112085 -0.06206269 0.015373692 -0.00824033
000200 4a 63 82 bd 19 7c 10 bd 27 90 f1 3d c8 ff 6e bd
       -0.06366594 -0.0352746 0.11795073 -0.0583494
000210 7a bc 3c 3d be 56 00 bd b4 e7 ba bd c5 e5 f9 bc
       0.046078183 -0.031332724 -0.09126225 -0.03050507
000220 4d 90 e2 bc ab 25 6e bd 7a 8d fb 3b 63 12 8e bd
       -0.027656699 -0.05814139 0.0076767774 -0.06937101
000230 2d 2d df 3c bf 2c ca 3d 23 bc 01 bc a2 b0 9d bc
       0.027243221 0.09871816 -0.00791839 -0.019249264
000240 43 c0 36 3c bd 5e 91 3c 9f da 11 be 03 99 0d bd
       0.011154237 0.01774537 -0.14243554 -0.03456975
000250 93 d3 be bc b4 6e e3 3c c8 c7 eb 3c a6 c1 92 bc
       -0.023294246 0.027762748 0.028781787 -0.017914604
000260 cc cf a9 bc 89 55 96 bd ce 52 34 bc 08 a7 17 3e
       -0.020728968 -0.07340533 -0.01100607 0.14809811
000270 68 0d db bd 71 6a 08 3d b6 07 66 bc 18 3d 13 be
       -0.106959164 0.033304635 -0.014039924 -0.14378774
000280 81 0c 6b bd 8a 87 ca bc 7a c7 f5 bc 58 a7 8d 3d
       -0.05738497 -0.024722833 -0.030002344 0.06916684
000290 7e dd e3 3c 6d 4c 76 3d 42 13 be bc 96 6d ce bc
       0.027815577 0.06013148 -0.023202542 -0.025198739
0002a0 1d 23 85 bd f4 3e 2a 3d ed 72 2b bd 49 ee 85 bd
       -0.06500838 0.041563943 -0.04185765 -0.0653959
0002b0 d3 af 9b bd 9c 82 b3 3c 99 2a cc bd cc cd 45 bc
       -0.07601895 0.021912865 -0.09969062 -0.012072992
0002c0 d4 47 d8 bc d8 30 89 bc e5 2e 2f 3d 4b fc 80 3c
       -0.026401438 -0.016746923 0.04276933 0.015745303
0002d0 7f 8f 87 bd 16 97 c9 3c c9 76 6a 3e dc 18 75 bc
       -0.066191666 0.024608176 0.22896875 -0.01495954
0002e0 30 ff c0 3d db 19 87 3c 1d e2 5e bd c5 ac b5 3c
       0.09423673 0.016491821 -0.054414857 0.02217711
0002f0 db b1 e4 3d bb 8b 92 3d e8 dc bb 3c 76 95 31 3d
       0.11166736 0.07155558 0.022932485 0.043355428
000300 7b 75 0a bc 9a 9e 54 bc 85 60 88 bd 27 13 79 3c
       -0.008450861 -0.012977267 -0.06659035 0.01520232
000310 33 f0 b2 3c b7 50 6f bc 2a 51 43 bc bf 2a f0 bc
       0.021843052 -0.014606646 -0.0119212065 -0.029317258
000320 70 3f 93 bc 2b 40 f4 3c a9 1e b6 3c 71 eb 2e 3c
       -0.017974585 0.029815754 0.022231417 0.010676251
000330 69 86 a0 bc 35 8b 8e 3d 9d 14 d6 3c 14 94 0b 3d
       -0.019595342 0.069601454 0.026132876 0.034076765
000340 bf a9 e0 bc 75 8b 4b bd 6a e3 9b 3c 8a 55 9d 3c
       -0.027424691 -0.049693543 0.019029338 0.019205827
000350 15 1b 0e 3e 16 e9 0a 3d 4a aa 24 3d 6f 1a 7c bd
       0.13877518 0.033913694 0.040201463 -0.061548647
000360 6f e4 83 bd 8a d5 28 3d 82 cb 7e bc a7 da 33 bc
       -0.064400546 0.04121927 -0.01555145 -0.010977424
000370 0d 8d a0 3c e8 82 29 3c 90 d7 1d 3d 75 f4 cc 3d
       0.019598508 0.010346152 0.038535655 0.10007564
000380 2a 2a 93 bd 3d 38 ee bd c9 29 10 3d ec 1b 70 3c
       -0.071857765 -0.1163182 0.0351961 0.014655095
000390 e5 75 7c 3c 76 a8 d9 3c 14 c7 e0 3c 97 46 51 3d
       0.015408968 0.026569586 0.027438678 0.05109271
0003a0 63 d0 91 3c 02 33 12 bd dc f5 c1 bc 53 11 db bc
       0.017799562 -0.035693176 -0.023676805 -0.02674166
0003b0 21 85 2d bd fb 7a 22 bd 44 e2 40 bd ad 4e 84 3c
       -0.04236329 -0.039668065 -0.047090784 0.016150797
0003c0 23 c1 10 be 3e 1d 78 3d ea ce 82 bc b3 e9 78 bd
       -0.14136176 0.060574763 -0.015967805 -0.060769748
0003d0 4e 2a 1b 3d e4 c7 63 bc 51 e2 2e 3d 1e 18 93 bd
       0.03788214 -0.013902638 0.0426963 -0.07182334
0003e0 f7 3e 75 3d 4a 18 c4 bc 22 42 91 bd 61 17 93 bc
       0.0598745 -0.023937363 -0.07092692 -0.017955484
0003f0 10 07 bf bc b8 d7 bd 3c ed 2f 58 3d 6c 42 b6 bc
       -0.023318797 0.023174152 0.05278008 -0.02224847
