checkpoints/checkpoint_critic_ddqn_7.pth (torch_old, 304178 bytes, 5 tensors)

fcs1.weight f4 [256, 33]
00000000: 821d 07bd a56b ec3c 343c 60bd 831e cebd
00000010: 8deb 5fbd 63ce 5cbd 1a03 c4bc 4d93 033c
00000020: 8519 b5bc 0aa4 b23a e982 c23b 0edc 2dbc
00000030: 4381 c5bd 40cc aa3c 4210 ad3b 92e6 823d
00000040: e97d 6e3c 094b 52bc 495e 8e3d 4d58 533c
00000050: 3b9c 8cbc 5627 133d 35c5 eb3b 7997 f63a
00000060: d326 1f3c 9507 cc3d cef6 2dbd 4c6f ec3d
00000070: 8ebc f2bb e843 513d 1818 efbd 4417 a63c
00000080: ee65 dd3d 3a2b 97bd 96f5 c33d d008 313d
00000090: 7e92 843b 699f a23d f1a2 b73d 2033 643d
000000a0: 8d0f 38bd c4c4 06bd 7c22 693d 3527 963c
000000b0: 9771 993a fdeb 88bc 64c3 293e 3c80 adbd
000000c0: 0f94 e4bc 6577 2ebc 82ec 0d3d 3f41 fb3c
000000d0: c671 813c b870 d73b 6f6a 6dbc c3da dcbb
000000e0: c61b 3bbc 9d88 94bc e9e1 13bb 43a3 c8bd
000000f0: e9d8 b03d f41a 14b9 c88d 3b3c 32ee 7fbc
00000100: 4ced 0a3d f3d4 c13d cf67 cbbb 2187 3dbd
00000110: 3f4c 09bc 5ff1 6dbd c7e6 27bd 0f1b 1ebd
00000120: 00d7 9dbc 42f4 4bbc 8db5 7f3d 7b53 193c
00000130: 5893 cd3b e156 55bb 6c10 dfbb c1b0 0f3c
00000140: 3e79 863d 209a c4bc 5bf3 e23c dd19 de3c
00000150: 40f9 43bc 4549 263d c4c7 f1b9 cd23 673c
00000160: d554 f3bc 5ce2 6bbb 9375 613b 815a 16bd
00000170: ab1a febb 5f5a d03c 66bf a7bc 869f 5b3d
00000180: a2f3 bfbb d47f 973c f0cb a6bd 5681 8fbc
00000190: 2590 893d ccc6 913d c428 3ebc 6b5a 5bbc
000001a0: 1b69 113d 5223 f33c d06a cf3b c242 45bd
000001b0: 50ba 1d3d 56b4 4cbc 5bfd cc3c 8295 00bd
000001c0: 94a4 943d a062 a2bd 8319 debd 4d4a 97bc
000001d0: 10d6 553b 0f11 05bc d5cc a9bb adb1 343a
000001e0: ccc5 3dbc 4114 dd3b 475d ba3c 7061 b0bc
000001f0: fdea c2bc 43be 53bd d9c4 593d 42f0 883d
00000200: d03c 78bc 2b62 babc 84ef b6bc d986 b43e
00000210: fdab 7ebd ffd3 0abc 0cee 57bd f6ee 84bc
00000220: dbb9 4fbd 6f99 8bbd b392 26be 2709 45bd
00000230: c976 553d f359 d5bc d3ef b6bc fbc8 223d
00000240: f691 6e3d 4ed0 103b ae37 a53d ae8f c53c
00000250: 93d3 5ebd 20dc 433b 2a08 25bd 6708 4f3d
00000260: 2059 44bb 0a24 033d 1e74 bd3c 994f 063d
00000270: 2c0b 61bd 9770 48bd ed04 813d 47bc a53d
00000280: cccf 953c 0055 3b3d 1f20 8fbd 2099 2ebc
00000290: 0165 41bd 008c 41bd 79b7 c0bc 20e9 743b
000002a0: 58d2 dabc bab9 503d 075b 9dbd 292e 6d3c
000002b0: c607 ce3c f22c 29bb ef79 35bc 579e 263d
000002c0: 30f8 9fbb d5cb 613b 733b 8b3d 1c49 b2bb
000002d0: b89b 34bd 8ab5 99bd 2b41 05bc ab42 45bd
000002e0: ace7 ed3c 1d53 ee39 1b3b e7bc eb8c 2a3a
000002f0: 0ffe 013d 2676 47bc cab9 32bd b5e6 e5bc
00000300: 9035 a03d 609e 6b3d 7440 343d 4837 afba
00000310: 30e9 b13c abcc 2cbe 6aa0 61bd c90f d93c
00000320: cdff 92bd daff 20bd 8d14 de3c aafd 343d
00000330: 92f3 9cbc 61b1 84bc e5a2 d23a 4e83 b7bc
00000340: d461 c0bc c29a 3bbc 0e6d 40bd 5123 e23d
00000350: 77ed 41bd 1a17 fd3d 65d6 a53c 3d53 bb3b
00000360: 2a0d 10bd 45bd 083d ca8f ebbb 9325 0abd
00000370: 8861 75bc 5ca5 5e3d 85c6 a3bb e853 313d
00000380: 508c 96bd 3d85 023e 06c7 a6bd 9e0d 58bd
00000390: e500 95bc e065 4f3c 859b a3bb b08f 85bd
000003a0: 0b6f 56bd ff39 16bd 7ace 9bbd ecc0 d63c
000003b0: e693 24bd c9b8 de3c 9c0f 8bbd 8c2f b1bc
000003c0: f734 363c 0b9c b9bb 176e a0bb 951e 29bd
000003d0: 0d77 053d a970 f43b 7ee0 373b eae7 0dbd
000003e0: 4061 303b a2fe 9b3a 8556 fb3b 9f4f 4ebd
000003f0: 9bd4 d7bc e579 a73b fc29 1a3d bb76 2e3c
-0.032987125 0.028859923 -0.054744914 -0.100644134 -0.054667998 -0.053907763 -0.02392726 0.008030725
-0.022106895 0.001362921 0.005936016 -0.010611547 -0.09643795 0.020849347 0.005281479 0.06391634
0.0145563865 -0.012835273 0.06951577 0.0128994705 -0.01716434 0.035926186 0.00719514 0.0018813453
0.009713846 0.09962384 -0.0424717 0.11544666 -0.0074077314 0.05109015 -0.116745174 0.020274766
0.10810457 -0.07381292 0.09568326 0.043221295 0.0040457835 0.07940561 0.089666255 0.05571282
-0.044936705 -0.032902494 0.056917652 0.018329242 0.0011706826 -0.01671409 0.16578442 -0.084717244
-0.027902631 -0.010648583 0.03464938 0.03067076 0.015801322 0.0065747164 -0.014490708 -0.0067399456
-0.011420196 -0.018131549 -0.0022565073 -0.09796765 0.08635122 -0.0001412442 0.0114473775 -0.015620755
0.03391771 0.09464445 -0.0062074433 -0.046271447 -0.008379995 -0.058091518 -0.04099157 -0.038600024
-0.019267559 -0.012448372 0.062429 0.009358282 0.0062736683 -0.0032553005 -0.0068073776 0.008770169
0.06566094 -0.023999274 0.027703932 0.027111942 -0.011961281 0.04059722 -0.0004611594 0.014107657
-0.029703537 -0.0035993075 0.0034402355 -0.036707405 -0.007754644 0.025433717 -0.020477008 0.05361893
-0.0058579007 0.01849357 -0.08144367 -0.017517727 0.067169465 0.071179956 -0.011606399 -0.013388257
0.035500627 0.029679928 0.0063298717 -0.04815937 0.03850776 -0.012494167 0.025023153 -0.03139258
0.07257953 -0.079289675 -0.1084471 -0.018468047 0.0032628812 -0.008121743 -0.0051818886 0.0006892931
-0.011582803 0.006746799 0.022749556 -0.021530837 -0.023793692 -0.05169512 0.053166244 0.066864505
-0.015151218 -0.022751888 -0.022331007 0.3525913 -0.06217574 -0.008473395 -0.052717254 -0.016227227
-0.050714355 -0.068163745 -0.16266899 -0.04810443 0.052115235 -0.026043868 -0.022331154 0.03974245
0.058244668 0.0022096816 0.08067261 0.024116363 -0.05440099 0.0029885843 -0.04029099 0.050545122
-0.002996035 0.03201679 0.023126658 0.032790754 -0.054942295 -0.0489355 0.06299768 0.08092552
0.018287562 0.04573536 -0.069885485 -0.010656625 -0.047215465 -0.047252655 -0.023524987 0.0037370399
-0.026711628 0.050958373 -0.07683378 0.0144763375 0.025150191 -0.0025814143 -0.0110764345 0.04067835
-0.004881881 0.0034453769 0.067984484 -0.005440844 -0.044093817 -0.07505329 -0.008133213 -0.048159283
0.029041134 0.00045456822 -0.028226426 0.0006505984 0.03173643 -0.012174165 -0.043634214 -0.028064111
0.07822716 0.057524085 0.04400678 -0.0013367916 0.021717638 -0.1687495 -0.055084623 0.026496785
-0.071776964 -0.0393065 0.027109409 0.044187225 -0.019159112 -0.016197862 0.0016070275 -0.022401478
-0.023484148 -0.011450471 -0.046979003 0.11041892 -0.047345605 0.12357922 0.020243833 0.00571671
-0.035168804 0.033383626 -0.007188772 -0.03372724 -0.014976867 0.054356918 -0.0049980306 0.04329291
-0.07350981 0.12746139 -0.081434295 -0.05274736 -0.018188903 0.012658566 -0.0049929046 -0.06521547
-0.052351993 -0.036676403 -0.07607742 0.02621504 -0.04018011 0.027187722 -0.067900866 -0.021629117
0.011121026 -0.0056643537 -0.004895936 -0.04128893 0.03258424 0.007459719 0.0028057392 -0.034645
0.0026913434 0.0011901448 0.007670226 -0.0503689 -0.026346495 0.0051109665 0.037637696 0.010648425

fcs1.bias f4 [256]
00000000: 954b b1bd 6d84 0cbe 34e6 a63d 2b15 0cbe
00000010: 5c9a 05bd e1a3 83bd de7c 7cbe 8126 133d
00000020: ffd7 623d 1710 273d 89ba 69be d7dd 0d3e
00000030: 1ec1 aabd e730 bb3d 2436 b63d a273 f43d
00000040: 40f5 4a3d d209 2cbd 64b1 c6bd fbcf 3dbe
00000050: 2a1a 26bc 2ff6 06be 2af4 2ebd f11b 223e
00000060: 622f 34be dc75 3c3c d336 2c3e baac 86bc
00000070: 91c9 3ebd 9fe3 0fbe 90e6 fabd 7995 1cbe
00000080: c26c 963d b8c9 52be 80bd 42be c9ea bd3d
00000090: d32f 3ebe 386d 50be b250 293d 5dfc 7c3d
000000a0: 9312 34be 4467 08bd b653 cb3d e4bf 1c3e
000000b0: cc64 263d dec0 c4bd ae98 ab3d 681e 46bd
000000c0: 6411 e13d 8a79 1d3c f11f 4dbe 1bb3 543d
000000d0: 2cc7 aabd 5b61 a2bd cb1d c7bd 0733 093d
000000e0: 6e4d 13bd 6836 de3d 57e0 69be f3ce 5f3d
000000f0: f770 04be 41b3 eebd f6a2 3dbd 4224 24bc
00000100: 49c2 c8bd d688 f9bd fa53 fc3d 6169 c43c
00000110: f5d9 ce3b bf54 a8bd 3b0a 1f3e b6d0 08be
00000120: c66d 67be 4ea4 9d3d 4af9 c23c 564c 0c3d
00000130: 7c4a 1cbe cdc9 93bd aa3a 5cbe 7712 bbbc
00000140: 13a4 f63d 5a4f 49bd 583f 57be 563a 3e3c
00000150: 0aa4 ae3d 4872 083d 68de 56be c5ea 3fbd
00000160: f462 b5bd 94ab c13d 97b5 c4bd a3d8 ecbb
00000170: c15e b73d af79 df3d 5407 82bd 7382 cebd
00000180: 87e1 70bb e3c9 19be 206b 0bbe 4872 973d
00000190: 354d 1ebd 2b27 373d f315 fa3c 485b 783c
000001a0: cb64 b23d a68c 8cbd c3a1 a4bd 50c3 67bc
000001b0: b135 b13b 1d4e 353c 4215 0a3e 92d7 57bd
000001c0: 5f1f 2dbe 249b 51be 3663 dd3b d24f 8fbd
000001d0: aaee e9bd 511b fdbd a887 82bb 5ecd 0abd
000001e0: a121 9f3d 4c38 b13d cd80 59bd 3e05 883d
000001f0: 1f1b dd3d 7197 383c ba5f b9bd b804 10be
00000200: 7c44 f9bd 52ea 60be ce9f 97bd aba6 d0bd
00000210: 35ba ba3d 21d7 b3bd 97a6 87bd ba8c bbbc
00000220: 90f0 4dbc 73f8 24be 3735 19be f7fd b4bd
00000230: fe29 49bd ea29 79bd 6ce2 c53d 86da 12bd
00000240: c02b 03be eaf5 0ebe 661a 08be 8c7f e73d
00000250: a722 133e 7651 20be 997d 35be 9484 453c
00000260: a1b2 03bd 9d6a 6bbd a8c1 19bc affa 59bc
00000270: d1ff 22be d246 c03c 01ef 1cbe 8e7a 2abe
00000280: 7a37 cdbc ce1e 0cbe da6d b03d 9a2a e73c
00000290: 8c64 553d 2fbc b3bd 9249 b6bd 8025 6bbd
000002a0: b65b 0ebe a732 e4bd 571d 853d e691 093e
000002b0: c9ac 12be 3524 edbc 7c36 12bd e33e 433d
000002c0: 3b47 2dbe 2113 eabd d09a 10be 7501 21be
000002d0: 2d17 8fbd 9984 87bc bb64 d0bd e3d7 19be
000002e0: dff4 c6bd c181 70bc 49d2 c53c 5367 1dbe
000002f0: d542 fdbd a9d8 9f3d 055f 10be 5e10 e83a
00000300: 7f47 9b3d de20 d5bd c3cd b4bd dd39 05be
00000310: e9b8 34bc 0952 3fb9 286a 5bbe 929b 613d
00000320: 6a8d 1c3e 1847 ec3d 627d a83c c1f6 223e
00000330: 08d2 78bc 7d21 18be 4481 13be c814 32be
00000340: 5d94 6cbd 1610 713d e6ac d5bd 8eb4 8a3c
00000350: 77b0 e2bd f3dc 0d3d a492 7bbd 1bfe 503c
00000360: 38f5 03be 596c e0bd 2cc2 a6bd e955 e83d
00000370: 4b92 353a 6ea9 c0bd 2df2 d13c 6be8 3fbe
00000380: bc5e cb3d a13b 58be d2b4 8fbd 9e02 4bbe
00000390: bc00 14be c501 033e 844b 01bd 4983 a4bc
000003a0: f5dd 1dbe d4ad 8a3d a099 42bd 6fa3 ebbc
000003b0: 2dc7 46bd d2f9 bd3d a022 2fbe eec6 45bc
000003c0: 5a0a 29be c880 3bbe 3b54 3fbd 2164 a4bc
000003d0: 0ced 273d 5339 f4bd a395 51b9 6cf0 723d
000003e0: 7c60 62bb 8c10 e73d 28bb 7f3c a4cd 0abe
000003f0: bf3c c9bd 7ed7 afbb edfe e8bd 5b14 2fbe
-0.08656994 -0.13722391 0.081493765 -0.1367995 -0.03261791 -0.06427742 -0.24657008 0.035925392
0.05538177 0.04078683 -0.22825064 0.13854156 -0.083376154 0.09140187 0.08897045 0.11936118
0.049550295 -0.042001553 -0.09701803 -0.1853637 -0.010138074 -0.13179849 -0.04271332 0.15830971
-0.175962 0.011502709 0.16817789 -0.016439784 -0.046578947 -0.14051674 -0.122510076 -0.15291394
0.07344963 -0.20584762 -0.19017601 0.09273297 -0.18572931 -0.20354164 0.041336723 0.06176411
-0.1758521 -0.033301607 0.09928076 0.15307575 0.04062347 -0.09607099 0.08378731 -0.04836884
0.10989645 0.009611497 -0.20031716 0.05192862 -0.0833877 -0.07928725 -0.097224794 0.03349593
-0.035962515 0.10850221 -0.22839485 0.05464072 -0.12933718 -0.11655284 -0.04629799 -0.01001841
-0.09802682 -0.121843025 0.12320705 0.02397603 0.0063126036 -0.08219289 0.15531246 -0.13360867
-0.22600469 0.07697354 0.02380051 0.034252487 -0.15262789 -0.07216225 -0.21506754 -0.022835953
0.120430134 -0.04914794 -0.21020257 0.011610588 0.08527382 0.033312112 -0.20983279 -0.046854753
-0.088567644 0.09456554 -0.09604948 -0.0072279735 0.0895362 0.10911881 -0.06349054 -0.10083475
-0.0036755519 -0.1501842 -0.13615084 0.07394844 -0.03864785 0.044715088 0.030528044 0.015158482
0.08710631 -0.06862764 -0.08038666 -0.014145687 0.005408012 0.011065987 0.13484672 -0.05269582
-0.16906498 -0.20469338 0.0067562116 -0.069976464 -0.11422475 -0.12358726 -0.0039834566 -0.03388726
0.07770086 0.08653316 -0.05310135 0.06641625 0.107961886 0.011266575 -0.090514615 -0.140643
-0.121712655 -0.21964386 -0.07403527 -0.101880394 0.091175474 -0.08781267 -0.06623571 -0.022894252
-0.012569562 -0.16110401 -0.14961706 -0.088375024 -0.049112312 -0.060830988 0.09662327 -0.03585293
-0.12809658 -0.13960996 -0.1329132 0.113036245 0.14368688 -0.15656075 -0.17723693 0.012055535
-0.032152776 -0.05747472 -0.00938455 -0.0133043965 -0.15917899 0.02347127 -0.15325548 -0.16648313
-0.025050867 -0.13683626 0.086147025 0.028218556 0.052097842 -0.087761275 -0.08900751 -0.05740881
-0.13902172 -0.11142474 0.06499737 0.13434562 -0.14323725 -0.028947929 -0.03569649 0.047667395
-0.16921704 -0.1142943 -0.14121556 -0.15723212 -0.06986842 -0.01654272 -0.10175463 -0.1502376
-0.09714674 -0.014679373 0.024148123 -0.15371446 -0.12366263 0.078049965 -0.14098747 0.0017705073
0.07581996 -0.104066595 -0.088283084 -0.13010354 -0.011030414 -0.0001824574 -0.21427214 0.055080004
0.1528832 0.115369976 0.0205676 0.15914442 -0.015186794 -0.14856525 -0.1440478 -0.1739074
-0.057758678 0.05885323 -0.104333684 0.016931798 -0.11068814 0.03463454 -0.061419144 0.012755896
-0.12886512 -0.10958166 -0.08142504 0.11344511 0.00069264014 -0.09407316 0.025628174 -0.18741004
0.099301785 -0.21116497 -0.070169106 -0.19825217 -0.14453405 0.12793644 -0.031566158 -0.020082133
-0.15416701 0.06771436 -0.04750979 -0.028764455 -0.048529793 0.09276165 -0.17103052 -0.012071354
-0.16507855 -0.18310845 -0.046711188 -0.020067276 0.04099755 -0.11924996 -0.00019987537 0.059311315
-0.0034542372 0.11282453 0.015608586 -0.13555008 -0.098260395 -0.005366265 -0.11376748 -0.17097609

fc2.weight f4 [256, 260]
00000000: 0013 4dbd ae08 10be f7ef eabc faeb d7bc
00000010: 4e50 bc3c 24a9 3fbd 2535 153e 4d10 88ba
00000020: 27be 8bbd b091 7bbd abcf 813a b272 393d
00000030: 5b23 b2bd d1af b13c 2dff 843c 756e e9bd
00000040: 2ac7 133d 49c5 383d cb48 713d d257 083d
00000050: 72da 063e bd25 13be 68d0 6d3d b5ca acbd
00000060: bfc8 18be 7416 c6bc 62b6 89bd de49 923d
00000070: ca28 173d 0e3e 70bd 1a16 703d 66ef 223c
00000080: f133 6a3d b836 463d 5f84 7f3d 2f8d 75bd
00000090: 5c18 77bc fc9e 1d3d 213e 7a3d 1030 3dbe
000000a0: e0db 9b3d 245e ffbd 79ed ad3c 430a a03d
000000b0: 8003 25bd 8875 85bd b3ee 4cbd 38b4 e1bd
000000c0: 82ba 27bd 36fc b7bd b0e4 c0bc 3e86 09bd
000000d0: f324 7ebc 39d0 ec3d 60fa aebd c27c af3d
000000e0: 0852 713d dce8 eb3b b4ff 903d 8635 693d
000000f0: 9632 2a3d 72bf ae3c 64e6 0cbe 61ad afbd
00000100: e4b3 83bc 8cb7 33be 5ffa ba3b f2bc 74bd
00000110: dda1 673d 1dfb 66bd d40b 253d c1de cdbb
00000120: cfc7 71bd 417a 11bd 4b81 453c ba51 4dbd
00000130: f619 463d 4d27 9f3b 0b57 29bd 6181 96bd
00000140: f4ba 45bd c0b4 923b 90d3 bc3c dfcb a13d
00000150: 79e6 38bd 77cb bbbd f60b 23bc 4c2f f6ba
00000160: 9970 9a3d 4bff cebd 6688 183e ed15 913d
00000170: 33b3 fb3c b75d c73c 2bdd b83b 2af1 afbc
00000180: 60ca 26be b5d8 303b 6ea5 933d 25c9 c7bc
00000190: 316a de3d 9ec1 03bc 4469 f5bc e3b4 66bd
000001a0: cd94 ad3c f263 a0bd 9347 96bb f74c 113e
000001b0: 6ea3 56bc f2f0 13bd aa86 44bd f3b4 a9bd
000001c0: b2b5 91bd 9500 81bd 07b9 85bc 8347 033c
000001d0: 5af1 90bd 640a 913c bdf2 e73d 0b20 b43c
000001e0: b576 2dbc 84b2 bc3b d75e 2abd 1802 983d
000001f0: 44fa aa3d 1815 52bc f2b6 b2bd 2f1f 88bc
00000200: bfcf 3abb 4485 773d fa4d 8e3c d725 0cbc
00000210: 9c3e 55bc dbcd e7bc a903 463d ea3b d13b
00000220: 8857 983d c217 133e 17a7 8fba e684 bb3d
00000230: 6ef1 c5bd 49c4 93bd bd22 05bd 824f c63c
00000240: 06fe 2b3d 2170 39be bda1 c1bc ef48 22bd
00000250: a5a3 78bd 442e 223e 1d72 4fbb e61f b5bd
00000260: 3e31 b73d 0dd4 52bd 191e 96bb b9a3 1d3d
00000270: c5b4 d33c f767 5e3d 351f 5bbc 19f4 9e3b
00000280: 8108 3a3b ac7e abbd f085 263c 549d 04bd
00000290: 03ad 0abc b319 3dba 1550 df3c bf13 94bd
000002a0: 0b18 32bd 3d12 153d 26e1 26bd 8305 11bd
000002b0: b970 493e 2ccd 0dbd 8da8 4b3d 8e7d 793d
000002c0: 073c c1bc ef69 843d bf37 e5bc f2eb ae3d
000002d0: 8a77 a13d f538 2dbc fb71 9fbc 3cc7 05be
000002e0: ac07 cebd 4b1e 253c 6e04 983c 9b7a 47bd
000002f0: 68fc 443d 7ed1 24be 3d57 63bd 4892 70bd
00000300: 601c 053d cbfd dc3b 075e 0c3c 11a9 0c3d
00000310: db27 9fbd d3fc a33c 1031 9b3d c810 5e3d
00000320: ce59 54bd 1d76 96bd 5017 62bc b1b3 b5ba
00000330: cfcb e6bd b094 0d3d 3aec 7a3d d0c3 8ebc
00000340: 5034 38bb 6c92 09bd 9dbe 2ebe 6d12 053d
00000350: 3ebb 63bd 46de fbbc 114b c4bd 326a 553b
00000360: cd70 56bd 9cb3 1a3c e7ea 39bd bd0b 97bd
00000370: 012a 4abd eb8c 633d c5d7 cf3d 95a8 ba3d
00000380: 2cc8 293d a8ff 23bd 6572 763d 64d2 953d
00000390: 6223 6e3c 82c7 03bd 9b83 b0bd 1dd3 223c
000003a0: 98d6 efbc 030a 053d a657 6bbc 53bc f4bd
000003b0: c27d 98bd ab4d 15be b67b 23bd 8c5f 42bd
000003c0: 5127 db3b e4a1 01be 80a4 b93c 96cc 21be
000003d0: 3797 99bd 0ab1 c2bc cabe c5bd 8169 7ebd
000003e0: 9a67 ebbc 096b 11bd c618 023b 5ed8 503d
000003f0: 6501 6e3b 9ab4 523d 7601 b93c 583e e8bd
-0.050066948 -0.14065811 -0.028678877 -0.02635764 0.022987511 -0.046792164 0.14571054 -0.0010380835
-0.06823378 -0.061418235 0.0009903809 0.045275398 -0.0869815 0.021690281 0.016234959 -0.11398021
0.03607861 0.04511002 0.05890731 0.033286877 0.13169268 -0.14369865 0.05806008 -0.08437101
-0.14920329 -0.024180628 -0.0672424 0.07142995 0.036904134 -0.05865293 0.058614828 0.009944772
0.05717844 0.048392028 0.0623821 -0.059949096 -0.015081491 0.038481697 0.061094407 -0.18475366
0.07610297 -0.12469128 0.0212314 0.07814457 -0.04028654 -0.06516558 -0.05003233 -0.11020702
-0.040949352 -0.08983652 -0.023546547 -0.03357529 -0.015511739 0.11563153 -0.08543849 0.085687175
0.05891612 0.00719939 0.070800215 0.05693581 0.04155215 0.021331523 -0.13759762 -0.08577991
-0.01607699 -0.17550486 0.005706116 -0.059750505 0.05655085 -0.056391824 0.040294483 -0.006282658
-0.059028443 -0.03551698 0.012054752 -0.05012677 0.048364602 0.00485698 -0.041342776 -0.07348896
-0.048273996 0.0044771135 0.0230501 0.079002135 -0.04514167 -0.09169667 -0.009951582 -0.0018782406
0.075410075 -0.10107287 0.14895782 0.0708426 0.030725097 0.024336679 0.0056415997 -0.0214773
-0.16288137 0.0026984636 0.072092876 -0.024387905 0.10860098 -0.008041767 -0.029957421 -0.05632485
0.021189118 -0.07831563 -0.004586169 0.14189516 -0.013100488 -0.036118455 -0.04797999 -0.082864664
-0.07114734 -0.06298939 -0.01632358 0.008012655 -0.07077284 0.01770515 0.113255955 0.021987936
-0.010587384 0.0057585854 -0.041594353 0.07422274 0.08348516 -0.012822412 -0.087263 -0.016616432
-0.0028505174 0.060429826 0.017371166 -0.008553944 -0.0130154155 -0.028296402 0.048343334 0.006385316
0.0743857 0.14364532 -0.0010959831 0.09156208 -0.0966519 -0.07215173 -0.032503832 0.024207834
0.041990303 -0.1810918 -0.023636693 -0.039620336 -0.06070294 0.15837961 -0.003165371 -0.08843975
0.08944939 -0.05147176 -0.0045812246 0.038486216 0.025843034 0.054298367 -0.01337414 0.004850876
0.0028386416 -0.0837377 0.010163769 -0.032376602 -0.008464101 -0.00072136073 0.027259866 -0.07230329
-0.04347996 0.036394347 -0.040742062 -0.035405647 0.19671907 -0.034619495 0.04972129 0.060910754
-0.023588194 0.06465518 -0.027980683 0.08541097 0.078841284 -0.010572662 -0.01946353 -0.13064283
-0.10060057 0.010078023 0.0185568 -0.04870091 0.048092276 -0.1609554 -0.05550312 -0.058733255
0.032497764 0.0067441217 0.00856734 0.03434092 -0.07771274 0.020018017 0.07577717 0.054215223
-0.051843457 -0.07346747 -0.013799503 -0.0013862756 -0.11269342 0.034565628 0.06126044 -0.017427355
-0.0028107353 -0.033586904 -0.170649 0.032488275 -0.05559849 -0.030745637 -0.0958463 0.0032564518
-0.05235367 0.009442236 -0.045390036 -0.07375286 -0.049356464 0.05555431 0.10148577 0.09114186
0.041450664 -0.040038735 0.06016769 0.073155195 0.014534803 -0.032172687 -0.08618852 0.009938029
-0.029277131 0.03248025 -0.014364159 -0.119499825 -0.074458614 -0.14580409 -0.0399129 -0.0474544
0.0066880365 -0.12659413 0.022661448 -0.158007 -0.07499545 -0.02376606 -0.09655531 -0.062112335
-0.028735925 -0.035502467 0.0019851192 0.050987594 0.003631675 0.051441766 0.022583704 -0.11340016

fc2.bias f4 [256]
00000000: e00b fcbc bff3 07bd 0192 613c d87a 0a3d
00000010: 8321 383d 2992 66bd f3f1 963d d9d2 ef3c
00000020: a6be 61bd 874f cdbc fcc1 bb39 19de b1bb
00000030: 862b a53d 202c c63c 389e 9e3c 7006 393c
00000040: 08d5 da3d a402 26bd 6685 41bd 949f 8ebc
00000050: ea03 70bc bbd8 34bd 6139 34bc d792 cbbc
00000060: bc7f 333d d152 173d 34b6 17bd 44a6 713d
00000070: 8124 553d 973a db3d 91a5 b539 cffa b33d
00000080: 620a 9f3c ee8f d73b 2759 9d3c e152 b53d
00000090: fd31 8bbc 03de 413c a7b4 7dbd e167 28bd
000000a0: 3c1b 79bd 0ff2 4ebd e32d a1bd 1691 123d
000000b0: 67b3 9abd b236 573d 5a43 9e39 71a5 5bbd
000000c0: 3048 8fbc 1407 89bc 1864 1d3c ef1b 043d
000000d0: 2840 7cbc 0814 7e3d 2d33 cfbb def5 a03d
000000e0: a16d 7e3c 569f af3c 4e82 353d b290 b53c
000000f0: d43b 803d 54c9 3f3d 4c13 73bc 7c31 20bd
00000100: 8d2b a93c f991 a43d a996 7b3d c502 81bd
00000110: ad9e 77bc 8a64 ae3d f699 8ebd 5705 8ebc
00000120: 389c c8bc 8a2d 863c c4e0 463d 2666 4abc
00000130: d86c 92bd 0903 263d ae98 a3bd daef a03d
00000140: 913e 2bbc 7cc6 a5bc 9d38 623b 27ca a0bb
00000150: 8867 69bd 877f 103d e6b8 04bc 11ca c43d
00000160: 2686 313b 3983 1c3d c047 8f3c 3843 8dbc
00000170: e4ec a43c 3b9d 85bd a82d 233d c9fb 393d
00000180: 91f0 68bd 87ea b43c f859 c23b 6051 343d
00000190: 86fd be3c ae08 69bd ff64 a0bc aa91 77bd
000001a0: 22e5 cebc b412 813d e86d 5a3d c4fb 1ebc
000001b0: 9f01 a9bc 7d37 a8bc 4323 043c 1773 853c
000001c0: 47fc 533d 3bc0 89ba 23bb 15bc baa2 47bd
000001d0: c6b0 c0bc ce9e 2d3d 39c2 ec3d a69c f33c
000001e0: 80c6 84bb 5e16 74bd 9b86 7cbc e388 543d
000001f0: a086 3ebd 8840 edbc 6dd3 273d 2987 213d
00000200: 8fa5 48bd d6d5 dabb cb0c 603d 9d41 91bc
00000210: cc34 3cbd d17a f6bc 6596 e93c 38a8 84bd
00000220: 35d9 4fbc 1584 8e3d 1aec 5dbd c5f5 b1bd
00000230: dc8b 413d bb17 383c e861 9cbd 271f 85bd
00000240: ff4f 89bd 508f 9b3d 0ed3 32bd e69b cb3c
00000250: 47b0 83bd 6a41 87bd ae08 e43c 8b3f 8abd
00000260: e0d1 063c 9c1f b9bd 00dc 1e3d 9411 40bd
00000270: 6583 1fbb d87c 0a3c b80f 95bc a934 7cbd
00000280: 8bef 9f3d 5fe3 283b 5be4 85bd f529 253d
00000290: 2a4a a0ba c866 39bc cdeb 213c 9f23 49bd
000002a0: 54a9 5fbd 25da b23c 94dd cebc ae6d 793d
000002b0: a800 c6bb 97c1 e83c a618 cdbc 006d 31bd
000002c0: 1b41 ebbc 9cdc ecbb 9bbd be3d d031 153d
000002d0: 87fc 4b3d 5b4b 7c3d 60ce 273d 9e20 b6bd
000002e0: 8a97 86bd 5cb3 ab3d b64a efbc 497c 1b3b
000002f0: 4e1d 9e3d b731 983c 76f1 1f3d 868a e63d
00000300: d0a7 023d 73e4 61bc b017 543d 1a9f 183d
00000310: 4625 3abd d79b 063d 674b 433c 604f 003d
00000320: 5c69 4e3c 3113 01bd bcb2 0bbd 0ab5 8fbb
00000330: c01d 0bba 9d79 663d 5c29 123c 1a9e 3c3d
00000340: 0b46 93bd 926e 21bd db0a 8c3d 9804 213d
00000350: dbbb 8a3c 0131 a8bb ddd8 3b3d c43d 35bb
00000360: d4e1 a9bc 3f53 f0bc 8a45 33bd 270e 763c
00000370: 538e 533d 0372 9b3d 3792 d53d b618 e5bd
00000380: 1194 c5bc 0265 8bbc 333a b9bc a30c 483d
00000390: 480e a2bc 517c c7bc 093c 363d eb18 93bd
000003a0: 0061 8bbc 919a 083d 46e1 7dbd 4e1e e9bc
000003b0: b3b1 a7bc 8a20 91bd 83cb 383d 9022 98bc
000003c0: 1778 8d3c fbdb 3b3d b3f1 eebc e5c3 bfbc
000003d0: c076 abbc 9b68 0ebd ce78 41bc b4b9 f53c
000003e0: abe8 83bd cf07 acbd 2d26 27bd 0dd8 aabd
000003f0: 5cc8 a13c 3111 cb3c 636b 04bc 6688 b83c
-0.030767381 -0.03319144 0.01376772 0.03380856 0.044953834 -0.056291733 0.07370367 0.029275345
-0.055113457 -0.025062336 0.0003581195 -0.0054280874 0.08064942 0.024190962 0.019362554 0.011293039
0.10685164 -0.040529862 -0.04724636 -0.017410077 -0.014649371 -0.044152003 -0.011000008 -0.024850292
0.04382299 0.036944214 -0.037038997 0.058996454 0.052036766 0.107045345 0.00034646367 0.08788072
0.01941413 0.006578437 0.01920755 0.088536985 -0.01699161 0.011832717 -0.06193986 -0.04111469
-0.06081699 -0.050523814 -0.0787008 0.035782896 -0.075537495 0.052542396 0.0003018629 -0.053624574
-0.017490476 -0.016727008 0.009606384 0.032253202 -0.015396155 0.062030822 -0.0063232393 0.078593954
0.015529067 0.021438282 0.04431372 0.022163723 0.06261411 0.04682286 -0.014836144 -0.039109692
0.02065065 0.080356546 0.061422978 -0.06299356 -0.015113515 0.0851527 -0.069629595 -0.01733653
-0.024488553 0.016379137 0.048554197 -0.012353456 -0.071496665 0.04053024 -0.07988106 0.07858248
-0.010451929 -0.020236246 0.0034518607 -0.004906911 -0.0569835 0.03527787 -0.008100724 0.096088536
0.0027088015 0.03821108 0.017490268 -0.017243966 0.02013249 -0.0652413 0.039838463 0.045406137
-0.056870047 0.022084488 0.0059311353 0.044022918 0.023314249 -0.056893043 -0.019579409 -0.06044165
-0.025255743 0.063023955 0.05332747 -0.00970358 -0.020630656 -0.020534271 0.008065048 0.01629023
0.051754262 -0.001050956 -0.009138855 -0.048739173 -0.023521792 0.042387776 0.115604825 0.029737782
-0.0040519834 -0.059591644 -0.015412952 0.051888358 -0.046515107 -0.028961435 0.040973116 0.03943554
-0.048986014 -0.0066783233 0.0546997 -0.017731482 -0.04594879 -0.03008786 0.028514097 -0.06477398
-0.012686064 0.069587864 -0.054180242 -0.08689455 0.04725252 0.011236127 -0.07635862 -0.065000825
-0.06704711 0.07595694 -0.04365831 0.024854612 -0.064301066 -0.066042736 0.02783617 -0.06750401
0.008228749 -0.09039232 0.038784027 -0.046891764 -0.0024339792 0.008452617 -0.018195972 -0.06157366
0.07809361 0.002577029 -0.06537696 0.040323216 -0.0012229134 -0.011316009 0.009882879 -0.049106237
-0.054604843 0.021832535 -0.025252141 0.060895614 -0.0060425587 0.028412623 -0.025036167 -0.04331684
-0.028717568 -0.007228447 0.09313508 0.036424458 0.049801376 0.061595302 0.0409683 -0.0889294
-0.065718725 0.083838195 -0.02921043 0.0023725203 0.07720433 0.018578393 0.039048634 0.1125689
0.03189832 -0.013787377 0.051780403 0.037261106 -0.045445703 0.032863464 0.011919833 0.031325698
0.012598362 -0.031512443 -0.034106 -0.004385595 -0.00053068623 0.056268323 0.008920994 0.046049215
-0.07191094 -0.03941209 0.06838008 0.03931102 0.01693528 -0.005132795 0.045861114 -0.0027655223
-0.020737566 -0.02933657 -0.04376749 0.015018023 0.051649403 0.075901054 0.10428279 -0.11186354
-0.024118455 -0.017015938 -0.02261076 0.048840176 -0.0197822 -0.02435127 0.044490848 -0.07182487
-0.017014027 0.03335053 -0.061982416 -0.028456833 -0.020470476 -0.070862845 0.04511596 -0.018571168
0.017269177 0.045864087 -0.029167986 -0.02340884 -0.020930648 -0.03476773 -0.011808587 0.029995777
-0.06440862 -0.08399927 -0.04080789 -0.0834199 0.01974886 0.024788471 -0.008082244 0.022525977

fc3.weight f4 [1, 256]
00000000: cea9 ab3c 9825 6abc 3ba1 6e3d 5c8c f0bb
00000010: c8d1 8b3c 18a9 55bc 7237 963d a327 923c
00000020: a748 acbc 6830 0dbc 3e29 3cbc fba0 df3c
00000030: 9424 4b3d b639 9fbc 82ed 633d 244e 3e3c
00000040: 8f6a 263d 55be 08bd cef8 e3bc da92 07bd
00000050: ef23 113c cb1f 2abd 671f 8dbc 2139 973c
00000060: df47 44bc 71d1 793c c3f8 a63c 2807 293c
00000070: ce74 353d ba2d d83c cf68 2fbc b034 b43c
00000080: dace 9bbd 6664 6cbc b504 34bc 2c8b bb3d
00000090: a3f0 8ebc 7515 853c 76f3 05bd dde8 c0bc
000000a0: 2cf7 ffbc 8466 afbc eb9c 0fbd 5f8e 2c3d
000000b0: 919f 8ebc 3daf 5a3d b413 22bd 9ad4 5bbd
000000c0: 0056 29bc 13ab 283c 0dc3 88bc b679 3abc
000000d0: d3dd 153d 7ac3 c3bc 72d7 ac3c 7819 483d
000000e0: 5c14 7f3c 6c33 dfbc e0d0 8fbd a3ff 1bbd
000000f0: 7884 a9bc ca65 08bd bb66 88bc 3cd6 5dbc
00000100: c428 b13c 9781 753c e7e7 9c3c ca60 a6bc
00000110: cbdc 903c 6f04 bf3c 8a3d e4bc 33d6 15bc
00000120: be15 913c 2310 53bc 096c b4bc 5c8a 2ebe
00000130: e7e1 9dbc d647 9abc a4eb 313d 9868 943c
00000140: bf41 483c 7ac5 b33c f9f9 ee3d c4c3 903c
00000150: daf2 0bbd 2fe2 91bc 9760 aa3c a7fb d13d
00000160: 8cb4 72bc d603 66bd 9be8 963c aa98 4b3c
00000170: f40d 70bc e019 2abd 668b 93bd 1bd4 fc3c
00000180: a1b0 083d 263f 74bc 51a0 16bd 390a ed3c
00000190: 3598 3b3c 8907 323e c9f1 dfbc d87e d4bc
000001a0: 8ad8 c2bc 8381 883c d55c b43c 14e8 79bd
000001b0: 9ffe b43c 6bd7 4dbc 922a 53bc f510 25bd
000001c0: 6337 103c 6c60 8f3d 17ae 5abc cf6b 30be
000001d0: abb9 91bd 4e45 5a3d 0d51 803d 22af dfbc
000001e0: 27bf d3bc 6f9c 0ebc 2325 b0bc ec1c 953c
000001f0: 388d 053d 5e4e 86bd fd4b 873c 89f2 49bc
00000200: 6405 3bbd 98b2 edbc dab5 933d dafd 58bd
00000210: e2bc 0a3d e1e5 d8bb 08f9 d6bc ea58 e1bc
00000220: 9b28 00bd 9384 913c ff6a c6bc 489b d6bc
00000230: 7282 1a3d 155c 0d3e 6503 97bc 2784 84bd
00000240: aafa 903d e76b ca3c c364 9cbd 4d73 8bbe
00000250: 4bae 5bbc 51ff 873c cba5 aa3c 97eb 15bd
00000260: 7494 9bbc 0f3c 943c 7a0c 0ebc 4442 c1bc
00000270: 6f82 1cbd c855 923c fad6 42bd 66ee edbc
00000280: 9a77 8d3c 68ab 6ebd 68e0 81bc 2ecf 8f3c
00000290: d604 bebc ec00 bd3c f643 60bc 458c 99bc
000002a0: ceac 10bd ae06 be3c 6853 bfbc f359 9d3c
000002b0: 9ad7 e6bc aed0 d33c c0a4 19be 4a79 62bc
000002c0: 471a 55bd b066 56bc c120 473d cbc3 be3c
000002d0: 7a54 283c 138f 833c bbe8 8d3e f75a b9bc
000002e0: 439b c9bc 663b 103d bdea 61bd 8bed 203c
000002f0: 4d55 8e3d f0f3 963c d1ec 7d3d 0b3b 2b3d
00000300: c747 48bc 0899 74bc ab22 36bd f241 603c
00000310: b827 2d3d 4f30 29bd 5d5c c3bc 0343 03bd
00000320: 0e07 f8bd e85d ccbd a74e 1e3d 30f8 0d3d
00000330: db67 ecbc 310f a93c 2271 573d 7f8e e33c
00000340: 5588 8abd dadc b4bc b5ff a93c e585 703c
00000350: 45fe 9c3c a9e9 ad3c d15d 6c3c ef0e 25bd
00000360: 810c c5bc 1d06 ef3c f99d 62bc 50c4 64bc
00000370: fe51 063d bd12 ec3c a8a3 e53c f405 613d
00000380: 4407 c2bd 1932 a4bc 98e4 bf3c 4dd8 9d3c
00000390: dae8 9e3c 22a3 543d 85c9 d53c 52de 963c
000003a0: a1d2 5b3c 8a95 b4bc d611 1dbd 7e9e 21bc
000003b0: 42c5 0dbd 0efd dbbc 9e0a 84bd 12c8 9d3c
000003c0: abfb a4bd 874e fd3d f565 77bc 2afd 99bc
000003d0: 817f debc 08af 31bd 4451 cc3c 8346 7ebc
000003e0: cc77 ec3c 9552 5abd f4f1 c7bc 8114 84bd
000003f0: 9f65 c9bc 7dcc 663d 4de0 c13c 757e 623d
0.020954993 -0.01429119 0.05825923 -0.007340951 0.017067805 -0.013040803 0.07334794 0.017841166
-0.021030737 -0.008617498 -0.011484442 0.027298441 0.04959543 -0.019436698 0.055646427 0.01161531
0.040628966 -0.03338464 -0.0278286 -0.033099033 0.008858665 -0.041534226 -0.017226888 0.018459858
-0.011980026 0.015247689 0.02038229 0.010316648 0.044300847 0.026388992 -0.010706141 0.02199778
-0.07607813 -0.014428234 -0.01098745 0.09157404 -0.017448729 0.016245583 -0.032702886 -0.023548538
-0.03124579 -0.021411188 -0.035061758 0.042127963 -0.017410072 0.053389776 -0.03956957 -0.05366955
-0.010335445 0.0102946935 -0.01669457 -0.011381557 0.0365885 -0.023896921 0.021098826 0.048852414
0.015568819 -0.0272462 -0.070222616 -0.03808559 -0.020693049 -0.0333002 -0.016650548 -0.013539847
0.021625884 0.01498451 0.019153548 -0.020309824 0.017683407 0.023317544 -0.027861375 -0.009145307
0.017710563 -0.012882265 -0.022024171 -0.17044967 -0.019272758 -0.018833082 0.043437615 0.01811628
0.012222706 0.02194475 0.11668772 0.017671473 -0.03416715 -0.017808048 0.02079801 0.10253077
-0.014813554 -0.056156002 0.018421462 0.012426535 -0.014651764 -0.041528583 -0.072043225 0.030862859
0.03337157 -0.014907634 -0.036773983 0.028935539 0.011449863 0.17385687 -0.027336972 -0.02593939
-0.023784894 0.016663318 0.022016922 -0.061012343 0.022094069 -0.012563567 -0.0128885675 -0.040299375
0.008802268 0.07000813 -0.01334717 -0.17228626 -0.071154915 0.05328875 0.06265459 -0.02730519
-0.025847984 -0.008704289 -0.021502083 0.018202268 0.03260538 -0.06557916 0.016515726 -0.012325891
-0.045659438 -0.029015824 0.0721242 -0.052976467 0.03387154 -0.0066192006 -0.026241794 -0.027508218
-0.031288724 0.017763412 -0.024220942 -0.02619709 0.03772206 0.13804658 -0.018434236 -0.064705186
0.070790604 0.024709655 -0.07636406 -0.27236405 -0.013408254 0.016601237 0.02083101 -0.03660163
-0.018991686 0.018095044 -0.008669967 -0.023591168 -0.03821033 0.01786317 -0.0475683 -0.029044341
0.017268945 -0.058268934 -0.015854076 0.017554846 -0.023195665 0.023071729 -0.013688078 -0.018743644
-0.03532105 0.023196544 -0.0233552 0.01920793 -0.028178979 0.025856342 -0.15004253 -0.013822863
-0.052027013 -0.013086006 0.04861522 0.02328672 0.010274047 0.016059434 0.27716622 -0.022626383
-0.024610167 0.035212897 -0.055155504 0.00982226 0.069498636 0.018426865 0.061993424 0.041804355
-0.012224144 -0.014929064 -0.044466656 0.013687598 0.042274207 -0.041305836 -0.023847753 -0.03204633
-0.121107206 -0.09978849 0.038649227 0.03466052 -0.028858116 0.020637127 0.052598126 0.027777908
-0.067642845 -0.022077966 0.020751813 0.01468036 0.019164214 0.021229582 0.014426664 -0.040297445
-0.024053814 0.02917772 -0.013831609 -0.01396282 0.032793038 0.028817529 0.028032139 0.054937318
-0.09474042 -0.02004342 0.023424432 0.01926818 0.019398142 0.051913388 0.026097069 0.018416557
0.013416917 -0.022043962 -0.038347088 -0.009864448 -0.034611948 -0.026854064 -0.064473376 0.01926044
-0.08055814 0.123684935 -0.015099992 -0.018797476 -0.027160408 -0.043379813 0.024941094 -0.015519741
0.028865717 -0.053301413 -0.024407364 -0.06449223 -0.02458459 0.05634736 0.023666525 0.05529638
