checkpoints/checkpoint_critic_ddqn_12.pth (torch_old, 304178 bytes, 5 tensors)

fcs1.weight f4 [256, 33]
-0.020424021 0.09210168 -0.043214004 -0.045334697 0.016680488 -0.04255197 0.03185342 0.01693536
0.029109102 0.02910142 0.007758302 0.06984197 -0.0579279 0.0536036 -0.02535763 0.030357057
-0.0046903677 -0.03812627 0.029942716 0.009667786 -0.0674368 0.09035405 0.043077614 -0.007683308
0.00039009453 0.073492505 -0.032776743 0.14368694 0.02792553 0.05109015 -0.14498533 0.020274766
-0.13290161 -0.000448372 0.020372411 0.01374005 0.010332605 -0.04919066 0.04206257 -0.018492457
-0.045132276 0.03692274 0.0115694795 0.011520452 -0.008368387 0.0016383812 0.100751266 -0.07848346
-0.047624122 0.03580027 -0.025678165 0.0421081 -0.0145638725 0.0062855403 -0.039347537 0.025908003
0.0146203395 -0.024386132 -0.022784863 -0.05735867 0.12866507 0.015328486 0.0114473775 -0.05793579
0.03391771 -0.02111547 0.020217616 -0.03620251 -0.05088239 -0.03835455 0.038544267 -0.004775057
-0.025572272 0.0042002522 -0.013020684 -0.04873433 0.016419454 0.00942895 0.017849036 0.010803982
0.041282583 -0.030270567 0.00042358087 0.023249049 -0.010605403 -0.024451232 0.018579565 -0.0015429107
0.0056687524 -0.0026825906 0.009929728 -0.044015996 0.005534963 0.03358711 -0.0040950854 0.05361893
-0.014011198 0.01849357 -0.20608568 0.034611117 0.010740947 -0.08598842 0.039919958 -0.050620295
0.0038822333 -0.009258403 0.031234996 0.070848115 0.06854617 -0.016728444 -0.029691774 -0.015092628
0.00073346245 -0.023974372 -0.029044634 0.009473424 -0.011476379 0.016466554 0.03311846 -0.031498495
0.03420656 0.017536154 -0.010034115 -0.024112694 -0.01248262 -0.022668224 0.03735681 0.06987287
-0.015151218 -0.006942621 -0.022331007 0.09884046 -0.027623553 0.08812983 -0.014839766 -0.013226312
-0.08601605 -0.06849102 -0.0011492113 0.024279077 0.16371651 -0.15638706 -0.0028401525 0.025091093
0.044372678 0.014647072 0.07879429 -0.02611925 -0.023244547 -0.01611495 0.13529536 0.099049345
0.010145571 0.03344103 -0.000489148 -0.0021143493 0.032589503 -0.0047787875 0.036900062 0.031946316
0.034694035 0.04573536 -0.020906232 -0.010656625 -0.11875522 0.031305995 -0.05348828 0.0070730518
0.013417774 -0.042471122 -0.02210396 0.1097419 -0.056185886 0.039297413 -0.02662997 0.023105701
-0.016394245 -0.013591135 0.019189948 0.03378815 -0.04480863 0.049205158 0.028270312 -0.0040531736
0.030546986 0.0027712397 0.0015173208 -0.009739408 0.0075952983 -0.021538 -0.025314609 -0.037510395
0.06980879 0.031578347 0.04400678 0.0070819855 0.021717638 0.049113967 -0.07095432 0.12086505
-0.06719307 -0.049669936 0.019184675 -0.016614195 -0.027452957 0.00803074 -0.027418412 -0.002894131
-0.021748504 -0.013649899 0.0048291082 0.11097225 -0.05101358 0.09848218 0.05250435 0.019718474
-0.030156061 0.0046808277 0.023891587 -0.051752504 -0.01074822 0.04916711 -0.015886685 0.055817764
-0.030964788 0.111323275 -0.07096214 -0.05274736 -0.0020509358 0.012658566 0.34243786 -0.07323431
-0.008176272 -0.018385187 -0.05356079 0.11831959 -0.045614287 0.00030199197 -0.083128735 0.05581083
0.006983295 -0.020667596 -0.07425078 -0.027941175 0.0313895 -0.02047368 0.013898339 0.011372323
0.018393816 0.012142953 -0.01975682 0.011235285 -0.0005712199 0.016522536 0.03798476 0.04332887
00000000: 4750 a7bc ce9f bc3d 2b01 31bd e0b0 39bd
00000010: 85a5 883c f94a 2ebd bb78 023d 06bc 8a3c
00000020: 3676 ee3c 1a66 ee3c 5b39 fe3b 4f09 8f3d
00000030: ce45 6dbd 738f 5b3d ceba cfbc 5daf f83c
00000040: a8b1 99bb 4b2a 1cbd 6d4a f53c a265 1e3c
00000050: 4e1c 8abd 8b0b b93d 2772 303d 42c4 fbbb
00000060: 9a85 cc39 3d83 963d e840 06bd ab22 133e
00000070: 15c4 e43c e843 513d 0977 14be 4417 a63c
00000080: 5c17 08be 7913 ebb9 0be4 a63c f21d 613c
00000090: 164a 293c 257c 49bd cd49 2c3d 7e7d 97bc
000000a0: 9fdc 38bd 4d3c 173d ea8d 3d3c 47c0 3c3c
000000b0: 8f1b 09bc f3be d63a ae56 ce3d f0bb a0bd
000000c0: 8311 43bd 4ea3 123d 045b d2bc 8b79 2c3d
000000d0: 4f9d 6ebc eff6 cd3b e22a 21bd 053d d43c
000000e0: 268a 6f3c 6dc5 c7bc 52a7 babc edf0 6abd
000000f0: c7c0 033e 5524 7b3c c88d 3b3c 144e 6dbd
00000100: 4ced 0a3d 5afa acbc 6a9f a53c 1549 14bd
00000110: 0e6a 50bd a919 1dbd 98e0 1d3d 1578 9cbb
00000120: f17c d1bc 45a2 893b b554 55bc a69d 47bd
00000130: 1782 863c e27b 1a3c 2438 923c 2f03 313c
00000140: ed17 293d fbf9 f7bc 1014 de39 ca74 be3c
00000150: 49c2 2dbc f34d c8bc 2c34 983c 7e3b caba
00000160: f1c0 b93b 67ce 2fbb 4cb0 223c 1e4a 34bd
00000170: a35e b53b a392 093d 1130 86bb 869f 5b3d
00000180: 398f 65bc d47f 973c 2008 53be 63c4 0d3d
00000190: ccfa 2f3c b21a b0bd 1c83 233d 3a57 4fbd
000001a0: 116d 7e3b 8fb0 17bc 89e0 ff3c d118 913d
000001b0: ef61 8c3d 170a 89bc 2a3c f3bc 1247 77bc
000001c0: d545 403a e765 c4bc 03ef edbc 6c36 1b3c
000001d0: 6c07 3cbc dee4 863c 39a7 073d 9104 01bd
000001e0: 2e1c 0c3d fba7 8f3c 2166 24bc fc87 c5bc
000001f0: e783 4cbc b6b2 b9bc 7403 193d 8219 8f3d
00000200: d03c 78bc ed7e e3bb 84ef b6bc de6c ca3d
00000210: ca4a e2bc 6a7d b43d 7d22 73bc 2cb3 58bc
00000220: 2f29 b0bd 0545 8cbd 22a1 96ba eae4 c63c
00000230: 4da5 273e ee23 20be da21 3abb d68b cd3c
00000240: 20c0 353d 46fa 6f3c e75e a13d 0af8 d5bc
00000250: 596b bebc 8003 84bc de8a 0a3e 62da ca3d
00000260: 9c39 263c 76f9 083d 2b3a 00ba e590 0abb
00000270: 927c 053d 6097 9cbb 8524 173d 24da 023d
00000280: 551b 0e3d 0055 3b3d 8c43 abbc 2099 2ebc
00000290: f035 f3bd b73a 003d 8716 5bbd 0fc5 e73b
000002a0: 39d6 5b3c 33f6 2dbd 5d13 b5bc 5cc0 e03d
000002b0: 2c23 66bd 53f6 203d 1827 dabc 2b48 bd3c
000002c0: 394d 86bc 5aad 5ebc 3d34 9d3c 7165 0a3d
000002d0: 4189 37bd 598b 493d 2497 e73c 7cd0 84bb
000002e0: ac3d fa3c b09d 353b d6e0 c63a 0a92 1fbc
000002f0: fbe1 f83b 7670 b0bc 9560 cfbc 80a4 19bd
00000300: e9f7 8e3d 4c58 013d 7440 343d 0010 e83b
00000310: 30e9 b13c ba2b 493d 8050 91bd 1888 f73d
00000320: 859c 89bd b472 4bbd 2e29 9d3c 7e1a 88bc
00000330: 06e5 e0bc 5d93 033c 949c e0bc 76ab 3dbb
00000340: eb29 b2bc d3a3 5fbc 7f3d 9e3b 6b45 e33d
00000350: 9ef3 50bd 06b1 c93d cd0e 573d a388 a13c
00000360: d809 f7bc a161 993b 4ab8 c33c 6ffa 53bd
00000370: 4d19 30bc 7463 493d cb24 82bc 2ba1 643d
00000380: dea9 fdbc 75fd e33d 9954 91bd 9e0d 58bd
00000390: fe68 06bb e065 4f3c 0454 af3e dffb 95bd
000003a0: c5f5 05bc 889c 96bc 8f62 5bbd 8b51 f23d
000003b0: 0cd6 3abd ad54 9e39 663f aabd e699 643d
000003c0: 20d4 e43b 174f a9bc cb10 98bd e4e4 e4bc
000003d0: 4792 003d 6bb8 a7bc dcb5 633c fb52 3a3c
000003e0: a1ae 963c 3df3 463c 0ed9 a1bc 3314 383c
000003f0: ebbd 15ba 455a 873c e895 1b3d 9d79 313d

fcs1.bias f4 [256]
-0.11480988 -0.17953937 0.073341645 -0.12099106 0.016361376 -0.055859096 -0.23043299 0.0143038435
0.013796779 0.09362593 -0.2686606 0.078651816 -0.06103307 0.12550737 0.089009695 0.0909159
-0.0002539271 -0.053965036 -0.14547783 -0.17803882 -0.035580922 -0.08943785 -0.06099958 0.1671012
-0.14197582 -0.061732348 0.15379533 -0.034265332 -0.03319788 -0.12611672 -0.098726965 -0.09348112
0.06648618 -0.20713034 -0.19892395 0.078086674 -0.15907466 -0.17420368 -0.001262749 0.050459743
-0.17566146 0.0036309548 0.057027347 0.118386604 0.11487987 -0.025240293 0.048685253 -0.12928315
0.13578565 0.08533404 -0.20379104 0.049402162 -0.101722896 -0.07483642 -0.098806374 0.06620109
-0.06488777 0.035420228 -0.27617764 0.07612591 -0.14216772 -0.12640062 -0.019179322 -0.059716456
-0.12293515 -0.14097963 0.18155295 -0.012179873 0.036282357 -0.12529343 0.17476566 -0.08190885
-0.24802753 0.06898957 0.05935411 0.045177933 -0.17460963 -0.03654568 -0.14624666 -0.08030992
0.10666831 -0.058636487 -0.20617418 -0.038970605 0.092896834 0.05645757 -0.20385717 -0.060280003
-0.08849064 0.10104806 -0.094688684 0.06640265 0.067092866 0.12787364 -0.0036321585 -0.034224525
-0.0150133595 -0.14950904 -0.09715869 0.13137409 0.014821112 0.035293784 0.029951015 -0.033660684
0.010398556 -0.025917547 -0.09426334 -0.025001008 -0.004153682 -0.010030398 0.067025915 -0.05979834
-0.1650146 -0.20555544 0.0049464507 -0.03961995 -0.11977765 -0.13925225 -0.0426936 -0.034112677
0.17449415 0.099405654 -0.051575325 0.034582604 0.11592773 0.09506564 -0.16444987 -0.10675453
-0.106329024 -0.20963271 -0.09887231 -0.1440772 0.10360992 -0.13272159 -0.10383592 -0.021746578
-0.06071724 -0.21496405 -0.14794737 -0.053105567 0.0063647004 -0.017474784 0.08583388 -0.003313438
-0.13215402 -0.12613595 -0.058258876 0.11674437 0.09129998 -0.16202778 -0.19882551 0.020438407
-0.0013213425 -0.08271784 -0.018761422 -0.04237396 -0.1346025 0.0054127686 -0.11057894 -0.13271932
-0.0096096685 -0.11722236 0.0012276771 0.11242437 0.113912545 -0.11104216 -0.10331164 -0.053579018
-0.080105275 -0.06338275 0.06960717 0.17637639 -0.13021074 -0.04628677 -0.03716332 0.0077631683
-0.12819913 -0.1020463 -0.15372625 -0.13972655 -0.123091504 0.03589067 -0.09098741 -0.124809206
-0.06339124 0.031757727 0.020819504 -0.10519337 -0.07912398 0.075266816 -0.1256391 -0.09567846
-0.0015959016 -0.058267593 -0.06641601 -0.16381168 -0.0017578547 0.07885846 -0.17219155 0.031173525
0.13548434 0.1490968 0.01841392 0.13017115 -0.011937299 -0.16043104 -0.13311556 -0.15819456
-0.0032643657 -0.0025600006 -0.059601836 -0.0126647 -0.12664594 0.029768605 -0.13297522 0.06347571
-0.110076666 -0.14054395 -0.10304194 0.09128706 -0.02883103 -0.16084102 0.027483124 -0.20052671
0.10217859 -0.1716408 -0.06571379 -0.20426096 -0.062428683 0.124344975 -0.027743421 -0.040213127
-0.1626473 0.045768138 -0.10923651 -0.047608756 0.005685877 0.05476138 -0.09083617 0.00593641
-0.21635695 -0.15847336 -0.09705065 0.01872258 0.032956064 -0.117885284 -0.03638588 0.08030911
-0.025128301 0.08996124 -0.0756989 -0.19591112 -0.11929815 0.003763873 -0.11729727 -0.1658929
00000000: 7121 ebbd 2bd9 37be 2534 963d 29ca f7bd
00000010: 4b08 863c 82cc 64bd a0f6 6bbe ab5a 6a3c
00000020: e30b 623c f4be bf3d e28d 89be 3414 a13d
00000030: d0fd 79bd 0185 003e b74a b63d 1e32 ba3d
00000040: 8521 85b9 710a 5dbd 24f8 14be cf4f 36be
00000050: 4dbd 11bd 312b b7bd b2da 79bd 941c 2b3e
00000060: 1c62 11be 0fdb 7cbd 867c 1d3e ce59 0cbd
00000070: 80fa 07bd be24 01be 5d31 cabd 0873 bfbd
00000080: e829 883d fa19 54be b8b2 4bbe e8eb 9f3d
00000090: 78e4 22be 7362 32be d382 a5ba e0ae 4e3d
000000a0: 99e0 33be 50f5 6d3b 8295 693d ad74 f23d
000000b0: 2346 eb3d bbc4 cebc 306a 473d cd62 04be
000000c0: 650b 0b3e 9dc3 ae3d 99ae 50be ec59 4a3d
000000d0: 1854 d0bd d643 99bd ff5a cabd 7094 873d
000000e0: e1e3 84bd cd14 113d 2867 8dbe e7e7 9b3d
000000f0: 6a94 11be 2a6f 01be f41d 9dbc 3e99 74bd
00000100: 6dc5 fbbd f75c 10be 04e9 393e 178e 47bc
00000110: cf9c 143d ec4c 00be c5f5 323e d4bf a7bd
00000120: eefa 7dbe 674a 8d3d 4c1d 733d 7f0c 393d
00000130: decc 32be ecb0 15bd afc1 15be 8779 a4bd
00000140: ea74 da3d d02c 70bd 531f 53be a49f 1fbd
00000150: b240 be3d 0e40 673d efbf 50be 2ae8 76bd
00000160: 953a b5bd 49f2 ce3d 24ec c1bd 1dfe 873d
00000170: fc67 893d 4ff1 023e 8209 6ebb 042f 0cbd
00000180: 98fa 75bc e618 19be 23fb c6bd ee86 063e
00000190: 40d4 723c 3790 103d d55b f53c c9df 09bd
000001a0: b45e 2a3c 0951 d4bc 230d c1bd eace ccbc
000001b0: 9c1b 88bb 8a56 24bc e244 893d 1bef 74bd
000001c0: 96f9 28be 207d 52be d615 a23b 8748 22bd
000001d0: fc4d f5bd 2498 0ebe 7cdf 2ebd bcb9 0bbd
000001e0: 98ae 323e 3195 cb3d a640 53bd 7da6 0d3d
000001f0: 856b ed3d c6b1 c23d 8c65 28be 1ea2 dabd
00000200: 08c3 d9bd f5a9 56be 917d cabd f988 13be
00000210: 7031 d43d 2be8 07be eda7 d4bd e125 b2bc
00000220: a4b2 78bd 891f 5cbe 847f 17be 3985 59bd
00000230: fa8e d03b 4727 8fbc acc9 af3d 4426 59bb
00000240: 6253 07be c829 01be dca0 6ebd ac17 ef3d
00000250: 7cfb ba3d 9cea 25be ea98 4bbe 726e a73c
00000260: e630 adba f967 a9bd 8eb1 99bc 5190 2dbd
00000270: 3dd5 09be 985d b13b 3677 e2bd 93e7 07be
00000280: df71 1dbc 4712 f0bd 02ea a03a c03e e63d
00000290: fb4a e93d 126a e3bd 0e95 d3bd ac75 5bbd
000002a0: 3c0e a4bd d1ce 81bd 348e 8e3d 039c 343e
000002b0: f755 05be 3297 3dbd 9138 18bd 2d62 fe3b
000002c0: a246 03be a7fd d0bd 6a6a 1dbe 7a14 0fbe
000002d0: 6617 fcbd 1802 133d 9b57 babd f89b ffbd
000002e0: 44d3 81bd 6414 023d aa8d aa3c 9f6f d7bd
000002f0: c10b a2bd 7d25 9a3d 89a7 00be 12f3 c3bd
00000300: 922d d1ba 00aa 6ebd 1e05 88bd 40be 27be
00000310: d167 e6ba 8b80 a13d fb52 30be 9f5f ff3c
00000320: 68bc 0a3e d5ac 183e cad8 963c 964b 053e
00000330: a994 43bc 0948 24be 724f 08be c1fd 21be
00000340: f8ee 55bb afc5 27bb 0e21 74bd 9a7f 4fbc
00000350: 79af 01be 4add f33c a82a 08be 8eff 813d
00000360: e06f e1bd c1ea 0fbe a707 d3bd b6f4 ba3d
00000370: 0d2f ecbc 82b3 24be 4a24 e13c e056 4dbe
00000380: 0243 d13d 9bc2 2fbe f494 86bd c929 51be
00000390: 38b5 7fbd 94a8 fe3d 2c46 e3bc 85b6 24bd
000003a0: 048d 26be 5f77 3b3d 64b7 dfbd 6601 43bd
000003b0: 9850 ba3b 784d 603d 5008 babd 3786 c23b
000003c0: ad8c 5dbe d746 22be 7ec2 c6bd 1960 993c
000003d0: f0fc 063d d76d f1bd 5c09 15bd 1a79 a43d
000003e0: ded9 cdbc 993d b83d 0608 9bbd ed9c 48be
000003f0: 9752 f4bd 4fab 763b 8d39 f0bd d4df 29be

fc2.weight f4 [256, 260]
0.04198605 -0.03337706 -0.031243522 -0.009621451 0.083017536 -0.14241014 -0.020349022 0.016897906
-0.110203646 0.039289474 -0.04038304 -0.14348641 0.12163424 0.08585486 0.075009614 -0.031095603
-0.010670666 0.054091617 -0.029836046 -0.05600939 0.15285581 -0.04178098 0.030513357 -0.027513098
-0.12919162 0.009314055 -0.06840054 -0.097605735 -0.05211094 -0.020421308 -0.015458431 -0.058688026
-0.023866838 0.02256785 0.13326363 0.031864114 0.104859136 0.06468675 -0.047884606 -0.062533505
-0.039918866 -0.1515561 0.0263759 0.08677218 -0.050365135 -0.093543306 -0.009877605 0.055546433
-0.022446005 -0.13116273 -0.10263671 -0.039606042 -0.13274466 -0.059922714 -0.053351935 0.049661193
0.042370018 0.026775196 -0.15050685 -0.078622736 -0.045255814 -0.06573971 0.010052735 -0.04416963
-0.1824391 -0.15227856 -0.008029253 -0.0074366354 0.0007962153 0.020521233 0.059092786 0.097154275
-0.04478037 -0.03065993 -0.093038544 0.008065195 -0.053327344 -0.0023504042 -0.010138431 -0.05357805
-0.15149628 -0.19639145 0.07318976 0.058500938 -0.026144322 0.0014051403 -0.06996502 -0.031395067
0.04609595 0.034941662 0.010838164 0.10107664 0.03612341 0.019781856 0.0353173 0.035836652
-0.094703354 -0.045186806 0.0066915047 -0.012401926 -0.013799808 -0.0061686304 -0.07421764 0.056323875
0.03546317 0.022463638 0.00036115793 0.011018842 0.034758396 -0.047376037 -0.14560524 -0.059626885
-0.08904794 0.072301224 -0.030072711 -0.03615979 0.033304404 0.01285322 0.031871177 -0.05128753
0.060175262 0.024215082 -0.0007025912 0.043520194 0.07722124 0.034037206 0.00791648 0.0046358127
0.011063077 0.061938383 0.01999505 0.0321909 -0.011167949 -0.08290827 0.045016214 0.036643002
-0.075162284 -0.005305758 -0.13450524 0.04626866 -0.055230264 -0.118488014 0.019377055 -0.02146394
-0.02001136 -0.036550466 -0.043908644 0.0065434077 -0.028321104 0.044617884 0.0245436 -0.043214977
0.08137514 0.05171194 0.07705386 0.047968324 -0.027025146 0.11478563 0.02121894 -0.04548259
-0.039553832 -0.04343927 -0.032250583 0.032692716 0.04784919 0.022128223 0.10297587 -0.063730665
-0.107041106 0.05332244 0.005843807 0.05813076 0.008649648 0.038043924 -0.07239344 0.08195219
0.0632706 0.00906818 0.07696936 -0.12585033 -0.01695625 -0.092342205 0.05233787 -0.029784445
-0.015473018 -0.09876766 0.0166902 0.022637835 -0.03023654 -0.041707274 0.026891835 0.07994152
-0.033917334 -0.12777765 -0.09320174 -0.012844506 -0.059427273 -0.030929632 0.057374068 0.06487581
0.01790781 -0.033275634 -0.16858172 -0.017454239 0.040566526 -0.12743571 0.025410155 -0.0642547
0.0139321685 -0.14214171 -0.19869591 0.040034395 0.095408596 -0.022874111 -0.022457732 -0.02767866
0.03190921 0.017878225 -0.044304498 0.12764212 -0.10193376 0.009950667 0.040525272 -0.105062656
0.043079786 -0.05636776 0.029553749 -0.2151131 -0.03960517 -0.020865858 -0.010829991 -0.01581733
-0.040921867 -0.010725775 0.03675998 0.054305524 -0.011417897 -0.11859953 0.019946853 -0.04083048
0.009701927 0.036554642 -0.019362487 -0.057797845 -0.019629082 -0.1091781 -0.027431209 -0.10041228
-0.04268744 -0.004404875 -0.022722112 -0.15979289 0.037369046 0.051983137 -0.016123123 0.043116953
00000000: 90f9 2b3d 62b6 08bd 6af2 ffbc 4aa3 1dbc
00000010: 1905 aa3d f7d3 11be feb2 a6bc 7a6d 8a3c
00000020: 73b2 e1bd 00ee 203d b068 25bd 1aee 12be
00000030: 5f1b f93d acd4 af3d a49e 993d 35bc febc
00000040: 04d4 2ebc 2c8f 5d3d b96a f4bc 1a6a 65bd
00000050: 3c86 1c3e 8822 2bbd 26f7 f93c 2663 e1bc
00000060: cf4a 04be fa99 183c 9515 8cbd 84e5 c7bd
00000070: 4872 55bd 964a a7bc 5c45 7dbc db62 70bd
00000080: 6384 c3bc 36e0 b83c 4376 083e f283 023d
00000090: 63c0 d63d 7d7a 843d a622 44bd 9111 80bd
000000a0: f781 23bd 8631 1bbe 4512 d83c 9db5 b13d
000000b0: ac4b 4ebd a293 bfbd aed5 21bc a884 633d
000000c0: afe0 b7bc 864f 06be 3233 d2bd f239 22bd
000000d0: 37ee 07be 8571 75bd 8f87 5abd 8969 4b3d
000000e0: 2f8c 2d3d a857 db3c 781e 1abe f504 a1bd
000000f0: 295e 39bd 8ba2 86bd 3ab4 243c 37eb 34bd
00000100: 51d1 3abe e9ee 1bbe 218d 03bc 05af f3bb
00000110: 1bb9 503a 251c a83c 470b 723d d2f8 c63d
00000120: 9f6b 37bd 892a fbbc fe8a bebd e123 043c
00000130: c66d 5abd 3d09 1abb a91b 26bc a874 5bbd
00000140: d721 1bbe d71a 49be 83e4 953d ae9e 6f3d
00000150: 9e2c d6bc af2c b83a d249 8fbd 1d98 00bd
00000160: 1bcf 3c3d fd1e 0f3d 8e92 313c 4501 cf3d
00000170: 24f6 133d 8f0d a23c e0a8 103d 74c9 123d
00000180: d5f3 c1bd cd15 39bd 6944 db3b 7331 4bbc
00000190: 9718 62bc 3922 cabb 6bff 97bd ddb3 663d
000001a0: d441 113d aa05 b83c cc59 bd39 6088 343c
000001b0: d25e 0e3d 600d 42bd 8a19 15be 523b 74bd
000001c0: c45e b6bd aa12 943d 0c5b f6bc 4a1c 14bd
000001d0: 336a 083d 5096 523c 5a8b 023d e012 52bd
000001e0: 567a 763d b55e c63c 192e 38ba 3b42 323d
000001f0: 2b26 9e3d 996a 0b3d 20b4 013c 04e8 973b
00000200: e841 353c 1ab3 7d3d a9cc a33c 9bda 033d
00000210: c6f9 36bc d0cb a9bd ec62 383d f916 163d
00000220: afee 99bd eddb adbb bebb 09be 3584 3d3d
00000230: 2139 62bd d8a9 f2bd a1bc 9e3c 25d5 afbc
00000240: ddee a3bc f1b5 15bd 8dd9 33bd 156a d63b
00000250: a901 e8bc 3ec1 363d a90f c93c 3002 31bd
00000260: 02a8 a63d e6cf 533d 6ace 9d3d 6f7a 443d
00000270: d763 ddbc ba14 eb3d 58d3 ad3c f44b 3abd
00000280: 3303 22bd 60ed 31bd 3019 04bd cce8 053d
00000290: 83fd 433d 3f46 b53c 03e5 d23d 3985 82bd
000002a0: 5e38 dbbd a168 5a3d 687d bf3b 851a 6e3d
000002b0: 41b7 0d3c f2d3 1b3d 0343 94bd 8dd6 a73d
000002c0: 0494 813d b492 143c 1da2 9d3d e9de 00be
000002d0: d5e7 8abc e91d bdbd 3c60 563d 82fe f3bc
000002e0: 8b82 7dbc b346 cabd e3b9 883c fb72 b93c
000002f0: 9fb2 f7bc 3fd5 2abd 444c dc3c 61b8 a33d
00000300: e7ec 0abd 25d8 02be 8ee0 bebd c371 52bc
00000310: 036a 73bd 2460 fdbc 1201 6b3d 9cdd 843d
00000320: 66b3 923c 084c 08bd b0a0 2cbe 31fc 8ebc
00000330: 1629 263d 827e 02be f528 d03c f897 83bd
00000340: c043 643c 998d 11be f176 4bbe 1bfb 233d
00000350: 9565 c33d 7d62 bbbc 47f9 b7bc 5bbe e2bc
00000360: 3bb3 023d 5b75 923c a278 35bd 9eb4 023e
00000370: a6c2 d0bd 1f08 233c d4fd 253d 172b d7bd
00000380: 6e74 303d e1e1 66bd b41a f23c 9c46 5cbe
00000390: 0839 22bd e0ee aabc 4670 31bc 5893 81bc
000003a0: b09d 27bd 29bb 2fbc a291 163d 786f 5e3d
000003b0: 2212 3bbc 4fe4 f2bd 9567 a33c dd3d 27bd
000003c0: d5f4 1e3c 52ba 153d 149e 9ebc 6fbd 6cbd
000003d0: 2bcd a0bc c598 dfbd 6ab7 e0bc f4a4 cdbd
000003e0: 06d9 2ebd c556 90bb b923 babc bfa0 23be
000003f0: 4910 193d 45ec 543d a414 84bc 679b 303d

fc2.bias f4 [256]
-0.018983083 -0.03915598 0.015992494 0.042517617 0.060422115 -0.062600255 0.046445098 0.056945883
-0.062605165 -0.06430051 0.0022561147 -0.015022363 0.07471193 0.029260358 0.03678731 -0.018996926
0.07982089 -0.033738703 0.0374033 -0.028845107 -0.019888664 -0.034307584 0.0065368856 -0.00558835
0.020310957 0.03341508 -0.03218935 0.032139737 0.013055574 0.09457918 -0.0055668945 0.087932244
0.05374096 -0.009186604 0.009854766 0.08156881 -0.0015971358 0.0024555759 -0.06589197 -0.03771386
-0.0577184 -0.055917103 -0.10434487 0.038727533 -0.030498262 0.036011096 -0.021073088 -0.04026571
-0.00811932 -0.020380855 -0.0058163228 0.019178022 -0.021133881 0.044741794 -0.042993393 0.080924645
0.011344268 0.065671735 0.036925204 0.02518367 0.070941366 0.042364944 -0.002320511 -0.07356568
0.029366994 0.009015414 0.065972425 -0.06486007 0.023511482 0.08962131 -0.06127638 -0.023624418
-0.018432735 0.024186218 0.046010148 -0.019419946 -0.0959803 0.038533006 -0.09639402 0.025126912
-0.01074172 -0.005069301 0.00418596 -0.05493248 -0.064112924 0.040090363 0.024098288 0.10186438
0.007834942 0.04241068 0.065704286 -0.0007734097 0.00036923922 -0.07380837 -0.009299385 0.03191801
-0.025717305 0.018292487 0.002362631 0.05751583 0.046731148 -0.07313797 -0.056175776 -0.060839813
-0.019313127 0.06604489 0.06558308 0.039138187 -0.068297714 -0.041313034 -0.00014662601 -0.022822924
0.055065706 -5.390966e-05 -0.029715937 -0.017966267 -0.024276163 0.031088132 0.10040073 0.011839277
0.034848295 -0.07234495 -0.04010265 0.037158616 -0.059763473 -0.037147257 0.031148799 0.03196004
-0.029320315 0.0026161757 0.0373711 0.01792912 -0.06929121 -0.03411265 0.03156565 -0.0069922763
-0.0091764685 0.06728458 -0.025668334 -0.08716679 0.0456077 0.013692176 -0.091425344 -0.06462042
-0.04464287 0.0755258 0.03934215 0.032875 -0.08001227 -0.07747709 0.0025732708 -0.051219102
-0.0011958928 -0.09454454 0.02503669 -0.05902301 -0.0076325047 -0.0042205662 -0.0029817356 -0.06820222
0.004739512 -0.0038889195 -0.07243413 0.068487756 0.044809464 -0.014775149 -0.008711995 -0.07493569
-0.06259367 -0.029321305 -0.031086354 -0.0038748535 -0.007876723 0.0025971348 -0.03580382 -0.042397786
0.0056792414 -0.013788159 0.0755608 0.043402914 0.035806175 0.06111565 0.03142859 -0.07802986
-0.06561619 0.064818345 -0.012185044 0.030107977 0.04019577 -0.040485293 -0.055969782 0.10045109
0.017182821 -0.020674707 0.050617494 0.042058025 0.014826881 0.022313528 -0.02865298 0.030055568
0.025362484 -0.031481527 -0.03447781 -0.03494118 0.0012026863 0.055847235 0.035382427 0.043104764
-0.038846612 -0.015136912 0.077473655 0.0050347582 -0.0008511476 0.035983715 -0.02401035 0.012360572
-0.02729729 -0.025733236 -0.044575524 0.017403929 0.06644857 0.048082218 0.09607562 -0.1822194
-0.02846353 0.021052364 -0.04486146 0.02856626 -0.018888336 -0.065007746 0.049302362 -0.052328628
0.010307931 0.04468386 -0.042342775 -0.012369994 -0.01413356 -0.07438743 0.046890233 -0.05181373
0.09002421 0.060556065 -0.04848166 0.006853754 -0.02150604 -0.06519162 0.0124595845 0.025853885
-0.10397256 -0.057909098 -0.014293898 -0.08263232 0.037177645 0.017988669 -0.07294104 0.005493079
00000000: 6982 9bbc 0562 20bd b102 833c f426 2e3d
00000010: 2e7d 773d 9034 80bd 373d 3e3d 1640 693d
00000020: 2337 80bd fcaf 83bd 53db 133b 5b20 76bc
00000030: 9102 993d 6bb3 ef3c 4aae 163d 719f 9bbc
00000040: 2379 a33d 9831 0abd 3434 193d 934c ecbc
00000050: 8ded a2bc 1c86 0cbd 5f33 d63b 7a1e b7bb
00000060: 2a63 a63c 40de 083d fbd8 03bd f5a4 033d
00000070: 0ce7 553c bbb2 c13d 7f6a b6bb d215 b43d
00000080: 7b1f 5c3d 6983 16bc e275 213c 8c0d a73d
00000090: fc56 d1ba baed 203b 5ff2 86bd d979 1abd
000000a0: 216a 6cbd 5509 65bd c3b2 d5bd c3a0 1e3d
000000b0: 7ed7 f9bc 5f80 133d 78a1 acbc a8ed 24bd
000000c0: e506 05bc c0f5 a6bc da96 bebb 3a1b 9d3c
000000d0: f620 adbc 2c43 373d d719 30bd d2bb a53d
000000e0: 4fdd 393c e77e 863d e23e 173d fc4d ce3c
000000f0: b549 913d dd86 2d3d b713 18bb 9aa9 96bd
00000100: 0d93 f03c 63b5 133c 8d1c 873d 5bd5 84bd
00000110: 279b c03c 618b b73d f1fc 7abd ff87 c1bc
00000120: 3f00 97bc 2d22 c63c 2375 3c3d 9416 9fbc
00000130: 5291 c4bd c9d4 1d3d 3a6a c5bd f4d6 cd3c
00000140: 0afe 2fbc 611c a6bb 612a 893b e100 61bd
00000150: a34d 83bd cb35 243d c669 c53c 469e d03d
00000160: 215e 003c d2b6 2d3d f88f 863d a5be 4aba
00000170: 7396 c139 d828 97bd 735c 18bc 76bc 023d
00000180: 19ad d2bc 20da 953c 5fd6 1a3b b895 6b3d
00000190: 2969 3f3d 5cc9 95bd 9218 66bd 2b33 79bd
000001a0: 9036 9ebc 8b42 873d 6c50 863d 5d4f 203d
000001b0: acdf 8bbd db37 29bd 9fbf 19b9 24f7 babc
000001c0: 948c 613d 0f1d 62b8 d66e f3bc fe2d 93bc
000001d0: cede c6bc 8aac fe3c e69e cd3d 87f9 413c
000001e0: 16bd 0e3d 9729 94bd ad42 24bd a233 183d
000001f0: 8bca 74bd b927 18bd c42b ff3c 88e8 023d
00000200: 2831 f0bc 2574 2b3b 7012 193d 17e0 923c
00000210: 8de8 8dbd b5b9 0bbd fc4a 013d 771f e5bb
00000220: e658 16bc 7fcc 893d 6646 d2bc 8184 b2bd
00000230: 24cf 3a3d 2655 603c 363d bbbd b657 84bd
00000240: 71db 36bd 45ad 9a3d 3c25 213d f0a7 063d
00000250: 79dd a3bd 4fac 9ebd 52a4 283b 1fcb 51bd
00000260: 81bf 9cba 91a0 c1bd bf19 cd3c 1dc2 71bd
00000270: 171a fabb ad4c 8abb 3969 43bb 9bad 8bbd
00000280: e94d 9b3b 3edd 7ebb 5858 94bd 4f43 8c3d
00000290: 218a 373d 7713 72bc c1bc 0ebc e277 99bd
000002a0: 1c31 80bd 3c33 f0bc cfa8 febc 41f1 7dbb
000002b0: 5f0d 01bc b134 2a3b 07a7 12bd 4da9 2dbd
000002c0: ee18 ba3b bbe7 61bc 9fbf 9a3d 41c7 313d
000002d0: 7fa9 123d 6754 7a3d 44bb 003d 1fce 9fbd
000002e0: c861 86bd 7bbf 843d c7a3 47bc 01a5 f63c
000002f0: 52a4 243d e8d3 25bd 9240 65bd 4db9 cd3d
00000300: fdc2 8c3c 015e a9bc 4a54 4f3d 0945 2c3d
00000310: 72ec 723c dcca b63c a8b9 eabc 1837 f63c
00000320: fcc4 cf3c c6f2 00bd 9b38 0dbd 7c1e 0fbd
00000330: 75a3 9d3a 12c0 643d 2aed 103d 9f8e 303d
00000340: a01d 1fbd d000 78bc 82aa 9e3d 9dfa a43b
00000350: 8c1f 5fba a963 133d 5bb1 c4bc ff83 4a3c
00000360: 919e dfbc 82ce d2bc d394 36bd af92 8e3c
00000370: 3016 883d dcf1 443d 4bc3 c43d b997 3abe
00000380: 592c e9bc 0276 ac3c a6c0 37bd ca03 ea3c
00000390: b6bb 9abc c822 85bd 46f1 493d 8b56 56bd
000003a0: 99e2 283c 6c06 373d 9e6f 2dbd 84ab 4abc
000003b0: 7290 67bc 7058 98bd f90f 403d a23a 54bd
000003c0: 9d5e b83d a309 783d b594 46bd 7595 e03b
000003d0: 6f2d b0bc 2f83 85bd 4923 4c3c 87cb d33c
000003e0: 91ef d4bd 1732 6dbd f430 6abc 223b a9bd
000003f0: 9647 183d f95c 933c 1d62 95bd 49ff b33b

fc3.weight f4 [1, 256]
0.035730176 -0.018315505 0.053239003 0.045740932 0.030672885 -0.01994158 0.038631804 0.05580773
-0.020054474 -0.060442466 -0.020579876 0.055862654 0.029342705 -0.019346796 0.022642618 0.017451197
0.03134475 -0.04670553 0.025347957 -0.058666166 0.013164894 -0.014950829 -0.02041388 0.016823074
-0.012333847 0.013147117 0.040953506 0.020584414 0.033141028 0.025767082 -0.012585285 0.079781316
-0.0143507095 -0.06566868 -0.01087527 0.083002426 -0.010406481 -0.04736366 -0.019627197 -0.032317847
-0.045631852 -0.03282682 -0.08751849 0.0705925 0.027512932 0.07799098 -0.017847441 -0.058588993
-0.027343618 0.01624003 -0.012468779 -0.028821452 0.038508516 -0.09737431 0.040235024 0.029679323
0.016524862 0.020123452 -0.032264806 -0.11982916 -0.04140211 -0.042648807 -0.04773944 -0.04244236
0.012341916 -0.030312741 0.017913036 -0.05125041 0.045173965 0.024176968 -0.032584418 -0.020561365
0.017295688 -0.010655888 -0.062956415 -0.070220575 -0.06467961 -0.014130803 0.02196591 -0.026463903
0.020857995 0.024961872 -0.02649595 0.025585871 -0.032695625 -0.018484805 0.034233443 0.31406936
-0.016872084 -0.014325578 0.02296558 0.030143939 -0.04440544 -0.14888346 -0.0144142695 0.014184338
0.022820637 -0.039495338 -0.03118488 0.016436584 0.014951373 -0.032859556 -0.020401794 -0.012984519
-0.05456829 0.019759871 0.12012358 -0.03510005 -0.063714914 -0.04462062 -0.014381106 -0.028331188
0.022818072 0.059203673 -0.014415526 -0.11936785 -0.044274155 0.056635343 0.02335019 -0.007645145
-0.027669335 -0.014026916 -0.027582314 0.021350548 0.08284941 -0.09951441 0.03680949 -0.010686153
-0.108983375 -0.016530463 0.013598797 -0.0927923 0.10470205 -0.015330836 -0.0146212205 0.04106355
-0.02620965 0.032092225 -0.13220939 -0.055910777 0.03243183 0.07764383 -0.011244301 -0.016647289
0.013086662 0.014294409 0.023521332 -0.21824856 -0.057744026 0.06618478 0.028427666 -0.040674146
-0.040719744 0.057296254 -0.027012972 -0.021446092 -0.01782606 0.020814262 -0.019098433 -0.033987675
-0.016903818 -0.05133856 -0.027217276 0.020808611 0.028707309 0.03517581 -0.01923505 -0.0068010995
-0.030158259 0.039137974 -0.041712295 -0.03078464 -0.04982848 0.06435625 -0.031483185 -0.04208972
-0.013306902 -0.016640462 0.053553395 0.029418549 0.023091616 0.021051629 0.10904012 -0.013502915
-0.01973984 0.02357849 -0.074780844 0.045112457 0.015041319 -0.03191882 -0.012896953 0.034734815
-0.014133988 -0.007893107 -0.053111978 0.031384073 0.0194398 -0.012814191 -0.039735273 -0.01488525
-0.025209922 -0.17313407 0.020973625 0.04501784 -0.030734275 0.15066361 0.033458833 0.015983947
-0.013593942 0.11065393 0.032352433 0.028381696 0.098957084 0.019800065 -0.035069034 -0.011478357
-0.070664056 0.012621196 -0.011892328 -0.012566248 0.020899272 0.02578535 0.027079491 0.04886102
-0.024379125 0.022800533 0.037165835 0.015339687 0.013163037 0.11972536 0.020773862 0.021693349
0.013738763 -0.019504754 -0.028674478 -0.038435876 -0.05098372 -0.024553416 -0.044747766 -0.019894976
0.01676119 0.0657321 -0.018206105 -0.025900517 -0.021150807 -0.017702177 0.019223483 -0.026879214
0.04965133 -0.05505014 -0.0051630847 -0.024703091 -0.06228924 0.035166007 0.119804054 -0.014234616
00000000: ce59 123d 660a 96bc 2411 5a3d d85a 3b3d
00000010: b445 fb3c 865c a3bc 623c 1e3d a596 643d
00000020: 4849 a4bc 8592 77bd 2197 a8bc 3dd0 643d
00000030: 1d60 f03c 2c7d 9ebc 037d b93c d0f5 8e3c
00000040: 5a63 003d 4c4e 3fbd 85a6 cf3c ef4b 70bd
00000050: 91b1 573c 52f4 74bc 023b a7bc 8bd0 893c
00000060: e713 4abc 0167 573c ddbe 273d a5a0 a83c
00000070: e3be 073d 7d15 d33c 8332 4ebc 6364 a33d
00000080: 3d1f 6bbc 4d7d 86bd 302e 32bc 2dfd a93d
00000090: f27f 2abc 6600 42bd 37c9 a0bc b85f 04bd
000000a0: 77e8 3abd 6a75 06bd e53c b3bd cd92 903d
000000b0: cd62 e13c bcb9 9f3d cc34 92bc 03fb 6fbd
000000c0: b9ff dfbc d009 853c da49 4cbc f71a ecbc
000000d0: 1bbb 1d3d 2f6c c7bd 7bcd 243d 0d22 f33c
000000e0: 265f 873c f0d9 a43c 1a28 04bd fe68 f5bd
000000f0: 4295 29bd 84b0 2ebd 6e8a 43bd 0ad8 2dbd
00000100: bf35 4a3c 6d52 f8bc 5cbe 923c f3eb 51bd
00000110: 5608 393d c70e c63c 3d77 05bd 4f70 a8bc
00000120: b0af 8d3c 0996 2ebc 4bef 80bd cecf 8fbd
00000130: be76 84bd e284 67bc daf1 b33c d4ca d8bc
00000140: 63de aa3c d77c cc3c 090e d9bc 7699 d13c
00000150: d9eb 05bd 726d 97bc 5e38 0c3d b3cd a03e
00000160: 5337 8abc d4b5 6abc 5022 bc3c 6cf0 f63c
00000170: 7be2 35bd e874 18be d429 6cbc 6d65 683c
00000180: 58f2 ba3c ddc5 21bd 6f77 ffbc 04a6 863c
00000190: 9bf6 743c be97 06bd aa21 a7bc 05bd 54bc
000001a0: 0083 5fbd 74df a13c 5a03 f63d 12c5 0fbd
000001b0: f77c 82bd 1cc4 36bd bb9e 6bbc cf16 e8bc
000001c0: f7ec ba3c 8d7f 723d 192f 6cbc 2277 f4bd
000001d0: d158 35bd 76fa 673d e648 bf3c 2084 fabb
000001e0: cdaa e2bc 26d1 65bc 4ef4 e1bc 58e7 ae3c
000001f0: f4ac a93d 36ce cbbd 8cc5 163d f914 2fbc
00000200: ad32 dfbd e56a 87bc 7dcd 5e3c e409 bebd
00000210: 076e d63d 302e 7bbc d88d 6fbc 4132 283d
00000220: 9fb5 d6bc 2373 033d e661 07be b302 65bd
00000230: 3dd7 043d ba03 9f3d 043a 38bc e55f 88bc
00000240: 7069 563c 1933 6a3c cfaf c03c 8d7c 5fbe
00000250: 0085 6cbd e38b 873d 23e1 e83c ef99 26bd
00000260: bfc9 26bd 7aaf 6a3d 4f4a ddbc b7af afbc
00000270: f507 92bc ac82 aa3c 5174 9cbc a936 0bbd
00000280: e079 8abc 6248 52bd c4f6 debc d276 aa3c
00000290: 972b eb3c 8314 103d d392 9dbc c2db debb
000002a0: 740e f7bc 244f 203d 83da 2abd 1230 fcbc
000002b0: f318 4cbd 36cd 833d 83f4 00bd 4566 2cbd
000002c0: 3105 5abc 9451 88bc ce5a 5b3d 2bff f03c
000002d0: a12a bd3c 7774 ac3c 6d50 df3d 553b 5dbc
000002e0: 72b5 a1bc ad27 c13c b326 99bd d7c7 383d
000002f0: dd6f 763c 4fbd 02bd be4d 53bc 1846 0e3d
00000300: 3e92 67bc 1752 01bc f28b 59bd 968c 003d
00000310: 3740 9f3c 9df2 51bc 74c1 22bd 43e1 73bc
00000320: 0a85 cebc 0f4a 31be e1d0 ab3c a064 383d
00000330: 72c6 fbbc 9047 1a3e 210c 093d c4f0 823c
00000340: 20b9 5ebc 879e e23d fc83 043d bb80 e83c
00000350: 03aa ca3d bf33 a23c 8ca4 0fbd b80f 3cbc
00000360: 51b8 90bd 22c9 4e3c 0ad8 42bc aae2 4dbc
00000370: f334 ab3c cc3b d33c cfd5 dd3c 7e22 483d
00000380: bbb6 c7bc 2fc8 ba3c 343b 183d 4f53 7b3c
00000390: c7a9 573c 9232 f53d f22d aa3c 40b6 b13c
000003a0: 8c18 613c 6fc8 9fbc bde6 eabc f06e 1dbd
000003b0: 4ed4 50bd 3f24 c9bc 6f49 37bd cafa a2bc
000003c0: c34e 893c 8d9e 863d f824 95bc 522d d4bc
000003d0: 7544 adbc 2804 91bc 917a 9d3c cc31 dcbc
000003e0: 315f 4b3d 417c 61bd 182f a9bb 235e cabc
000003f0: 0123 7fbd 3b0a 103d d45b f53d 4f38 69bc
