checkpoints/checkpoint_actor_ddqn_5.pth (torch_old, 303163 bytes, 6 tensors)

fc1.weight f4 [256, 33]
-0.018713498 0.0852733 0.007833507 -0.006210767 -0.036932815 -0.192783 -0.17073527 0.11730792
-0.15403755 0.06010309 -0.011664785 0.019883506 0.1392605 0.0017219388 0.071784206 0.3024596
0.011715748 -0.09793871 -0.031148786 0.10219849 -0.11589065 -0.11732832 0.1359793 -0.016617306
0.0012453264 0.121040374 -0.15654466 -0.11177333 -0.18348268 -0.037493847 0.017331265 0.040386453
-0.083802596 0.22110577 0.12274592 -0.19837718 0.07354802 -0.18385649 -0.057017118 0.22446597
0.017654585 0.07225901 -0.117475554 0.0036602789 0.0149524575 0.007750187 -0.09171763 -0.2169809
0.16038702 0.06582981 0.11565193 -0.024065852 0.15809484 0.0075120516 0.122186914 0.15629059
-0.0023177739 -0.016102863 -0.00057489914 0.008182506 -0.016311504 -0.029012742 0.054951333 -0.05763891
0.056379177 -0.185069 -0.14683662 0.12509339 0.09931183 -0.0027612871 -0.15762399 -0.011946224
0.064757176 0.12537862 0.092830256 -0.05583575 -0.052220806 0.11108688 0.07853016 0.1808784
-0.26553306 0.18194702 0.11082621 0.061878625 0.16471119 -0.01751199 0.0435555 -0.061160173
-0.059260204 -0.038801815 -0.0130810365 0.101410076 0.0050883302 0.113366626 -0.21896093 -0.026804522
-0.09962112 0.05597554 0.5265699 -0.1518633 0.23161288 -0.18530288 0.01444093 0.056902595
0.10381937 -0.062134836 -0.08690857 0.01834409 -0.09840011 -0.0034528698 0.09535548 0.07876132
-0.1022713 -0.264876 0.0002691141 0.034841284 -0.009625697 0.059840664 0.048249938 0.1654942
-0.031203896 -0.16197002 0.049357686 -0.021406444 -0.059808288 0.08616128 0.08035936 0.20616058
-0.032689124 -0.079432346 0.033707164 -0.8249369 -0.07645464 0.07752171 0.21600023 0.04258394
0.08530884 0.14748365 -0.04112866 0.08618839 0.11737339 -0.11387792 -0.027482245 -0.019555574
-0.053366292 0.025300564 0.111643404 0.11710086 0.026487602 -0.03791967 0.029824616 -0.043699425
-0.072699256 0.07358937 0.015460909 -0.14660063 0.031598512 0.033971258 -0.22670884 0.027675146
-0.07428113 -0.038844667 0.07052783 0.060630918 -0.8239168 -0.07138744 0.067651704 -0.11960212
0.06209735 -0.25466287 0.19161601 0.15628986 0.05902376 0.002109394 -0.12496363 -0.013472447
0.19155036 0.03902919 0.07780633 0.14001699 0.23999487 0.06209713 0.016004497 -0.14954105
0.13283277 0.17863157 -0.084216185 -0.07736542 0.06584956 -0.16077554 0.11224368 0.11323931
0.002742748 -0.026414338 0.025453478 0.040570326 0.003423646 -0.21542901 0.053536046 0.016932737
-0.23286563 0.016900994 0.0976479 -0.06300591 -0.16797692 0.06764059 0.035814475 0.044677287
0.048144806 -0.041798048 -0.09836657 0.05985469 0.15088126 0.11695592 -0.007184767 0.044179082
-0.12670827 -0.029500104 -0.016427454 -0.15478347 -0.0851284 0.023080343 0.099386305 0.12596099
-0.14452446 -0.05780364 -0.20808387 0.002646923 -0.0088447835 0.018572628 0.12089357 -0.18502745
-0.046604294 -0.0891654 0.057584062 -0.0788837 0.097947426 -0.060320165 -0.21683414 -0.008552256
0.037618376 0.073439814 0.024693863 -0.07547139 0.16480744 0.14700694 0.09793232 -0.0055018147
-0.067176275 -0.08854914 -0.07118055 0.08570512 0.2195927 -0.07680858 -0.0331532 -0.047027834
00000000: 0d4d 99bc c5a3 ae3d 1c58 003c b183 cbbb
00000010: dd46 17bd e868 45be 3ad5 2ebe 223f f03d
00000020: 05bc 1dbe a82e 763d a81d 3fbc bce2 a23c
00000030: 4e9a 0e3e aeb2 e13a 9903 933d fcdb 9a3e
00000040: 69f3 3f3c 1794 c8bd bd2b ffbc 714d d13d
00000050: 1458 edbd d549 f0bd 283e 0b3e 0421 88bc
00000060: 383a a33a 04e4 f73d 3e4d 20be 6ae9 e4bd
00000070: e2e2 3bbe 2693 19bd 4cfa 8d3c 446c 253d
00000080: b2a0 abbd 8d69 623e 3762 fb3d 6323 4bbe
00000090: 58a0 963d e044 3cbe c88a 69bd 68da 653e
000000a0: 59a0 903c 88fc 933d 0697 f0bd 4ae1 6f3b
000000b0: 27fb 743c 48f5 fd3b 74d6 bbbd 3e30 5ebe
000000c0: 7f3c 243e c8d1 863d ebda ec3d c025 c5bc
000000d0: 9de3 213e a827 f63b 223d fa3d a40a 203e
000000e0: cbe5 17bb 27ea 83bc d4b4 16ba eb0f 063c
000000f0: b49f 85bc 21ac edbc a614 613d c716 6cbd
00000100: daed 663d ba82 3dbe 575c 16be 7b18 003e
00000110: 0064 cb3d b6f6 34bb 2f68 21be 18ba 43bc
00000120: 699f 843d 4163 003e ca1d be3d 07b4 64bd
00000130: 7ce5 55bd 8581 e33d 6cd4 a03d 3038 393e
00000140: f3f3 87be 5250 3a3e daf8 e23d 7174 7d3d
00000150: 0daa 283e 4e75 8fbc 4167 323d 1783 7abd
00000160: d4ba 72bd a7ee 1ebd d851 56bc 16b0 cf3d
00000170: 02bc a63b c32c e83d 4b37 60be 2895 dbbc
00000180: 2806 ccbd 9c46 653d 49cd 063f 0e82 1bbe
00000190: ed2b 6d3e 0ac0 3dbe a799 6c3c b212 693d
000001a0: 409f d43d 1981 7ebd 1ffd b1bd 5846 963c
000001b0: ff85 c9bd 8b49 62bb bc49 c33d 9d4d a13d
000001c0: 9e73 d1bd d49d 87be e217 8d39 bcb5 0e3d
000001d0: 19b5 1dbc 7c1b 753d baa1 453d 5077 293e
000001e0: 509f ffbc 78db 25be 492b 4a3d 915c afbc
000001f0: 89f9 74bd 5375 b03d 7393 a43d c21b 533e
00000200: 08e5 05bd 6dad a2bd 8610 0a3d 112f 53bf
00000210: 4094 9cbd b4c3 9e3d 2a2f 5d3e 7f6c 2e3d
00000220: 67b6 ae3d f405 173e 8776 28bd 8a83 b03d
00000230: 7661 f03d d438 e9bd 7222 e1bc 0333 a0bc
00000240: 9d96 5abd 2143 cf3c 4ca5 e43d 93d2 ef3d
00000250: 87fc d83c a851 1bbd c152 f43c 2bfe 32bd
00000260: 59e3 94bd 06b6 963d c14f 7d3c 7a1e 16be
00000270: 716d 013d 7225 0b3d 5d26 68be fdb6 e23c
00000280: b520 98bd 961b 1fbd e570 903d 2058 783d
00000290: 36ec 52bf 9433 92bd fa8c 8a3d f5f1 f4bd
000002a0: ca59 7e3d 2c63 82be fd36 443e 730a 203e
000002b0: e6c2 713d c23d 0a3b efec ffbd 8abb 5cbc
000002c0: c725 443e 12dd 1f3d ed58 9f3d 9d60 0f3e
000002d0: 37c1 753e 8f59 7e3d dd1b 833c 4a21 19be
000002e0: 5005 083e 32eb 363e 8979 acbd c371 9ebd
000002f0: 22dc 863d 58a2 24be 04e0 e53d 03ea e73d
00000300: adbf 333b e262 d8bc d083 d03c 122d 263d
00000310: 405f 603b 6c99 5cbe 9d48 5b3d 86b6 8a3c
00000320: 5474 6ebe f473 8a3c 9ffb c73d 3e09 81bd
00000330: 2402 2cbe 2687 8a3d 33b2 123d 88ff 363d
00000340: 7d33 453d 6e34 2bbd 6a74 c9bd 312a 753d
00000350: 9e80 1a3e 9686 ef3d 326e ebbb 20f5 343d
00000360: d0bf 01be 34aa f1bc de92 86bc 8f7f 1ebe
00000370: cc57 aebd fd12 bd3c 0c8b cb3d ebfb 003e
00000380: 38fe 13be 82c3 6cbd f013 55be 0078 2d3b
00000390: b6e9 10bc a025 983c 0c97 f73d d677 3dbe
000003a0: 25e4 3ebd 599c b6bd 44dd 6b3d c78d a1bd
000003b0: a998 c83d 4712 77bd c509 5ebe c31e 0cbc
000003c0: ba15 1a3d 9d67 963d c94a ca3c be90 9abd
000003d0: 48c3 283e fd88 163e bd90 c83d 9148 b4bb
000003e0: b793 89bd 4059 b5bd 1cc7 91bd 2a86 af3d
000003f0: e9dc 603e d14d 9dbd a6cb 07bd 42a0 40bd

fc1.bias f4 [256]
0.031497695 -0.1296077 0.029525131 -0.10635681 0.09335767 0.033166856 -0.13781856 -0.0555374
0.09842592 0.114524 -0.1287512 0.12788434 0.039710987 0.05579726 0.23946048 0.1902694
0.030070214 0.040834676 -0.18411663 -0.20842421 0.030220652 0.044207677 0.026282541 0.1113972
-0.043680664 0.012502094 0.0627113 -0.031898063 -0.013983923 -0.19257605 -0.20744686 -0.14754857
-0.009511374 -0.0720568 -0.10040721 0.13814466 -0.20497352 0.00070527935 0.017255193 -0.025227342
-0.17295082 -0.012137106 0.05900554 0.18653297 0.29768738 -0.061365355 0.10058962 -0.16305694
0.10613695 0.19487199 -0.23364645 0.008324312 -0.049836516 -0.012107222 -0.17734334 0.023079533
-0.00558287 0.18706389 -0.27343702 0.05451449 -0.18901274 -0.15093829 -0.16036399 0.07079568
-0.034509968 -0.08122829 0.10241135 -0.047633953 0.028667092 -0.04773365 0.083028026 0.10120056
-0.21530332 0.06724806 0.032762315 0.11645097 -0.20785347 0.03999384 -0.17440437 -0.0058980277
0.14634226 0.0040258574 -0.10933826 -0.08281273 -0.119195305 0.053997856 -0.22846532 -0.076370366
-0.111373335 0.083402745 -0.05732689 0.11055696 -0.008438399 0.23035121 -0.06890023 -0.029704513
-0.14781831 -0.1985436 -0.04590301 0.030431317 -0.013359717 0.1261085 -0.027605044 0.15100436
-0.008021546 -0.090545826 -0.08966465 0.13142115 -0.06639078 -9.109268e-05 0.14867754 -0.0037946561
-0.4634096 -0.22784357 0.13761109 -0.1798612 -0.10849831 -0.0069036875 0.031242361 -0.07685002
0.12132781 0.1968004 -0.1031631 0.016941031 0.041689813 0.004311959 -0.082798995 -0.06072985
-0.05334871 -0.2910822 -0.14701273 -0.1343941 0.12565278 -0.19566447 -0.14524178 -0.060241506
-0.061009802 -0.15030396 -0.085400686 -0.0015811365 -0.096128166 -0.1463969 -0.0016046314 -0.020644698
-0.23227261 -0.24460402 -0.18727598 0.042289834 0.048944276 -0.2024748 -0.08392664 -0.14522746
0.06791369 -0.046480153 0.01369506 -0.028031591 -0.08305438 -0.026497198 0.022629818 -0.07299337
0.0050816294 -0.041618537 0.038058598 0.1812648 0.13805783 -0.052000474 -0.06437944 -0.027107354
-0.1749932 0.09933373 0.1177006 0.12728871 -0.07312909 -0.052960712 -0.18976668 -0.07171591
-0.15149552 -0.16455172 -0.118414424 0.13932152 -0.1406278 0.052049346 -0.058402788 -0.21169376
-0.030633384 -0.023160852 0.120215595 -0.09316815 -0.11849268 0.18583451 -0.1861465 0.0073844003
0.104610324 -0.061673183 -0.07378832 -0.14767219 0.060130045 0.078385524 -0.10953757 0.10413342
0.22590849 0.13331884 -0.0010324715 0.14441112 -0.006142517 -0.18635795 -0.17495225 -0.2026861
-0.002739412 0.007713026 -0.1810244 -0.13415492 -0.054631818 -0.010639158 -0.16320512 -0.0070162024
-0.21197678 -0.1457481 -0.10330192 0.08725063 -0.09175587 -0.23539874 0.06523134 -0.21468791
0.15701662 -0.2635458 -0.10451835 -0.23845409 -0.060168143 0.06422145 0.037428517 -0.030716587
-0.2103701 0.07509288 -0.21116866 -0.02372116 -0.0064065875 0.070968546 -0.08744651 -0.021342626
-0.09640957 -0.04518463 -0.055902682 -0.004183924 -0.01412703 -0.13493343 0.0006842441 0.12619852
0.036146875 0.1482434 -0.0007658735 -0.25566068 -0.09183063 0.007082014 -0.17135204 -0.16687301
00000000: ba03 013d e2b7 04be b0de f13c 99d1 d9bd
00000010: 4e32 bf3d f8d9 073d 4f20 0dbe 2f7b 63bd
00000020: 8793 c93d 8f8b ea3d 5bd7 03be 1df4 023e
00000030: fda7 223d ab8b 643d 2135 753e fbd5 423e
00000040: cf55 f63c 4342 273d 1289 3cbe 286d 55be
00000050: 4d91 f73c 1c13 353d 7c4e d73c 3724 e43d
00000060: 7fea 32bd 95d5 4c3c c86e 803d 8ba7 02bd
00000070: d31c 65bc a832 45be f36c 54be f916 17be
00000080: 98d5 1bbc 8492 93bd 4ca2 cdbd cb75 0d3e
00000090: 94e4 51be 7fe2 383a c35a 8d3c 92a9 cebc
000000a0: 051a 31be b6da 46bc cbaf 713d 8002 3f3e
000000b0: 7b6a 983e 3d5a 7bbd ee01 ce3d 66f8 26be
000000c0: 545e d93d 868c 473e 0441 6fbe b262 083c
000000d0: 6021 4cbd 5f5d 46bc 7e99 35be 4a11 bd3c
000000e0: 82f0 b6bb ad8d 3f3e f0ff 8bbe 964a 5f3d
000000f0: 8e8c 41be 918f 1abe 7536 24be 53fd 903d
00000100: 535a 0dbd 055b a6bd 0bbd d13d d21b 43bd
00000110: 40d7 ea3c 5c84 43bd 990a aa3d 3d42 cf3d
00000120: 7978 5cbe 5ab9 893d c731 063d d97d ee3d
00000130: 8ad7 54be 95d0 233d 0f97 32be 3e44 c1bb
00000140: bfda 153e 57eb 833b bdec dfbd b899 a9bd
00000150: ab1c f4bd db2c 5d3d d0f2 69be 1168 9cbd
00000160: b417 e4bd 0fcf aa3d 9acf 6abd b06b e23d
00000170: 3641 0abc 30e1 6b3e 901b 8dbd e156 f3bc
00000180: af5d 17be 034f 4bbe cb04 3cbd 194b f93c
00000190: b7e2 5abc 9622 013e f923 e2bc e3a0 1a3e
000001a0: cd6c 03bc 1770 b9bd 1aa2 b7bd 4493 063e
000001b0: e4f7 87bd 0309 bfb8 ed3e 183e c4af 78bb
000001c0: 0644 edbe d34f 69be ece9 0c3e 892d 38be
000001d0: 5d34 debd 5438 e2bb fbef ff3c 8b63 9dbd
000001e0: b77a f83d 0b86 493e 2d47 d3bd ebc7 8a3c
000001f0: f0c2 2a3d 554b 8d3b 8592 a9bd ddbf 78bd
00000200: 2d84 5abd ba08 95be 818a 16be 9b9e 09be
00000210: 1fab 003e 445c 48be 43ba 14be ccbf 76bd
00000220: 6ae5 79bd 48e9 19be 8ee6 aebd 233e cfba
00000230: d8de c4bd 12e9 15be 7f52 d2ba 121f a9bc
00000240: dfd8 6dbe 7a79 7abe 46c5 3fbe 1b38 2d3d
00000250: cb79 483d 8e55 4fbe bbe1 abbd 82b6 14be
00000260: 5516 8b3d f961 3ebd 3f61 603c 82a2 e5bc
00000270: 6a18 aabd a710 d9bc 2b62 b93c 8c7d 95bd
00000280: cc83 a63b 3378 2abd 55e3 1b3d 7b9d 393e
00000290: 085f 0d3e 73fe 54bd 5ed9 83bd 3e10 debc
000002a0: 6b31 33be 7c6f cb3d 030d f13d f957 023e
000002b0: b4c4 95bd 55ed 58bd 3252 42be cbdf 92bd
000002c0: a421 1bbe 3f80 28be 4383 f2bd 4daa 0e3e
000002d0: bc00 10be b231 553d c337 6fbd 40c6 58be
000002e0: ddf2 fabc d4bb bdbc 9833 f63d f1ce bebd
000002f0: 4aac f2bd 674b 3e3e 309d 3ebe d7f8 f13b
00000300: f03d d63d 059d 7cbd 551e 97bd 6137 17be
00000310: ec4a 763d 9788 a03d 3c55 e0bd e743 d53d
00000320: 8e54 673e bc84 083e ff53 87ba 82e0 133e
00000330: 2b47 c9bb 9ed4 3ebe af26 33be f28c 4fbe
00000340: b587 33bb 8dbd fc3b 765e 39be e85f 09be
00000350: 9dc5 5fbd dd4f 2ebc 3e1f 27be 2ce8 e5bb
00000360: 7110 59be fd3e 15be f58f d3bd 75b0 b23d
00000370: 80ea bbbd 5e0c 71be 0298 853d 26d7 5bbe
00000380: f7c8 203e 7aef 86be b70d d6bd 4f2d 74be
00000390: df72 76bd 8986 833d a54e 193d 5aa1 fbbc
000003a0: 426b 57be 4cca 993d 993c 58be e152 c2bc
000003b0: 5aee d1bb f557 913d 2817 b3bd bbd6 aebc
000003c0: 6172 c5bd 8513 39bd 36fa 64bd 4c19 89bb
000003d0: 0f75 67bc fd2b 0abe d85e 333a 2f3a 013e
000003e0: bf0e 143d 1ecd 173e e7c4 48ba f5e5 82be
000003f0: b311 bcbd 3d10 e83b e976 2fbe c2e0 2abe

fc2.weight f4 [256, 256]
-0.001687904 -0.014889466 0.2799762 0.021031575 0.006497107 0.0038719897 0.011604256 -0.050555903
-0.5755476 0.116559304 0.05346823 0.12950078 0.07694673 0.04921792 -0.16199309 -0.09394685
0.02832452 -0.23217584 -0.21855828 0.09049581 0.018769827 -0.08360211 0.04576349 0.026945133
0.16666092 -0.065007955 -0.24117614 0.15803768 0.30550638 0.06477039 0.03330697 -0.044181112
0.1446389 -0.26645976 -0.0014191571 0.07368146 0.08966667 -0.0132955285 0.0057599028 0.10737312
-0.3730981 -5.2451975e-05 -0.28582206 0.07344732 0.30238372 -0.051962662 0.09327007 0.07256578
0.1612384 -0.095650926 -0.11982053 0.2644178 -0.10686706 -0.06573661 -0.18055226 -0.0106889075
0.047669332 -0.27309462 -0.23960336 -0.001996776 0.3761274 0.11299928 -0.18656972 -0.08091322
-0.2789103 0.042162873 0.14746687 0.08047321 -0.18086363 -0.045067172 0.016634317 -0.2110741
-0.08355748 -0.10595145 0.1392378 0.05944887 -0.043027434 0.05072414 0.0065644514 -0.030093394
-0.15079798 -0.12981887 -0.105900414 0.049575984 0.016939322 -0.00035953583 0.09590847 0.046821296
0.43282261 0.23206742 -0.084504984 -0.045773882 -0.023769183 -0.18430935 0.18592472 -0.04457854
0.05920061 0.10010929 0.060648914 0.051347844 0.05059213 0.07319661 -0.08968071 -0.22684287
0.2698707 0.3087375 -0.04199072 0.040398944 0.009666993 -0.018588677 -0.044317912 -0.009656797
0.5520509 -0.03551924 -0.13470563 -0.015761802 -0.3504348 -0.07592577 0.19447854 -0.13270377
0.028520895 -0.45807078 0.1280909 0.2064642 0.09970118 -0.0721885 -0.42127073 0.008242457
0.11843268 0.0057241 0.004416467 -0.6231876 -0.37489855 -0.03399721 0.14129496 -0.03369434
0.10381574 -0.10370885 -0.058455363 -0.0052949116 0.01778972 0.08024458 -0.068901 -0.3119075
-0.02371276 -0.0061870255 -0.12352554 0.19601606 -0.0126954615 -0.21250504 0.07413986 0.18095903
-0.0016115702 0.08210572 0.035815526 0.020086376 -0.073435195 0.3008564 -0.010159337 0.044552665
0.121084265 -0.1166266 0.050197452 -0.11611109 0.21504517 0.16862687 0.076440044 0.29895625
0.15334632 -0.23998334 0.07355159 -0.117680565 -0.19971955 0.14603743 0.14991684 0.17033878
0.21159649 0.06571131 0.15568359 0.040671214 0.122706145 -0.06088186 0.17470276 0.059542164
-0.09575613 0.08697225 -0.40310973 0.0057509975 0.13568303 0.01571517 0.024124036 -0.016979141
-0.33322093 -0.09994392 0.019930262 0.13859701 -0.0829278 -0.012137227 0.0071983035 -0.09345055
0.25408456 0.018348917 0.035349935 -0.054738104 -0.11572217 0.18557817 -0.10977777 -0.17865214
0.10512278 0.11914591 0.071136475 0.06459533 0.19268021 -0.08529941 0.008026622 0.15314354
-0.04190019 0.175393 -0.014209145 0.1621061 -0.15654165 -0.28354076 0.14988591 -0.1163705
0.1179249 0.29700217 -0.0675642 -0.18523188 -0.20210068 -0.10973518 0.11104743 0.18385479
0.12046737 -0.1675284 -0.0006390682 0.23442045 -0.055567294 0.05896186 0.26536387 -0.028498225
-0.22879769 0.044332422 -0.15636916 0.11468607 -0.18252116 -0.51301455 0.006234648 0.23103042
0.015920212 -0.01497136 -0.024599666 0.017112395 0.19532324 0.07671556 0.218808 -0.12086012
00000000: a93c ddba f2f2 73bc 0a59 8f3e 694a ac3c
00000010: afe5 d43b 35c1 7d3b c71f 3e3c b513 4fbd
00000020: 1657 13bf a5b6 ee3d 8101 5b3d da9b 043e
00000030: 3f96 9d3d bb98 493d 84e1 25be 3567 c0bd
00000040: d308 e83c 81bf 6dbe becd 5fbe de55 b93d
00000050: 2ec3 993c 9537 abbd 7f72 3b3d 0abc dc3c
00000060: 29a9 2a3e e422 85bd e1f6 76be a1d4 213e
00000070: 556b 9c3e 57a6 843d e46c 083d 41f7 34bd
00000080: 381c 143e 6a6d 88be 0303 baba 4ee6 963d
00000090: 29a3 b73d 7dd5 59bc 91bd bc3b 70e6 db3d
000000a0: b706 bfbe e1ff 5bb8 4557 92be 8c6b 963d
000000b0: 0ad2 9a3e cdd6 54bd 6104 bf3d 5e9d 943d
000000c0: ae1b 253e a2e4 c3bd 7764 f5bd c561 873e
000000d0: 1edd dabd eaa0 86bd b1e2 38be 8720 2fbc
000000e0: eb40 433d 0fd3 8bbe 955a 75be 58dc 02bb
000000f0: c593 c03e 2b6c e73d 220c 3fbe d5b5 a5bd
00000100: 55cd 8ebe fab2 2c3d 8e01 173e 23cf a43d
00000110: 5134 39be 5b98 38bd b144 883c cf23 58be
00000120: 2f20 abbd 13fd d8bd 5b94 0e3e a980 733d
00000130: 893d 30bd 1ec4 4f3d 9c1a d73b 6c86 f6bc
00000140: c96a 1abe 3def 04be 51e2 d8bd 3010 4b3d
00000150: 55c4 8a3c 1580 bcb9 a96b c43d b0c7 3f3d
00000160: ed9a dd3e 15a3 6d3e f310 adbd 657d 3bbd
00000170: 97b7 c2bc 97bb 3cbe 0d63 3e3e fd97 36bd
00000180: 577c 723d 1906 cd3d ff6a 783d 1e52 523d
00000190: b139 4f3d 1be8 953d 85aa b7bd 7f49 68be
000001a0: 7e2c 8a3e d712 9e3e 76fe 2bbd 5d79 253d
000001b0: 4f62 1e3c 4847 98bc b386 35bd 8b37 1ebc
000001c0: 3553 0d3f 9f7c 11bd 46f0 09be e51e 81bc
000001d0: 316c b3be f87e 9bbd 6225 473e 7fe3 07be
000001e0: a7a4 e93c 4188 eabe 432a 033e 5a6b 533e
000001f0: 2230 cc3d 90d7 93bd ccb0 d7be 5f0b 073c
00000200: d58c f23d 3b91 bb3b 03b8 903b 3989 1fbf
00000210: b4f2 bfbe a940 0bbd a0af 103e 1403 0abd
00000220: 599d d43d 4e65 d4bd e46e 6fbd f080 adbb
00000230: bfbb 913c 4557 a43d f81b 8dbd 57b2 9fbe
00000240: 4341 c2bc 88bc cabb f5fa fcbd 6fb8 483e
00000250: a000 50bc ec9a 59be a4d6 973d 534d 393e
00000260: 533b d3ba 0b27 a83d 4db3 123d 2f8c a43c
00000270: 3165 96bd da09 9a3e 5973 26bc db7c 363d
00000280: 07fb f73d edd9 eebd d89b 4d3d a7cb edbd
00000290: cd34 5c3e 86ac 2c3e 998c 9c3d cb10 993e
000002a0: d106 1d3e 31be 75be 37a2 963d 8202 f1bd
000002b0: 4883 4cbe d68a 153e cd83 193e 4a6d 2e3e
000002c0: c0ac 583e a793 863d 856b 1f3e dc96 263d
000002d0: 5c4d fb3d 425f 79bd 48e5 323e 7ce2 733d
000002e0: ca1b c4bd 821e b23d 6664 cebe dd72 bc3b
000002f0: 7ef0 0a3e 1abd 803c c59f c53c d717 8bbc
00000300: ef9b aabe 66af ccbd ca44 a33c 60ec 0d3e
00000310: 0dd6 a9bd 38db 46bc bfdf eb3b 0163 bfbd
00000320: 5f17 823e 7850 963c 18cb 103d 1035 60bd
00000330: bfff ecbd 3408 3e3e 2bd3 e0bd 96f0 36be
00000340: 9d4a d73d c502 f43d 00b0 913d 8e4a 843d
00000350: f64d 453e 75b1 aebd 1882 033c a9d1 1c3e
00000360: 899f 2bbd 399a 333e 79cd 68bc 24ff 253e
00000370: 744c 20be 412c 91be b17b 193e a853 eebd
00000380: 9c82 f13d ab10 983e 195f 8abd 6dad 3dbe
00000390: 7bf3 4ebe d7bc e0bd d66c e33d 6e44 3c3e
000003a0: 99b7 f63d 918c 2bbe 2487 27ba ea0b 703e
000003b0: 889a 63bd fe81 713d c6dd 873e 1c75 e9bc
000003c0: f149 6abe ea95 353d 3d1f 20be 88e0 ea3d
000003d0: d4e6 3abe ec54 03bf 054c cc3b 3d93 6c3e
000003e0: 1b6b 823c 6f4a 75bc 3d85 c9bc 4b2f 8c3c
000003f0: d102 483e 0c1d 9d3d 340f 603e 8385 f7bd

fc2.bias f4 [256]
-0.08133736 -0.05591085 0.057703424 -0.039931044 -0.058327988 -0.005928541 -0.0070351427 0.0627829
-0.03193277 0.1055131 -0.001657913 0.07753411 -0.103068314 -0.094203554 -0.07494777 -0.009459657
-0.08328505 -0.06416617 -0.03879597 -0.06605315 -0.019639133 -0.060286686 0.025445903 0.030724239
-0.00902788 0.032765895 0.033423387 0.0074956585 0.019977791 -0.05262318 -0.1001896 0.054838
0.037917208 0.018721972 0.0023284059 0.057585754 0.04842583 -0.099701054 0.03248038 -0.08367655
-0.060832422 -0.0029412925 0.047796108 0.0623035 -0.007067611 0.026918517 0.015919471 -0.04348232
-0.029549005 -0.023344617 0.0042545735 0.014232191 0.032799724 -0.0066769575 0.06657332 0.035676025
-0.030387562 -0.071715355 -0.024179865 0.0042940085 0.013206764 0.053507295 0.025647817 -0.024939368
0.03947407 0.03843695 0.0021611184 -0.16161355 0.02096591 -0.054312322 -0.050746318 0.0862819
0.043819003 0.011750173 0.08652302 0.029142622 -0.0032524285 -0.09947936 0.017320855 0.051247846
0.019092439 0.039386258 -0.19454023 -0.020926895 0.019771028 -0.09773595 0.008286867 0.09962473
-0.013712876 0.04412496 -0.045270756 -0.10628821 -0.06759026 -0.05215253 0.065638736 -0.014579534
0.012038693 -0.08130126 -0.05918307 -0.116686955 0.008604486 0.087215066 0.028226413 0.0014096184
-0.1048684 -0.08902825 -0.024239805 -0.07187733 -3.8638077e-06 -0.041459404 -0.069537506 0.011881496
0.043898426 0.05382774 -0.10446008 0.008068294 -0.073443346 0.08548462 -0.03887544 0.03719612
0.08028063 -0.0073110224 -0.016758617 -0.024138797 -0.040265046 -0.1575818 0.032291025 -0.014033842
-0.109681726 0.00429731 0.038074944 -0.044201024 -0.057921223 -0.18838665 0.07714801 -0.037700705
-0.059049733 -0.04106573 0.020156333 0.022186225 -0.06328123 -0.01170878 -0.148704 -0.1328524
0.0406473 0.010330555 0.050215077 -0.020165227 0.020772599 -0.020130428 -0.013601809 -0.033705078
0.017422859 0.07062936 0.111630596 0.01862797 -0.044877313 -0.070513815 0.01314982 0.06906287
0.066049114 0.0077028205 -0.03101539 -0.035877954 -0.0570926 0.05349152 0.00342825 0.052871253
0.010613942 0.008554187 0.000441366 -0.03663328 -0.011644674 -0.07597632 0.04956101 0.077359974
0.10727857 0.011044037 -0.02439928 -0.012715697 0.004242862 0.04879579 0.0013502643 -0.009744289
-0.05642663 0.070552975 0.02393379 -0.072874114 -0.047595624 0.030612623 0.022251116 0.01356458
-0.042004593 -0.045746267 -0.050593626 -0.1101096 -0.09745433 -0.140754 0.09003701 -0.037887555
0.01911379 -0.018229578 0.07312574 0.0016506821 0.014523111 -0.017724117 -0.063142136 0.019685213
-0.016750274 -0.0334208 0.05182992 -0.10954888 0.044672824 -0.091257885 -0.035374824 -0.040395685
0.030916523 0.007699143 -0.030328901 -0.071354784 -0.016131304 -0.12878698 -0.013227337 -0.039769437
-0.028166292 0.021059006 0.039460953 -0.027226903 0.063292295 -0.044305336 -0.0130735785 0.039213736
0.014015827 -0.116630994 -0.03238952 -0.041934732 0.08225563 -0.23843932 0.06345278 -0.033752747
0.018781329 0.05010359 0.086994216 -0.07831071 0.083313525 -0.11883482 0.09933424 0.018450493
-0.007820503 0.055785734 0.062869534 0.02962904 0.024614863 -0.017802566 -0.014845856 -0.11257656
00000000: 3494 a6bd c702 65bd 6d5a 6c3d bc8e 23bd
00000010: 54e9 6ebd 3544 c2bb 0e87 e6bb 5294 803d
00000020: f0cb 02bd 4117 d83d 544e d9ba 34ca 9e3d
00000030: 7b15 d3bd cbed c0bd 377e 99bd adfc 1abc
00000040: 5a91 aabd 8e69 83bd 86e8 1ebd e046 87bd
00000050: 3fe2 a0bc 2cef 76bd ed73 d03c 66b1 fb3c
00000060: ace9 13bc 8835 063d f6e6 083d 249e f53b
00000070: 77a8 a33c 678b 57bd 3430 cdbd d09d 603d
00000080: 134f 1b3d d25e 993c 2b98 183b 0adf 6b3d
00000090: 2a5a 463d 1130 ccbd 260a 053d 9c5e abbd
000000a0: 6b2b 79bd b3c2 40bb dac5 433d f431 7f3d
000000b0: 6b97 e7bb 3984 dc3c 8d69 823c 841a 32bd
000000c0: c110 f2bc 363d bfbc f369 8b3b 232e 693c
000000d0: 0159 063d 61ca dabb 9857 883d 0621 123d
000000e0: 56ef f8bc 80df 92bd da14 c6bc c1b4 8c3b
000000f0: 2f61 583c 772a 5b3d 5f1b d23c a54d ccbc
00000100: 90af 213d 1070 1d3d 8da1 0d3b 067e 25be
00000110: b3c0 ab3c 9976 5ebd 5fdb 4fbd 91b4 b03d
00000120: 8e7b 333d cc83 403c fb32 b13d 82bc ee3c
00000130: b226 55bb d6bb cbbd 77e4 8d3c 43e9 513d
00000140: bf67 9c3c 7c53 213d 8e35 47be e16e abbc
00000150: daf6 a13c c929 c8bd a4c5 073c 0d08 cc3d
00000160: f8ab 60bc 60bc 343d d46d 39bd a2ad d9bd
00000170: c36c 8abd e49d 55bd 9a6d 863d ffde 6ebc
00000180: f03d 453c 4681 a6bd f269 72bd 92f9 eebd
00000190: d4f9 0c3c d09d b23d 143b e73c f2c2 b83a
000001a0: 3ec5 d6bd 7154 b6bd 8e92 c6bc 6c34 93bd
000001b0: dba5 81b6 56d1 29bd ae69 8ebd 9baa 423c
000001c0: d6ce 333d 7a7a 5c3d 2bef d5bd e130 043c
000001d0: 7769 96bd 8f12 af3d da3b 1fbd f55a 183d
000001e0: 2c6a a43d 4d91 efbb 5e49 89bc babe c5bc
000001f0: f6ec 24bd 205d 21be 9843 043d 33ee 65bc
00000200: d0a0 e0bd 73d0 8c3b 79f4 1b3d 220c 35bd
00000210: ce3e 6dbd 6ee8 40be c7ff 9d3d 0e6c 1abd
00000220: 22de 71bd 8a34 28bd e51e a53c e3bf b53c
00000230: 9799 81bd 2fd6 3fbc dd45 18be 760a 08be
00000240: c97d 263d 7d41 293c 53ae 4d3d 8c31 a5bc
00000250: 4c2b aa3c 91e8 a4bc 1fda 5ebc 560e 0abd
00000260: 62ba 8e3c 20a6 903d 959e e43d af99 983c
00000270: 46d1 37bd 8c69 90bd 5872 573c d670 8d3d
00000280: c244 873d f167 fc3b fd13 febc c3f4 12bd
00000290: eed9 69bd ed19 5b3d 7eac 603b 878f 583d
000002a0: 19e6 2d3c dc26 0c3c 2467 e739 c70c 16bd
000002b0: 4ec9 3ebc 7999 9bbd 7c00 4b3d e86e 9e3d
000002c0: deb4 db3d 0cf2 343c 00e1 c7bc 8055 50bc
000002d0: b507 8b3b 18de 473d 5afb b03a 83a6 1fbc
000002e0: 9c1f 67bd 147e 903d cc10 c43c 063f 95bd
000002f0: a1f3 42bd 53c7 fa3c f947 b63c f93d 5e3c
00000300: 020d 2cbd 7060 3bbd 433b 4fbd 2481 e1bd
00000310: 2396 c7bd d121 10be 5365 b83d fb2f 1bbd
00000320: 8694 9c3c 3256 95bc f3c2 953d b35b d83a
00000330: 58f2 6d3c 2b32 91bc aa50 81bd e242 a13c
00000340: df37 89bc 40e4 08bd 9c4b 543d 2a5b e0bd
00000350: dafa 363d 6ae5 babd 31e5 10bd f275 25bd
00000360: a644 fd3c 1849 fc3b 5174 f8bc 7522 92bd
00000370: cc25 84bc bce0 03be 79b7 58bc 47e5 22bd
00000380: ffbc e6bc f083 ac3c cfa1 213d f40a dfbc
00000390: 649f 813d 8379 35bd 9032 56bc 959e 203d
000003a0: a4a2 653c 3bdc eebd e0aa 04bd c1c3 2bbd
000003b0: a475 a83d 7029 74be 88f3 813d 5240 0abd
000003c0: 4ddb 993c 6c39 4d3d 062a b23d 5e61 a0bd
000003d0: 48a0 aa3d ac5f f3bd c06f cb3d 7d25 973c
000003e0: 9121 00bc 957f 643d bec1 803d 9ab8 f23c
000003f0: 1ca5 c93c b0d6 91bc 093c 73bc 8a8e e6bd

fc3.weight f4 [4, 256]
-0.025141137 0.45726997 0.038357157 0.38661322 -0.13755569 0.21134266 0.4173578 -0.42536297
0.48232642 -0.010860548 -0.12627378 -0.42006406 0.3218985 -0.10485767 -0.13463536 -0.5584127
-0.39263132 0.303676 -0.038875137 -0.63135344 0.3755008 -0.20129703 0.4844855 0.6203678
0.33357775 0.00558056 0.4429624 -0.9740447 0.28736266 -0.3464658 -0.47070944 -0.07286565
0.11973497 0.2906271 0.37829083 -0.090095684 -0.030494 0.48876908 -0.5096663 -0.25983036
-0.082927704 0.029431041 0.084793635 -0.7145238 -0.12875654 0.5057058 0.1651258 0.43861365
-0.6278303 0.120298624 0.042590562 0.32230535 -0.04707845 -0.92811716 0.0712919 -0.20306414
0.23164663 -0.066041656 -0.5183927 -0.107418254 0.36335194 -0.1384825 0.18357186 0.55906904
0.2839477 0.092657976 0.05859827 -0.18336427 0.15723777 -0.5063832 -0.19652651 0.13455556
-0.5644106 0.04286398 -0.3252266 0.35746792 0.07024736 0.3539071 0.20975833 -0.032306917
0.40443406 -0.018535256 0.80606955 0.12358474 0.05050552 0.12355717 -0.37111658 0.41022894
-0.5794737 -0.17400885 -0.05937917 -0.34553713 -0.19317082 -0.03864812 -0.040570356 0.07064075
0.09278727 -0.021495942 0.31604064 -0.11479458 0.056365125 0.04300797 0.10263358 -0.2782446
-0.33114716 -0.16256602 0.10849666 -0.23380123 0.5347978 0.9408761 -0.09975689 0.08326697
-0.058849975 -0.47207865 0.5465906 -0.102975555 0.030035084 -0.21627842 -0.3159407 -0.004722883
0.12012998 0.0093248375 0.44300035 0.17951897 -0.33615437 0.17701364 0.08346934 0.5380212
0.7736771 0.23004809 0.0683967 0.31705755 -0.4861256 0.3253682 0.101133585 -0.38815498
-0.26925686 0.11893027 0.80281293 -0.0993905 -0.1244646 0.21995196 0.9037053 0.7515197
0.15076925 -0.25354704 -0.3294818 -0.4922892 0.027785465 0.2241847 -0.052011374 0.6201849
-0.52253807 0.44360408 -0.09788326 -0.26389688 -0.1911588 0.024630211 -0.3976841 -0.7864983
0.260022 -0.080304384 -0.43768412 0.04118431 0.44992018 -0.030967858 -0.4184294 0.21923739
-0.041074127 -0.03102592 -0.36837244 0.07036671 -1.0152419 0.11322199 -0.33479428 0.14446795
0.08373967 0.007512765 0.102007575 -0.54976434 -0.13956586 0.10438387 0.08543556 -0.13493495
-0.2365998 0.14841114 -0.16472751 -0.06399705 -0.42165008 -0.18498 0.116967365 0.28079408
-0.011681828 -0.043936584 -0.33216834 -0.14033842 0.5085548 0.72848773 -0.09991143 -0.18018505
-0.28065127 0.2558377 -0.09885177 -0.40105852 0.17825343 -0.693911 -0.56146765 0.17663646
-0.59189457 0.2213104 -0.36605734 -0.057534587 0.30604813 0.40929377 -0.09719233 0.010392573
0.26869503 0.0096131 -0.4397611 0.17427449 -0.084566854 -0.23315752 -0.24572858 -0.29391542
0.3719961 -0.88279635 0.19962814 0.046649016 0.041659217 -0.6322738 -0.32516527 -0.4420411
-0.3360453 -0.06907719 -0.03224421 -0.1599427 0.007835104 -0.01812604 -0.19926707 -0.49619293
-0.4849146 0.053761598 0.2732097 0.2174636 -0.04830135 0.024929656 -0.4745447 0.4619477
0.3761382 -0.2842111 0.20154999 -0.08961415 -0.0873389 0.1366361 0.13798714 -0.063779026
00000000: c9f4 cdbc 4a1f ea3e 651c 1d3d 2bf2 c53e
00000010: 66db 0cbe 366a 583e ecaf d53e 2dc9 d9be
00000020: 7df3 f63e 71f0 31bc ea4d 01be a312 d7be
00000030: e1cf a43e 9ebf d6bd dadd 09be 22f4 0ebf
00000040: f906 c9be 6c7b 9b3e 893b 1fbd 61a0 21bf
00000050: a441 c03e cf20 4ebe 7c0e f83e 6dd0 1e3f
00000060: b4ca aa3e 21dd b63b f8cb e23e fe5a 79bf
00000070: 3321 933e f763 b1be d400 f1be 963a 95bd
00000080: 9c37 f53d 13cd 943e 56af c13e 1684 b8bd
00000090: 8ece f9bc f13f fa3e 7e79 02bf 7c08 85be
000000a0: 00d6 a9bd 5e19 f13c 49a8 ad3d 08eb 36bf
000000b0: c1d8 03be ef75 013f bd16 293e f891 e03e
000000c0: 7db9 20bf 205f f63d 7173 2e3d 3505 a53e
000000d0: 55d5 40bd 1699 6dbf 7d01 923d 0cf0 4fbe
000000e0: c634 6d3e d940 87bd 62b5 04bf 1afe dbbd
000000f0: 4409 ba3e 5bce 0dbe 43fa 3b3e 261f 0f3f
00000100: 9861 913e 77c3 bd3d bd04 703d d8c3 3bbe
00000110: f002 213e 54a2 01bf 3f3e 49be efc8 093e
00000120: 377d 10bf 2492 2f3d 1a84 a6be 0906 b73e
00000130: d9dd 8f3d 5033 b53e e3ca 563e 4254 04bd
00000140: fb11 cf3e 40d7 97bc 935a 4e3f ff19 fd3d
00000150: e0de 4e3d 8b0b fd3d fe02 bebe 8709 d23e
00000160: 6358 14bf 602f 32be 9337 73bd 3eea b0be
00000170: 92ce 45be 7e4d 1ebd 1a2d 26bd 19ac 903d
00000180: 4107 be3d 4218 b0bc 14d0 a13e 6c19 ebbd
00000190: 1edf 663d 2029 303d 8e31 d23d 1476 8ebe
000001a0: 1f8c a9be b577 26be 7f33 de3d 9769 6fbe
000001b0: 82e8 083f 42dd 703f 574d ccbd e087 aa3d
000001c0: ac0c 71bd 4bb4 f1be 5ded 0b3f d9e4 d2bd
000001d0: 230c f63c 1778 5dbe fbc2 a1be 6ac2 9abb
000001e0: b506 f63d 34c7 183c f1d0 e23e d2d3 373e
000001f0: 6d1c acbe 1043 353e f9f1 aa3d c2bb 093f
00000200: b40f 463f ba91 6b3e 9213 8c3d 5e55 a23e
00000210: 74e5 f8be a996 a63e 201f cf3d 40bc c6be
00000220: 09dc 89be b791 f33d 2685 4d3f 3f8d cbbd
00000230: 4ce7 febd 163b 613e 3b59 673f 9863 403f
00000240: 4163 1a3e ebd0 81be d7b1 a8be 540d fcbe
00000250: 589e e33c ad90 653e e109 55bd 70c4 1e3f
00000260: 0ec5 05bf 1320 e33e 0577 c8bd 7e1d 87be
00000270: 22bf 43be 4cc5 c93c 409d cbbe f457 49bf
00000280: 9b21 853e a076 a4bd 2218 e0be e1b0 283d
00000290: f05b e63e 4eb0 fdbc 613c d6be c47f 603e
000002a0: 583d 28bd 122a febc 509b bcbe 6c1c 903d
000002b0: 72f3 81bf eee0 e73d 286a abbe 68ef 133e
000002c0: b47f ab3d a42d f63b 59e9 d03d 5bbd 0cbf
000002d0: 5aea 0ebe 36c7 d53d d7f8 ae3d 632c 0abe
000002e0: 3847 72be 17f9 173e 54ae 28be e310 83bd
000002f0: 85e2 d7be 666b 3dbe 968c ef3d 3ec4 8f3e
00000300: 2365 3fbc d9f6 33bd f811 aabe e0b4 0fbe
00000310: a630 023f 2c7e 3a3f 5d9e ccbd 6e82 38be
00000320: 86b1 8fbe 29fd 823e cc72 cabd 8b57 cdbe
00000330: 1188 363e 27a4 31bf 58bc 0fbf 30e0 343e
00000340: 6786 17bf 329f 623e de6b bbbe 63a9 6bbd
00000350: 57b2 9c3e f48e d13e c60c c7bd 9c45 2a3c
00000360: 6592 893e 4480 1d3c 5e28 e1be 0375 323e
00000370: 6331 adbd d8c0 6ebe 46a0 7bbe 157c 96be
00000380: 4676 be3e f1fe 61bf 526b 4c3e 0a13 3f3d
00000390: dba2 2a3d b2dc 21bf 107c a6be 3653 e2be
000003a0: 210e acbe 5778 8dbd 8112 04bd 05c8 23be
000003b0: cf5e 003c 107d 94bc ab0c 4cbe 000d febe
000003c0: ba46 f8be 1f35 5c3d 24e2 8b3e c7ae 5e3e
000003d0: a3d7 45bd 4739 cc3c 86f7 f2be 6984 ec3e
000003e0: 3095 c03e 1e84 91be 1f63 4e3e a087 b7bd
000003f0: bdde b2bd 55ea 0b3e 804c 0d3e 949e 82bd

fc3.bias f4 [4]
-0.002511319 0.06124685 -0.0046586264 0.08221855
00000000: f194 24bb fadd 7a3d 64a7 98bb 3362 a83d
