checkpoints/checkpoint_critic_ddqn_8.pth (torch_old, 304178 bytes, 5 tensors)

fcs1.weight f4 [256, 33]
000000 42 b5 39 bd ac f7 b5 3c 9c e5 15 3c 8b 08 70 bd
       -0.045338877 0.022212826 0.009148981 -0.058601897
000010 96 74 2a bd cf 39 ec bd 6a f6 e8 3d dc 77 b4 bc
       -0.04161509 -0.115344636 0.11375125 -0.02202981
000020 57 f7 9d bd 79 07 96 bc ad 23 76 bc bf 4c 2f 3d
       -0.07713192 -0.01831411 -0.015023154 0.0427978
000030 a6 bc 25 bd fb 9f 5f 3b 96 54 21 3c 98 d9 ae 3c
       -0.040463112 0.0034122455 0.009846827 0.021343991
000040 df 3b ca ba 09 ca 8a bd b5 3b 46 3d e5 85 a8 3d
       -0.001542922 -0.067768164 0.048396785 0.08228663
000050 dd df a7 bb bb ae cb 3c 97 4e 6a 3d bb f1 91 3c
       -0.005123122 0.024863591 0.057203855 0.017815461
000060 fd 8c ed bb 0f 9d 9a 3d 7c b0 77 bc 91 ab ef 3d
       -0.007249473 0.07549488 -0.015117761 0.117026456
000070 71 40 24 bd e8 43 51 3d 50 54 f2 bd 44 17 a6 3c
       -0.04010052 0.05109015 -0.118324876 0.020274766
000080 35 76 66 3e de 4d 55 bc 65 ce e8 3d f2 9f 1d 3d
       0.2250603 -0.013019053 0.11367492 0.038482614
000090 f0 8a 2f bc 05 7a 56 bd b8 c4 8c 3d de b6 ef 3c
       -0.010714278 -0.05236246 0.068734586 0.029262003
0000a0 97 1f a0 3c df 64 56 bd 88 c2 6f 3c 10 fe 00 3d
       0.019546313 -0.052342292 0.014633782 0.031492293
0000b0 15 e8 4e 3c d2 85 4b 3c 6f 80 eb 3d e5 5e 73 bd
       0.012628575 0.012422042 0.11499106 -0.05941667
0000c0 b8 b2 2f bd 52 cf a9 bc e7 91 8b bc cb 3f 08 bc
       -0.04289505 -0.02072874 -0.017037345 -0.008315991
0000d0 9d 5f bc bc 2d ad 18 3c 51 a5 c3 3a e8 7c 97 3c
       -0.02299481 0.009318632 0.0014926587 0.018492177
0000e0 9e c6 ca 3c 6e cd 88 3b 70 47 92 bc 3f 59 d0 bd
       0.024752911 0.0041748798 -0.01785633 -0.10173272
0000f0 04 73 88 3d 50 b3 52 3b c8 8d 3b 3c 67 7c 86 3b
       0.066625625 0.0032150336 0.0114473775 0.0041041854
000100 4c ed 0a 3d 99 12 53 bd 0d 9d 28 bc bd 5c 67 bd
       0.03391771 -0.051531408 -0.01029135 -0.056484926
000110 b3 35 92 3b aa b3 de bd ad 1c 8d 3d 4d a3 fa bc
       0.004461968 -0.10874112 0.06890235 -0.030595446
000120 d1 2c cc bb a8 b2 36 ba 0c a9 9f 3c e9 31 03 3b
       -0.0062309285 -0.0006969371 0.019489788 0.0020018762
000130 38 6d 4e bc ca ea e7 3b 4f 47 9e 3c 53 89 ba 3c
       -0.012599282 0.0070775496 0.019321112 0.02277056
000140 cd 1e 7d 3d 8d 0c 90 3c d1 6f f9 3c 79 9a 2d 3d
       0.061796952 0.01758411 0.030448826 0.042383645
000150 7f d0 88 bc cb 5f 6d 3d 1b af 07 bc 2f c7 d0 3c
       -0.016700981 0.057952683 -0.0082814945 0.025485603
000160 53 e4 49 bc 96 99 63 3b 1b 2a 34 bb 15 a7 41 bd
       -0.012322503 0.0034728996 -0.0027490917 -0.047278482
000170 87 c6 cc 3b 2a d5 6f 3d 72 26 21 bd 86 9f 5b 3d
       0.0062492522 0.0585529 -0.039343305 0.05361893
000180 6e a6 1f bd d4 7f 97 3c df eb 5d bd d7 93 66 bd
       -0.03897708 0.01849357 -0.054180022 -0.056293335
000190 23 45 80 3d 23 9a 8c 3d 1c e6 d8 3c 85 fb 2b 3d
       0.06263187 0.06865337 0.026476912 0.041987915
0001a0 70 d8 1e 3d 64 ad bf 3a b1 bf d4 3b 45 6a 87 3c
       0.03878063 0.0014623818 0.006492578 0.016530165
0001b0 fb f6 2f 3d cd 16 7b bb a5 fd 98 ba ce 7a 95 3b
       0.04296015 -0.003831315 -0.0011672272 0.0045617586
0001c0 d4 96 d0 3d ec 9f bc bd c9 31 cb bd 1b 6f e1 bb
       0.10185018 -0.0921019 -0.09921605 -0.0068797
0001d0 eb 1c 75 3c a9 43 d2 bc 00 7c c1 b9 95 7d aa 3a
       0.014960508 -0.025667029 -0.00036904216 0.0013007397
0001e0 54 c5 a5 bc 71 ac 10 bc 35 6a 92 3b 8c 7b 85 bc
       -0.020235695 -0.008830176 0.0044682273 -0.016294263
0001f0 c7 bd 4f bc d8 f9 46 bd 26 5f 23 3b 8b 97 b7 3d
       -0.012679524 -0.048578113 0.002492854 0.089644514
000200 d0 3c 78 bc 8d ba e4 3c 84 ef b6 bc 09 1c 87 3e
       -0.015151218 0.027920986 -0.022331007 0.26388577
000210 f3 dc 25 bd 94 d7 3f 3d e2 2b a6 bc 69 22 6e 3d
       -0.040493917 0.04683645 -0.020284597 0.058138285
000220 d7 15 9e bd 1f a3 8d bd 82 79 03 3c 84 ec e6 bc
       -0.07719009 -0.069158785 0.008024575 -0.028188951
000230 eb 3d 75 bc 36 ea da bd 3f be c2 bc 88 13 02 3d
       -0.014968376 -0.106892034 -0.023772357 0.031756908
000240 66 9b 84 3c 29 88 54 3a 88 c6 7b 3c c7 64 26 bc
       0.016187381 0.00081074476 0.015367158 -0.010155863
000250 f9 d8 9b bc 98 93 d2 bc 04 73 31 3a af 5c 0a bc
       -0.019024359 -0.025705144 0.0006769153 -0.008444949
000260 7e 5e ac bc ca 69 1f bc 3e 88 32 3d d3 e4 c0 bc
       -0.021041151 -0.009729812 0.043586962 -0.023546612
000270 cc 72 c0 bb 73 3c 92 bc dd ab 8e 3d 73 6c 3b 3d
       -0.00587306 -0.01785109 0.06966374 0.045757722
000280 de e1 c8 3b 00 55 3b 3d 6e 34 0e bd 20 99 2e bc
       0.006130441 0.04573536 -0.03471797 -0.010656625
000290 dd 04 0b 3d c8 fe c5 bc 8c c3 92 bd 9a f2 88 3d
       0.033940185 -0.02416934 -0.07166204 0.066868976
0002a0 cc d9 b2 bb 63 80 ce bd 09 27 28 3d b3 f4 0b 3d
       -0.0054580923 -0.100830816 0.04105285 0.03416891
0002b0 85 3d 90 3c c3 54 77 bd 22 b2 4d 3d 57 68 15 3c
       0.01760746 -0.06038357 0.05021871 0.009119115
0002c0 ba 2d 47 3b c2 a6 41 3b de 3b 20 3d 55 96 33 3c
       0.0030392245 0.0029548858 0.039119594 0.010961135
0002d0 cd 2e 31 bd 40 53 de bb ce ee 40 3d 36 42 1e 3d
       -0.043257523 -0.0067848265 0.047102742 0.038637362
0002e0 9a 21 8a bc e8 c1 c1 bc 1f 36 0a bc 93 b8 2c bc
       -0.016861726 -0.023652032 -0.008435755 -0.010542053
0002f0 74 4e 00 3b 69 bc ae bc 82 43 e9 bc d3 c3 93 3c
       0.0019578012 -0.021330075 -0.028474573 0.018037712
000300 68 c6 00 3d 3d 86 08 3d 74 40 34 3d 40 2c 3a 3d
       0.031439215 0.033331145 0.04400678 0.045452356
000310 30 e9 b1 3c fc e8 f9 bc 4d 2f 8e bd f1 36 fa 3d
       0.021717638 -0.030506603 -0.06942616 0.122175105
000320 a4 06 94 bd 1d 8d 5f bc d2 3a 65 bd 96 b6 bf 3c
       -0.07227829 -0.013644484 -0.0559643 0.023402493
000330 c1 cd 12 3b ae 2b e1 bc 96 5f 90 3d 87 0d 04 3d
       0.002240047 -0.027486648 0.070494816 0.032239463
000340 17 81 40 3c 52 c4 51 bb 6a 88 10 bc 03 c1 bb 3d
       0.011749527 -0.0032007885 -0.008821586 0.091676734
000350 02 10 cc bd db fa e4 3d 25 3d e1 3c 96 db dc 3c
       -0.09963991 0.111806594 0.027494976 0.026960175
000360 09 6b c4 bc 09 a3 42 3b c1 f3 a9 3c 4e 9a 88 bd
       -0.02397682 0.0029699227 0.020746114 -0.06670056
000370 6d 01 89 bc 47 70 0a 3d 51 c9 0f bd ca 0e 3e 3d
       -0.016724313 0.033798482 -0.0351041 0.046400823
000380 27 af 5a bd 5b 5e b2 3d b1 35 9d bd 9e 0d 58 bd
       -0.053389695 0.08709403 -0.076762564 -0.05274736
000390 46 ac b5 3c e0 65 4f 3c 75 ad 6d 3d 53 b3 da bd
       0.022176873 0.012658566 0.05802675 -0.10678735
0003a0 dc 30 e9 3c 85 1f 18 3c cc 5c 6e bc 81 99 93 3c
       0.02846568 0.009284859 -0.014548492 0.018017532
0003b0 66 97 06 3d 9a 72 ad 3c 77 f4 ab bc 9c b6 15 3d
       0.03285923 0.02117281 -0.020990593 0.036551103
0003c0 40 99 e0 3c 3d b9 5d bb 0c 3d 0e bd 7e 80 ef bc
       0.027416825 -0.0033832334 -0.034726188 -0.029236075
0003d0 17 e2 3b 3d 8e 4d de bc a3 e7 51 3b d2 f1 6d bc
       0.045869913 -0.02713659 0.0032028935 -0.0145229865
0003e0 0c 0b 23 3c e3 88 29 3d dc d4 4f bb 23 b8 2b 3b
       0.009951364 0.04139031 -0.0031712567 0.0026202283
0003f0 5a 3b e3 bc 0f 58 c6 3b cc c3 15 3d fc fb 85 3c
       -0.027738262 0.006052978 0.03656368 0.016355507

fcs1.bias f4 [256]
000000 8c 87 b4 bd 35 a3 f0 bd b2 26 46 3d 98 63 b0 bd
       -0.08814916 -0.11749879 0.048376746 -0.08612746
000010 08 1d 27 3b 7e 45 8f bc 19 27 53 be 57 94 da 3c
       0.0025499482 -0.017489191 -0.20620383 0.026682062
000020 c9 7e 3c 3d 3c e0 96 3d 63 0a 6c be 47 5a 56 3d
       0.04601935 0.07366988 -0.23050837 0.05233219
000030 92 68 c5 bd 75 ab 8e 3d 07 96 89 3d 15 75 b6 3d
       -0.09639086 0.069662966 0.067180686 0.089090504
000040 e7 19 51 3d 5c c6 a0 bd 78 7c 1f be 8b 70 3a be
       0.051050093 -0.07850334 -0.15574825 -0.18206994
000050 0c 26 b3 bc 35 50 29 be dc 33 ff bc d9 51 f1 3d
       -0.021868728 -0.16534503 -0.031152658 0.11783189
000060 84 7e de bd 39 8f 8d bd f8 8f 44 3e d6 64 d1 bc
       -0.10863975 -0.06912083 0.19195545 -0.025560778
000070 26 1a cc bd 24 49 20 be dd cc 0a be 97 7e c4 bd
       -0.09965925 -0.15652901 -0.13554712 -0.095944576
000080 96 34 c3 3d 2a cb 33 be 6d dc 30 be 83 13 72 3d
       0.09531514 -0.1755797 -0.17271586 0.05910064
000090 a4 87 51 be 08 78 35 be 80 ba 03 3c 35 d5 44 3d
       -0.20461899 -0.1772157 0.0080400705 0.048054893
0000a0 a6 27 33 be ab 5f da bd 3f 64 cf 3d 4c fc 03 3e
       -0.17495593 -0.106627785 0.10126542 0.12889212
0000b0 00 54 e7 3c 86 c1 d7 bd 7e 58 ad 3d d1 33 38 bd
       0.028238297 -0.105349585 0.08464144 -0.04497129
0000c0 9a 33 f6 3d 07 ee 91 3d 33 e2 4a be d1 4b 92 3d
       0.12021561 0.07125478 -0.1981285 0.07143367
0000d0 ee a4 d9 bd a4 5a 4e bd 14 bf 8e bd f5 f5 a5 3d
       -0.10627161 -0.05037941 -0.06970039 0.08103553
0000e0 09 c5 45 bd 86 ea bf 3d 16 07 40 be 40 c2 80 3d
       -0.04828361 0.09370904 -0.18752703 0.0628705
0000f0 ba d1 15 be de d1 d3 bd c1 82 8b bd f8 57 b0 3b
       -0.14630786 -0.10342763 -0.06812049 0.0053815804
000100 8f df ca bd 5c 10 16 be ec d0 94 3d b8 ed 95 3b
       -0.09905922 -0.14654678 0.07266411 0.0045754574
000110 3a 3a 47 bc 90 8f 73 bd 1e 88 38 3e 25 51 1b be
       -0.012159878 -0.059463084 0.18020675 -0.15167673
000120 cb 20 6d be c7 ee 95 3d 87 98 52 3d 85 5d a1 3d
       -0.23157041 0.07320934 0.051414993 0.078791656
000130 5c 85 16 be b3 b8 cb bd 50 a8 1a be 97 6a a5 bc
       -0.1469931 -0.09947338 -0.15103269 -0.020192428
000140 ac 6b c9 3d 74 bd bf bc b6 93 33 be 4b 14 45 3a
       0.0983499 -0.023405768 -0.17536816 0.00075179775
000150 36 10 95 3d fb ff b4 3d a0 41 64 be 2e 15 be bd
       0.072784826 0.08837887 -0.22290659 -0.092813835
000160 08 dc 81 bd f3 a9 e4 3d 09 2b 83 bd cc ce be bc
       -0.06340796 0.11165228 -0.06404693 -0.023291968
000170 a7 c4 d1 3d d4 e4 e5 3d 57 13 34 bd 4a 19 8a bd
       0.102425866 0.11225286 -0.043963756 -0.06743105
000180 ab 38 a1 bb 53 b0 1e be 20 ec cf bd ed dc eb 3d
       -0.0049200854 -0.1549695 -0.10152459 0.115167476
000190 50 45 50 3d 20 32 e1 3c 9b e2 19 bd 80 2f 91 3b
       0.05084735 0.027489722 -0.037569623 0.0044307113
0001a0 13 da 85 3c 5e ed be bd 6b 11 a5 bd 57 2d 81 bc
       0.016339337 -0.09322618 -0.08059963 -0.01576869
0001b0 ba fa ff 3c ec 45 6a bc e5 d7 07 3e 34 9d 1d be
       0.031247485 -0.014298897 0.13265951 -0.15392
0001c0 64 d5 46 be cb e3 84 be c6 af bd 3d 2e cc e6 bc
       -0.1941734 -0.25955042 0.09262042 -0.028173532
0001d0 8b dc ae bd 62 ba 2e be e9 31 b2 3c 51 2a 9a bc
       -0.08538159 -0.17063287 0.021752315 -0.018819006
0001e0 08 82 b7 3d bc 5e f5 3d a3 31 34 bd 22 20 9d 3d
       0.08960348 0.1198096 -0.04399265 0.076721445
0001f0 a7 b1 bf 3d e1 8d c2 3c 4e d6 18 be 97 6a c5 bd
       0.09360056 0.023749294 -0.14925501 -0.09639471
000200 6a 46 01 be 26 83 67 be ea 22 e4 bd 6d 68 fc bd
       -0.12624517 -0.22608623 -0.11139472 -0.12324605
000210 33 bb 97 3d 0f 74 c7 bd 21 34 9a bd 17 d7 4d bc
       0.07408752 -0.09738933 -0.07529474 -0.012563488
000220 e7 df 29 bd 14 46 41 be 23 b4 f2 bd 42 b7 00 bd
       -0.041473296 -0.18874389 -0.118507646 -0.03142477
000230 ed 44 80 bd 7c d1 1b 3b cc 3a d4 bb 26 f2 9f bd
       -0.062631465 0.0023775985 -0.0064767357 -0.07809858
000240 7b ab bc bd 72 de b2 bd 39 4a 99 bd 8f ff e4 3d
       -0.09212395 -0.08733834 -0.0748486 0.111815564
000250 39 7b 63 3d 0f 51 06 be ec 84 61 be c1 53 3a 3c
       0.055537436 -0.13116859 -0.22023362 0.011372508
000260 c6 67 55 bd 00 30 c4 bd c0 c8 c8 bb e8 3d 41 bd
       -0.05210092 -0.09579468 -0.006127447 -0.04717818
000270 ec 26 02 be e0 13 a8 bb 8f bc 0a be ba 14 10 be
       -0.1271016 -0.0051293224 -0.13548492 -0.14070407
000280 b3 65 28 b7 30 e4 1e be 6c b5 66 3d a6 3a 48 3d
       -1.0037259e-05 -0.15516734 0.05632536 0.048884057
000290 f0 f9 89 3d 10 22 a8 bd 8d 46 fc bd d5 ef 01 be
       0.06737125 -0.08209622 -0.12318144 -0.12689145
0002a0 a6 ff a0 bd c7 d1 ad bd d4 20 bb 3c aa ee 22 3d
       -0.07861261 -0.084872775 0.022842802 0.03977839
0002b0 88 d0 07 be 8f 67 92 bc 1f b5 38 bd fa ce 5a 3d
       -0.13263142 -0.017871646 -0.045094606 0.053420044
0002c0 89 de f6 bd f4 77 fe bd 88 f0 07 be 62 9d f1 bd
       -0.12054164 -0.12425223 -0.13275349 -0.117975965
0002d0 94 8a 45 bd e7 c1 11 3d e1 88 d3 bd 71 c6 07 be
       -0.04822786 0.03558531 -0.10328842 -0.13259293
0002e0 b1 3f 30 bd 8d c9 8a 3c 92 2f b8 3c 65 e4 88 bd
       -0.04302949 0.01694181 0.02248362 -0.06684188
0002f0 3e 6a 0b be 5b 14 d9 3d 37 6d 12 be e7 9d 66 3d
       -0.13614747 0.105995856 -0.14299475 0.05630293
000300 d4 40 b5 3d ff 4c 56 bd e2 54 b9 bd 13 2a 2f be
       0.088502556 -0.052319523 -0.09049393 -0.17105894
000310 48 e9 a3 3c 4d 2c e0 3c ea 41 64 be a0 39 b7 3b
       0.020008698 0.027364874 -0.22290769 0.005591586
000320 a2 bb 23 3e 97 27 37 3e 06 7d 41 3d 12 3c 8b 3d
       0.15989545 0.17886196 0.047238372 0.06798567
000330 33 91 b2 bc c8 e3 3a be 7a ea 42 be 23 6d 29 be
       -0.021797752 -0.18250954 -0.19034758 -0.16545539
000340 25 d4 8c 3c 16 0f 41 3d cb 94 f8 bd d5 68 45 3d
       0.017191002 0.047133528 -0.12137755 0.04819568
000350 95 3e 04 be ee ee fe 3c 00 8a 11 be 65 56 31 3d
       -0.12914498 0.03111979 -0.14212799 0.043295283
000360 95 ba 10 be c3 0b f5 bd c0 7b f2 bc 9d cf a6 3d
       -0.14133675 -0.11965134 -0.029600024 0.08145068
000370 ef b0 90 3c 2c e1 27 be 54 63 9c 3c 0f 24 48 be
       0.017662494 -0.1639449 0.019090332 -0.19545005
000380 ee b5 95 3d e6 e3 54 be bb 20 a2 bd e4 e0 79 be
       0.07310091 -0.20790061 -0.07916399 -0.24402195
000390 f5 60 bd bd a8 b8 f4 3d 36 65 77 3d fd df 32 bc
       -0.09247009 0.11949283 0.060399257 -0.010917661
0003a0 3d 5e 01 be fa b2 36 3d 5f bb 6f bd 50 34 8d bd
       -0.12633605 0.04460428 -0.0585283 -0.068947434
0003b0 03 f0 83 3d 06 75 21 3d 24 57 36 be 79 c1 34 3c
       0.06442263 0.039418243 -0.17806679 0.011032456
0003c0 c2 20 1d be 8d ae 1a be 88 70 41 bd 10 9f cc ba
       -0.15344527 -0.15105648 -0.04722646 -0.0015611369
0003d0 f1 e3 18 bd 43 3a 0b be 9f 76 32 3d ac 82 38 3d
       -0.037326757 -0.13596444 0.043570157 0.045046493
0003e0 f1 5e b1 bc 6f 7e 77 3d b2 00 70 bd 4b 79 71 be
       -0.021651717 0.06042331 -0.058594413 -0.23581426
0003f0 7b 3f 2f be 7d 85 af 3d 95 90 ed bd 1a 17 1b be
       -0.1711406 0.08570383 -0.115998425 -0.15145531

fc2.weight f4 [256, 260]
000000 d7 fe 60 3d 44 3f e3 bd dd 78 80 3d ba 43 d9 3b
       0.054930534 -0.11096051 0.06273053 0.006630388
000010 23 66 3a 3d 3f 8b cd bd ed e0 c6 bc 39 34 a2 3d
       0.04550756 -0.10036325 -0.024277175 0.07920117
000020 6b 65 b6 3c 5d ad 2c 3d 35 8b ed bd 2e 62 84 3d
       0.022265157 0.04215752 -0.11598817 0.06464039
000030 c7 0c b7 bd 96 f1 5f 3c 9c e6 ee 39 c7 87 d4 3a
       -0.08937984 0.013668438 0.00045566715 0.0016214781
000040 ff e5 56 3d 37 bc 1b 3c 23 24 7a 3d 7a 7c c0 3d
       0.052465435 0.009505323 0.06106962 0.09398742
000050 34 27 a4 3c 63 bc 80 3c 17 d6 99 3d 55 59 8d bd
       0.020038225 0.01571483 0.075115375 -0.06901804
000060 db 23 ec 3c 9b ce 9f 3d f3 45 92 bc b0 5e 64 3c
       0.028825691 0.07803079 -0.01785562 0.013938591
000070 e7 a9 f4 3c 19 38 83 bc c2 23 87 3c fd 50 53 bd
       0.029866172 -0.01601796 0.016496543 -0.05159091
000080 02 ae 92 3d a5 dd b5 3c ff 99 da 3d fa fe 29 3d
       0.071620956 0.022200415 0.10673904 0.04150293
000090 95 a8 39 bb ac b1 27 3d 72 5f bd 3d 85 41 3d 3b
       -0.0028329242 0.040940925 0.092467204 0.0028878164
0000a0 c2 69 fb 3d ab da a7 bc 3e 47 3b bd 29 f5 8e 3c
       0.12276031 -0.020490011 -0.04572224 0.017450886
0000b0 5a ae 3e 3d c5 d5 6e bd c1 72 79 bd e0 8b 19 bd
       0.046552993 -0.058309335 -0.060900453 -0.03748691
0000c0 fe c1 ba 3c 10 29 bc bd f6 fd ba bd 0a d5 5e bd
       0.02279758 -0.091875196 -0.091304705 -0.05440239
0000d0 7a 41 f8 3c 08 16 c4 bc 6c c6 eb bd e4 2c 56 3d
       0.03030466 -0.023936287 -0.11512455 0.052288905
0000e0 9f 5c c4 bc 8e 35 8c 3c a1 c1 d6 bb 1d 4d ac bd
       -0.023969946 0.01711538 -0.006553844 -0.08413146
0000f0 cd fb 03 3d 5e 8a 16 3c c0 1e 8f 3d de 59 8c bd
       0.032222558 0.009188263 0.06988287 -0.06853078
000100 b4 b1 ba 3b 85 be 59 3c 64 93 ce bc f6 60 28 bd
       0.0056974534 0.013290052 -0.025216766 -0.041108094
000110 0d bd 01 3d 92 a5 5c 3d 2c 96 02 3d db 88 22 3c
       0.031674433 0.053868838 0.031881496 0.009920324
000120 ee 56 08 bd 2d 0f a1 bd b9 57 83 bd 27 ff 59 bd
       -0.033286028 -0.07864223 -0.06413216 -0.053221848
000130 5f e6 f9 bd d3 7f 21 bc 34 f2 72 bc c8 0c 2d bb
       -0.12202143 -0.009857136 -0.014828254 -0.0026405323
000140 de db b9 bd 61 d5 9d bd 25 fd 44 3d 0c 7d 99 ba
       -0.090751395 -0.077067144 0.04809298 -0.001171024
000150 88 2a fd bc 64 94 29 bd 73 d2 90 3c 6a 61 98 3c
       -0.03090407 -0.041401282 0.017678475 0.018601138
000160 8a b7 74 bc 05 2b 02 be d6 ac 02 3d 48 a3 ac 3d
       -0.014936337 -0.12711723 0.03190311 0.08429581
000170 b4 03 8e 3c 86 bc e8 bd 6d c6 80 3c ad 64 cd 3c
       0.01733575 -0.11364083 0.015719617 0.02507242
000180 6e ed f3 bd eb 8f 1e 3a 0a f5 18 3d 0a 75 c0 3b
       -0.119105205 0.0006048667 0.037343062 0.005873327
000190 0d 6a 57 3d 2f 8c 89 bb be a0 e0 bd 9d cf 34 bd
       0.052591372 -0.0041976194 -0.10968159 -0.044143308
0001a0 73 14 ee 3b f8 a4 c6 bd 36 7a fc 3c bc 86 67 bd
       0.0072656213 -0.09699434 0.030819993 -0.056524977
0001b0 71 43 d8 3c 64 e1 80 3d 52 cf 84 bd 80 89 51 bd
       0.026399346 0.0629299 -0.06484856 -0.05115652
0001c0 eb 0c a9 bc 08 25 9b 3d 0c 5d bb bb 4f 12 7a bb
       -0.020636043 0.075754225 -0.005717879 -0.0038157885
0001d0 c4 08 dc 3c 74 15 82 3d 6d be cc 3d 16 0c 80 bd
       0.026859649 0.06351748 0.09997258 -0.06252305
0001e0 2b 7b 3d 3d e5 d1 80 3c 49 60 ca 3c d0 99 8c bc
       0.04626004 0.015725086 0.024704115 -0.017163187
0001f0 f1 2c 0e be 23 4d 03 3d 8c 59 22 3c 5e 83 0b bd
       -0.13884331 0.032055985 0.009909045 -0.03406083
000200 63 c4 84 bc 18 dc f0 bc 67 3b ba 3c b2 55 27 bd
       -0.016206926 -0.029401824 0.022733403 -0.04085321
000210 ad 65 0d bd 56 64 0f bc 97 c9 5a 3c 4b 1a a2 3c
       -0.034520794 -0.008751949 0.013353727 0.019787928
000220 97 a2 d3 3c 63 93 10 3d ab b4 8d be 6e 26 92 3d
       0.025834365 0.03529681 -0.276769 0.07136236
000230 46 08 db 3b f5 af 4b be b9 60 24 bd 73 38 a1 3d
       0.006684336 -0.19891341 -0.040131304 0.07872095
000240 19 9c 43 bd 3c 48 d4 bd 89 71 2d 3d aa 8f a7 3c
       -0.04775629 -0.1036534 0.042344604 0.020454247
000250 ce 6e 21 be 62 26 b9 3d 73 0a 92 bd f1 70 b1 bc
       -0.15764925 0.09040524 -0.07130899 -0.0216603
000260 b9 3e 22 3c 32 44 34 bc 5f ce 7e bd c1 a3 39 bc
       0.00990265 -0.011002587 -0.06220853 -0.011330546
000270 bb c6 63 bd 03 52 0c 3e 73 bb 7b 3d 39 c8 66 bd
       -0.055609446 0.1370316 0.061458062 -0.05634329
000280 7c 09 09 be f2 1f 27 bc e0 d7 73 bd 75 3b f7 bb
       -0.13382524 -0.010200487 -0.059532046 -0.0075449296
000290 33 20 8c 3d d7 ec d6 bc 2e d8 74 ba c3 5b 2d bd
       0.06842079 -0.02623598 -0.00093400746 -0.04232384
0002a0 92 af 6e 3d 42 0e ee 3d ce 73 c4 bc 2f 86 e7 bc
       0.058272906 0.11623813 -0.023981001 -0.028262226
0002b0 1d f2 2b be ca 88 82 3d df a9 9b 3b 1f 29 1e 3d
       -0.16791578 0.06373747 0.004750475 0.038613435
0002c0 b7 23 b0 3d f7 cf a0 bc 40 e6 b2 bd eb 7e 16 be
       0.08600562 -0.019630415 -0.08735323 -0.14696853
0002d0 02 21 a9 3d f7 7d 85 bd 6a 40 82 3c a6 ce 2b bd
       0.08258249 -0.065181665 0.015899856 -0.041945122
0002e0 1e 2b 0c be b4 2d 5c bb 9c 58 96 3c bd a4 ab 3b
       -0.13688323 -0.0033596577 0.0183528 0.005238144
0002f0 56 5e af bc 3d 84 b6 3d 4c d3 29 bd 3e 47 95 3c
       -0.021407288 0.08911941 -0.041461274 0.018222447
000300 4d e1 48 3d 59 66 38 bd 27 3b 60 3c 39 32 c0 bb
       0.04904299 -0.04501948 0.013685978 -0.005865362
000310 7c 92 0a be 79 6b bb bd d3 23 75 3d 20 19 88 bc
       -0.13532442 -0.09151358 0.059848618 -0.016613543
000320 c9 34 a8 bd b1 9d 1e bd 09 d4 ca bc 96 e3 35 bd
       -0.08213193 -0.038724605 -0.02475931 -0.044406496
000330 bf 81 0c 3d 2f 03 77 bd 4e 8a a2 bd 72 02 fb 3d
       0.034303423 -0.06030577 -0.07936536 0.12256326
000340 58 73 62 bd 65 f2 93 3c 9e 4a 23 3d 4e b5 48 3c
       -0.05528578 0.018059919 0.039866082 0.012250258
000350 4e e6 39 3c 4a 65 8b bd 7b 5a f9 3d 0d df c9 ba
       0.011346413 -0.06806429 0.12175461 -0.0015401557
000360 dc f4 d1 3c 31 46 3a bc 73 d5 bc bd 6d a3 7a 3d
       0.025629453 -0.011369274 -0.092204 0.06119101
000370 05 f0 0a be 6e c9 74 3d d6 5a 48 3d 1b 60 4d 3d
       -0.13568123 0.05976241 0.048914753 0.05014048
000380 c8 51 84 3d e0 77 a8 bc 70 50 82 bb 87 3c 2a bd
       0.06460911 -0.020564973 -0.003976874 -0.04156163
000390 a0 fb 0f 3d 32 df b6 bc 4d 56 39 bd d2 ce 2f bd
       0.035152078 -0.022323225 -0.04524832 -0.04292185
0003a0 cf 96 b1 bd db ab 9c 3c d3 63 34 3c 05 5c 8a bd
       -0.086713426 0.019124916 0.011010128 -0.067558326
0003b0 43 14 2d bd 95 b1 ea bd 1c ee 9f bc 1c e9 28 3d
       -0.04225565 -0.11459652 -0.01952272 0.041237935
0003c0 b8 4a b5 3c 89 9f 30 bc 8f 65 19 bb ec 74 f3 bc
       0.022130355 -0.010780224 -0.002340648 -0.029718839
0003d0 50 d5 c0 3c 2b fa f5 3c 7c 9d fb bc d9 47 b2 bd
       0.023539215 0.030026516 -0.030714743 -0.0870511
0003e0 a5 aa c0 bb 9c 19 f2 bc c0 56 57 3d 03 6d b7 bd
       -0.0058797174 -0.029553227 0.052572966 -0.08956339
0003f0 7f ee f2 bc df c0 10 bb 86 40 36 3d ce dd 84 bd
       -0.02965474 -0.0022087616 0.044495128 -0.064876184

fc2.bias f4 [256]
000000 00 dc 45 bc f5 7c 39 bd 79 94 4b 3c 00 0e 22 3d
       -0.012076378 -0.045285184 0.012425535 0.039564133
000010 79 3b 17 3d f9 6f 7b bd 2e fb 9d 3d c0 bf 10 3d
       0.036921952 -0.061386082 0.07713924 0.035339117
000020 99 bd 8e bd c1 66 44 bd c1 c7 a1 bb 57 f2 2c 3c
       -0.06969757 -0.047949556 -0.0049371426 0.010555825
000030 0d 4c 56 3d 50 de 6c 3c d5 af c1 3c 3b 6c f0 bc
       0.05231862 0.0144573 0.023643414 -0.029348483
000040 99 a9 cb 3d 60 bd 25 bc 12 20 df 3c c4 16 f0 bc
       0.099444576 -0.010115951 0.027236972 -0.02930773
000050 d6 18 0e bd 51 94 4d bd 76 8b 3e 3c a1 a9 49 bc
       -0.034691654 -0.050190274 0.01162993 -0.012308509
000060 91 8f 1b 3d 05 a4 05 3d df 49 5f bd 4f 77 97 3d
       0.037978712 0.032627124 -0.05451381 0.07395803
000070 53 9b 3a 3d ef b3 be 3d 59 17 b6 3a cb 27 9d 3d
       0.045558285 0.09311663 0.0013892456 0.076736055
000080 84 2a 2c 3d fb 17 f4 3b 32 db d3 3c 9f 5b a9 3d
       0.042032734 0.0074491478 0.025861356 0.082694285
000090 5a fd 69 3b 90 c9 fc bb 7a c5 ab bd c1 f7 5b bd
       0.0035703988 -0.007714458 -0.08387275 -0.053703073
0000a0 16 46 63 bd ea ed 24 bd 07 73 ab bd b7 a5 0e 3d
       -0.05548676 -0.040265955 -0.08371549 0.034826007
0000b0 99 7a a6 bd 9a e9 40 3d 7a 22 49 3b 94 d0 44 bd
       -0.081288524 0.04709778 0.0030690716 -0.048050478
0000c0 b1 39 81 bc 68 21 14 bd 3b 2c 13 bc 77 d8 d7 bb
       -0.01577458 -0.03616467 -0.008982713 -0.006587084
0000d0 fb 89 36 bd bd d6 80 3c 2f d8 a7 3c e9 72 9e 3d
       -0.044565182 0.015727395 0.020488827 0.07736761
0000e0 52 12 61 bc 62 19 09 3d 2e c0 8d 3c f7 e6 31 3d
       -0.013737278 0.033471473 0.017303552 0.043433156
0000f0 4f d5 58 3d aa eb 05 3d 70 be 19 bd 83 e6 91 bd
       0.052937802 0.03269545 -0.03753513 -0.07124045
000100 33 bf d6 3c ab 64 35 3d cc 86 88 3d 12 99 59 bd
       0.026214218 0.044285458 0.066663355 -0.053124495
000110 35 cb 6d bb e4 a8 af 3d 74 b2 47 bd c0 03 ac 3b
       -0.003628445 0.08577135 -0.04875417 0.0052494705
000120 37 4c 1d bd 83 85 36 3d 4b b5 af 3c 8f 51 d8 bc
       -0.038402762 0.04456092 0.021448752 -0.026406078
000130 c5 a0 d7 bd 86 24 2f 3d a3 32 a8 bd 6d f6 00 3d
       -0.10528711 0.04275944 -0.08212783 0.03148501
000140 ee b6 0d 3d 99 a6 a7 bb c9 c8 06 bc 0f bc 34 bd
       0.034598283 -0.0051162955 -0.008226582 -0.04412466
000150 48 74 60 bd 12 6d 3a 3d 17 9c 1e bd 7f 1b a9 3d
       -0.054798394 0.045514174 -0.038723078 0.082571976
000160 09 ae 83 3b 96 2b 67 3d a9 71 50 3d 2e d4 24 bc
       0.0040185493 0.05643805 0.050889645 -0.010060353
000170 de 93 c7 3b 16 db 41 bd a7 0c 37 3c c3 a9 82 3d
       0.006090625 -0.047328077 0.01117245 0.06380036
000180 8d be 9a bd cf fb 14 3b b7 be 1d 3c c9 4d 43 3d
       -0.07555876 0.0022733097 0.0096279895 0.047681604
000190 54 48 5c 3d b9 5b 4f bd b6 0c d3 bc e0 6d 7b bd
       0.053779915 -0.050624583 -0.025762897 -0.06138408
0001a0 12 4c 9b bc 61 42 34 3d 60 32 9a 3d 88 12 a2 3c
       -0.018957172 0.044008616 0.075291395 0.019784227
0001b0 24 a9 de bc 52 6e 39 bd 0e 3e ce 3b 40 f6 55 38
       -0.027180262 -0.045271225 0.0062940186 5.1012496e-05
0001c0 53 1c 24 3d 96 76 cb b9 19 ee 59 38 62 fa 03 bd
       0.040066075 -0.0003880753 5.1958577e-05 -0.032221206
0001d0 ac ff a3 bc 16 0e ce 3c 17 4a ed 3d 9f 4f 3e 3c
       -0.020019375 0.025153201 0.11586397 0.011615663
0001e0 84 9c 9a 3c 08 f8 98 bd 0d da 72 bc 38 64 f0 3c
       0.01887346 -0.07469183 -0.014822495 0.029344663
0001f0 71 4f 88 bd 68 10 05 bd 6d c2 89 3c 9a 5d 25 3d
       -0.06655777 -0.03248635 0.016816342 0.04037247
000200 00 00 1f bd c2 8d b5 3b 6d 88 63 3d b9 d7 19 bd
       -0.03881836 0.0055405805 0.055550028 -0.037559245
000210 bb bc 41 bd 49 2f d6 bc 43 1a 0e 3d 38 46 59 bd
       -0.047299128 -0.026145594 0.034693014 -0.05304548
000220 e2 7f 89 bc 4a 2f 8c 3c 52 ca 03 bd 50 8c 3f bd
       -0.016784612 0.017112393 -0.03217537 -0.04676467
000230 7e a9 0a 3d ce 38 99 3c 9e e2 8a bd a7 94 54 bd
       0.033853047 0.018703844 -0.06781505 -0.05189958
000240 c1 fe ac bd 73 32 a6 3d ed 6f b7 bc e1 b0 e7 3c
       -0.08447028 0.08115091 -0.022392238 0.028282585
000250 d6 4f 81 bd 23 cd 96 bd 1c 7b 1a 3d a3 c8 72 bd
       -0.063140556 -0.073633455 0.037715062 -0.059273373
000260 5e 29 3c bc b4 24 80 bd 09 da 20 3d 43 6a 3f bd
       -0.011484472 -0.062570006 0.039270435 -0.0467322
000270 1e a6 98 3c cf 96 92 bc 67 92 29 bc 6a b9 4d bd
       0.018633898 -0.017894177 -0.010349846 -0.050225653
000280 9d 3f 1e 3c 44 95 13 bc b9 05 93 bd 8a 0d f3 3c
       0.009658721 -0.009007756 -0.07178826 0.029669542
000290 ae 55 cf 3c 80 59 54 bd 53 12 b0 ba 2d 3e 47 bd
       0.02530941 -0.051843166 -0.0013433195 -0.04864328
0002a0 af cd c2 bc 3e e6 04 3d 8d a4 65 bc 3a be 96 bc
       -0.023779718 0.03244614 -0.014016283 -0.018401254
0002b0 d5 b9 47 bc 4c 0c 8e bb b0 a0 c2 bc 73 66 fd bc
       -0.012190302 -0.004334962 -0.023758262 -0.03093264
0002c0 b9 f3 25 3c 8d 69 b4 bc 9a 39 99 3d ff 93 77 3c
       0.010128909 -0.022022987 0.0748169 0.015110969
0002d0 e3 4f 41 3d 1c 78 38 3d 38 0c de 3b 73 2f a0 bd
       0.047195327 0.04503642 0.006776359 -0.0782155
0002e0 22 9c 16 bc ac 3c a0 3c a8 f3 c8 bc 67 36 4d bc
       -0.009192498 0.01956018 -0.024530247 -0.012525178
0002f0 e1 9b 95 3c cb fd 06 3c 7f a9 07 3d 69 b2 d2 3d
       0.018262805 0.00823922 0.03312063 0.10287935
000300 29 7f b1 bb b5 39 69 bc d0 77 4a 3d a7 e9 48 3d
       -0.00541677 -0.01423495 0.04943067 0.049050953
000310 b6 a8 36 bd bf ea 0e 3d 49 0c d0 bc e6 83 30 3d
       -0.04459449 0.03489184 -0.025396483 0.04309454
000320 58 21 00 3d 2a 61 f4 3c f8 75 1d bd 23 75 7d bc
       0.0312818 0.029831488 -0.038442582 -0.015469822
000330 e1 d2 9b bc 80 40 7a 3d 1c 5d 9a 3c 1c 28 54 3d
       -0.019021453 0.06109667 0.018843226 0.051796064
000340 97 6c 34 bd d0 b9 c1 bc 1b 75 a2 3d 5d a8 ac bb
       -0.04404887 -0.023648173 0.07932492 -0.005269094
000350 fb bb 9a bc ca bf 41 3b 15 81 88 3c e2 0c 36 3a
       -0.018888464 0.0029563778 0.016663114 0.0006944669
000360 ef a2 4e bc 14 fe 5b 3d 5f c4 2a bd e6 0b 31 3c
       -0.012612089 0.053709105 -0.04169118 0.010806059
000370 c7 65 38 3d f3 54 92 3d 2b 2f cd 3d 21 c1 18 be
       0.045018937 0.07145109 0.10018762 -0.14917423
000380 a9 8a 1c bd b0 3f bd 3c 5b de 51 bb cc 70 60 3d
       -0.038218174 0.023101658 -0.0032023403 0.05479507
000390 bc 28 2d 3c 77 85 5d bd 24 a7 b2 3c 36 4b 7e bd
       0.010568794 -0.05408236 0.021808214 -0.062083445
0003a0 71 53 21 bd d6 b9 15 3d 71 cb 88 bd 85 47 16 bd
       -0.039386217 0.03655418 -0.06679428 -0.0366893
0003b0 1d 5c ef bc 38 ef 91 bd c6 2e 0e 3d 0d ab e0 bc
       -0.029218728 -0.071257055 0.034712575 -0.027425313
0003c0 1a e1 06 3d 03 62 34 3d db c2 fd bc c3 d6 01 bd
       0.032929517 0.044038784 -0.030976703 -0.031698953
0003d0 e7 29 21 bd 94 af fa bc 8e 53 90 3c 0a 66 b6 3c
       -0.0393466 -0.0306013 0.017617967 0.022265453
0003e0 fb 7b 41 bd 8a df 7c bd 5a dd 4f ba 29 02 aa bd
       -0.047237378 -0.06173662 -0.00079294073 -0.08301193
0003f0 9f a4 77 3c 6b 07 1f 3d 33 20 21 bd 3c f9 2a ba
       0.015114932 0.038825434 -0.03933735 -0.0006522124

fc3.weight f4 [1, 256]
000000 92 f5 8c 3c ad bd 81 bc 07 e7 17 3d 1c 3a 97 bc
       0.01720694 -0.015837515 0.03708556 -0.018460326
000010 80 b1 c8 3c 8a 2a 60 bd 9e ad c9 3d de 9c 31 3d
       0.024498701 -0.05472807 0.09847568 0.04336249
000020 79 f0 05 bd 3e ff 66 bc 40 51 9e bd d8 ca 5f 3c
       -0.032700036 -0.01409894 -0.07730341 0.013659202
000030 44 cb df 3c 1a 08 59 bd 26 27 e0 3d 0b 9c a3 3d
       0.027318604 -0.052986242 0.10944967 0.07988747
000040 a8 c1 1d 3d c4 a2 98 bd 52 3a 8f 3c 9f 96 06 bd
       0.038514763 -0.0745292 0.017483864 -0.032858487
000050 a0 fc bc 3c 4d 96 8f bc 63 6b 14 bd 10 76 f0 3b
       0.02306968 -0.017527724 -0.036235224 0.007338293
000060 c2 9a 4c bc 73 89 56 3d d5 ea 3d 3d 5b ec c7 3c
       -0.012488069 0.052377176 0.04636653 0.024404695
000070 20 d1 c0 3c 2b b6 aa 3c 87 2c 4f bc 92 d7 aa 3d
       0.023537219 0.020838818 -0.0126448935 0.08341898
000080 b1 89 2f bd 6d 96 be bc ff f5 a5 bc 4d 50 96 3d
       -0.042855922 -0.023265088 -0.020258902 0.07339535
000090 16 79 47 bd f2 3e d9 bc 83 a2 99 bc 85 f1 83 bc
       -0.04869946 -0.026519272 -0.01875425 -0.016106376
0000a0 82 43 86 bd 2d 4b 56 bd e3 0d 11 bd 5e 6b 14 3d
       -0.06555845 -0.052317787 -0.035413634 0.036235206
0000b0 21 11 ee bd ba 35 6a 3d da 3f a4 bc 69 38 94 bd
       -0.11624361 0.057180144 -0.020049978 -0.07237322
0000c0 f1 b3 42 bc d1 4b 27 3c f0 5b bd bc 0c 63 6f bd
       -0.011883722 0.010210947 -0.023115128 -0.058444068
0000d0 a2 c1 b2 3d ef 79 b2 bd a0 f0 9e 3c 8d 77 12 3d
       0.08728339 -0.08714663 0.019401848 0.035758544
0000e0 0a fb 7a 3c c2 fc 02 bd c5 fb 76 bd 62 92 20 bd
       0.015318641 -0.03197933 -0.0602987 -0.0392021
0000f0 da f9 05 bd 83 7b 7d bd a9 f2 06 be fc 68 4c bd
       -0.03270898 -0.061885368 -0.13178505 -0.04990481
000100 25 2d 31 3c 29 a3 db 3c 0e 44 cc 3c 98 bd be bd
       0.010813986 0.0268112 0.024934795 -0.09313506
000110 09 1c c6 3c fb 38 ab 3c c6 fb c4 bd bc 75 7d bc
       0.02418329 0.020901194 -0.096183345 -0.015469965
000120 07 5c b3 3c 7a 10 1d bc e9 f9 a9 bc 42 38 77 3d
       0.021894468 -0.009586448 -0.02074905 0.060356386
000130 9e ae 9d bd 98 cd 1b bd 63 a5 8b 3d 31 b2 4b bc
       -0.07699321 -0.038037866 0.068186544 -0.012432621
000140 e5 09 08 3e ba e7 69 3c aa de bb bd 9d a2 2a 3d
       0.13285024 0.014276439 -0.09173329 0.041658986
000150 40 71 06 bd 37 ef 07 bc 08 53 9a 3d 29 04 6a 3d
       -0.032822847 -0.008296779 0.07535368 0.057132874
000160 88 4f 80 bc 0b 59 11 bd 95 fd 0e 3d 2f 54 3e 3c
       -0.015662923 -0.03548531 0.034909803 0.011616751
000170 a2 a4 ce bc 2a db c1 bc 9d 6d ab bc f9 48 23 3d
       -0.025224987 -0.023664076 -0.020926291 0.039864514
000180 01 dd 04 3e 19 67 6a bc 8e b0 ec bc 43 06 81 3c
       0.12974931 -0.014306807 -0.028892782 0.015750056
000190 4d ee 47 3c 59 e2 b7 3c b4 a2 b8 bc b4 18 b7 bc
       0.012202811 0.022446798 -0.02253852 -0.022350647
0001a0 04 7c a3 bc 5d 0a ab 3c 6b f5 81 3d 2e 62 90 3d
       -0.019956596 0.020878965 0.06345638 0.07049976
0001b0 28 9a f1 3c d7 22 6b bd d5 7b 9c bc ac 51 76 bc
       0.029492453 -0.057406273 -0.019102016 -0.0150341205
0001c0 98 59 37 3c b0 31 32 3d 2e 55 4a bc db 44 9a bd
       0.011190794 0.043504417 -0.01234941 -0.075326644
0001d0 7f 5e 80 bd d8 43 11 3d a8 78 fe 3c 0c 42 20 bd
       -0.06268024 0.03546509 0.031063393 -0.039125487
0001e0 37 38 2a bc a0 0b 81 bd 3c 93 d7 bc 7b 41 ce 3c
       -0.010389379 -0.063010454 -0.026315324 0.025177708
0001f0 32 6d f3 3d eb 7e 97 bd 2c d2 c8 3c e2 99 53 bc
       0.11886062 -0.073972546 0.02451428 -0.0129151065
000200 b7 44 a6 bc 66 91 b4 bc 79 44 9a 3d b5 02 ec bc
       -0.020296438 -0.022041988 0.075325914 -0.028809885
000210 ba 12 ab 3c 6a 94 25 bc d6 b2 e7 bc 95 5e 73 bd
       0.020882953 -0.010106185 -0.028283518 -0.059416372
000220 fc d3 97 bc 21 e7 f7 bc da 70 85 bc c8 d1 b1 bc
       -0.0185337 -0.030261578 -0.016289163 -0.021706477
000230 d2 fc 1f 3d 9d 6d 1d 3e 63 e5 8e bc 92 bd c1 bc
       0.039059468 0.15373845 -0.017443364 -0.023649964
000240 89 17 98 3c 51 c4 75 3c 42 73 a3 bc c6 85 9c be
       0.01856591 0.015000419 -0.01995242 -0.3057081
000250 af a4 8a bc 52 03 46 3d ef 64 ca 3c 05 24 83 bc
       -0.01692423 0.04834301 0.024706332 -0.016008386
000260 4a 19 b6 bc 87 a1 cd bd 0b a9 8a bc d8 3c ed bc
       -0.022228856 -0.100405745 -0.01692631 -0.028959677
000270 da f6 9d bd 60 88 f1 3c 89 2b 8a bc 52 c7 bb bd
       -0.07713099 0.029483974 -0.016866462 -0.09168877
000280 cc 81 71 bc 66 aa af bc 73 46 9b bc 0b 7a 69 3d
       -0.014740419 -0.021443557 -0.018954491 0.057001155
000290 7a 44 91 3c 6f 8f 51 3d b0 e9 81 bc d0 ca d5 bc
       0.017732847 0.05116218 -0.015858501 -0.026097685
0002a0 51 6b ee bc 99 08 f5 3c 97 3c 81 bc 76 02 93 bc
       -0.029103907 0.029911326 -0.015775962 -0.01794551
0002b0 8b 3d 14 bd a2 8a a7 3c bb 22 b4 bd e6 1c 4f bc
       -0.036191504 0.020451847 -0.08795687 -0.012641167
0002c0 b0 1a bb bc a0 4b 80 bc 6a 3e e7 3d e1 dd 99 3c
       -0.022839874 -0.01566106 0.112912014 0.018782558
0002d0 aa 16 a6 3c 09 cb 07 3e 2b 30 f0 3d 12 a8 c3 bc
       0.020274479 0.13261046 0.11727937 -0.023883853
0002e0 1d d1 28 3c ff 94 b2 3d f3 c9 12 bd 55 59 c8 3c
       0.010303763 0.08719825 -0.035837125 0.02445666
0002f0 cf 55 ad bd c4 45 af 3c 1d 58 e6 3c 60 70 5f 3d
       -0.08463632 0.021395572 0.028118188 0.05455053
000300 85 ca c8 bd f7 e7 7f bc c4 51 94 bd 8c 35 58 3c
       -0.098042525 -0.01561927 -0.07242158 0.01319636
000310 49 0f c6 3c dc 83 3a bc 39 4e 05 be 2f 75 1a bc
       0.02417721 -0.011383977 -0.13018121 -0.009427353
000320 69 d1 86 bc 8f c9 e0 3c 64 02 1f 3d 75 e3 c4 3c
       -0.016457276 0.02743986 0.03882064 0.024034241
000330 63 a4 8a bd 97 8e d1 3d a1 89 d9 3c d7 69 dc 3c
       -0.067696355 0.10232275 0.026554884 0.026905937
000340 e1 b3 b8 bc f5 7f 8c bc 9e 7b 52 3d 8c 6c 3f 3d
       -0.02254671 -0.017150858 0.05138742 0.046734378
000350 84 5e d6 3d d1 82 65 3c d2 98 61 3c 39 96 5c bd
       0.10467246 0.01400824 0.013769345 -0.0538542
000360 c5 fd 7a bd f3 8a 2e 3e e3 d3 48 bc 8c 99 3f bc
       -0.06127717 0.17045192 -0.012257549 -0.011694323
000370 b7 b2 a5 3c e3 c0 68 3d 19 8d 4e 3d 6e 95 21 3d
       0.02022682 0.056824576 0.05042753 0.039449148
000380 e5 3d 24 bd 4c 13 86 3c 65 f6 14 3d 03 c5 c0 3c
       -0.04009809 0.016366623 0.036367793 0.023531443
000390 08 4d 87 3c 72 a9 1f 3d 11 65 5e 3c a9 78 5a 3d
       0.016516224 0.038979955 0.013573901 0.053337727
0003a0 b8 5f dd 3d c8 5a a9 bc 1e a6 4d bd a9 e0 cd bc
       0.108092725 -0.02067317 -0.05020725 -0.02513154
0003b0 f7 03 b7 bc f9 05 7f bd 61 34 9b bd 06 f7 bc 3c
       -0.022340758 -0.062261555 -0.0757835 0.023067009
0003c0 b5 26 90 bd d8 0b 01 3e b1 08 ae bc cd f5 aa bd
       -0.07038633 0.12602174 -0.021244379 -0.08347664
0003d0 df 75 71 bc 80 d3 7c bc 48 00 ca 3c 1d 2f 36 bc
       -0.014737575 -0.015431285 0.024658337 -0.011119631
0003e0 1a 65 0b 3d ee e2 dc bc 91 48 6c bc 98 54 84 bd
       0.034031965 -0.026963677 -0.014421598 -0.064614475
0003f0 86 4c 1e bd 9f 84 d1 3c ce ff 6a 3d de 4c e6 bc
       -0.038647197 0.025575934 0.05737286 -0.028112825
