checkpoints/checkpoint_critic_ddqn_3.pth (torch_old, 304178 bytes, 5 tensors)

fcs1.weight f4 [256, 33]
0	0x3ca1eb98	0.01976566
1	0x3d3733ba	0.044727065
2	0x3b72645a	0.0036986084
3	0xbd7847ee	-0.060615472
4	0xbd510a15	-0.051035006
5	0x3c87de37	0.016585452
6	0x3d167123	0.03672899
7	0xbe1605e7	-0.14650689
8	0xbe080cc7	-0.13286124
9	0x3cb96f02	0.02263594
10	0x3cd269cf	0.02568522
11	0x3ce351ce	0.027748968
12	0xbd6c4227	-0.057680275
13	0x3c35bad5	0.0110919075
14	0x3bb07424	0.005384939
15	0x3cbf7a27	0.023373676
16	0x3d960e50	0.07326949
17	0xbcf813c6	-0.030282866
18	0x3d5846c2	0.052801855
19	0xbc8ac7e5	-0.01694102
20	0x3cd1bdb8	0.02560316
21	0x3db48caf	0.08815896
22	0x3d287b42	0.041133173
23	0xb884cce1	-6.332412e-05
24	0x3a9472e4	0.0011325744
25	0x3d1f34da	0.038868763
26	0xbd47cb5f	-0.048777934
27	0x3dc818a5	0.097703256
28	0xbc459b68	-0.0120609775
29	0x3d5143e8	0.05109015
30	0xbdcac166	-0.09900169
31	0x3ca61744	0.020274766
32	0x3e8112ef	0.25209758
33	0xbe18b409	-0.14912428
34	0x3dce6b14	0.10079017
35	0x3d8d9b6e	0.069144115
36	0xbc593785	-0.013257866
37	0x3cd10646	0.025515687
38	0x3c3c7588	0.011502631
39	0x3c5f5bec	0.013632756
40	0xbbe0e042	-0.006862671
41	0x3bc63aa3	0.0060494705
42	0x3c21e204	0.0098805465
43	0xbb68102f	-0.0035410037
44	0xbba67c50	-0.005080737
45	0x3bede384	0.007259788
46	0x3e32337d	0.17402454
47	0xbdfaf9c6	-0.12254672
48	0xbdc14245	-0.09436468
49	0x3ce0ff1d	0.027465397
50	0xbb1e4cb1	-0.0024154598
51	0x3b06d97a	0.0020576403
52	0xbcb0ce2d	-0.021582687
53	0x3bc66227	0.006054181
54	0xbbb38ec6	-0.0054796664
55	0x3b31b58f	0.0027116274
56	0x3b421859	0.0029616563
57	0xbb984f87	-0.0046481523
58	0x3b156405	0.0022795212
59	0xbdb892c8	-0.09012371
60	0x3ddb65b7	0.1071276
61	0x3d60b137	0.054856505
62	0x3c3b8dc8	0.0114473775
63	0xbd151688	-0.03639844
64	0x3d0aed4c	0.03391771
65	0xbcdec988	-0.027195707
66	0x39b553c2	0.00034585415
67	0xbd69112a	-0.056901135
68	0x3a32e86e	0.0006824796
69	0xbd22046f	-0.03955501
70	0x3d2677e0	0.040641665
71	0xbcdd566c	-0.027018748
72	0xb93bdc69	-0.00017915819
73	0xbc0e1c09	-0.008673676
74	0xbb4defe5	-0.0031423506
75	0xbd06ab07	-0.032877948
76	0x3c582be1	0.013194055
77	0xbc5d5687	-0.013509399
78	0x3b6fb86a	0.0036578425
79	0x3c0ff825	0.00878719
80	0x3d4db978	0.050225705
81	0xbbcea87b	-0.0063067055
82	0xbb7937a2	-0.0038027545
83	0x3d387611	0.045034472
84	0xbd32a957	-0.043618526
85	0x3c2879fd	0.0102829905
86	0x3c8159dc	0.015789919
87	0x3ca8db24	0.020612307
88	0xbc4d87c6	-0.012544578
89	0x3c33c927	0.010973251
90	0x39ce23ae	0.00039317965
91	0xbcf7376c	-0.030177794
92	0x3ac728fd	0.001519471
93	0x3cc2f692	0.023799215
94	0xbd10ac57	-0.035320606
95	0x3d5b9f86	0.05361893
96	0xbb8a655c	-0.0042235088
97	0x3c977fd4	0.01849357
98	0xbd7d187a	-0.06179092
99	0x3ca83b3e	0.020536061
100	0x3add59b0	0.0016887691
101	0xbde0b3b6	-0.10971777
102	0x3cbc0b3c	0.022954576
103	0x3d0e1ddc	0.034696445
104	0x3d9d3ed3	0.076779984
105	0x3cc374c7	0.023859395
106	0x3c7f664a	0.015588352
107	0x3cc73693	0.024318015
108	0xbc586551	-0.013207749
109	0x3ab23a23	0.0013597648
110	0x3c807ae8	0.015683606
111	0xbcff9cff	-0.031202791
112	0x3d0eaa46	0.034830354
113	0xbc6015c6	-0.013677066
114	0xbd14234d	-0.036166478
115	0xbb2957e9	-0.0025839752
116	0x3c7412f0	0.014897093
117	0x3d3a8fc5	0.045547266
118	0xbb041cf7	-0.0020158866
119	0xbd14a5dd	-0.036290992
120	0x3d1e5abc	0.03866075
121	0x3c57e531	0.013177202
122	0xbc0c6d2d	-0.008570951
123	0xbc7bbc61	-0.015364737
124	0xbc16c627	-0.009202517
125	0xbd2665ed	-0.040624548
126	0x3c54052e	0.012940688
127	0x3dbaa743	0.09113934
128	0xbc783cd0	-0.015151218
129	0x3c8f24f2	0.017473672
130	0xbcb6ef84	-0.022331007
131	0xbd28bd26	-0.04119601
132	0x3b63b40b	0.0034744765
133	0x3e2cf547	0.16890441
134	0x3d610077	0.054932084
135	0xbce7a00a	-0.028274555
136	0x3d19dde1	0.037565116
137	0xbc4b0267	-0.0123907095
138	0x3df2f667	0.11863404
139	0xbab76c7d	-0.0013994124
140	0x3d888ff0	0.06668079
141	0xbdca6e96	-0.09884374
142	0x3c8c1da9	0.017103987
143	0x3d9f31db	0.07773181
144	0x3c617ecf	0.013763144
145	0xbcf70163	-0.030152028
146	0x3e51aa37	0.20475088
147	0x3c5123e3	0.012764904
148	0xbc852e97	-0.016257567
149	0xbd0bed42	-0.034161814
150	0x3d82bf24	0.063841134
151	0x3d1be00a	0.038055457
152	0x3d1d72fe	0.038439743
153	0xbcf6f7bc	-0.030147426
154	0xbd0d4581	-0.034490112
155	0xbbb5e533	-0.0055510043
156	0x3d07e098	0.033173174
157	0x3d0f6f6b	0.035018366
158	0x3dc6e3bf	0.09711408
159	0x3db80dba	0.08986993
160	0x3b3dc8ea	0.0028958865
161	0x3d3b5500	0.04573536
162	0xbda17189	-0.07882983
163	0xbc2e9920	-0.010656625
164	0x3d03f36c	0.032214567
165	0x3d2098f0	0.039208353
166	0xbda07e65	-0.07836608
167	0x3a24a2ad	0.0006280344
168	0xbcb0272d	-0.021503055
169	0xbcd24e4e	-0.025672104
170	0x3c531183	0.012882593
171	0x3d626587	0.055272605
172	0xbc93a0d8	-0.018021032
173	0xba3d1e51	-0.00072142953
174	0x3c88e60b	0.016711256
175	0x3c12d04b	0.008960794
176	0xbc2989ae	-0.010347767
177	0xbc38b1f1	-0.011272893
178	0x3d43ba79	0.047785256
179	0x3d3856bc	0.04500459
180	0xbcc35917	-0.023846192
181	0xbca2436a	-0.019807536
182	0xbcc17c5d	-0.023618871
183	0x3c4f5097	0.012653491
184	0x3c1a331c	0.0094115995
185	0xbc953085	-0.018211612
186	0x3b65040c	0.003494504
187	0xbc77aeba	-0.015117342
188	0x3cdf230a	0.027238388
189	0xbc8beb9a	-0.017080117
190	0xbb20d5c0	-0.0024541467
191	0xbd712a51	-0.058878247
192	0x3cfd2a61	0.030903997
193	0x3ce71e1c	0.0282126
194	0x3d344074	0.04400678
195	0x3d3c5cae	0.045986824
196	0x3cb1e930	0.021717638
197	0xbe500697	-0.20315014
198	0xbd8ca51e	-0.06867431
199	0x3d7f5faf	0.06234711
200	0xbd8f593e	-0.069994435
201	0xbc920a05	-0.017827043
202	0xbd25f623	-0.040517937
203	0xbcfb5bee	-0.030683484
204	0xbd53c318	-0.051699728
205	0xbc8e3d10	-0.017363101
206	0xbc84b40f	-0.01619914
207	0x3d037fea	0.03210441
208	0xbcf13ac1	-0.029446961
209	0xbc4cc183	-0.012497309
210	0xbce7de3f	-0.028304217
211	0x3dc21df2	0.09478368
212	0xbdb1969d	-0.08671305
213	0x3df2879c	0.11842272
214	0x3c55218a	0.013008485
215	0x3ba0e27a	0.0049098106
216	0xbbd016dd	-0.0063503818
217	0x3d137fae	0.036010437
218	0x3c270af6	0.010195484
219	0xbbd166e4	-0.0063904393
220	0xbc0e5886	-0.008688098
221	0x3ce5d387	0.028054966
222	0xbd30a057	-0.043121662
223	0x3d3f2edf	0.04667556
224	0xbd1a2664	-0.03763427
225	0x3dfdafe5	0.12387065
226	0xbdb5d5fe	-0.088787064
227	0xbd580d9e	-0.05274736
228	0xbc6f2d50	-0.014598206
229	0x3c4f65e0	0.012658566
230	0x3dd7ad0e	0.105310544
231	0xbdedb754	-0.11607233
232	0x3c07b98b	0.008283983
233	0x3a74b921	0.00093354477
234	0xbd89145d	-0.06693337
235	0xbe27efa7	-0.16400014
236	0x3d05ee70	0.032698095
237	0xbd00c4cd	-0.031437684
238	0x3b82c1a3	0.0039903685
239	0x3d2061ca	0.03915576
240	0x3deafb47	0.114737086
241	0xbd81d394	-0.063391834
242	0xbcfcf6c8	-0.030879393
243	0xbccbe652	-0.024890099
244	0x3d2629f1	0.040567342
245	0xbd3d4415	-0.046207506
246	0xbd4722c4	-0.04861714
247	0xbdb125bd	-0.08649776
248	0xbd478e33	-0.048719596
249	0xbce0c575	-0.027437905
250	0xbcaec53d	-0.021334285
251	0xbc20bc56	-0.009810528
252	0xbc7db428	-0.015484847
253	0xbbf04b51	-0.007333197
254	0x3d50a19b	0.05093537
255	0x3ccab8e3	0.024746364

fcs1.bias f4 [256]
0	0xbd8cf4ac	-0.06882605
1	0xbe21cb67	-0.15800248
2	0x3daa3fc7	0.08312946
3	0xbdc5c8c1	-0.096574314
4	0xbd2a3dac	-0.04156272
5	0xbc8ae3f5	-0.016954402
6	0xbe78cff1	-0.24298073
7	0xbd4ea686	-0.050451778
8	0x3cd1389a	0.025539685
9	0x3d9a8681	0.07545186
10	0xbe309cd9	-0.17247333
11	0x3dd77858	0.105210006
12	0xbd83cb80	-0.06435299
13	0x3d9f78cb	0.07786711
14	0x3d88117e	0.06643961
15	0x3dc7c75d	0.097548224
16	0xbc0e9876	-0.008703342
17	0xbd599316	-0.053118788
18	0xbe00dbcd	-0.12583847
19	0xbe32ac33	-0.17448501
20	0xbc0c6321	-0.008568556
21	0xbe0c7097	-0.13714825
22	0xbd9b2fb8	-0.07577461
23	0x3e42c09a	0.19018784
24	0xbe0b23e5	-0.13587911
25	0xbdc20a36	-0.09474604
26	0x3de7c362	0.11316563
27	0xbd7f5418	-0.062336057
28	0xbafd126c	-0.0019307858
29	0xbe2ad69d	-0.16683431
30	0xbe12714a	-0.14301029
31	0xbdfef8c5	-0.12449793
32	0x3d8f1aeb	0.06987556
33	0xbe3c46d2	-0.18386391
34	0xbe3925a1	-0.1808076
35	0x3d3e4a68	0.046457678
36	0xbe0782f4	-0.13233548
37	0xbe474543	-0.19460015
38	0x3d1837f9	0.037162755
39	0x3d93733c	0.071997136
40	0xbe46fd33	-0.19432525
41	0xbcac18e2	-0.021007959
42	0x3dd36b8c	0.10323247
43	0x3e03ea4c	0.12882346
44	0x3d0cbf53	0.03436215
45	0xbd6bf754	-0.057608917
46	0x3e03817f	0.12842368
47	0xbdb4a8ac	-0.08821234
48	0x3dd681af	0.10473954
49	0x3cda276b	0.026630124
50	0xbe2ecb12	-0.17069653
51	0x3b0ad856	0.0021186075
52	0xbe12c08b	-0.14331262
53	0xbc81f440	-0.015863538
54	0xbd63bed1	-0.0556019
55	0x3d816596	0.06318204
56	0xbd821b24	-0.06352833
57	0x3dc4a7a3	0.09602287
58	0xbe742bf0	-0.23844886
59	0x3beae8c3	0.0071688606
60	0xbdd63caf	-0.10460793
61	0xbe18c47f	-0.14918707
62	0x3c95bf30	0.018279642
63	0xbd3a6d18	-0.045514196
64	0xbddafabe	-0.106923565
65	0xbe4685ec	-0.19387025
66	0x3dfe292d	0.124101974
67	0xbc06578f	-0.0081995865
68	0x3d62fcce	0.055416875
69	0xbdcd681e	-0.100296244
70	0x3e07ea82	0.13273051
71	0xbe076caf	-0.13225053
72	0xbe61974b	-0.2203037
73	0x3d109c2c	0.035305187
74	0x3d046331	0.03232116
75	0x3dac03df	0.08399176
76	0xbde9c8fc	-0.11415288
77	0xbdce90f3	-0.100862406
78	0xbe3cf427	-0.18452512
79	0xbda822a0	-0.08209729
80	0x3e151ca3	0.14561705
81	0xbd8edfce	-0.06976281
82	0xbdc5452f	-0.09632336
83	0x3cc0889a	0.023502637
84	0x3da5a5a6	0.080882356
85	0x3d834b01	0.0641079
86	0xbe3a85b0	-0.1821506
87	0xbde15e10	-0.11004269
88	0xbd8f5855	-0.0699927
89	0x3dab90f3	0.08377256
90	0xbd9b5dd3	-0.07586255
91	0x3c527d0d	0.012847197
92	0x3d978f8e	0.07400428
93	0x3e0e3896	0.13888773
94	0xbcc5b7f1	-0.024135562
95	0xbda17e2b	-0.07885393
96	0xbd769f09	-0.06021026
97	0xbe0a870a	-0.13528076
98	0xbd81b0c2	-0.06332542
99	0x3e1a4c3a	0.1506814
100	0x3d4c3909	0.04985908
101	0x3cad6a5e	0.021168884
102	0x3c253f55	0.0100859
103	0xbd98e0bd	-0.074647404
104	0x3bfe665a	0.007763666
105	0xbd7f46ac	-0.062323257
106	0xbda9c15d	-0.08288834
107	0xbd10a37b	-0.035312157
108	0x3d058e6c	0.032606527
109	0xbc2bf613	-0.01049568
110	0x3ddf67f9	0.10908503
111	0xbd5edd1d	-0.05441009
112	0xbe7165fc	-0.2357406
113	0xbe39979b	-0.18124239
114	0x3c9becc7	0.019033803
115	0xbd810820	-0.06300378
116	0xbda202c8	-0.07910687
117	0xbe126b73	-0.14298801
118	0x3d64a822	0.055824406
119	0xbd17d2f2	-0.037066408
120	0x3dde7f0d	0.10864077
121	0x3dab3c72	0.083611384
122	0xbd741b74	-0.059596494
123	0x3c441141	0.011967004
124	0x3e142e8d	0.14470883
125	0xbc98a817	-0.018634839
126	0xbda6284f	-0.08113157
127	0xbde3f113	-0.11129966
128	0xbe0911ab	-0.13385646
129	0xbe4fc19c	-0.202887
130	0xbdfdcd14	-0.12392631
131	0xbe027db2	-0.12743261
132	0x3d78aba0	0.06071055
133	0xbe1a4936	-0.1506699
134	0xbd9b84ae	-0.07593666
135	0xbd12cf9e	-0.03584253
136	0xbca4000c	-0.020019554
137	0xbe24f8dc	-0.16110557
138	0xbe0808b6	-0.13284573
139	0xbdbae5d3	-0.09125867
140	0xbca08bc7	-0.019597901
141	0xbc059955	-0.008154233
142	0x3c58d545	0.013234441
143	0x3d028d04	0.031872764
144	0xbdd1571b	-0.10221692
145	0xbdcc1d45	-0.0996652
146	0xbe035b6d	-0.12827845
147	0x3de766ff	0.11298942
148	0x3d20d5f4	0.03926654
149	0xbe0c867f	-0.13723181
150	0xbe4d74ae	-0.20064041
151	0x3c8b2825	0.016986916
152	0xbcd259b2	-0.025677536
153	0xbdaacb38	-0.08339542
154	0xbd6dc6f9	-0.058051083
155	0xbd5a8f05	-0.05335905
156	0xbe133552	-0.14375809
157	0x3ceb39e7	0.028714133
158	0xbdc05af5	-0.09392349
159	0xbe063e92	-0.13109806
160	0xbd304be4	-0.043041125
161	0xbdf51706	-0.11967282
162	0x3de599d1	0.11210979
163	0x3dd71ca2	0.10503508
164	0x3cca4539	0.024691211
165	0xbdac1804	-0.08403018
166	0xbdf3a80e	-0.11897288
167	0xbdc49249	-0.09598214
168	0xbdcb948b	-0.09940442
169	0xbd3fb812	-0.046806403
170	0x3dd91cd6	0.10601203
171	0x3d65fce4	0.05614938
172	0xbe0f9aae	-0.1402385
173	0x3af5e529	0.0018760312
174	0x3c08121f	0.008305102
175	0xbd5a55bf	-0.05330443
176	0xbe0e7819	-0.13913001
177	0xbdfbec25	-0.123009
178	0xbe30dad9	-0.17270984
179	0xbdf10a28	-0.11769515
180	0xbd949d4c	-0.072565645
181	0x3d2df8b3	0.042473506
182	0xbde29b8e	-0.11064826
183	0xbe6bbc28	-0.23020995
184	0xbd522343	-0.05130316
185	0xba8927cb	-0.001046413
186	0x3c75097a	0.014955873
187	0xbd881b7b	-0.066458665
188	0xbddf93f5	-0.109168924
189	0x3dd8da75	0.10588542
190	0xbe23410a	-0.15942779
191	0x3cd8c3c1	0.02646053
192	0x3dc1c6d0	0.094617486
193	0xbd6b909a	-0.05751095
194	0xbe0c3761	-0.13693
195	0xbe647864	-0.2231155
196	0x3c8e6af8	0.017384991
197	0x3c8051fd	0.015664095
198	0xbe7f5173	-0.24933414
199	0x3cfe1dac	0.031020008
200	0x3dee8559	0.11646528
201	0x3e37c773	0.17947178
202	0xbcb6e117	-0.022324128
203	0x3e02a0f4	0.12756711
204	0x3c5c45c5	0.013444369
205	0xbe16b816	-0.1471866
206	0xbe2148ab	-0.15750377
207	0xbe124f65	-0.14288099
208	0x3ce9a86d	0.028522694
209	0x3d9cd470	0.07657707
210	0xbdb7ce52	-0.08974899
211	0x3c13656a	0.008996347
212	0xbe1ad9c3	-0.15122132
213	0x3b410468	0.002945209
214	0xbe09e30f	-0.13465522
215	0x3cb71781	0.022350075
216	0xbdeeff8d	-0.11669836
217	0xbe5f9102	-0.2183266
218	0xbd1301fa	-0.035890557
219	0x3e04767e	0.12935826
220	0xbd646774	-0.055762723
221	0xbe0874fe	-0.13325879
222	0x3c8ea909	0.017414587
223	0xbe5d6f64	-0.21624523
224	0x3df41274	0.11917582
225	0xbe5e19ee	-0.21689579
226	0xbd986e1e	-0.07442878
227	0xbe415cb8	-0.18883026
228	0xbd35211f	-0.04422104
229	0x3db9c7ea	0.09071334
230	0xbc88c323	-0.016694611
231	0xbce5de06	-0.02805997
232	0xbe1b1dc8	-0.1514808
233	0x3d9c6f24	0.07638386
234	0xbd6bcd0f	-0.057568606
235	0xbceddf7a	-0.029037226
236	0xbcae998a	-0.021313448
237	0x3d9a15cb	0.07523688
238	0xbde5b66e	-0.11216436
239	0x3ce00a3e	0.027348634
240	0xbe3cbe15	-0.18431886
241	0xbe727a79	-0.23679532
242	0xbdbcd443	-0.09220173
243	0xbab06915	-0.0013459051
244	0x3ccd4519	0.025057362
245	0xbe1faa04	-0.155922
246	0xbb3f1928	-0.0029159281
247	0x3db4477e	0.088026986
248	0xbca4ff71	-0.020141335
249	0x3d9d7b43	0.07689526
250	0xbc03562d	-0.008016151
251	0xbdfc7764	-0.123274595
252	0xbe0ace5b	-0.13555281
253	0x3cdf7ace	0.027280238
254	0xbe60f892	-0.21969822
255	0xbe30a629	-0.17250885

fc2.weight f4 [256, 260]
0	0xbd9948b1	-0.07484568
1	0xbd9f629c	-0.0778248
2	0xbcc5b3d7	-0.024133606
3	0xbb18ee7b	-0.0023335505
4	0x3dfc832c	0.123297065
5	0xbc88968d	-0.01667335
6	0x3df42b33	0.11922302
7	0x3d8e0e90	0.06936371
8	0x3cacab20	0.021077693
9	0x3cbf170f	0.023326425
10	0xbd438574	-0.047734693
11	0x3d169f95	0.036773283
12	0xbdcad66e	-0.099041805
13	0x3d65c450	0.05609542
14	0x3de2eb45	0.1108003
15	0x3b85f6c2	0.0040882537
16	0x3c4cc36d	0.012497765
17	0xbc3e80ee	-0.011627419
18	0x3da7e965	0.08198813
19	0x3da7f072	0.08200158
20	0x3d82a62e	0.063793525
21	0xbd928186	-0.07153611
22	0x3d86716a	0.06564601
23	0xbd13f043	-0.036117803
24	0xbd21426c	-0.039369985
25	0xbd1dab85	-0.038493652
26	0x3b2c6678	0.0026306193
27	0x3c95b6cb	0.018275639
28	0x3c76e7a0	0.015069872
29	0xbd4b5093	-0.04963739
30	0x3b20b4bf	0.0024521796
31	0x39ec9383	0.00045123333
32	0x3d80490c	0.062639326
33	0x3d81fe2e	0.06347309
34	0x3d0f0847	0.034920003
35	0xbcf1b87c	-0.029506914
36	0x3c60a559	0.013711297
37	0x3d944903	0.072404884
38	0xbc9de56c	-0.019274436
39	0xbe56b0de	-0.20965907
40	0xbe0d86f0	-0.13821006
41	0x3bc7c32b	0.006096264
42	0x3c4b64cf	0.012414171
43	0x3d9f660c	0.07783136
44	0xbd2e7866	-0.04259529
45	0xbde85f68	-0.11346322
46	0xbc4e04d5	-0.012574394
47	0xbe466b6c	-0.19376916
48	0xbc81feb1	-0.015868517
49	0xbe0fe581	-0.14052393
50	0xbc82cc60	-0.015966594
51	0xbc1e29ba	-0.009653503
52	0x3d20dd5c	0.039273605
53	0xbc17577a	-0.009237165
54	0xbd593bac	-0.053035423
55	0x3d882236	0.0664715
56	0xbd5c9649	-0.05385426
57	0xbb6cc087	-0.0036125497
58	0xbd94ff0a	-0.07275207
59	0xbd915908	-0.070970595
60	0xbdc01393	-0.093787335
61	0xbd6ec2bc	-0.058291182
62	0xbb872414	-0.004124174
63	0xbdc5f9b4	-0.09666768
64	0xbdb1daf1	-0.08684338
65	0x3bae9363	0.0053276285
66	0x3cb616aa	0.022227604
67	0xbd4bdd1c	-0.049771413
68	0xbcadfba2	-0.021238152
69	0xbcb3c189	-0.02194287
70	0x39c11df5	0.00036834148
71	0xbdae545f	-0.08512186
72	0xbce7f6e3	-0.028315967
73	0xbd2a4137	-0.0415661
74	0x3c387257	0.0112577295
75	0xbcd6e769	-0.026233392
76	0xbd5f4882	-0.05451251
77	0x3d6b66d2	0.057471104
78	0xbc98f6b5	-0.018672327
79	0xbcd9b8b0	-0.026577324
80	0xbd1a678d	-0.03769641
81	0xbd703cfb	-0.058651906
82	0x3bc24a1e	0.0059292456
83	0x3da27100	0.07931709
84	0xbdd2b474	-0.10288325
85	0xbd04dfba	-0.032439925
86	0x3db1828f	0.0866748
87	0xbdff21ee	-0.124576434
88	0x3de2c038	0.11071819
89	0x3c2cee3d	0.010554847
90	0xbdc3c02e	-0.0955814
91	0xbd24d415	-0.04024132
92	0x3d31ad18	0.043377966
93	0x3d4ea929	0.050454292
94	0x3dc5fd48	0.0966745
95	0x3c04f5a4	0.008115206
96	0xbd077b2e	-0.033076458
97	0x3c966c67	0.018362237
98	0x3d8f4774	0.069960505
99	0xbd2d4d27	-0.042309906
100	0x3c7bc662	0.015367122
101	0xbdf704a7	-0.12061434
102	0xbd922382	-0.07135679
103	0x3c6de43f	0.01451975
104	0xbc5331f6	-0.01289033
105	0xbd328474	-0.04358335
106	0xbc45d559	-0.012074792
107	0x3d004f7a	0.031325795
108	0x3d17d9aa	0.037072815
109	0xbd93cd05	-0.07216839
110	0xbdd02f3e	-0.10165261
111	0x3d553211	0.0520497
112	0xbe0e7600	-0.13912201
113	0x3dc41bb0	0.095755935
114	0x3d8328a5	0.06404237
115	0x3d954452	0.07288422
116	0xbdd9eef2	-0.10641278
117	0x3d21ad3f	0.03947186
118	0x3c46fb00	0.012144804
119	0xbc50df00	-0.01274848
120	0x3d4f738d	0.050647307
121	0x3cf64b16	0.0300651
122	0xbdc0d364	-0.094153196
123	0xbb2f3556	-0.0026734672
124	0x3dabef14	0.0839521
125	0x3dc0700b	0.093963705
126	0xbd1cc65b	-0.038275104
127	0x3a348e89	0.00068876945
128	0xbd1332b0	-0.03593701
129	0x3d6a1366	0.057147406
130	0x3d7b2eb2	0.06132383
131	0xbd89535c	-0.06705353
132	0xbdc50c82	-0.09621526
133	0x3d59c4e0	0.05316627
134	0xbd62e3ef	-0.055393156
135	0xbcb4583e	-0.022014733
136	0xbdce7266	-0.100804135
137	0x3c9683c4	0.018373378
138	0x3d277237	0.04088041
139	0x3cda7b2a	0.026670057
140	0x3dbd8e8e	0.09255706
141	0xbdc5dbb3	-0.09661045
142	0xbcc8eaac	-0.024525963
143	0x3d15476d	0.03644507
144	0xbbc2eb99	-0.0059484956
145	0x3d811a5e	0.06303857
146	0xbb2dc4e7	-0.0026515068
147	0xbd61e6fd	-0.05515193
148	0xbd263a42	-0.040582903
149	0x3daa034b	0.08301409
150	0x3b0ecae9	0.0021788424
151	0xbd38558a	-0.04500345
152	0x3d896243	0.06708195
153	0x3d28ab6c	0.041179106
154	0xbdd4229a	-0.10358162
155	0x3e0441da	0.12915745
156	0x3cbaf8b2	0.022823665
157	0x3dd5a0f1	0.10431088
158	0xba55aaf0	-0.0008150777
159	0xbc5de960	-0.0135444105
160	0xbdbd2c82	-0.09237005
161	0xbc49bc1b	-0.012312914
162	0xbe0b5c81	-0.13609506
163	0xbb528aa5	-0.0032126096
164	0x3d004fb4	0.03132601
165	0x3da0f836	0.078598425
166	0xbd9c997a	-0.07646461
167	0xbdbae098	-0.09124869
168	0x3d874fe5	0.066070355
169	0x3cf8eb5d	0.030385667
170	0xbbdb54da	-0.0066934647
171	0x3c15eed2	0.0091511775
172	0xbc0604b3	-0.008179831
173	0x3da5441b	0.08069631
174	0x3d413861	0.047172908
175	0xbbcce5e7	-0.0062529924
176	0xbd7ab81c	-0.061210737
177	0xbd14b947	-0.036309507
178	0xbdc21f63	-0.09478643
179	0xbd91fbab	-0.0712808
180	0x3c5b3da9	0.0133814
181	0xbcdc3252	-0.026879463
182	0x3d0c92a1	0.034319524
183	0x3c1823a4	0.009285841
184	0x3cdae799	0.026721762
185	0x3bf84066	0.0075760363
186	0xbcf7b0e4	-0.030235715
187	0xbd8b5ddb	-0.06805011
188	0x39f3d8e5	0.0004651017
189	0xbda518b7	-0.080613546
190	0xbd8c2ee7	-0.068448834
191	0xba9198a3	-0.0011108111
192	0x3da2fa4a	0.07957895
193	0xbc15fabb	-0.009154017
194	0x3d9cfd1c	0.07665464
195	0x3d8d96cb	0.06913527
196	0xbe4695a0	-0.19393015
197	0x3d8a54bd	0.06754444
198	0x3ddf0db0	0.108912826
199	0x3df1bc75	0.118035235
200	0xbc323652	-0.010877209
201	0xbd87cd61	-0.0663097
202	0xbd1d557f	-0.038411614
203	0x3bc20272	0.0059207017
204	0x3d626bde	0.05527865
205	0xbd412333	-0.04715271
206	0x3cfbdaac	0.03074392
207	0x3d834422	0.0640948
208	0xba80b1c3	-0.0009818602
209	0xbd98a14b	-0.07452639
210	0xbd95fb03	-0.07323267
211	0xbdece531	-0.11567152
212	0xbd1da50d	-0.038487483
213	0xbd3a371f	-0.045462724
214	0xbb8cac98	-0.0042930357
215	0x3d469e82	0.04849101
216	0xbd08d861	-0.03340948
217	0x3d05c16e	0.032655172
218	0xbcbe8f29	-0.023261623
219	0x3d8359df	0.06413626
220	0x3b20e6d6	0.0024551651
221	0x3b240978	0.0025030058
222	0x3d964b6a	0.07338603
223	0xbe505aef	-0.20347188
224	0x3c9d51dd	0.019204075
225	0xbd025573	-0.031819772
226	0xbcf6b766	-0.030116748
227	0xbd8b4539	-0.068003125
228	0x3d4630da	0.048386432
229	0xbb6d9de3	-0.0036257438
230	0x39c5d84c	0.00037735922
231	0x3c919968	0.017773345
232	0xbd1f6dad	-0.038922954
233	0xbc8e56dd	-0.017375404
234	0xbc975bd8	-0.018476412
235	0xbc879455	-0.016550222
236	0xbba7b5a1	-0.0051180874
237	0xbe0578ef	-0.13034414
238	0x3d37561a	0.044759847
239	0x3bb7c123	0.0056077405
240	0xbdc6f82c	-0.09715304
241	0xbd91831c	-0.07105085
242	0xbc469cf4	-0.0121223815
243	0xbd4450a2	-0.04792846
244	0x3c83bedb	0.016082218
245	0xbe429ebb	-0.19005863
246	0xbddac498	-0.106820285
247	0xbd1ca980	-0.038247585
248	0x3cae6735	0.021289447
249	0xbd85d2d0	-0.0653435
250	0x3ce565c2	0.028002623
251	0xbe454550	-0.19264722
252	0x3cc55284	0.024087198
253	0x3d33d0a6	0.043900155
254	0xbd331adf	-0.0437268
255	0xbc2ce67d	-0.010553

fc2.bias f4 [256]
0	0xbd25c640	-0.04047227
1	0xbd1a795a	-0.037713386
2	0x3ba43be7	0.0050120237
3	0x3d1fe336	0.039035045
4	0x3cb43b3e	0.022000905
5	0xbd1958c2	-0.03743816
6	0x3d3d1ca6	0.0461699
7	0xbc4f668b	-0.0126587255
8	0xbd3df9af	-0.046380695
9	0xbd33e75b	-0.04392181
10	0x3c3376b6	0.010953596
11	0xbc995b94	-0.018720426
12	0x3d010d43	0.031506788
13	0x3c9a7abc	0.018857352
14	0x3cfc4371	0.030793877
15	0xbb6b5b29	-0.003591249
16	0x3dbcbce3	0.09215715
17	0x3a673111	0.0008819262
18	0xbac8bd6a	-0.0015315239
19	0xbcc58758	-0.024112388
20	0xbc042e39	-0.008067661
21	0x3c23dbe2	0.010001155
22	0x3c856fe2	0.016288701
23	0xbd7b7c49	-0.061397824
24	0x3d4b3369	0.049609575
25	0x3d7a04cf	0.061039742
26	0xbd1b59a9	-0.037927303
27	0x3d5e172b	0.054221313
28	0x3cc20063	0.023681825
29	0x3c98c0b3	0.018646574
30	0xbc22ba69	-0.009932139
31	0x3da40ece	0.08010636
32	0x3d0deefc	0.03465174
33	0xbb071c51	-0.0020616243
34	0x3d17a193	0.037019324
35	0x3da54d89	0.08071429
36	0xbc40ad02	-0.011759998
37	0xbaffee88	-0.0019526044
38	0xbd635e9c	-0.05551015
39	0x3ccf68c4	0.02531851
40	0xbd4f0b59	-0.05054793
41	0xbd5104b5	-0.05102988
42	0xbdc8638e	-0.097846135
43	0x3d4a8dee	0.04945176
44	0xbd0d156f	-0.03444427
45	0x3d420c43	0.047374975
46	0x3c2fa14a	0.010719607
47	0xbca58a57	-0.020207567
48	0xbb63810b	-0.0034714367
49	0xbcb3f741	-0.021968486
50	0x3bd9372c	0.0066288915
51	0x3dc0c9dc	0.094135016
52	0xbc8b0539	-0.016970264
53	0x3cd197ad	0.02558502
54	0xbdb9567e	-0.090497
55	0x3daf033c	0.08545539
56	0xbc83723b	-0.01604568
57	0x3d03d8ce	0.032189183
58	0x3c759edb	0.014991487
59	0x3d1a603b	0.03768943
60	0x3d43690a	0.047707595
61	0x3d1dd1d5	0.03853019
62	0xbc0a3b91	-0.008437053
63	0xbd5192c7	-0.05116537
64	0x3c159d73	0.009131777
65	0x3c9c8db2	0.019110534
66	0x3d8cc9e9	0.06874449
67	0xbd939db0	-0.07207811
68	0x3cd0511c	0.025429301
69	0x3dda4887	0.10658365
70	0xbd3422b0	-0.043978393
71	0x3bf84300	0.0075763464
72	0xbcd39eb0	-0.025832504
73	0x3d27dda4	0.040982857
74	0x3d5da055	0.054107983
75	0xbcbbae55	-0.022910276
76	0xbdb32caf	-0.08748757
77	0x3d6ab08e	0.057297282
78	0xbd588ab4	-0.052866653
79	0x3c5d4a88	0.013506539
80	0x3cd66fb0	0.026176304
81	0xbd1cba87	-0.038263824
82	0xbc2f647d	-0.010705111
83	0xbd8feaae	-0.070271835
84	0xbd8f038b	-0.06983098
85	0x3d335165	0.043778796
86	0x3b8ba459	0.004261535
87	0x3dc2dc83	0.095147155
88	0x3c87dbd4	0.016584314
89	0x3d666c9c	0.05625592
90	0x3d43afdf	0.047775146
91	0xbd43ab9d	-0.047771085
92	0xbbe86a8d	-0.00709278
93	0xbd8d8434	-0.06909981
94	0x3cec5de1	0.028853359
95	0x3d4f2531	0.050572578
96	0xbd335f67	-0.043792155
97	0xbae3f36a	-0.0017391269
98	0x3c69d06b	0.014270882
99	0x3d225026	0.039627217
100	0x3c42bdae	0.0118860435
101	0xbd6935a5	-0.056935925
102	0xbc3d84a4	-0.0115672685
103	0xbc4c4c71	-0.012469397
104	0xbd36c7e8	-0.04462424
105	0x3d8b63d0	0.06806147
106	0x3cad0173	0.021118855
107	0x3d01b25f	0.03166425
108	0xbd8ae9ae	-0.06782852
109	0xbcb61dde	-0.022231039
110	0x3c3c70f6	0.011501541
111	0x3c47ffc6	0.012206977
112	0xbbf942f0	-0.0076068565
113	0x3bc1eb1f	0.005917921
114	0xbc289b5c	-0.010290947
115	0xbcb5371b	-0.022121003
116	0xbd0b29b9	-0.033975337
117	0x3d04afbb	0.032394152
118	0x3e0a1fd5	0.13488705
119	0x3d2cc812	0.04218299
120	0x3cb9fb9b	0.022702983
121	0xbd7c6622	-0.06162084
122	0xbc25fc7a	-0.010130996
123	0x3cc8c2eb	0.024507007
124	0xbcf7c323	-0.030244416
125	0xbc29d18b	-0.0103649
126	0x3a8b58a3	0.0010631274
127	0x3d4c05e3	0.0498103
128	0xbd589c66	-0.05288353
129	0x3ca0efd1	0.019645603
130	0x3d4b9656	0.04970392
131	0xbc5cb70c	-0.013471376
132	0xbd3eead6	-0.046610676
133	0xbd27e8e0	-0.04099357
134	0x3c89d2d9	0.016824173
135	0xbcdcb3c6	-0.026941191
136	0xbc93fe55	-0.01806561
137	0x3ca1cc2d	0.019750679
138	0xbceec324	-0.029145785
139	0xbd8abd6b	-0.0677441
140	0x3c3c3c2c	0.0114889555
141	0x3bfbaca7	0.007680494
142	0xbd841d15	-0.064508595
143	0xbcbd00c9	-0.023071663
144	0xbda246bb	-0.07923647
145	0x3d8c4eb2	0.068509474
146	0xbd0cb581	-0.034352783
147	0x3c95ba0a	0.018277187
148	0xbd578ebe	-0.052626364
149	0xbd23dbb2	-0.04000444
150	0x3dac2aca	0.08406599
151	0xbd652d70	-0.055951536
152	0xbc2bbf8a	-0.010482678
153	0xbd343d29	-0.04400364
154	0x3d342cbb	0.04398797
155	0xbd8228e1	-0.06355453
156	0x3c302c35	0.010752727
157	0x3b8c5422	0.0042824904
158	0xbc3392a0	-0.010960251
159	0xbd4ab633	-0.049490165
160	0xbc498f87	-0.012302286
161	0x3d420c50	0.047375023
162	0xbd706610	-0.058691084
163	0x3d36d1d7	0.044633713
164	0x3d5854e9	0.05281535
165	0x3b848dd5	0.004045228
166	0x3b961063	0.00457959
167	0xbd382ec1	-0.044966463
168	0xbd316727	-0.043311264
169	0xbcaea532	-0.021319006
170	0xbb21793d	-0.0024638914
171	0x3d389271	0.045061532
172	0x3b51c7fa	0.0032010064
173	0x3bac040b	0.0052495054
174	0xbcdb2b45	-0.026754031
175	0xbd3906d6	-0.045172535
176	0x3caf7ffb	0.02142333
177	0xbc3cc69c	-0.011521962
178	0x3dc2b7a6	0.095076844
179	0x3cb808ec	0.022465192
180	0x3d70b72f	0.058768447
181	0x3d91436e	0.07092939
182	0x3c4afa29	0.012388744
183	0xbd99fff4	-0.07519522
184	0xbd37e761	-0.044898394
185	0x3d5f2c8d	0.054485846
186	0xbc8cbacb	-0.017178914
187	0x3d1d0556	0.038335167
188	0x3ddcfcd9	0.10790414
189	0xbc046234	-0.008080054
190	0x3cfe3499	0.03103094
191	0x3dc37049	0.09542901
192	0x3d0e7c9c	0.034786806
193	0xbbd6962a	-0.0065486627
194	0x3d53530c	0.05159287
195	0x3b992bdc	0.004674418
196	0xbc28eec0	-0.010310829
197	0x3d151aaf	0.0364024
198	0xbbf145fb	-0.0073630787
199	0x3d25ead8	0.040507168
200	0x3d00a461	0.031406764
201	0xbce85f2b	-0.028365692
202	0xba16722f	-0.00057390606
203	0xbc79efe5	-0.015254949
204	0xbbc626bc	-0.006047098
205	0x3d1db708	0.03850463
206	0x3c9a5f83	0.018844372
207	0x3d234e14	0.039869383
208	0xbd17695a	-0.036965705
209	0xbc87fd94	-0.016600408
210	0x3d9583d9	0.073005386
211	0x3c1983e7	0.009369827
212	0xbb8f7048	-0.0043773986
213	0x3d514fdd	0.051101554
214	0x3c2d8380	0.010590434
215	0x3d092215	0.03347977
216	0xbc0386a7	-0.008027709
217	0x3b36fb0e	0.0027920636
218	0xbd1d5663	-0.038412463
219	0x3c6bbb59	0.014387929
220	0x3d99efde	0.07516454
221	0x3da6a7fd	0.0813751
222	0x3db8ff3c	0.09033057
223	0xbda0bd87	-0.078486495
224	0xbca0d612	-0.019633327
225	0xbbbdd29d	-0.0057929293
226	0xbc7a694e	-0.015283896
227	0x3d0c24d8	0.034214824
228	0xbc2445ec	-0.010026436
229	0xbd3bcedc	-0.045851573
230	0x3a96c768	0.001150352
231	0xbd883917	-0.06651514
232	0xbc429432	-0.011876153
233	0x3d5645ce	0.052312665
234	0xbd2f3a6b	-0.04278032
235	0xbcdcd258	-0.026955768
236	0xbcd3e59f	-0.025866328
237	0xbd77fb0e	-0.06054216
238	0x3d30d9ee	0.043176584
239	0xbcc8bfa8	-0.024505451
240	0x3daafebf	0.0834937
241	0x3d4dce07	0.05024531
242	0xbd05928e	-0.03261047
243	0x3cbc85a4	0.023012944
244	0xbc586a99	-0.013209009
245	0xbbbaf732	-0.0057057375
246	0x3c82802e	0.015930261
247	0xbb3fbec9	-0.0029258004
248	0xbd4a7846	-0.049431108
249	0xbd2bebbe	-0.04197287
250	0xbbe887a5	-0.007096248
251	0xbd936fca	-0.071990564
252	0x3d1b7008	0.03794864
253	0x3cfbb922	0.030727927
254	0xbd21786b	-0.03942148
255	0x3d0e8cf6	0.0348024

fc3.weight f4 [1, 256]
0	0x3d3384c6	0.043827794
1	0xbce53643	-0.027979976
2	0x3cdeb2fe	0.02718496
3	0xbbfaddce	-0.0076558357
4	0x3d0e2a6f	0.034708437
5	0x3ccf66f8	0.025317654
6	0x3dc0434f	0.09387838
7	0xbd19fad4	-0.037592724
8	0xbd46693f	-0.048440214
9	0xbd084c9d	-0.03327619
10	0xbcb25634	-0.02176962
11	0x3d82876f	0.06373488
12	0x3cc57995	0.024105826
13	0xbc7ccfd9	-0.015430414
14	0x3de15da1	0.110041864
15	0x3c4be033	0.01244359
16	0x3d5bbf87	0.05364945
17	0xbd335311	-0.04378039
18	0x3c598615	0.013276597
19	0xbc6ff78e	-0.014646424
20	0x3cdd90f6	0.027046662
21	0x3cc74a82	0.02432752
22	0xbc2eed96	-0.010676762
23	0x3d2b1214	0.041765288
24	0xbc7c02f4	-0.015381563
25	0x3cc20c9f	0.023687659
26	0x3cd68b3f	0.026189445
27	0x3ca051b7	0.019570215
28	0x3c9cf865	0.019161412
29	0xbcaf9884	-0.02143503
30	0xbd1081a3	-0.03527988
31	0x3d9309a0	0.0717957
32	0xbc747e6c	-0.014922719
33	0xbdb35e82	-0.0875826
34	0xbc9698ff	-0.018383501
35	0x3d3ae180	0.04562521
36	0xbca226b8	-0.019793853
37	0x3ca8001e	0.020507868
38	0xbcea9254	-0.028634228
39	0x3c8110d1	0.015755089
40	0xbcb23dd9	-0.021758007
41	0xbd6d5aa7	-0.05794778
42	0xbd2670f6	-0.04063507
43	0x3df715a6	0.12064676
44	0x3c9c2cae	0.019064274
45	0x3e118e3b	0.14214413
46	0xbc747408	-0.014920242
47	0xbca65cfb	-0.020308008
48	0xbc6c7219	-0.0144315
49	0x3c877138	0.01653348
50	0xbd3277d2	-0.0435713
51	0x3d84daa3	0.06487014
52	0x3ca50b79	0.020147072
53	0xbd047a07	-0.032342937
54	0x3d2a26c1	0.041540865
55	0x3cc33b38	0.023831949
56	0x3ca2cd1d	0.019873196
57	0xbd019a1e	-0.03164112
58	0xbd911d0a	-0.07085617
59	0xbdae3217	-0.08505648
60	0xbcdc227c	-0.026871912
61	0xbc99699d	-0.018727118
62	0xbd689bee	-0.05678933
63	0xbcc13b04	-0.023587711
64	0x3d55c3e9	0.052188788
65	0xbce64645	-0.028109679
66	0x3d0f658a	0.035008945
67	0xbda27d7c	-0.079340905
68	0x3cdc0eef	0.02686259
69	0x3d04f2bf	0.032458063
70	0xbdf90362	-0.12158848
71	0xbe27b834	-0.16378862
72	0x3c9428fa	0.018085945
73	0xbc7bf063	-0.015377137
74	0xbc6d7bad	-0.014494819
75	0xbcd22a65	-0.02565498
76	0xbc57d982	-0.0131744165
77	0xbc730150	-0.014831856
78	0x3cb329ca	0.021870513
79	0xbcebe784	-0.028796919
80	0x3e27fc9f	0.16404961
81	0x3cb98c9b	0.022650054
82	0xbd1af214	-0.03782852
83	0x3d86f09d	0.06588862
84	0xbccef004	-0.025260933
85	0xbc656210	-0.014000431
86	0x3c9ec3f8	0.019380555
87	0x3d6830f6	0.056687318
88	0xbd16e153	-0.03683598
89	0xbc6e2031	-0.014534042
90	0x3ce754be	0.02823865
91	0x3ccc1649	0.02491297
92	0xbc488559	-0.012238824
93	0xbcc504f8	-0.02405022
94	0xbcaf16c5	-0.021373162
95	0x3ce13f95	0.027496139
96	0x3d699ccb	0.057034295
97	0xbc909d7a	-0.017653216
98	0xbda37ef6	-0.079832
99	0x3cc445fb	0.02395915
100	0x3ca6b575	0.020350197
101	0xbcb0a76b	-0.021564206
102	0xbd60fc72	-0.05492825
103	0x3c7362f6	0.014855137
104	0xbd5a0526	-0.053227566
105	0x3c9fc9ec	0.019505464
106	0x3cb82f34	0.022483446
107	0x3c9627c5	0.01832951
108	0x3d832754	0.064039856
109	0xbdea310b	-0.114351355
110	0xbc69c0a2	-0.014267119
111	0xbc6c9b30	-0.014441296
112	0xbd046c06	-0.03232958
113	0x3cc50508	0.02405025
114	0xbce3804c	-0.027771138
115	0xbce0e490	-0.027452737
116	0xbd744bee	-0.059642725
117	0x3d9a2232	0.075260535
118	0x3d417f52	0.047240563
119	0xbd1df34b	-0.0385621
120	0xbd060887	-0.032722976
121	0xbce3fc3a	-0.027830232
122	0xbd1fa3c9	-0.038974557
123	0x3ccea0f2	0.02522323
124	0x3d3567c4	0.04428841
125	0xbc582f69	-0.013194897
126	0x3c821503	0.01587916
127	0xbdb07179	-0.08615393
128	0xbe177fa6	-0.14794788
129	0xbd93c006	-0.0721436
130	0x3d9cb4d9	0.076516815
131	0xbcbf5a30	-0.023358434
132	0x3d6346be	0.055487387
133	0xbcef4004	-0.02920533
134	0xbc8fef9e	-0.017570313
135	0x3cf91ea2	0.030410115
136	0xbc2c8d45	-0.010531728
137	0xbe0af08d	-0.13568325
138	0xbd17e148	-0.03708008
139	0xbce7e2a2	-0.02830631
140	0x3d0346fd	0.03205012
141	0x3d91d528	0.071207345
142	0xbcc95bae	-0.02457985
143	0xbd8c57b4	-0.068526655
144	0x3cfa9ac3	0.030591374
145	0x3ca8f532	0.02062473
146	0xbd286d8c	-0.041120097
147	0xbdae04c8	-0.08497006
148	0xbcae5fd4	-0.021285929
149	0x3d3fef8c	0.04685931
150	0x3cd71f7e	0.026260134
151	0xbc234de7	-0.009967304
152	0xbd8e3cfa	-0.06945224
153	0xbdb4484d	-0.08802853
154	0xbca82436	-0.02052508
155	0xbde22a3d	-0.110432126
156	0xbc4e7d38	-0.012603097
157	0x3c83d7c5	0.016094098
158	0xbd6e8952	-0.058236428
159	0xbd0a8906	-0.033822082
160	0xbdb9c2ba	-0.09070344
161	0x3ca6b029	0.020347672
162	0xbd11e111	-0.03561503
163	0x3d2ec958	0.042672485
164	0x3d4b7349	0.04967049
165	0x3ccdca08	0.02512075
166	0xbc4e38a5	-0.012586747
167	0xbc7ce040	-0.015434325
168	0xbca2ae4f	-0.019858507
169	0x3d019675	0.031637628
170	0xbc805b71	-0.015668603
171	0x3d413d41	0.047177557
172	0xbda94378	-0.08264822
173	0x3d33a3ef	0.04385751
174	0xbc5598d7	-0.013036928
175	0xbd89a990	-0.067217946
176	0xbcad9fb4	-0.021194316
177	0xbc7ac79d	-0.015306381
178	0x3da5c80d	0.08094797
179	0x3c7198f6	0.014745941
180	0x3c8974e4	0.01677937
181	0x3cf04765	0.029330919
182	0x3df6b778	0.12046713
183	0xbd06c463	-0.032902133
184	0xbccaa782	-0.024738077
185	0x3c8eecc5	0.017446885
186	0xbcf83166	-0.030296993
187	0x3dd96e2d	0.106167175
188	0x3dc459ff	0.09587478
189	0x3cb45240	0.022011876
190	0x3c867616	0.01641373
191	0x3d328424	0.04358305
192	0xbd3df217	-0.046373453
193	0xbc0b3dd6	-0.00849863
194	0xbd006374	-0.031344846
195	0x3c3bbc57	0.011458478
196	0x3d1aa3ca	0.037753858
197	0xbc0fd34a	-0.008778403
198	0xbcaf9e1d	-0.021437699
199	0xbc18ec8d	-0.009333742
200	0xbcc02941	-0.023457171
201	0xbd9f1cb2	-0.07769145
202	0x3c3dc62a	0.0115828905
203	0x3cd6b507	0.026209367
204	0xbd002044	-0.03128077
205	0x3da9894c	0.082781404
206	0x3c9b55f4	0.018961884
207	0x3cd7b49c	0.026331238
208	0xbc6a3e9e	-0.014297156
209	0xbd420c84	-0.047375217
210	0x3d870ddb	0.065944396
211	0x3c2b8339	0.010468298
212	0x3ce9ae65	0.02852554
213	0x3d68a552	0.056798287
214	0x3c90ddd8	0.017683908
215	0xbd05bb7c	-0.032649502
216	0xbd673dee	-0.056455545
217	0x3d13eb1f	0.0361129
218	0xbcc5b6d8	-0.024135038
219	0xbca97572	-0.020685885
220	0x3d07e589	0.033177886
221	0x3d4f5006	0.050613426
222	0x3cabef50	0.020988137
223	0x3d890fdf	0.0669248
224	0xbdfeefb1	-0.12448061
225	0xbc2155e2	-0.009847136
226	0x3d10e3a5	0.03537335
227	0x3c45e89f	0.012079387
228	0x3ca09f4f	0.019607214
229	0x3c4c24fe	0.0124599915
230	0x3c980178	0.018555388
231	0x3dfc8802	0.12330629
232	0x3c6b8b0c	0.014376413
233	0xbdd7b9bf	-0.10533475
234	0xbd8408d7	-0.064469986
235	0xbc43e76b	-0.01195703
236	0xbccad05f	-0.024757562
237	0xbd71e65d	-0.059057582
238	0xbd8dd91f	-0.06926178
239	0x3ca2cdaf	0.019873468
240	0x3cd8708b	0.026420852
241	0x3e0a78d0	0.13522649
242	0xbc89c7a9	-0.016818838
243	0xbd628cf9	-0.055310223
244	0xbc997b3e	-0.018735524
245	0xbe2f40bb	-0.17114536
246	0x3cef6f6c	0.029227935
247	0xbd8b4d49	-0.0680185
248	0x3cd46aaa	0.025929768
249	0xbc9ca861	-0.019123258
250	0xbce067a8	-0.027393177
251	0xbd9f47cd	-0.07777367
252	0xbd2e324e	-0.042528443
253	0x3c864a88	0.016392961
254	0x3ca70fd6	0.020393293
255	0x3cc04604	0.023470886
