checkpoints/checkpoint_critic_ddqn_2.pth (torch_old, 304178 bytes, 5 tensors)

fcs1.weight f4 [256, 33]
0.0022134772 0.0560292 -0.04201357 -0.0075229555 -0.104874305 0.0012985002 0.058225878 -0.034203224
-0.14928433 0.011448735 0.01840175 -0.0038091245 -0.09399776 0.0077954168 -0.001114837 0.007310252
-0.029161213 0.010144875 -0.03855116 0.020181142 -0.06140014 0.110510826 0.0047419355 -0.026947783
-0.052415986 0.066658355 -0.03868915 0.11259988 0.0077522057 0.05109015 -0.113898255 0.020274766
-0.0451976 -0.03388176 0.019159319 0.06311713 -0.056965467 -0.050650302 -0.039393727 -0.029912846
-0.021752063 0.010300686 -0.0465378 -0.0018532458 0.018673703 -0.010255186 0.044350546 -0.029204132
-0.053624548 -0.017189728 -0.046410896 0.020555884 -0.024549872 0.014055419 -0.032476474 0.03070072
0.01135056 -0.0071381554 -0.025922004 -0.0017078016 0.057041574 -0.03313684 0.0114473775 0.013688036
0.03391771 0.1370022 -0.0025096927 -0.06436412 -0.0064142393 -0.11124903 0.07491341 -0.019471386
0.016032865 0.011615042 0.028972516 0.044832963 -0.012646043 -0.022962492 0.02994599 0.02804036
0.055126123 0.011203317 0.0070916098 0.025971025 -0.009005932 0.009119939 0.010721452 -0.012456544
0.0036847745 -0.017813748 0.0017578526 -0.026859967 -0.005364564 0.040088635 -0.03386108 0.05361893
-0.020512838 0.01849357 -0.15852633 -0.04345816 0.075108044 0.017281074 0.043551944 -0.02206284
0.05622958 0.034910657 0.012377138 -0.023631614 0.05179709 0.0020393166 -0.0056393836 -0.016353209
0.08554989 -0.032347947 -0.10447569 -0.016141128 -0.002933021 -0.004449774 0.012729308 0.007482565
-0.01433928 -0.015570038 0.029679306 -0.015242479 -0.03578282 -0.02694906 0.030958187 0.078169
-0.015151218 -0.0005440016 -0.022331007 0.3278331 -0.10508188 0.0047619427 -0.031496663 0.015180474
0.04084023 -0.050137 -0.10914017 -0.027860114 0.16036618 0.022774711 -0.012497402 0.022442386
-0.02451162 -0.002399101 0.05572081 0.04528358 0.08209068 -0.055064525 -0.023626229 0.022806734
-0.010679069 0.015076694 -0.01836289 -0.040410496 -0.01385038 0.0027753385 0.088156715 0.053600516
0.028223945 0.04573536 -0.042560726 -0.010656625 0.010608585 0.033168916 -0.07598792 -0.008693722
-0.0220467 0.0012184457 0.0030083703 0.018720375 0.00078768213 0.013984617 0.059711345 0.032711525
-0.027383024 0.009413243 0.018067608 0.025509398 -0.04356251 0.016798792 0.013649712 -0.014840068
0.021435346 -0.020332005 -0.048599865 -0.009702667 -0.010001891 0.0017734428 -0.011167915 -0.013295025
0.07209779 0.028557548 0.04400678 0.004792662 0.021717638 -0.0025405486 -0.05541348 0.093042105
-0.068095855 -0.010366584 0.034734998 0.056542624 0.010184731 -0.01415636 -0.0498054 0.02310952
0.004864622 0.01311591 -0.016727744 0.09070737 -0.081913896 0.08780615 -0.009681986 0.01859375
-0.000359169 -0.0019343238 -0.00041302064 -0.027639944 -0.0029447998 0.034330253 -0.026250819 0.033556342
-0.040547524 0.10118288 -0.076833814 -0.05274736 0.008089 0.012658566 0.37508094 -0.10248659
-0.044150162 -0.050536614 -0.064327925 -0.046888456 -0.005017131 0.014112982 0.027557071 -0.00025964333
-0.017649934 0.009157689 -0.062169153 -0.048159722 0.03531412 -0.02190168 0.00794936 -0.03241487
-0.024313502 0.0031043685 0.009688368 -0.008887839 0.016229704 -0.0017789066 0.026350701 0.029299995
00000000: fc0f 113b e07e 653d 6c16 2cbd 2083 f6bb
00000010: 57c8 d6bd 7032 aa3a 427e 6e3d ae18 0cbd
00000020: fedd 18be 7a93 3b3c 44bf 963c 81a2 79bb
00000030: e681 c0bd b270 ff3b b91f 92ba d78a ef3b
00000040: 7fe3 eebc b136 263c d2e7 1dbd ec52 a53c
00000050: b77e 7bbd 8053 e23d 3d62 9b3b 99c1 dcbc
00000060: 25b2 56bd 2d84 883d 8478 1ebd c49a e63d
00000070: 3706 fe3b e843 513d 7d43 e9bd 4417 a63c
00000080: 1e21 39bd 9ac7 0abd 01f4 9c3c 8e43 813d
00000090: 9f54 69bd b176 4fbd 515b 21bd c90b f5bc
000000a0: 6231 b2bc 35c4 283c 6c9e 3ebd 9ce8 f2ba
000000b0: 98f9 983c 5e05 28bc eba8 353d 813d efbc
000000c0: 6aa5 5bbd 79d1 8cbc 5a19 3ebd d064 a83c
000000d0: d01c c9bc b348 663c 0d06 05bd 1480 fb3c
000000e0: b3f7 393c 30e7 e9bb 625a d4bc 50d8 dfba
000000f0: 6da4 693d 7fba 07bd c88d 3b3c c943 603c
00000100: 4ced 0a3d 4e4a 0c3e a879 24bb 56d1 83bd
00000110: 8a2e d2bb 88d6 e3bd 346c 993d 7582 9fbc
00000120: 5b57 833c 044d 3e3c c557 ed3c c5a2 373d
00000130: 5931 4fbc d61b bcbc 4b51 f53c e6b4 e53c
00000140: eecb 613d 1e8e 373c bc60 e83b 30c1 d43c
00000150: 9e8d 13bc cc6b 153c 07a9 2f3c 8816 4cbc
00000160: 427c 713b 23ee 91bc bf67 e63a 6f09 dcbc
00000170: 39c9 afbb fb33 243d eab1 0abd 869f 5b3d
00000180: 8a0a a8bc d47f 973c ba54 22be 2f01 32bd
00000190: 3fd2 993d 0a91 8d3c 8663 323d 21bd b4bc
000001a0: fd50 663d 7afe 0e3d 7bc9 4a3c 1697 c1bc
000001b0: 2f29 543d 0ea6 053b 94ca b8bb 2af7 85bc
000001c0: c834 af3d 487f 04bd 5af7 d5bd 663a 84bc
000001d0: ed37 40bb 69cf 91bb 968e 503c 4e30 f53b
000001e0: 4def 6abc 7919 7fbc 0422 f33c 97bb 79bc
000001f0: 0291 12bd 46c4 dcbc 069c fd3c 1217 a03d
00000200: d03c 78bc 549b 0eba 84ef b6bc bdd9 a73e
00000210: 2b35 d7bd 120a 9c3b a502 01bd 86b7 783c
00000220: 1648 273d 745c 4dbd e284 dfbd e53a e4bc
00000230: 0837 243e 0892 ba3c e7c1 4cbc 18d9 b73c
00000240: 98cc c8bc 3c3a 1dbb 813b 643d 467b 393d
00000250: 291f a83d 578b 61bd cb8b c1bc 30d5 ba3c
00000260: 43f7 2ebc 3d04 773c c66d 96bc 7a85 25bd
00000270: b4ec 62bc 74e2 353b 828b b43d 378c 5b3d
00000280: e735 e73c 0055 3b3d 2854 2ebd 2099 2ebc
00000290: a1cf 2d3c 21dc 073d 8e9f 9bbd 1d70 0ebc
000002a0: 489b b4bc 41b4 9f3a 1428 453b 795b 993c
000002b0: 747c 4e3a bc1f 653c e293 743d 85fc 053d
000002c0: 5d52 e0bc 013a 1a3c 8502 943c 16f9 d03c
000002d0: 9a6e 32bd 9f9d 893c 0ba3 5f3c c223 73bc
000002e0: 2e99 af3c 4e8f a6bc a710 47bd eff7 1ebc
000002f0: f9de 23bc de72 e83a a1f9 36bc 60d3 59bc
00000300: 02a8 933d 85f1 e93c 7440 343d c30b 9d3b
00000310: 30e9 b13c 557f 26bb 3ff9 62bd dc8c be3d
00000320: d775 8bbd 9bd8 29bc 4946 0e3d 3d99 673d
00000330: dcdd 263c 14f0 67bc bf00 4cbd 2d50 bd3c
00000340: 6867 9f3b 1de4 563c 9f08 89bc c9c4 b93d
00000350: 79c2 a7bd b6d3 b33d 31a1 1ebc ec51 983c
00000360: d94e bcb9 2389 fdba b18a d8b9 2a6d e2bc
00000370: 8bfd 40bb e19d 0c3d f50b d7bc 6072 093d
00000380: 2915 26bd f838 cf3d 0c5b 9dbd 9e0d 58bd
00000390: ba87 043c e065 4f3c 9c0a c03e 7de4 d1bd
000003a0: cdd6 34bd 7bff 4ebd 5cbe 83bd 1c0e 40bd
000003b0: bf66 a4bb 233a 673c 5ebf e13c bd20 88b9
000003c0: 9896 90bc 220a 163c 15a5 7ebd 2143 45bd
000003d0: 8aa5 103d 276b b3bc 083e 023c 74c5 04bd
000003e0: 1c2d c7bc a972 4b3b f6bb 1e3c 4c9e 11bc
000003f0: 28f4 843c 332a e9ba 6ddd d73c 8b06 f03c

fcs1.bias f4 [256]
-0.08372315 -0.107915044 0.066840306 -0.11459119 -0.0052933213 -0.058148254 -0.22029282 0.034027606
0.005810678 0.032856405 -0.19842324 0.05535924 -0.05493745 0.1009786 0.12430906 0.107000135
0.030301709 -0.08650211 -0.12605369 -0.21391754 -0.02421456 -0.1177752 -0.023905681 0.12822117
-0.1517186 -0.042482316 0.10913684 0.017369917 -0.05475742 -0.13781089 -0.17426641 -0.122861266
0.03907059 -0.22406714 -0.15803559 0.033319943 -0.17937307 -0.22510768 0.020488802 0.042150643
-0.1710737 0.0055294973 0.067708045 0.16870232 0.06392736 -0.11092335 0.097451895 -0.08211196
0.111218266 0.03876772 -0.19957082 -0.017676262 -0.08513714 -0.03287531 -0.10525492 0.058541104
-0.04634161 0.08034226 -0.2434096 0.037338164 -0.14872898 -0.13970529 -0.022341942 -0.014003386
-0.13864596 -0.17607637 0.141191 -0.04371863 0.009543552 -0.14410907 0.15994978 -0.16063218
-0.21453276 0.009653964 0.05386924 0.054532867 -0.13863194 0.0037846288 -0.18031937 -0.092930414
0.16378964 -0.06344856 -0.14622577 -0.0029929378 0.052973635 0.086304955 -0.1779111 -0.075924344
-0.08041986 0.075353056 -0.08444498 -0.022708282 0.07911096 0.04021638 -0.036130674 -0.0729288
-0.014403204 -0.1465103 -0.1077144 0.12164561 0.024167178 0.026709413 -0.016173758 -0.044344556
0.04237003 -0.0940646 -0.0593808 -0.058211826 -0.0021002002 0.008919281 0.119580336 -0.08098229
-0.18075317 -0.2235263 0.05057175 -0.037002962 -0.04160688 -0.12994899 0.04228694 -0.00577903
0.031147849 0.16178475 -0.036252216 0.09123756 0.11632426 0.04185173 -0.15587482 -0.112885445
-0.15081438 -0.23919754 -0.10914352 -0.11194984 0.086418845 -0.043794878 -0.065663986 -0.017779982
0.025842845 -0.19166103 -0.1291313 -0.042610787 -0.05069094 -0.07574474 0.055452913 -0.0010365797
-0.11641509 -0.14583331 -0.15482087 0.13701086 0.059946824 -0.18914793 -0.18031259 0.0029258656
0.06405013 -0.13769966 -0.008557883 -0.07505974 -0.1611795 -0.013240659 -0.13023423 -0.13528483
0.020739863 -0.11066943 0.043495134 0.13246095 0.07972699 -0.058870636 -0.11635393 -0.05090083
-0.11159 -0.16118683 0.06353142 0.06852759 -0.13716015 -0.05305281 -0.036582943 0.025711553
-0.13369748 -0.1297936 -0.15625955 -0.12741119 -0.07039058 0.009817593 -0.06345713 -0.23243599
-0.027250273 0.016594203 0.020558404 -0.1053536 -0.16182402 0.10212285 -0.13875344 -0.022105671
0.037375692 -0.0744059 -0.047150616 -0.19615038 0.048663273 0.063329734 -0.23848385 0.03276796
0.1388355 0.16821504 -0.02878709 0.10858435 0.04150189 -0.16069415 -0.18511716 -0.18802679
-0.028318577 0.035653878 -0.10325576 -0.03043414 -0.16544327 0.006364352 -0.18447536 -0.0028568662
-0.092842214 -0.16804054 -0.07478747 0.10146923 -0.076331645 -0.16880015 0.021184847 -0.19436404
0.11265906 -0.22021379 -0.08822137 -0.18171619 -0.07752349 0.119003825 -0.006404475 -0.06309727
-0.1530876 0.080139376 -0.10326373 -0.017128576 0.037640724 0.035863508 -0.121466376 0.0010361151
-0.16336532 -0.20948374 -0.05364372 -0.05452634 0.027105212 -0.14007647 -0.021186948 0.045754436
-0.045915145 0.10803435 -0.11318573 -0.17770985 -0.124136746 0.023526272 -0.11323955 -0.16699888
00000000: 0b77 abbd 9002 ddbd 92e3 883d c9ae eabd
00000010: 9973 adbb dd2c 6ebd 7194 61be 8860 0b3d
00000020: 8067 be3b 7094 063d 762f 4bbe 5fc0 623d
00000030: 1706 61bd decd ce3d c095 fe3d e322 db3d
00000040: 4a3b f83c 0528 b1bd 3814 01be 330d 5bbe
00000050: 9d5d c6bc 2034 f1bd d9d5 c3bc 694c 033e
00000060: 1f5c 1bbe f001 2ebd 2383 df3d 5b4b 8e3c
00000070: 5149 60bd 4c1e 0dbe e572 32be b09e fbbd
00000080: 7c08 203d db71 65be 15d4 21be 7e7a 083d
00000090: 93ad 37be a182 66be 22d8 a73c 27a6 2c3d
000000a0: f22d 2fbe c930 b53b 84aa 8a3d 4dc0 2c3e
000000b0: 59ec 823d c82b e3bd dc94 c73d 512a a8bd
000000c0: 67c6 e33d e7ca 1e3d 4b5c 4cbe cfcd 90bc
000000d0: 615c aebd 43a8 06bd e48f d7bd ccc8 6f3d
000000e0: b3d0 3dbd 7c8a a43d 5e40 79be e7ef 183d
000000f0: 694c 18be e70e 0fbe 7306 b7bc 756e 65bc
00000100: 35f9 0dbe 5d4d 34be 6094 103e 4e12 33bd
00000110: 8f5c 1c3c 5491 13be e0c9 233e c37c 24be
00000120: 7aae 5bbe a92b 1e3c fea5 5c3d db5d 5f3d
00000130: 88f5 0dbe 8907 783b a4a5 38be 4d52 bebd
00000140: 79b8 273e 52f1 81bd 35bc 15be 2a25 44bb
00000150: e2fa 583d a7c0 b03d 542e 36be 397e 9bbd
00000160: 2bb3 a4bd b452 9a3d 7df1 acbd b806 babc
00000170: ed04 a23d eeb9 243d c2fd 13bd b25b 95bd
00000180: 6bfb 6bbc cc06 16be 5e99 dcbd 5521 f93d
00000190: 3ffa c53c b3cd da3c d47e 84bc a3a2 35bd
000001a0: 328c 2d3d f1a4 c0bd 4839 73bd 866f 6ebd
000001b0: 83a3 09bb 2d22 123c 89e6 f43d 0bda a5bd
000001c0: 5c17 39be 14e4 64be 5324 4f3d 6b90 17bd
000001d0: fa6b 2abd 5911 05be 1235 2d3d 045e bdbb
000001e0: c629 ff3c e7aa 253e 347d 14bd c2da ba3d
000001f0: 6a3b ee3d b86c 2b3d a69d 1fbe 7c30 e7bd
00000200: 166f 1abe 33f0 74be a386 dfbd f545 e5bd
00000210: 5dfc b03d 4262 33bd d77a 86bd 53a7 91bc
00000220: 60b4 d33c ca42 44be ff3a 04be a688 2ebd
00000230: 4ea1 4fbd 0f20 9bbd 9822 633d d8dd 87ba
00000240: 096b eebd 5455 15be 5d89 1ebe 934c 0c3e
00000250: cd8a 753d ffaf 41be dda3 38be e1bf 3f3b
00000260: b72c 833d 2401 0dbe 5d36 0cbc ecb8 99bd
00000270: 3d0c 25be 59ef 58bc 1f5c 05be 1b88 0abe
00000280: a5e6 a93c a7a6 e2bd f427 323d d8a3 073e
00000290: e747 a33d 5622 71bd f84a eebd 647d 50bd
000002a0: 4c89 e4bd 290e 25be c31c 823d 3158 8c3d
000002b0: b673 0cbe e74d 59bd ffd7 15bd 09a1 d23c
000002c0: fee7 08be 9de8 04be 8102 20be 1478 02be
000002d0: f028 90bd f8d9 203c d0f5 81bd b303 6ebe
000002e0: f73b dfbc 91f0 873c 196a a83c a1c3 d7bd
000002f0: 32b5 25be c925 d13d 6215 0ebe f416 b5bc
00000300: 4117 193d 1f62 98bd 0121 41bd a5db 48be
00000310: 2453 473d 05b3 813d 1c35 74be b237 063d
00000320: e52a 0e3e 9040 2c3e e7d2 ebbc 7961 de3d
00000330: e3fd 293d 028d 24be 5a8f 3dbe 188a 40be
00000340: 5cfc e7bc cd09 123d c277 d3bd 0451 f9bc
00000350: f669 29be 0e8c d03b 1ce7 3cbe 433a 3bbb
00000360: 0f24 bebd d212 2cbe 2c2a 99bd 1acf cf3d
00000370: c453 9cbd f2d9 2cbe d88b ad3c 5e07 47be
00000380: cbb9 e63d b97f 61be 68ad b4bd cf13 3abe
00000390: a3c4 9ebd 47b8 f33d a1dc d1bb 2439 81bd
000003a0: ffc2 1cbe 1d20 a43d ef7b d3bd 3a51 8cbc
000003b0: 292d 1a3d 9de5 123d 5dc3 f8bd 41ce 873a
000003c0: 3d49 27be e882 56be 84b9 5bbd 0357 5fbd
000003d0: c00b de3c 3570 0fbe 4090 adbc 0169 3b3d
000003e0: 8511 3cbd 1d41 dd3d eccd e7bd 92f9 35be
000003f0: 683b febd 2bba c03c 23ea e7bd c101 2bbe

fc2.weight f4 [256, 260]
-0.0047336887 -0.05399645 -0.031975333 -0.03721134 0.06665843 -0.16900618 0.022429477 0.041329928
-0.032419942 0.006211392 0.073619045 0.027945036 -0.009213573 0.07787324 0.03179519 -0.020337634
0.01899304 -0.01525613 0.026119476 0.07187579 0.05464701 -0.06756614 0.01822086 -0.029549927
0.048816618 0.023943273 -0.06277794 0.08382104 0.029271452 -0.18056233 -0.007205821 -0.019231198
0.04641549 0.037410934 0.03962493 -0.008989645 0.08880802 0.024132507 -0.06596656 -0.07030145
0.037763428 0.017408408 0.10874642 0.018705338 -0.10508898 -0.0393945 -0.07090617 0.042053085
-0.0416605 -0.05364124 0.04169513 -0.10706907 0.0049999757 -0.09445676 -0.016237019 0.09827404
-0.0038431576 0.058119226 0.0796309 -0.069759905 0.008812787 0.026642712 0.006751443 -0.052495692
-0.22737291 -0.09131782 -0.011883146 -0.0791959 -0.06321856 0.058856826 0.025063662 -0.024305796
0.0014894643 -0.035965193 -0.103271805 -0.05686958 0.068044566 -0.05470859 -0.017828409 -0.07319574
0.05488687 -0.09222736 -0.017159311 0.036650572 -0.0046709594 -0.11741952 -0.01414978 0.015365874
-0.033945445 -0.09976617 -0.05716954 0.025073418 0.020894552 0.04644387 0.026532624 0.027320692
0.008024476 -0.007073014 -0.0019950971 -0.034553483 0.03500333 0.031359587 -0.084302016 -0.08184501
-0.069161884 0.009439871 -0.02658426 -0.05325658 -0.0017189682 0.017456824 0.0028063974 0.021362627
-0.100426376 -0.16915171 -0.055638105 -0.062337447 -0.022310704 0.09079233 -0.0005233644 -0.013037347
-0.014438274 0.02435008 -0.01144386 -0.029345173 0.010515982 0.048052475 -0.06784039 -0.09837472
0.06516493 -0.0054440014 0.05290171 0.0027596639 0.06926253 -0.011032084 0.022255601 -0.021140978
-0.10305166 0.020936092 -0.05910129 0.09848415 -0.0702412 -0.16483884 0.0031250962 0.05526645
-0.036106784 0.0018311045 -0.060842462 0.007824877 0.052203216 -0.007416981 -0.098177165 -0.07752523
0.03013548 0.068666756 -0.07401307 0.07809646 -0.1201807 0.052525003 -0.012141579 -0.0139797935
-0.0965247 -0.06438477 0.009602212 0.01476989 0.050950445 -0.13501063 -0.02888013 -0.12086757
0.0010919792 -0.033629436 -0.124012165 -0.07416213 0.058527734 0.0901599 0.028836302 0.06712258
0.05017202 0.02036502 -0.1217343 -0.11351189 -0.04278497 -0.06403645 -0.026135284 0.02797905
-0.141863 -0.028245788 0.08729525 0.06957843 -0.060933817 -0.09344244 -0.05336228 0.003312842
-0.07877623 0.032015968 0.022164436 -0.14728466 -0.032149762 -0.015971797 0.026215654 0.036971863
-0.015948972 -0.071297094 -0.016178323 -0.009957237 0.056245454 0.035235226 -0.016066214 0.002324637
-0.038822968 -0.021488 -0.10742058 -0.004507117 0.05217673 -0.04956934 -0.03637694 -0.119279526
-0.026599284 -0.026174705 0.029492145 -0.000719581 -0.2149595 0.07907975 -0.021323254 -0.07419394
0.08369475 -0.05154486 -0.013580564 0.048717894 0.00856695 -0.024396153 -0.021741843 0.032421745
0.01979177 -0.02501353 0.044663098 -0.02174257 -0.13435614 -0.24384834 0.09574169 -0.07387518
0.016254926 -0.029579373 -0.04101628 0.063299246 0.001663311 0.10256449 0.14955042 -0.015129924
0.055339303 -0.06822584 -0.042009264 0.017768202 -0.020771433 0.0039054612 0.061574 -0.106324665
00000000: 0f1d 9bbb 622b 5dbd 91f8 02bd eb6a 18bd
00000010: 3784 883d f50f 2dbe 06be b73c 9249 293d
00000020: c6ca 04bd ef88 cb3b 95c5 963d fdec e43c
00000030: 87f4 16bc 017c 9f3d ac3b 023d 1c9b a6bc
00000040: 4b97 9b3c d9f4 79bc 83f8 d53c 9d33 933d
00000050: 8bd5 5f3d 1e60 8abd ea43 953c b012 f2bc
00000060: eff3 473d af24 c43c b891 80bd 5eaa ab3d
00000070: afca ef3c 55e5 38be cf1e ecbb bf8a 9dbc
00000080: 2b1e 3e3d 353c 193d c04d 223d 4e49 13bc
00000090: fbe0 b53d 89b1 c53c 7a19 87bd 35fa 8fbd
000000a0: d3ad 1a3d 149c 8e3c 71b6 de3d f03b 993c
000000b0: e438 d7bd 215c 21bd 4137 91bd db3f 2c3d
000000c0: 33a4 2abd ebb6 5bbd 83c8 2a3d 0747 dbbd
000000d0: d6d6 a33b 8c72 c1bd 7f03 85bc e643 c93d
000000e0: 7cdd 7bbb 6d0e 6e3d 8615 a33d 48de 8ebd
000000f0: 8263 103c d141 da3c 353b dd3b b905 57bd
00000100: 72d4 68be d604 bbbd 87b1 42bc 7631 a2bd
00000110: bb78 81bd db13 713d 4f52 cd3c f31c c7bc
00000120: 213a c33a 3d50 13bd 2b80 d3bd 14f0 68bd
00000130: f35a 8b3d 1d16 60bd e20c 92bc a6e7 95bd
00000140: 0ed1 603d b3e1 bcbd af91 8cbc e91e 163d
00000150: d90e 99bb a579 f0bd 7bd4 67bc 26c1 7b3c
00000160: 610a 0bbd 3552 ccbd 9c2a 6abd c566 cd3c
00000170: 0d2b ab3c ed3b 3e3d f25a d93c a5cf df3c
00000180: 1779 033c bec4 e7bb 2dc0 02bb f487 0dbd
00000190: a75f 0f3d e972 003d 89a6 acbd 5b9e a7bd
000001a0: bfa4 8dbd b0a9 1a3c 3cc7 d9bc 9223 5abd
000001b0: 004f e1ba 9d01 8f3c 89eb 373b ad00 af3c
000001c0: 58ac cdbd 1b36 2dbe c8e4 63bd 8d55 7fbd
000001d0: f0c4 b6bc 54f1 b93d 6432 09ba 999a 55bc
000001e0: 838e 6cbc d279 c73c 077f 3bbc 4a65 f0bc
000001f0: 3a4b 2c3c acd2 443d e7ef 8abd af78 c9bd
00000200: 3175 853d 9863 b2bb 77af 583d 7adb 343b
00000210: 83d9 8d3d eabf 34bc 6151 b63c d82f adbc
00000220: c00c d3bd 2b82 ab3c 3214 72bd 0fb2 c93d
00000230: 9eda 8fbd 83cb 28be 6ace 4c3b 135f 623d
00000240: b5e4 13bd ac01 f03a f235 79bd ea33 003c
00000250: 0ad3 553d 250a f3bb 1c11 c9bd 8cc5 9ebd
00000260: afde f63c 28a1 8c3d 2a94 97bd 09f1 9f3d
00000270: 4d21 f6bd 7524 573d 79ed 46bc 810b 65bc
00000280: beae c5bd 2adc 83bd 9952 1d3c 69fd 713c
00000290: 6ab1 503d 3a40 0abe 0696 ecbc 6b89 f7bd
000002a0: be20 8f3a 05bf 09bd 17fa fdbd 51e2 97bd
000002b0: c7ba 6f3d c1a5 b83d 1c3a ec3c 9077 893d
000002c0: 2d81 4d3d 8bd4 a63c d54f f9bd ec78 e8bd
000002d0: 4b3f 2fbd 8b25 83bd aa19 d6bc 5234 e53c
000002e0: 8944 11be b663 e7bc dac7 b23d 237f 8e3d
000002f0: bd95 79bd c05e bfbd 6892 5abd 441c 593b
00000300: 6f55 a1bd 2d23 033d 3192 b53c cad1 16be
00000310: 78af 03bd 49d7 82bc 36c2 d63c cf6f 173d
00000320: 6ba7 82bc 3604 92bd 6788 84bc ae23 23bc
00000330: a261 663d d052 103d 4b9d 83bc f058 183b
00000340: d504 1fbd 9a07 b0bc 52ff dbbd 70b0 93bb
00000350: 44b7 553d 3809 4bbd fcff 14bd d348 f4bd
00000360: bee6 d9bc 566c d6bc 8399 f13c 43a2 3cba
00000370: 581e 5cbe 90f4 a13d 1bae aebc fef2 97bd
00000380: 2768 ab3d b420 53bd 0481 5ebc 6a8c 473d
00000390: 655c 0c3c 71da c7bc f31b b2bc aacc 043d
000003a0: 5a22 a23c 2de9 ccbc a7f0 363d 791d b2bc
000003b0: a894 09be 61b3 79be 3814 c43d df4b 97bd
000003c0: 0d29 853c 7150 f2bc b000 28bd 09a3 813d
000003d0: 7503 da3a 550d d23d bf23 193e 80e3 77bc
000003e0: 77ab 623d fdb9 8bbd e811 2cbd 9f8e 913c
000003f0: da28 aabc c4f2 7f3b 0535 7c3d bfc0 d9bd

fc2.bias f4 [256]
-0.022803953 -0.043409083 0.019600552 0.048008207 0.057248387 -0.024929008 0.068619244 0.052849267
-0.06571093 -0.052787997 0.019632822 0.019392531 0.021677958 0.033673324 -0.006164471 -0.02198884
0.10006376 -0.0027167497 -0.014049244 -0.016158784 -0.026464581 -0.026432145 0.007829049 -0.048153747
0.04459643 0.0691582 -0.0070838677 0.07353865 0.046229064 0.06653653 -0.021372993 0.07746544
0.02697293 0.012184547 0.0074510984 0.08242978 0.004290898 -0.0136854015 -0.013860071 0.024083585
-0.09103506 -0.057581343 -0.085918956 0.01728767 -0.069497444 0.057378177 -0.005562724 -0.0146362325
-0.0043605985 0.0005105233 -0.01511854 0.015243658 -0.011051707 0.03625605 0.0026163175 0.06969715
-0.03249916 0.027875502 0.03503761 -0.014886505 0.063875414 0.041213825 0.0021516576 -0.045325648
5.5656223e-05 0.03942056 0.07411944 -0.054680858 0.012288796 0.025210576 -0.05230646 -0.034358885
-0.016318634 0.028614903 0.0654594 -0.016934372 -0.024217326 0.054246783 -0.022665812 0.03840827
0.0024847663 -0.007397908 0.0011161995 0.026047932 -0.06687554 0.026185645 0.028971313 0.10559442
0.007612215 0.043322474 0.059966758 -0.039742474 0.021106679 -0.04713996 0.011309694 0.051392242
-0.06473534 0.0058462447 0.003095152 0.033618286 0.060531806 -0.06172697 -0.048126027 -0.052663963
-0.03095916 0.06675871 0.05365056 -0.023014322 0.020903077 -0.014973073 0.0028326544 -0.008562531
-0.0150029035 -0.0042101773 -0.028824179 -0.013582314 -0.040111266 0.044266474 0.11642315 0.02382778
0.022425504 -0.062456865 -0.0026366753 0.047992826 -0.038063377 -0.006149618 -0.020823497 0.043091718
-0.042580258 -0.028361216 0.04906782 -0.017032577 -0.030660998 -0.044794735 0.016065301 -0.017295228
-0.019666955 0.029783944 -0.031547073 -0.06614741 0.055604458 -0.0003305951 -0.08207992 -0.05772891
-0.027161688 0.08922576 0.034703404 0.022445792 -0.061869044 -0.07601383 -0.05741132 -0.05199959
0.0038939086 -0.054895982 0.034745917 -0.030973831 -0.008885594 0.016492805 -0.009269429 -0.053455308
-0.001533347 -0.007494438 -0.058469053 0.005445844 0.02797197 0.0010752274 -0.013643291 -0.06616284
-0.070286185 -0.0037564863 -0.009311359 -0.0033943998 -0.009199878 -0.012824207 -0.057082977 -0.013529681
-0.01236877 -0.008443586 0.08147907 -0.026378563 0.048549235 0.048267893 0.035335567 -0.08216413
-0.010452078 0.059502646 -0.025560416 0.010998823 0.061468087 0.020410398 -0.032562383 0.10956318
0.019903734 -0.026485113 0.062719546 0.01799368 -0.012104215 0.027092915 -0.015153419 0.021598058
0.037927732 -0.033478267 0.02431172 0.012261615 -0.00019805535 0.038514595 0.022439871 0.043371502
-0.035005957 -0.018601168 0.068364136 0.006604725 -0.00688374 0.04114957 -0.057417337 0.012588742
-0.023634264 0.020462181 -0.059669707 0.02071077 0.06009044 0.09129337 0.09226611 -0.032264385
-0.034636468 -0.01461976 -0.01180184 0.0704223 -0.00021803215 -0.050884392 0.029463053 -0.050238114
-0.012569429 0.038122702 -0.06270508 -0.05021475 -0.01657722 -0.07259626 0.033321258 0.007728998
0.029705111 0.047969196 -0.08244438 0.0028390689 -0.026624857 -0.043736048 0.013324358 0.031749327
-0.07380232 -0.06989341 -0.048310425 -0.08936553 0.0015858444 0.06414685 -0.02911827 -0.008097106
00000000: 5bcf babc b9cd 31bd 5691 a03c 41a4 443d
00000010: 497d 6a3d eb37 ccbc 3f88 8c3d 7978 583d
00000020: 7493 86bd 3a38 58bd 03d5 a03c 16dd 9e3c
00000030: f995 b13c 0aed 093d 55ff c9bb f121 b4bc
00000040: 3bee cc3d 7f0b 32bb cd2e 66bc 6d5f 84bc
00000050: 40cc d8bc 3a88 d8bc 6945 003c dd3c 45bd
00000060: bfaa 363d d0a2 8d3d ca1f e8bb 6f9b 963d
00000070: b05a 3d3d 4e44 883d 6a16 afbc 33a6 9e3d
00000080: 56f6 dc3c b2a1 473c 5828 f43b f2d0 a83d
00000090: a99a 8c3b bc38 60bc 5a15 63bc f04a c53c
000000a0: 9770 babd 6ada 6bbd 47f6 afbd df9e 8d3c
000000b0: ad54 8ebd 6105 6b3d 8347 b6bb cfcc 6fbc
000000c0: 5ae3 8ebb a4d4 053a c1b3 77bc 89c0 793c
000000d0: 3812 35bc 3981 143d 8676 2b3b 61bd 8e3d
000000e0: d71d 05bd 2a5b e43c 9983 0f3d 87e6 73bc
000000f0: 1dd1 823d d4cf 283d d302 0d3b 63a7 39bd
00000100: 6a70 6938 7477 213d efcb 973d 09f9 5fbd
00000110: f256 493c 6986 ce3c 4c3f 56bd e7bb 0cbd
00000120: a8ae 85bc cd69 ea3c 940f 863d f4b9 8abc
00000130: 6a63 c6bc e031 5e3d a7ad b9bc fd51 1d3d
00000140: 76d7 223b 266a f2bb 714d 923a 7962 d53c
00000150: 0bf6 88bd 4783 d63c 3f55 ed3c e341 d83d
00000160: e36f f93b e872 313d b49f 753d 01c9 22bd
00000170: eae7 ac3c d515 41bd 4b4c 393c ac80 523d
00000180: f693 84bd db91 bf3b 09d8 4a3b 54b3 093d
00000190: 33f0 773d 6bd5 7cbd cc1f 45bd 2bb6 57bd
000001a0: 109e fdbc cab8 883d b1c0 5b3d 8888 bcbc
000001b0: ee3c ab3c 9f51 75bc 0ea4 393b dc49 0cbc
000001c0: bdce 75bc 87f5 89bb af20 ecbc 5b88 5ebc
000001d0: b64b 24bd c350 353d 436f ee3d 7a32 c33c
000001e0: b1b5 b73c c5d2 7fbd 12cc 2cbb 2094 443d
000001f0: 58e8 1bbd bc82 c9bb 0a96 aabc f180 303d
00000200: a368 2ebd c855 e8bc 57fb 483d e787 8bbc
00000210: c62c fbbc af7a 37bd 619b 833c b9ae 8dbc
00000220: 981c a1bc 75fd f33c 8137 01bd 4b78 87bd
00000230: 80c1 633d b953 adb9 8419 a8bd 2675 6cbd
00000240: 3082 debc ffbb b63d 2825 0e3d 3de0 b73c
00000250: 656a 7dbd 24ad 9bbd 2228 6bbd 86fd 54bd
00000260: f230 7f3b 9cda 60bd bc51 0e3d d5bc fdbc
00000270: e294 11bc eb1b 873c cede 17bc f4f3 5abd
00000280: 96fa c8ba e793 f5bb 3f7d 6fbd 0d73 b23b
00000290: 7925 e53c a5ee 8c3a 1c88 5fbc 6280 87bd
000002a0: 34f2 8fbd 622f 76bb ac8e 18bc 9474 5ebb
000002b0: 16bb 16bc 9f1c 52bc d7cf 69bd 98ab 5dbc
000002c0: 62a6 4abc f756 0abc 80de a63d db17 d8bc
000002d0: 90db 463d 8eb4 453d 07bc 103d ab45 a8bd
000002e0: 313f 2bbc 0cb9 733d 1464 d1bc 6834 343c
000002f0: f6c5 7b3d b533 a73c 2260 05bd a962 e03d
00000300: 280d a33c 4ff7 d8bc 1b73 803d 7b67 933c
00000310: c250 46bc f6f1 dd3c 0c46 78bc 69ee b03c
00000320: 1c5a 1b3d 8220 09bd 5f29 c73c f1e4 483c
00000330: 14ad 4fb9 7bc1 1d3d d2d3 b73c 51a6 313d
00000340: 6862 0fbd 7a61 98bc 7f02 8c3d 736c d83b
00000350: ff90 e1bb 748c 283d 712e 6bbd 0341 4e3c
00000360: a59c c1bc 4ea0 a73c 3968 74bd a2a9 a93c
00000370: 6521 763d 05f8 ba3d 04f6 bc3d a927 04bd
00000380: f8de 0dbd b887 6fbc 815c 41bc 9139 903d
00000390: 8f9f 64b9 276c 50bd 805c f13c 7bc6 4dbd
000003a0: 02f0 4dbc 8d26 1c3d 856b 80bd fbad 4dbd
000003b0: f3cc 87bc 59ad 94bd df7b 083d 8943 fd3b
000003c0: 2258 f33c 597b 443d 99d8 a8bd ac0f 3a3b
000003d0: 5f1c dabc 9224 33bd 684e 5a3c 950b 023d
000003e0: ac25 97bd 4724 8fbd 27e1 45bd 4605 b7bd
000003f0: 1cdc cf3a 6c5f 833d 7089 eebc b9a9 04bc

fc3.weight f4 [1, 256]
0.03165942 -0.026464745 0.054244965 -0.032982413 0.019862004 0.03856392 0.016672824 0.049026523
-0.036064472 -0.025978638 -0.02344183 0.02158669 0.047793377 -0.017420813 0.017732149 0.01352018
0.065078974 -0.016329683 -0.015892358 -0.034178965 0.016578939 -0.021962237 -0.02925384 0.043481436
-0.013922424 0.019654281 0.025403293 0.026127664 0.025580514 0.046995282 -0.01965748 0.05437472
-0.020193279 -0.2382644 -0.08827279 0.06724203 -0.08224212 -0.022880673 0.021321194 0.028605722
-0.047221582 -0.029527375 -0.020563306 0.058113255 -0.033987008 0.055527486 -0.014564099 -0.033337492
-0.02569106 0.02349645 -0.012137816 -0.032372337 0.10289413 -0.06561648 0.019972766 0.027477985
0.11285173 -0.05147419 -0.03373111 -0.08832248 -0.12223088 -0.021666711 -0.048360348 -0.020693166
0.038469974 0.08267601 0.020158501 -0.1142803 0.01599513 -0.022691065 -0.082706794 -0.026624331
0.030717997 -0.020326443 -0.028449249 -0.14728042 0.013972017 -0.021296086 0.01975503 -0.21037966
0.033155493 0.016869744 -0.016121993 0.18904606 -0.015790895 -0.044152047 0.07038804 0.1520794
-0.01566518 -0.033989064 0.034248725 0.057670284 -0.012335837 -0.09403671 -0.16986671 0.020702545
0.11293555 -0.031110022 -0.060812864 0.020852653 0.016147153 0.10303999 -0.017965175 -0.049423974
-0.032996275 0.020955253 0.059994593 -0.10488688 0.03178792 -0.024654536 -0.016260406 -0.011363865
-0.029199455 0.047068525 -0.024093162 -0.017506529 -0.026174316 0.06090236 0.05377626 -0.023972157
-0.011305816 -0.03385923 -0.031195534 0.021815192 0.028286975 -0.042553913 -0.12661006 -0.010569169
-0.01406424 -0.02276835 0.03821529 -0.027554337 0.018305164 -0.020003635 -0.016925925 0.058918905
-0.01794316 -0.013065128 -0.024453517 -0.033587325 0.08864175 0.1368041 -0.018278059 -0.046610534
0.022442924 0.02007269 0.021697989 -0.13276713 -0.028304314 0.0672358 0.038175117 -0.015431252
-0.078382075 -0.11002191 -0.011815468 -0.022128366 -0.012430207 0.030016288 -0.015833791 -0.05542236
-0.010160038 -0.017624138 -0.024599409 0.09073647 0.016007375 0.053086452 -0.06268231 -0.018336229
-0.03472418 0.021959506 -0.021513158 0.043472353 -0.030517986 0.022084126 -0.033427246 -0.022663143
-0.015890028 -0.014073811 0.03702047 -0.027944453 0.024325058 0.026408507 0.16693345 -0.021629825
0.018109102 0.017365338 -0.035704803 0.029198483 0.02964675 0.033434384 -0.022237558 0.054294154
-0.029678024 -0.012665058 -0.044886597 0.023293005 0.021409525 -0.02212864 -0.01731389 -0.028749472
-0.010057212 -0.02634332 0.018053142 0.011009996 -0.012434632 0.09066571 0.01687616 0.041069523
-0.021317791 -0.100260854 0.02956068 0.026266808 0.07449968 0.059439406 -0.06428359 -0.04435684
-0.1054288 0.02954335 -0.06923648 -0.012238372 0.016745605 0.07295557 0.02253442 0.026512096
-0.052772194 -0.020333143 0.024170958 0.031105692 0.028341291 0.028691122 0.017718088 0.032908652
0.01764187 -0.01578245 -0.036683794 -0.016590482 -0.04995704 -0.035484195 -0.04190619 0.030194897
-0.019460017 0.122177765 -0.086679205 -0.017011309 -0.015327516 -0.022547586 0.012176827 -0.015046724
0.055277172 -0.05306388 -0.07602002 -0.03736399 -0.017658604 0.02634715 0.024102919 -0.032860857
00000000: 4fad 013d 98cc d8bc f82f 5e3d 9118 07bd
00000010: a4b5 a23c 33f5 1d3d 7295 883c 09d0 483d
00000020: 57b8 13bd 27d1 d4bc 1509 c0bc 92d6 b03c
00000030: fdc2 433d 18b6 8ebc 0343 913c bf83 5d3c
00000040: 2048 853d d4c5 85bc b130 82bc 3eff 0bbd
00000050: 8ed0 873c 26ea b3bc c0a5 efbc 9719 323d
00000060: e11a 64bc 0402 a13c 911a d03c af09 d63c
00000070: 3a8e d13c 207e 403d b908 a1bc 07b8 5e3d
00000080: 606c a5bc 95fb 73be 5dc8 b4bd 30b6 893d
00000090: 8e6e a8bd 4070 bbbc c9a9 ae3c 8c56 ea3c
000000a0: 6b6b 41bd 65e3 f1bc 6174 a8bc 2a08 6e3d
000000b0: f635 0bbd ca70 633d 429e 6ebc e58c 08bd
000000c0: 0f76 d2bc a17b c03c b1dd 46bc db98 04bd
000000d0: 28ba d23d ef61 86bd ed9d a33c 8319 e13c
000000e0: cf1e e73d 9ad6 52bd a229 0abd 6be2 b4bd
000000f0: 2f54 fabd 637e b1bc 8015 46bd b784 a9bc
00000100: b192 1d3d 0a52 a93d 7123 a53c ca0b eabd
00000110: 3808 833c 9de2 b9bc 2e62 a9bd 451b dabc
00000120: 4fa4 fb3c a483 a6bc 660e e9bc aed0 16be
00000130: e3ea 643c 2175 aebc 4dd5 a13c c46d 57be
00000140: 0ece 073d 6b32 8a3c 4512 84bc 4a95 413e
00000150: e85b 81bc c7d8 34bd 9b27 903d b4ba 1b3e
00000160: 4354 80bc 1e38 0bbd 6448 0c3d ad37 6c3d
00000170: 401c 4abc 5296 c0bd 8af1 2dbe 6298 a93c
00000180: c14a e73d 72da febc e916 79bd 2fd3 aa3c
00000190: 0947 843c a106 d33d b42b 93bc cb70 4abd
000001a0: 1a27 07bd 5aaa ab3c e4bc 753d efce d6bd
000001b0: 0d34 023d 4ff8 c9bc 8b34 85bc 812f 3abc
000001c0: b233 efbc edca 403d 065f c5bc da69 8fbc
000001d0: 856b d6bc c174 793d 7f44 5c3d 4261 c4bc
000001e0: 073c 39bc faaf 0abd c78d ffbc c6b5 b23c
000001f0: 16ba e73c 034d 2ebd 11a6 01be 4f2a 2dbc
00000200: b36d 66bc b184 babc a387 1c3d a2b9 e1bc
00000210: b6f4 953c aade a3bc 3da8 8abc f354 713d
00000220: 89fd 92bc 1e0f 56bc be52 c8bc dd92 09bd
00000230: ce89 b53d 6016 0c3e debb 95bc b0ea 3ebd
00000240: 39da b73c 7b6f a43c fbbf b13c 1bf4 07be
00000250: 73de e7bc ecb2 893d 835d 1c3d 5dd3 7cbc
00000260: c886 a0bd 2b53 e1bd aa95 41bc 8c46 b5bc
00000270: 11a8 4bbc b8e4 f53c deb5 81bc 8e02 63bd
00000280: 4a76 26bc 7f60 90bc b384 c9bc 0bd4 b93d
00000290: e621 833c 2e71 593d 955f 80bd dc35 96bc
000002a0: f13a 0ebd 6ce4 b33c 5d3c b0bc 1110 323d
000002b0: db00 fabc c5e9 b43c 02eb 08bd 0ea8 b9bc
000002c0: ce2b 82bc d795 66bc c7a2 173d c4eb e4bc
000002d0: 5845 c73c a756 d83c 9af0 2a3e 0831 b1bc
000002e0: 8a59 943c c141 8e3c 333f 12bd a831 ef3c
000002f0: bedd f23c 7ef2 083d 8a2b b6bc 8c63 5e3d
00000300: 541f f3bc 1a81 4fbc 02db 37bd f9d0 be3c
00000310: 0763 af3c 1f47 b5bc dcd5 8dbc 0384 ebbc
00000320: 01c7 24bc f2cd d7bc 2fe4 933c 4563 343c
00000330: a0ba 4bbc f2ae b93d df3f 8a3c 8438 283d
00000340: a6a2 aebc 9055 cdbd 3d29 f23c 7d2d d73c
00000350: 4a93 983d bc76 733d 1da7 83bd 85af 35bd
00000360: 0eeb d7bd e504 f23c dbcb 8dbd 7483 48bc
00000370: 142e 893c bb69 953d 1b9a b83c e52f d93c
00000380: a827 58bd b191 a6bc 2c02 c63c 5dd1 fe3c
00000390: ff2b e83c a509 eb3c 8625 913c 39cb 063d
000003a0: af85 903c 324a 81bc bf41 16bd c3e8 87bc
000003b0: c19f 4cbd e057 11bd d3a5 2bbd 4a5b f73c
000003c0: 9d6a 9fbc 5638 fa3d de84 b1bd 4d5b 8bbc
000003d0: 4320 7bbc b7b5 b8bc 5081 473c 8986 76bc
000003e0: 516a 623d 8359 59bd 62b0 9bbd fc0a 19bd
000003f0: c7a8 90bc fad5 d73c 7c73 c53c 1b99 06bd
