checkpoints/checkpoint_critic_ddqn_15.pth (torch_old, 304178 bytes, 5 tensors)

fcs1.weight f4 [256, 33]
0	0x3bf368fa	0.0074282857
1	0x3e127f40	0.14306355
2	0x3d2e3cda	0.0425385
3	0xbe058f74	-0.13043004
4	0xbd21f5ce	-0.03954106
5	0xbd242a8d	-0.040079642
6	0x3e15a55f	0.14613865
7	0xbd37074e	-0.0446847
8	0xbb6231b4	-0.0034514489
9	0xbc9bf6cc	-0.01903858
10	0x3c71374d	0.014722657
11	0x3da9ce1d	0.08291266
12	0xbc891d29	-0.016737537
13	0x3c492076	0.012275806
14	0xbd80f341	-0.06296397
15	0xbc9b0286	-0.018922102
16	0x3d2bef14	0.04197605
17	0xbd15d553	-0.036580395
18	0x3dadce0d	0.08486567
19	0xbd837645	-0.064190425
20	0x3a009a0f	0.0004905769
21	0x3cd804a7	0.026369406
22	0xbbb9d024	-0.0056705642
23	0xbc2b42b4	-0.010452915
24	0x3caadd83	0.020857578
25	0x3d80d55c	0.06290695
26	0xbd0c0f5a	-0.034194328
27	0x3dd3a18f	0.10333549
28	0x3cf8edb7	0.030386789
29	0x3d5143e8	0.05109015
30	0xbdd64a67	-0.1046341
31	0x3ca61744	0.020274766
32	0xbe0304b5	-0.12794764
33	0xbbc044a1	-0.005867556
34	0xbb78ae2a	-0.0037945607
35	0xbcf95b88	-0.030439153
36	0x3d0b4cb8	0.03400871
37	0xbd840c84	-0.064477
38	0xbb092a34	-0.0020929696
39	0x3c9b10ba	0.018928874
40	0x3b8dd964	0.0043288935
41	0xbdc06b07	-0.09395414
42	0xbdb3a406	-0.08771519
43	0x3d1b0f07	0.037856128
44	0x3bd75fec	0.006572714
45	0xbb4dfc38	-0.0031430852
46	0x3db2b963	0.08726766
47	0xbc6b94c5	-0.014378731
48	0x3b04bee8	0.002025539
49	0xbc81f10f	-0.015862016
50	0xbc99b227	-0.018761707
51	0x3d447ab6	0.04796859
52	0xbc774e72	-0.015094386
53	0xba8cf9c0	-0.0010755584
54	0xba512033	-0.00079775153
55	0xbc09b32f	-0.008404537
56	0x3b03b1e4	0.0020095045
57	0xbbba11a2	-0.0056783715
58	0xbcbfbcf4	-0.02340553
59	0xbda9125d	-0.08255456
60	0x3d8c7587	0.06858354
61	0xbd30e6b3	-0.043188762
62	0x3c3b8dc8	0.0114473775
63	0x3b0ca9d5	0.0021463532
64	0x3d0aed4c	0.03391771
65	0x3e8d40f7	0.27588627
66	0x3c54668c	0.012963902
67	0xbc9451a8	-0.018105343
68	0xbc4e2c47	-0.012583799
69	0xbccf792f	-0.02532634
70	0x3c8b4dcf	0.017004875
71	0x3d11d804	0.0356064
72	0x3cb26ee5	0.021781394
73	0x3bf89536	0.0075861467
74	0x3d8144dd	0.06311963
75	0x3d432adf	0.047648307
76	0x3bdc3c62	0.0067210654
77	0xbb0834f1	-0.0020783509
78	0x3c82f2ca	0.015984911
79	0x3cea9ab5	0.028638223
80	0x3d07a3cb	0.03311519
81	0xbb2ea277	-0.002664713
82	0xbc865e77	-0.016402466
83	0x3c29ff0c	0.010375749
84	0xbd100dec	-0.035169527
85	0x3d4eee67	0.050520327
86	0x3c8d3d22	0.017241064
87	0xbc2185fe	-0.009858606
88	0x3a947dc8	0.001132899
89	0x3b710173	0.0036774545
90	0xbc034775	-0.008012642
91	0xbc816c34	-0.015798666
92	0xbc1f3062	-0.009716125
93	0x3d159445	0.036518354
94	0xbcc89fa6	-0.024490189
95	0x3d5b9f86	0.05361893
96	0xbc8acba6	-0.01694281
97	0x3c977fd4	0.01849357
98	0xbc0b49a1	-0.008501441
99	0xbcc5a3ba	-0.024125922
100	0x3dae24db	0.085031234
101	0x3daff50c	0.08591661
102	0x3c5a99ca	0.01334233
103	0x3ba4d8d8	0.0050307326
104	0x3c87ca78	0.016576037
105	0x3d2bb524	0.041920796
106	0x3d495cd7	0.049160805
107	0xbccbb869	-0.024868207
108	0x3d2a00d5	0.0415047
109	0xbc97ca9a	-0.018529225
110	0x3b51f568	0.0032037143
111	0xbc0d8d19	-0.008639597
112	0x3db345cb	0.08753546
113	0xbd9f5731	-0.07780302
114	0xbdd7d29c	-0.105382174
115	0x3ce7ce8c	0.028296731
116	0xbac69c85	-0.0015152848
117	0xbd13bf7f	-0.036071297
118	0x3c41dfc7	0.011833138
119	0xbc18c6e2	-0.009324761
120	0xbd0d8e2c	-0.034559414
121	0x3bafac62	0.005361126
122	0x3caf2f88	0.02138497
123	0xbca540c4	-0.020172484
124	0xbcd14080	-0.025543451
125	0xbd92a9e1	-0.07161308
126	0x3d5ae39b	0.053439718
127	0x3d74b0ed	0.059739042
128	0xbc783cd0	-0.015151218
129	0xbcbca02b	-0.023025593
130	0xbcb6ef84	-0.022331007
131	0x3ec302ef	0.38088176
132	0xbcc7a4a9	-0.024370508
133	0x3e2d95bd	0.16951652
134	0xbd01270d	-0.031531382
135	0xbd826253	-0.0636641
136	0x3b99a105	0.0046883845
137	0xbc32958f	-0.010899915
138	0x3dce4f6a	0.10073741
139	0xbd2362c6	-0.03988912
140	0x3dfe6f09	0.12423522
141	0xbd7a07f2	-0.061042733
142	0x3d179024	0.037002698
143	0x3dca855a	0.09888716
144	0xbb681c2d	-0.0035417185
145	0x3c9aee31	0.018912407
146	0x3d8ceed3	0.068814896
147	0x3c3cb4e3	0.011517736
148	0x3cc7a485	0.024370441
149	0xbdbc862c	-0.09205279
150	0x3e174211	0.14771296
151	0x3dc5468d	0.09632597
152	0x3d0b0930	0.03394431
153	0x3ca0d53c	0.019632928
154	0x3c83dc41	0.016096236
155	0xbb3b298e	-0.0028558704
156	0xbbc32d51	-0.00595633
157	0x3af87832	0.001895672
158	0x3cda0146	0.026611935
159	0x3d6d2d63	0.057904612
160	0x3ca48f89	0.020087974
161	0x3d3b5500	0.04573536
162	0xbd3ff513	-0.04686458
163	0xbc2e9920	-0.010656625
164	0xbe7a8d80	-0.2446804
165	0x3c3c3327	0.011486805
166	0xbd6d26b6	-0.057898246
167	0x3d74c22d	0.059755493
168	0x3d1d1eab	0.038359325
169	0xbd8de753	-0.06928887
170	0xbbc30aa3	-0.0059521957
171	0x3be36a01	0.006940127
172	0xbb4f890a	-0.0031667375
173	0xbd056b79	-0.032573197
174	0x3c24e025	0.010063206
175	0x3cd21d57	0.025648756
176	0x3b765b24	0.0037590945
177	0xbb9f0726	-0.004853147
178	0x3d73e928	0.059548527
179	0x3cc2a142	0.023758534
180	0xbd08a9d1	-0.033365075
181	0xbd6957de	-0.056968562
182	0xbcdc08ac	-0.026859604
183	0x3cfe883d	0.031070823
184	0x3cb0c94c	0.02158036
185	0xbc596d99	-0.013270759
186	0xbcb716be	-0.022349712
187	0xbbf52e00	-0.0074822903
188	0x39a97a82	0.00032325467
189	0xbc240d53	-0.010012942
190	0xbbce2ae8	-0.006291736
191	0xbd2b7328	-0.04185787
192	0x3d3e61f0	0.04648012
193	0x3c9a9e3d	0.018874282
194	0x3d344074	0.04400678
195	0x3cf91fef	0.030410735
196	0x3cb1e930	0.021717638
197	0xbce276a5	-0.027644465
198	0xbdda08ec	-0.10646233
199	0x3dc6b1b5	0.09701864
200	0xbdbecf96	-0.093169376
201	0xbb978b90	-0.0046247914
202	0xbccf281e	-0.025287684
203	0x3c4e0db0	0.012576506
204	0x3d4253f5	0.04744335
205	0xbcc9c651	-0.024630697
206	0x3cfb7516	0.03069548
207	0x3c387408	0.011258133
208	0xbd1e827b	-0.038698655
209	0x3c3915d6	0.01129671
210	0xbb29be31	-0.0025900716
211	0x3dfe23dd	0.12409184
212	0xbdea6459	-0.11444921
213	0x3de7a200	0.11310196
214	0xbbcdf3b9	-0.0062851575
215	0x3ac72729	0.0015194166
216	0xbd09aeed	-0.033614088
217	0x3c6d504c	0.014484476
218	0xbc20e2ac	-0.009819668
219	0xbd59c66c	-0.053167745
220	0x3b98abc1	0.0046591465
221	0x3d0655f4	0.032796815
222	0xbd474580	-0.048650265
223	0x3cce537f	0.025186298
224	0xbd93b9bc	-0.072131604
225	0x3ddc9290	0.10770142
226	0xbd6d0e75	-0.057875115
227	0xbd580d9e	-0.05274736
228	0x3ace0e29	0.0015720773
229	0x3c4f65e0	0.012658566
230	0xbdd0ddaa	-0.10198529
231	0xbdb72a98	-0.08943671
232	0x3b4b95c5	0.0031064611
233	0xbd47cdf9	-0.048780415
234	0xbd8ce852	-0.06880249
235	0x3da80f78	0.082060754
236	0x3d3c0322	0.045901425
237	0xbc7599dd	-0.014990297
238	0xbc125fc4	-0.008933965
239	0xbc6abbb0	-0.014326975
240	0x3d058431	0.03259677
241	0x3b31bee4	0.0027121836
242	0xbd48c649	-0.049017224
243	0xbd8e6c3c	-0.06954238
244	0x3d631afc	0.055445656
245	0xbd02f685	-0.03197338
246	0x3cc79ae2	0.024365846
247	0x3c882b2e	0.016622152
248	0x3b520f52	0.0032052589
249	0x3d41fd07	0.047360446
250	0xbd1d4d8d	-0.038404036
251	0xbcb51d20	-0.022108614
252	0xbd3f11e7	-0.046647932
253	0xba5f94c0	-0.00085289404
254	0x3cb82717	0.022479577
255	0x3cc19be3	0.023633903

fcs1.bias f4 [256]
0	0xbd987de1	-0.074458845
1	0xbdf4a5d1	-0.119456895
2	0x3d903338	0.07041019
3	0xbe0c5cd2	-0.13707283
4	0xbc1d3f7a	-0.0095976535
5	0xbd053dfd	-0.03252982
6	0xbe684071	-0.22680832
7	0xbbef6e26	-0.007306832
8	0x3d84f408	0.06491858
9	0x3d9fb022	0.077972665
10	0xbe8806f2	-0.265678
11	0x3de9ecd9	0.11422128
12	0xbd3e1c39	-0.046413634
13	0x3da40b8f	0.08010017
14	0x3da121cd	0.07867775
15	0x3daf863d	0.08570526
16	0x3d416530	0.04721564
17	0xbd90ad73	-0.07064333
18	0xbe074b34	-0.13212281
19	0xbe46c744	-0.19411951
20	0xbd84c62e	-0.06483112
21	0xbde0a5ac	-0.109690994
22	0xbd401e96	-0.04690417
23	0x3db6bd7d	0.08922861
24	0xbe0a9083	-0.1353169
25	0xbd5c28b0	-0.05374974
26	0x3e2f34f8	0.1711005
27	0xbd382598	-0.044957727
28	0xbd4c21c9	-0.049836908
29	0xbe1842ae	-0.14869186
30	0xbe005074	-0.1253069
31	0xbd8ed811	-0.06974805
32	0x3db12287	0.08649164
33	0xbe6a2931	-0.22867276
34	0xbe0102b2	-0.12598684
35	0x3dbec8b4	0.09315625
36	0xbe3ec513	-0.18629865
37	0xbe4425a8	-0.1915499
38	0x3c1cd9f4	0.009573448
39	0x3d54ce2b	0.05195443
40	0xbe3fa56a	-0.18715444
41	0xbcd43159	-0.025902437
42	0x3df79b08	0.12090117
43	0x3e2a00a3	0.16601805
44	0x3ccf7ad0	0.025327116
45	0xbde38dee	-0.11111055
46	0x3d628bbb	0.05530904
47	0xbd75dea9	-0.0600268
48	0x3df2eca9	0.118615456
49	0x3d71d76b	0.05904333
50	0xbe0d6aa5	-0.13810213
51	0x3ddf448d	0.10901747
52	0xbe1a1556	-0.15047202
53	0xbd496c86	-0.04917576
54	0xbdde27b2	-0.10847415
55	0x3da43a3c	0.0801892
56	0xbd97a5f6	-0.074047014
57	0x3d81b3dc	0.063331336
58	0xbe5c0843	-0.21487527
59	0x3d3e5658	0.046469063
60	0xbe04a641	-0.12954046
61	0xbdee4f2a	-0.11636193
62	0xbd287216	-0.041124426
63	0x3c39902b	0.011325876
64	0xbdf6da23	-0.12053325
65	0xbe1f8bbe	-0.15580651
66	0x3dcfda2b	0.10149034
67	0xbcbacffa	-0.02280425
68	0x3d49868b	0.049200576
69	0xbe22ae7d	-0.15886874
70	0x3e189edd	0.14904352
71	0xbe2897be	-0.16464135
72	0xbe739863	-0.237886
73	0x3d92199d	0.071337916
74	0x3d20d5fa	0.039266564
75	0x3d6f4cea	0.05842296
76	0xbe063a84	-0.1310826
77	0xbda820f4	-0.0820941
78	0xbe445b18	-0.19175375
79	0xbcf525c0	-0.029925227
80	0x3de20eb7	0.11037963
81	0xbda4eb09	-0.08052642
82	0xbe2fd1cc	-0.17169875
83	0xbc814c14	-0.015783347
84	0x3da11ec9	0.078672
85	0x3d8ef810	0.06980908
86	0xbe68760b	-0.2270128
87	0xbdd724c0	-0.105050564
88	0xbd40cb00	-0.047068596
89	0x3d637da3	0.05553974
90	0xbdca105a	-0.098664
91	0xbd2fc7ea	-0.042915262
92	0x3cf1f311	0.029534848
93	0x3db1786d	0.086655475
94	0xbda8f804	-0.0825043
95	0xbdc434ec	-0.095804065
96	0xbc93d42a	-0.018045504
97	0xbdf4be7d	-0.11950395
98	0xbdede4cb	-0.116159044
99	0x3dd26ca0	0.10274625
100	0x3c9d7966	0.019222926
101	0x3d3213f1	0.04347605
102	0xbbffa16e	-0.0078012263
103	0x3d67804b	0.056518834
104	0x3d54a360	0.05191362
105	0xbdd2beb5	-0.10290281
106	0xbd8ac297	-0.06775396
107	0xbd7180c5	-0.058960695
108	0xbd0f3d99	-0.034970853
109	0x3cb55954	0.022137322
110	0x3dd4f7c7	0.10398822
111	0xbd60a464	-0.054844275
112	0xbe4e3f8e	-0.20141432
113	0xbe92c019	-0.28662184
114	0x3af6ee8e	0.0018839405
115	0xbd0def1c	-0.03465186
116	0xbd9ba797	-0.076003246
117	0xbd7f8258	-0.062380165
118	0x3c6d6347	0.014489002
119	0xba0fd7f6	-0.0005487198
120	0x3d0c4e16	0.034254156
121	0x3dbecdfb	0.093166314
122	0xbc06c598	-0.008225821
123	0x3d984425	0.074348725
124	0x3dac334c	0.084082216
125	0x3d2ba3d5	0.04190429
126	0xbdf012e1	-0.11722351
127	0xbdcb2472	-0.09919061
128	0xbdc1952f	-0.09452283
129	0xbe4bb5a2	-0.19893506
130	0xbdd64be1	-0.104636915
131	0xbdf85fb7	-0.12127631
132	0x3d9cf42c	0.076637596
133	0xbdca5614	-0.09879699
134	0xbe0f1552	-0.13972977
135	0xbcd0c337	-0.02548371
136	0xbd575484	-0.052570835
137	0xbe2d150a	-0.16902557
138	0xbe0e5033	-0.13897781
139	0xbdcd331c	-0.10019514
140	0xbcdae0b0	-0.026718467
141	0xbd27aaad	-0.040934253
142	0x3ce904f9	0.028444754
143	0xbd97c264	-0.07410124
144	0xbd85c11c	-0.06530973
145	0xbdc5436f	-0.096320026
146	0xbe049878	-0.12948787
147	0x3e109491	0.14119174
148	0x3d28e59c	0.041234598
149	0xbe25b44b	-0.16182058
150	0xbdfc9b1b	-0.123342715
151	0x3d25d2b6	0.040484153
152	0xbc121ce2	-0.008918019
153	0xbd8c3817	-0.06846636
154	0xbcbf8cd7	-0.023382587
155	0x3ced7ea1	0.028991045
156	0xbe1d0939	-0.1533555
157	0x3ce07684	0.027400263
158	0xbdf69054	-0.12039247
159	0xbdcc76d8	-0.09983605
160	0x3c571f51	0.013130025
161	0xbe0b7649	-0.13619341
162	0x3d1a0a68	0.03760758
163	0x3da9a6c5	0.08283762
164	0x3c4840ac	0.01222245
165	0xbdb51965	-0.08842734
166	0xbdaadc02	-0.083427444
167	0xbdb71b48	-0.0894075
168	0xbdc3046f	-0.0952233
169	0xbd032128	-0.032014042
170	0x3d6279f8	0.0552921
171	0x3dd59bf3	0.104301356
172	0xbe0a3496	-0.13496622
173	0xbd45601c	-0.04818736
174	0xbcf50bc7	-0.029912842
175	0xbc5c5ba6	-0.013449585
176	0xbe192b25	-0.14957865
177	0xbde45ada	-0.11150141
178	0xbde0075a	-0.10938902
179	0xbdf4817a	-0.11938758
180	0xbd8c79b4	-0.068591505
181	0x3d3e71db	0.0464953
182	0xbdc3d353	-0.09561791
183	0xbde43487	-0.11142831
184	0xbd6ba439	-0.05752966
185	0x3c1daac1	0.00962323
186	0x3d3b711d	0.04576217
187	0xbdbbc2c7	-0.0916801
188	0xbe0cfba0	-0.13767862
189	0x3dc6d458	0.0970847
190	0xbe1e7dda	-0.15477696
191	0x3d04aaef	0.032389577
192	0x3daf9a4b	0.08574351
193	0xbd422cf7	-0.047406163
194	0xbd5a2775	-0.053260285
195	0xbe301ee6	-0.17199287
196	0x3c70cd74	0.014697421
197	0x3cc63c0f	0.02419856
198	0xbe4fd415	-0.20295747
199	0x3d805613	0.06266417
200	0x3e0f6fd8	0.14007509
201	0x3dfca187	0.123354964
202	0x3c964b14	0.018346347
203	0x3df930f9	0.12167544
204	0x3aac4db0	0.0013145711
205	0xbe2b7900	-0.16745377
206	0xbe590fc4	-0.2119742
207	0xbe4e59f3	-0.201515
208	0x3cba173b	0.022716155
209	0x3d67057b	0.05640171
210	0xbde5079a	-0.111830905
211	0x3c743538	0.014905266
212	0xbdb4af0f	-0.08822452
213	0xbce1df14	-0.027572192
214	0xbe54c2af	-0.20777391
215	0x3cd8c86b	0.026462754
216	0xbda2351c	-0.07920286
217	0xbe034967	-0.1282097
218	0xbbc1f756	-0.0059193773
219	0x3d03b5e6	0.032155894
220	0xbd321f17	-0.04348668
221	0xbe064e17	-0.13115726
222	0x3d2686bb	0.040655833
223	0xbe4528c1	-0.19253828
224	0x3e10d61e	0.14144179
225	0xbe5e4496	-0.21705851
226	0xbdb985cb	-0.09058722
227	0xbe4f4a0a	-0.20243087
228	0xbe0f9058	-0.14019907
229	0x3de06b7d	0.10958002
230	0x3c552787	0.013009912
231	0xbd5dab27	-0.0541183
232	0xbe213c1d	-0.15745588
233	0x3d208072	0.039184995
234	0xbdb8c8cf	-0.09022676
235	0x3b7081ed	0.0036698536
236	0xbca2e0c9	-0.019882577
237	0x3daaa959	0.08333082
238	0xbdf39226	-0.1189311
239	0x3cdc375d	0.026881868
240	0xbe1aa082	-0.15100291
241	0xbe103e8e	-0.14086363
242	0xbd477ae6	-0.04870119
243	0xbd34a914	-0.044106558
244	0x3bfba741	0.0076798503
245	0xbd95e769	-0.073195286
246	0xbd3f7b38	-0.04674837
247	0x3d7a29b9	0.061074946
248	0xbd0f4b1e	-0.034983747
249	0x3d9a4886	0.07533364
250	0xbc9959a4	-0.018719502
251	0xbe0be78d	-0.13662548
252	0xbe165cc9	-0.14683832
253	0x3df6b02f	0.12045323
254	0xbe11e052	-0.14245728
255	0xbe3ad6fc	-0.18246073

fc2.weight f4 [256, 260]
0	0x3cb4f949	0.022091525
1	0x3c639064	0.013889406
2	0x3caabd0e	0.020842101
3	0xbd86a65e	-0.06574701
4	0x3d2dfac8	0.04247549
5	0xbd65da99	-0.056116674
6	0x3dddcf42	0.10830547
7	0xbc044fa5	-0.008075629
8	0xbbf57f46	-0.007491979
9	0x3dae1243	0.08499577
10	0x3e52a979	0.20572461
11	0x3d86731b	0.065649234
12	0xbc13551b	-0.008992459
13	0x3d80c744	0.06288007
14	0x3cecf907	0.02892734
15	0x3d5d2810	0.053993285
16	0x3ab07ecf	0.0013465526
17	0x3d607509	0.054799113
18	0xbceba4a4	-0.02876503
19	0x3bdccc2d	0.006738207
20	0xbcd952b5	-0.026528696
21	0x3d420bdc	0.04737459
22	0xbd0adb92	-0.033900805
23	0xbd8d67de	-0.06904577
24	0x3c427d95	0.011870761
25	0xbe13c538	-0.14430702
26	0xbba8a289	-0.005146329
27	0xbc87771a	-0.016536284
28	0x3d8d5da0	0.06902623
29	0xbd61a85d	-0.055092204
30	0xbcb43eb6	-0.02200256
31	0x3c9208e5	0.017826507
32	0x3d48372c	0.04888074
33	0x3d7da961	0.06192911
34	0x3da0ed34	0.07857743
35	0x3d3dd027	0.046341088
36	0xbcdcf398	-0.026971623
37	0xbae07f03	-0.0017127696
38	0xbe5d6533	-0.21620636
39	0x3d472741	0.04862142
40	0x3d5385fc	0.05164145
41	0x3d802e51	0.06258834
42	0x3ce0c207	0.02743627
43	0xbbd21856	-0.0064115925
44	0x3d3c4451	0.04596359
45	0xbcff1fa1	-0.031143012
46	0xbcc20cd8	-0.023687765
47	0x3ce644bb	0.028108945
48	0xbc08f82c	-0.00835995
49	0xbdc6fe38	-0.09716457
50	0xbcaf52bc	-0.021401756
51	0xbd4fb52a	-0.05070988
52	0xbd87a246	-0.06622748
53	0x3d45358f	0.04814678
54	0xbd7c6f61	-0.061629657
55	0x3d975826	0.0738986
56	0x3d992a8f	0.074788205
57	0x3c0bba5c	0.008528318
58	0xbd24b629	-0.040212784
59	0xbce5cdf4	-0.028052308
60	0xbe938fbb	-0.28820595
61	0xbe094c8d	-0.13408108
62	0x3d777bfc	0.060420975
63	0xbd6bcb07	-0.05756667
64	0xbde0003f	-0.10937547
65	0xbd5c67a4	-0.053809777
66	0x3c0fd983	0.008779886
67	0xbdc516da	-0.09623499
68	0xbc80d75d	-0.015727693
69	0x3caa5d9d	0.020796591
70	0x3d7a0ab8	0.06104538
71	0x3d658a5f	0.056040164
72	0xbe3d1454	-0.18464786
73	0x3cccf70e	0.025020149
74	0xbcb7d5f8	-0.022440895
75	0x3d4b140f	0.049579676
76	0x3dd3b9f2	0.10338201
77	0x3d11345a	0.035450317
78	0x3d065e03	0.0328045
79	0xbc8b439c	-0.017000012
80	0xbd159344	-0.036517397
81	0xbdabb9c1	-0.08385039
82	0x3d6e6fe0	0.05821216
83	0x3bed5c32	0.0072436566
84	0xbd1410fa	-0.036149003
85	0xbd9f7cc7	-0.07787471
86	0x3d8f2821	0.06990076
87	0xbd2f0726	-0.042731427
88	0xbb9653a0	-0.0045876056
89	0x3d953d43	0.07287075
90	0x3da08035	0.078369536
91	0xbd287a0c	-0.041132018
92	0x3cd3738b	0.025811931
93	0x3dbe7aa6	0.09300737
94	0x3dc87dde	0.09789632
95	0x3d25c69b	0.040472608
96	0xbde82f24	-0.11337116
97	0x3d08bf10	0.033385336
98	0x3d1ba702	0.038001068
99	0xbd961047	-0.073273234
100	0xbcaa139e	-0.020761307
101	0xbd730ed8	-0.059340328
102	0xbdcfe1c6	-0.10150485
103	0xbd3bc8d6	-0.04584583
104	0x3d0ef7a5	0.03490414
105	0x3c2c5a3e	0.010519562
106	0xbce568f2	-0.028004143
107	0x3aa2860d	0.0012399569
108	0x3ccd9c15	0.02509884
109	0x3d961106	0.07327466
110	0xbd0c86eb	-0.034308355
111	0x3bef0270	0.0072939917
112	0xbd95eacb	-0.07320174
113	0x3cef29a8	0.029194668
114	0xbe2cb92b	-0.16867511
115	0x3a28ead9	0.00064436864
116	0xbe0efeda	-0.13964406
117	0x3dac82e9	0.08423407
118	0x3d195084	0.0374303
119	0x3d204895	0.03913172
120	0x3d057bd1	0.032588784
121	0x3d8baf88	0.06820589
122	0xbb9a03f3	-0.004700178
123	0xbd57a118	-0.052643865
124	0x3d4e24c9	0.05032805
125	0x3daa81bd	0.08325527
126	0xbd8dd6b4	-0.06925717
127	0xbd9f2cc0	-0.07772207
128	0x3c6d9ffd	0.014503476
129	0xbc69a092	-0.014259474
130	0x3ce61e5f	0.028090654
131	0x3ca733b4	0.020410396
132	0x3ccc2af9	0.024922835
133	0x3d10cec2	0.03535343
134	0xbd585d7a	-0.05282352
135	0x3c9b5c93	0.018965041
136	0x3c41c3eb	0.011826496
137	0xbcd097ba	-0.025462974
138	0xbc8c8e20	-0.017157614
139	0xbcbc6edf	-0.023002086
140	0xbd86ba5e	-0.065785155
141	0xbdb2ea55	-0.087361015
142	0xbd328876	-0.04358717
143	0xbdafe8b7	-0.08589309
144	0xbcffbe32	-0.031218622
145	0xbe28fc63	-0.16502528
146	0xbcb56d49	-0.022146838
147	0xbdd0b364	-0.10190466
148	0xbc7165dd	-0.014733759
149	0x3c07b0b9	0.00828188
150	0xbdae2d14	-0.08504692
151	0xbd47188c	-0.048607394
152	0xbbd5cb03	-0.006524445
153	0x3e41e80c	0.18936175
154	0x3cfbf0a4	0.030754395
155	0xbdb5ad37	-0.08870929
156	0xbe02d78a	-0.12777534
157	0xbc37c1ca	-0.0112156365
158	0x3bf7d9a0	0.0075637847
159	0xbcb0ec5f	-0.021597086
160	0xbcdac958	-0.026707336
161	0x3d4a57b3	0.049400043
162	0xbd93d584	-0.07218459
163	0x3dab8bbd	0.08376262
164	0x3d98db98	0.07463759
165	0x3d20e256	0.03927835
166	0x3ce8bbad	0.028409803
167	0xbc4ec94f	-0.012621238
168	0x3d873cc4	0.06603387
169	0x3d965038	0.07339519
170	0xbe0d8684	-0.13820845
171	0x3c1c287c	0.009531137
172	0x3deae8de	0.11470197
173	0x3e1b305d	0.15155168
174	0x3d2f06c4	0.04273106
175	0xbd474a14	-0.04865463
176	0x3d9ae031	0.07562292
177	0x3d86c467	0.065804295
178	0x3e149d6e	0.1451318
179	0xbd07cd19	-0.03315458
180	0x3cd44177	0.025910122
181	0xbd35e191	-0.04440457
182	0xba521e7b	-0.0008015406
183	0xbbf7671c	-0.0075501334
184	0x3c348520	0.011018068
185	0xbd1a3cd3	-0.037655663
186	0xbca17ee2	-0.019713823
187	0x3cffc0c3	0.031219846
188	0xbd20fda6	-0.039304398
189	0xbd91a926	-0.07112341
190	0xbde701f0	-0.112796664
191	0xbdd330bb	-0.10312029
192	0xbb6352e4	-0.0034686858
193	0xbce275b2	-0.027644012
194	0x3d4e8e3c	0.050428614
195	0x3d58e38f	0.05295139
196	0xbe3bdac9	-0.18345179
197	0xbdd7bec5	-0.10534433
198	0x3d48b3f1	0.04899973
199	0xbc618b2e	-0.013766093
200	0xbd03311d	-0.03202926
201	0x3c23ca4e	0.009996964
202	0xbdb33a3c	-0.08751342
203	0x3d42aa81	0.047525886
204	0x3d2e0c49	0.042492185
205	0x3b1ba1d2	0.0023747575
206	0xbd7d2e51	-0.06181175
207	0xbd882faf	-0.0664972
208	0xbd2f2006	-0.04275515
209	0xbd5f5671	-0.054525796
210	0xbc83fcc8	-0.016111746
211	0xbd8ab5e1	-0.06772972
212	0xbd964b30	-0.0733856
213	0xbce42c73	-0.027853226
214	0x3bf91bac	0.0076021757
215	0xbc828874	-0.015934207
216	0x3ca9be5b	0.020720651
217	0xbcac2aea	-0.021016557
218	0x3d0835ac	0.03325431
219	0x3d5ae23c	0.05343841
220	0x3dd03771	0.101668246
221	0x3c75df66	0.015006876
222	0xbcccfcc6	-0.025022876
223	0xbda75eb2	-0.081723586
224	0x3d538b82	0.051646717
225	0xbd089c36	-0.0333521
226	0xbbcd32c3	-0.006262155
227	0x3d080f0f	0.033217486
228	0x3ca927be	0.020648833
229	0x3cdb2d59	0.026755022
230	0x3ca22a7d	0.01979565
231	0xbd5eee73	-0.05442662
232	0x3c2f3a8b	0.01069511
233	0xbd5351b1	-0.05159158
234	0x3c2cc67d	0.01054537
235	0xbc26cad6	-0.010180196
236	0xbcbce34a	-0.023057599
237	0xbe03e853	-0.12881593
238	0xbda368b4	-0.07978955
239	0xbcc79191	-0.024361404
240	0x3c528fe4	0.012851689
241	0xbcb48dfd	-0.022040362
242	0xbcee1361	-0.029061975
243	0xbdd82cdf	-0.105554335
244	0xbda1da17	-0.079029255
245	0x3c9787d3	0.018497383
246	0xbd94a387	-0.07257753
247	0x39be4906	0.0003629403
248	0x3bc98c04	0.0061507244
249	0xbd8b081d	-0.06788657
250	0xbc050480	-0.008118749
251	0xbdea711f	-0.114473574
252	0xbd54e77a	-0.051978566
253	0x3d0a81f9	0.033815358
254	0x3d3f07d7	0.046638336
255	0xbddc0d8e	-0.10744773

fc2.bias f4 [256]
0	0xbc42cd43	-0.0118897585
1	0xbd66e0db	-0.056366783
2	0x3d39c8f6	0.045357667
3	0x3cf35760	0.02970475
4	0x3d2e9b69	0.04262868
5	0xbcb1c11c	-0.021698527
6	0x3d954f12	0.07290472
7	0xbcd28fcb	-0.025703331
8	0xbe0c9464	-0.13728482
9	0xbd2a843a	-0.041630007
10	0x3c4a9c77	0.012366406
11	0x3afffa05	0.0019529468
12	0x3da3e533	0.08002701
13	0x3ce66870	0.028125972
14	0x3d00e473	0.031467866
15	0x3bb1d0dc	0.0054265093
16	0x3dbc082c	0.09181246
17	0xbcde9d15	-0.027174512
18	0x3d19cd58	0.037549347
19	0xbce8420c	-0.028351806
20	0xbd439b1a	-0.04775534
21	0xbcf0dc0d	-0.029401803
22	0x3c74888f	0.014925136
23	0xbd257448	-0.040394098
24	0x3c7219f6	0.014776697
25	0x3d8b66e2	0.06806733
26	0xbba6a28d	-0.0050852955
27	0x3d348f36	0.04408189
28	0x3d2bb149	0.04191712
29	0x3b8afa17	0.004241239
30	0xbb8eae62	-0.004354284
31	0x3d9daa13	0.07698455
32	0x3d5184a4	0.051151887
33	0x3c1b3f52	0.009475546
34	0x3cb8620c	0.02250769
35	0x3da17293	0.078831814
36	0x3b94ff71	0.0045470526
37	0x3b9926aa	0.0046737986
38	0xbcaadb70	-0.02085659
39	0xbd3dccce	-0.046337895
40	0xbd82aafb	-0.06380268
41	0xbd631937	-0.05544397
42	0xbd88bac4	-0.06676248
43	0x3c3020df	0.010750025
44	0xbd882dbe	-0.0664935
45	0x3cdda823	0.027057713
46	0x3bb21e89	0.005435769
47	0x3c240705	0.010011439
48	0x3d26bd6e	0.040707998
49	0xbc739397	-0.014866731
50	0x3b1ecadb	0.0024229798
51	0x3d9cb8cc	0.07652435
52	0xbc3ac07a	-0.011398429
53	0x3d409d5c	0.04702507
54	0x3d314fe6	0.043289088
55	0x3dbaf775	0.0912923
56	0xbc4e0f42	-0.01257688
57	0x3d07b615	0.03313263
58	0x3d22e04f	0.0397647
59	0x3bf96d75	0.0076119252
60	0x3d49118c	0.049089
61	0x3d2ffd50	0.042966187
62	0x3d357826	0.044304036
63	0xbd5b7022	-0.053573735
64	0x3ceba932	0.028767202
65	0x3bedff95	0.007263134
66	0x3d8b915a	0.06814833
67	0xbd14b2cc	-0.036303326
68	0x3c78f678	0.0151954815
69	0x3d860049	0.06543023
70	0xbd9ed5fc	-0.07755658
71	0xbc8538a6	-0.016262364
72	0xbc320d43	-0.01086742
73	0x3cf61daa	0.030043442
74	0x3d1c627e	0.038179867
75	0xbc530e18	-0.012881778
76	0xbdbf3a13	-0.09337249
77	0x3d1816ab	0.037130993
78	0xbca6175a	-0.020274807
79	0x3c8bac8c	0.01705005
80	0xbb8f7ee8	-0.004379142
81	0xbd46e470	-0.0485577
82	0xbc9abcfb	-0.018888941
83	0xbd2b6519	-0.04184446
84	0xbd6d922d	-0.058000732
85	0x3d1f7ea8	0.03893915
86	0xbbad39d0	-0.005286433
87	0x3da47d3b	0.08031698
88	0xbcf3c28c	-0.029755853
89	0x3d4b7273	0.049669694
90	0x3d2454a5	0.040119786
91	0x3c11fe67	0.008910752
92	0xbc2df563	-0.010617587
93	0xbd8da76c	-0.06916699
94	0xbb85ff05	-0.0040892386
95	0x3d5e52ee	0.054278307
96	0xbd965fe9	-0.07342512
97	0x3bc1f6f1	0.0059193303
98	0x3c732559	0.014840447
99	0x3cf5afc9	0.029991047
100	0x3d3650d4	0.044510677
101	0xbdb0f91c	-0.08641264
102	0xbce7054a	-0.028200764
103	0xbd8dd482	-0.06925298
104	0xbc8a8fd3	-0.016914284
105	0x3d4cf857	0.050041523
106	0x3d585153	0.05281193
107	0x3cdb84fa	0.026796807
108	0xbcb874aa	-0.022516567
109	0xbcbc7bd9	-0.023008274
110	0x3bb4a8c9	0.005513285
111	0xbb824c50	-0.0039763823
112	0xbcd78890	-0.026310235
113	0x3bdf7bd4	0.0068201814
114	0xbc75000a	-0.014953623
115	0xbced1297	-0.028939528
116	0xbcf07da1	-0.02935678
117	0x3d1e6631	0.038671676
118	0x3dfce1d6	0.12347762
119	0x3d17e8d5	0.03708728
120	0x3c5cda6c	0.01347981
121	0xbda020e9	-0.07818777
122	0xbc8482db	-0.016175678
123	0x3c9c5d3f	0.019087432
124	0xbd804452	-0.06263031
125	0xbba94db4	-0.0051667336
126	0xbbb9d1d7	-0.005670767
127	0x3d3aef28	0.045638233
128	0xbd14324d	-0.036180783
129	0x3b441af4	0.0029923292
130	0x3d870c32	0.06594123
131	0xbb9de464	-0.004818486
132	0xbd626257	-0.055269565
133	0xbc8e06fe	-0.017337319
134	0x3ce52c31	0.027975174
135	0xbd55f542	-0.05223585
136	0xbd0f024d	-0.034914304
137	0x3bb994ad	0.0056634755
138	0x3d286978	0.041116208
139	0xbd8ffa7a	-0.070301965
140	0x3d2916d8	0.04128155
141	0x3c0a8fe4	0.008457158
142	0xbd86b976	-0.065783426
143	0xbd603ec0	-0.054747343
144	0xbd957b98	-0.07298964
145	0x3da7c7fe	0.08192442
146	0xbc5b7beb	-0.013396244
147	0x3d132456	0.035923325
148	0xbd85fc8f	-0.06542312
149	0xbd3685c9	-0.04456118
150	0xbca985c4	-0.020693667
151	0xbd88a541	-0.06672145
152	0xbbf3c6bc	-0.0074394625
153	0xbd8e4629	-0.06946976
154	0x3d155bb1	0.036464397
155	0xbcd37c07	-0.025815977
156	0xbb6738fe	-0.0035281773
157	0xbc39acae	-0.011332674
158	0xbc02fbc0	-0.007994592
159	0xbd3e8602	-0.04651452
160	0x3c101aad	0.0087954225
161	0x3aa87153	0.0012851156
162	0xbd81a2df	-0.06329893
163	0x3c53e160	0.012932152
164	0x3c95ce84	0.01828695
165	0x3b95ca91	0.004571267
166	0xbc52899c	-0.012850191
167	0xbd476ac1	-0.048685793
168	0xbd355c4f	-0.044277485
169	0xbc24450a	-0.010026226
170	0xbc782b17	-0.015146992
171	0x3d19ef6c	0.037581846
172	0xbb241f97	-0.0025043243
173	0x3ce8d29e	0.028420743
174	0xbc78f5c5	-0.015195315
175	0xbcb3cc6b	-0.02194806
176	0xbc91a65c	-0.017779522
177	0xbd119e6d	-0.035551477
178	0x3d88d3b5	0.06681005
179	0x3d60bf5f	0.054870006
180	0x3d78cd82	0.060742863
181	0x3d8a1018	0.06741351
182	0x3c661a73	0.014044392
183	0xbd9d70d7	-0.07687538
184	0xbd474a50	-0.048654854
185	0x3d645ab0	0.05575055
186	0xbcb4a600	-0.022051811
187	0x3cf23183	0.029564625
188	0x3d948151	0.07251228
189	0x3c038e4f	0.0080295345
190	0x3cff8d9b	0.031195452
191	0x3dcc1517	0.0996496
192	0x3c4f71dc	0.0126614235
193	0xbccd0e0b	-0.02503111
194	0x3d624310	0.055239737
195	0x3d7795fd	0.060445774
196	0xbcbfc601	-0.023409845
197	0x3d19ca2a	0.037546314
198	0xbc53586c	-0.012899499
199	0x3d3e06d1	0.04639322
200	0x3cd795a5	0.026316473
201	0x3b4d2e21	0.0031308013
202	0x3c6b8450	0.0143748075
203	0x3b7d6261	0.0038663375
204	0xbcb57c90	-0.022154123
205	0x3d3ee00b	0.046600383
206	0x3d2a77e1	0.04161823
207	0x3d0dfe17	0.034666147
208	0xbcf0ab44	-0.02937854
209	0xbce25d6e	-0.027632441
210	0x3d6f3289	0.058397803
211	0x3c53b3dd	0.012921301
212	0x3c549229	0.0129743
213	0x3d079e23	0.033109795
214	0xbce6e379	-0.02818464
215	0x3b4c1e6d	0.0031146065
216	0xbc9ff45a	-0.019525696
217	0x39d32b91	0.00040277516
218	0xbcdb83a2	-0.026796166
219	0x3c8fdb08	0.017560497
220	0x3d15eb9b	0.036601644
221	0x3d8f00e7	0.06982594
222	0x3dedfea9	0.11620838
223	0xbd99f0cd	-0.07516632
224	0xbd099ee8	-0.03359881
225	0xbcc874ff	-0.02446985
226	0x3c094127	0.00837735
227	0x3d565776	0.052329503
228	0x3cc5e7d6	0.0241584
229	0xbce61a21	-0.028088631
230	0x3ce6804e	0.028137352
231	0xbd806620	-0.06269479
232	0xbd40b119	-0.047043893
233	0x3cea4bb3	0.02860055
234	0xbd673d2d	-0.056454826
235	0xbd13c1c5	-0.036073465
236	0xbc57a7a4	-0.013162527
237	0xbd9426dd	-0.07233975
238	0x3d1a77ca	0.037711896
239	0xbc015c85	-0.0078955935
240	0x3d9084ae	0.07056557
241	0x3cc5c65c	0.024142437
242	0xbd2d9858	-0.042381614
243	0x3c8b556a	0.017008502
244	0xbd64d697	-0.05586871
245	0xbca4d4de	-0.020121034
246	0x3beb6c95	0.007184575
247	0x3ba6751b	0.005079878
248	0xbd657d52	-0.056027718
249	0xbd44ec89	-0.04807714
250	0x3d6c443f	0.057682272
251	0xbdafc6ac	-0.085828155
252	0x3cf63442	0.030054215
253	0x3c2786cb	0.010225008
254	0xbcfc7f70	-0.030822486
255	0x3b381a44	0.0028091827

fc3.weight f4 [1, 256]
0	0x3cba6afd	0.022756094
1	0xbd1eae9b	-0.038740736
2	0x3d768be8	0.06019202
3	0xbc2285eb	-0.009919624
4	0x3cc760cf	0.024338154
5	0x3cd9e95e	0.026600536
6	0x3d4f0805	0.050544757
7	0xbc884b40	-0.016637444
8	0x3cfc70f6	0.030815583
9	0xbcd3b7cd	-0.025844479
10	0xbc5c4f73	-0.013446677
11	0x3d17121b	0.0368825
12	0x3cf83f78	0.030303702
13	0xbceca6df	-0.028888164
14	0x3e07ea4f	0.13272975
15	0x3c82a2b8	0.015946731
16	0x3d3234ac	0.043507263
17	0xbd06b8cc	-0.03289108
18	0x3c94d451	0.018167647
19	0xbc42eb34	-0.011896897
20	0x3c6723d1	0.01410766
21	0xbd214832	-0.03937549
22	0xbce1f4b9	-0.027582513
23	0x3d97289f	0.07380795
24	0xbd221fb1	-0.039581005
25	0x3ce8a4d1	0.028398903
26	0x3d0a1e5e	0.033720367
27	0x3c3ee0cf	0.011650278
28	0x3d7e02ec	0.062014505
29	0xbd141c42	-0.03615976
30	0xbd090c40	-0.033458948
31	0x3d30bbd0	0.043147862
32	0xbc36f4b1	-0.011166737
33	0xbc9ca7f3	-0.019123053
34	0xbd1eec7c	-0.038799748
35	0x3db0b81a	0.086288646
36	0xbd4a10de	-0.049332492
37	0xbd4a482d	-0.04938524
38	0x3c70770e	0.014676822
39	0xbcda0c46	-0.02661718
40	0xbd19ff4f	-0.037596997
41	0xbd2e6e47	-0.042585637
42	0xbda08f17	-0.07839792
43	0x3da3941a	0.079872325
44	0xbd07ae31	-0.033125106
45	0x3cd6d930	0.02622661
46	0xbd12e272	-0.035860486
47	0x3d8b369d	0.06797526
48	0x3dd299ea	0.10283263
49	0x3c82866a	0.015933234
50	0xbc63aabb	-0.013895686
51	0x3d34daac	0.044153854
52	0x3ccd1ad3	0.025037205
53	0xbd7f7e9d	-0.062376607
54	0x3cd51516	0.026011031
55	0x3db7a641	0.08967257
56	0x3ccb1001	0.024787905
57	0xbd10a9a9	-0.03531805
58	0xbcf9013b	-0.030396095
59	0xbcc1eaa9	-0.023671465
60	0xbcdb38c1	-0.02676046
61	0xbd3b06ab	-0.045660656
62	0x3d605cf0	0.054776132
63	0xbd4ad76e	-0.049521856
64	0x3c9e3cea	0.019316155
65	0xbc4ff4a8	-0.012692608
66	0x3c929dbd	0.017897481
67	0xbd8e7a15	-0.06956879
68	0x3d004d81	0.031323913
69	0x3ce8aad7	0.028401775
70	0xbd659833	-0.05605335
71	0xbc6dccf8	-0.0145142
72	0x3c8df346	0.017327916
73	0xbce2dfa9	-0.02769454
74	0xbdc5504d	-0.09634457
75	0xbdef4b1b	-0.11684247
76	0xbd1a60b9	-0.0376899
77	0xbcd822d1	-0.02638379
78	0x3c9977bd	0.018733853
79	0xbc0f5ac4	-0.008749668
80	0x3c956ad8	0.018239424
81	0x3d524be1	0.051341895
82	0xbd791a4b	-0.06081609
83	0x3cbd6c54	0.023122944
84	0xbcf5ff2d	-0.030028904
85	0xbc81d5e4	-0.015849061
86	0x3ccfeef0	0.025382489
87	0x3d1b3a11	0.037897173
88	0xbd7b2e6f	-0.06132358
89	0xbd0e62fc	-0.034762368
90	0x3c9033dc	0.017602853
91	0x3c6e89f2	0.014559256
92	0xbc3b99a6	-0.011450207
93	0xbcaf182d	-0.021373833
94	0xbe477459	-0.19477977
95	0x3d10bc83	0.03533603
96	0x3e342e58	0.17595804
97	0xbda23acd	-0.079213716
98	0xbd84ae67	-0.06478577
99	0x3cb9401a	0.022613574
100	0x3ca3dd12	0.020002875
101	0xbcbe49cb	-0.023228547
102	0xbc9e706f	-0.019340722
103	0xbcda1f12	-0.026626144
104	0xbc451af0	-0.012030348
105	0x3c8d4182	0.01724315
106	0x3cfc334b	0.030786177
107	0x3cf32122	0.029678885
108	0x3ce1658a	0.027514238
109	0xbc849f59	-0.016189264
110	0xbc0f4b59	-0.008745992
111	0xbe0cebd1	-0.13761832
112	0xbcdf2036	-0.027237039
113	0x3e0ec9d3	0.13944177
114	0xbcc974ef	-0.024591891
115	0xbd051d9c	-0.03249894
116	0xbd58caa6	-0.052927636
117	0x3dee5b33	0.116384886
118	0x3d25d45a	0.040485717
119	0xbd1cc6e8	-0.03827563
120	0xbcc63fe4	-0.024200387
121	0xbccfe2c1	-0.02537668
122	0xbc9eeb4a	-0.019399304
123	0x3c7ded4a	0.015498469
124	0x3db5b8c2	0.088731304
125	0xbd36653d	-0.044530142
126	0x3ccebee3	0.025237506
127	0xbc1f4d0f	-0.009722962
128	0xbc875070	-0.016517848
129	0xbd832ab9	-0.06404633
130	0x3df7aada	0.12093134
131	0xbd3e56ca	-0.046469487
132	0x3dc79bd3	0.09746518
133	0xbc90928c	-0.017648004
134	0xbd1d6fab	-0.038436573
135	0xbd055dc4	-0.032560125
136	0xbcea57be	-0.028606292
137	0xbd178ef7	-0.037001576
138	0x3c90829b	0.017640403
139	0xbc9b9edd	-0.01899665
140	0x3d6ca66b	0.057775896
141	0x3e150080	0.14550972
142	0xbc2fec39	-0.010737472
143	0xbca22124	-0.019791193
144	0x3e07cf82	0.13262752
145	0x3ccb7055	0.024833838
146	0xbcca8c8d	-0.024725223
147	0xbe8bcb64	-0.27303612
148	0xbd2da3e2	-0.04239262
149	0x3ce2bc45	0.027677665
150	0x3d5444bd	0.051823366
151	0xbcd8e79b	-0.026477626
152	0xbc592f0c	-0.013255846
153	0xbc7d0406	-0.015442854
154	0xbc363b98	-0.011122607
155	0xbd0c996c	-0.034326002
156	0xbcb6a00c	-0.022293113
157	0x3c671f18	0.014106534
158	0xbc21c61e	-0.009873895
159	0xbe128ab6	-0.14310727
160	0xbcb2f57a	-0.021845568
161	0xbd975ac9	-0.07390363
162	0xbc75cb91	-0.015002147
163	0x3d47c5d0	0.048772633
164	0x3c2d931c	0.010594156
165	0x3ccfb8c8	0.025356665
166	0xbd930a80	-0.07179737
167	0xbd05f902	-0.032708175
168	0xbc72655e	-0.014794676
169	0x3c5c6c26	0.013453519
170	0xbcaae0da	-0.02085917
171	0x3c677acb	0.014128397
172	0xbd83c8b0	-0.064347625
173	0x3d1c5c58	0.038174003
174	0xbd30912a	-0.04310719
175	0xbc5aa930	-0.0133460015
176	0xbd30914e	-0.043107323
177	0xbd0b21c2	-0.03396774
178	0x3d0ef304	0.034899727
179	0x3c92fdf9	0.01794337
180	0x3d8dd580	0.069254875
181	0x3c577e23	0.013152632
182	0x3e136afa	0.14396277
183	0xbce19810	-0.02753833
184	0xbd056ee9	-0.032576475
185	0x3cd50aca	0.026006121
186	0xbd5e9395	-0.054339964
187	0x3d0e10f8	0.03468415
188	0x3dbc1ef3	0.091855906
189	0x3cabf906	0.020992767
190	0x3cd191eb	0.025582274
191	0x3ce6b76a	0.02816363
192	0xbd05b1ea	-0.032640375
193	0xbc956fef	-0.01824185
194	0xbd465cd9	-0.04842839
195	0x3d034d67	0.03205624
196	0x3c892121	0.01673943
197	0xbc319400	-0.010838509
198	0xbd0064cc	-0.031346127
199	0xbc39c56c	-0.011338573
200	0xbce80d76	-0.028326731
201	0x3c7ebad9	0.015547478
202	0x3cc0cc8a	0.023535032
203	0x3cbaa701	0.022784712
204	0xbd31f9f9	-0.043451283
205	0x3dce0c22	0.10060908
206	0x3cfabc97	0.030607505
207	0x3d007adf	0.03136718
208	0xbc337c33	-0.010954904
209	0xbd4c09dd	-0.049814094
210	0x3c897c3e	0.016782876
211	0x3d357a27	0.044305947
212	0x3d00a150	0.03140384
213	0x3d13e7fd	0.036109913
214	0xbc7576b7	-0.014981917
215	0xbcd5f4b3	-0.026117658
216	0xbd2b87db	-0.04187761
217	0x3c69483e	0.014238415
218	0xbcbf1c1a	-0.02332883
219	0xbc23e159	-0.010002458
220	0x3ccf2da3	0.025290316
221	0x3ce47be1	0.027891101
222	0x3da9569a	0.08268471
223	0x3ca5803a	0.020202745
224	0xbd088506	-0.033329986
225	0xbd008669	-0.031378184
226	0x3d1d914f	0.038468655
227	0x3c984af1	0.018590422
228	0x3ce32c5d	0.027731115
229	0x3ca81619	0.02051835
230	0x3cd82fc0	0.026389956
231	0x3cf77cb1	0.030210825
232	0xbca3072c	-0.01990088
233	0xbca21de2	-0.01978964
234	0xbda472fd	-0.08029745
235	0xbc772177	-0.015083662
236	0xbd5daf56	-0.05412229
237	0xbd3526ce	-0.04422646
238	0xbd306346	-0.043063425
239	0x3c3babaa	0.011454502
240	0x3c994839	0.018711196
241	0x3dd6592e	0.104662284
242	0xbc95854f	-0.018252043
243	0xbcd0e981	-0.025501968
244	0xbdb7416f	-0.08948027
245	0xbc919868	-0.017772868
246	0x3c807de8	0.015685037
247	0xbc64c279	-0.0139623815
248	0x3ccc2998	0.024922177
249	0xbd1f9b36	-0.03896638
250	0x3cba3691	0.022731097
251	0xbd751096	-0.05983027
252	0xbc293122	-0.010326656
253	0x3d296f16	0.041365705
254	0x3d49de12	0.04928405
255	0xbcdd4ee4	-0.027015157
