checkpoints/checkpoint_actor_ddqn_18.pth (torch_old, 303163 bytes, 6 tensors)

fc1.weight f4 [256, 33]
0	0xbe123c75	-0.14280875
1	0xbe0d4286	-0.13794908
2	0x3ced001b	0.028930714
3	0xbe0348d2	-0.12820747
4	0xbda49a42	-0.08037235
5	0x3e04bfd1	0.12963797
6	0xbdb8ce3e	-0.090237126
7	0x3dd6d255	0.104893364
8	0x3ec355d9	0.38151434
9	0x3d0e1370	0.034686506
10	0xbe13c0fd	-0.14429088
11	0xbd5f7bfc	-0.0545616
12	0x3daa6590	0.08320153
13	0x3dd0344d	0.101662256
14	0x3e8272de	0.25478262
15	0x3e41dd22	0.18932012
16	0xbe0e06bc	-0.13869756
17	0xbda41af9	-0.08012957
18	0x3daec2c6	0.08533244
19	0xbc958d87	-0.018255962
20	0x3dd0fcab	0.102044426
21	0xbe5f17c2	-0.21786407
22	0x3d50e147	0.05099609
23	0x3dc81c84	0.09771064
24	0x3ddd0d6b	0.10793575
25	0x3e18dfcb	0.1492912
26	0xbe09f9c9	-0.13474192
27	0xbe23cf5e	-0.15997073
28	0xbde26d78	-0.11056036
29	0xbd199326	-0.037493847
30	0x3d8632d6	0.06552665
31	0x3d256c44	0.040386453
32	0x3de285de	0.110606894
33	0x3e0838e7	0.13302957
34	0x3e24392e	0.16037437
35	0xbe975c8d	-0.29562798
36	0x3d0225f9	0.031774495
37	0xbe1a6f26	-0.15081462
38	0xbdb710a4	-0.08938721
39	0xbcfc9eab	-0.030837378
40	0xbd8c0fd2	-0.06838955
41	0xbcf89dc7	-0.030348672
42	0xbd8ea2c3	-0.06964638
43	0xbb19774a	-0.002341705
44	0x3ab77dab	0.0013999244
45	0xbd582bb9	-0.052776072
46	0xbddcf0c4	-0.1078811
47	0xbe0f5cd8	-0.14000261
48	0x3e119345	0.14216335
49	0x3d9421e0	0.07233024
50	0x3db61e2a	0.08892472
51	0x3ca7c5ca	0.020480055
52	0xbdc6b609	-0.09702689
53	0xbd836ef5	-0.06417648
54	0x3e1a014a	0.15039554
55	0x3e0d050c	0.13771456
56	0x3d71deb5	0.05905028
57	0xbd96c4da	-0.07361765
58	0xbd2edbf3	-0.04269023
59	0x3c55d0a1	0.013050229
60	0xbceea53c	-0.029131524
61	0xbc7528ad	-0.014963311
62	0x3d6114a6	0.054951333
63	0xbd3794e5	-0.04481973
64	0x3d66edda	0.056379177
65	0xbe985b7a	-0.2975729
66	0x3c942e08	0.018088356
67	0x3dc58425	0.09644345
68	0x3d46a2f9	0.048495267
69	0xbe0ceb80	-0.13761711
70	0xbde41523	-0.11136844
71	0x3d43adb1	0.047773067
72	0x3c21133d	0.009831247
73	0x3e1d9c04	0.15391546
74	0xbdb4ede4	-0.088344365
75	0xbc6af37e	-0.01434028
76	0x3c1a911c	0.009434011
77	0x3da17061	0.07882763
78	0x3cc0c0be	0.023529407
79	0x3e87442c	0.264192
80	0x3e080138	0.13281715
81	0x3dd9cad6	0.10634391
82	0x3d39d153	0.045365643
83	0x3da1b3dc	0.078956336
84	0x3de47234	0.11154595
85	0xbdf8b89a	-0.12144585
86	0xbd2a8378	-0.041629285
87	0xbe376627	-0.17910062
88	0x3d766183	0.06015159
89	0x3dd64c06	0.10463719
90	0xbc023f81	-0.007949711
91	0x3d1f2ef1	0.038863126
92	0xbd49479d	-0.04914056
93	0x3e25c57e	0.16188619
94	0xbe111c7a	-0.14171019
95	0xbcdb9528	-0.026804522
96	0xbe17b21c	-0.14814037
97	0x3d65469c	0.05597554
98	0x3eb4ac16	0.3528754
99	0x3df4c1a3	0.11950996
100	0x3e01641c	0.12635845
101	0x3d93b9fb	0.07213207
102	0xbe9ea892	-0.30987984
103	0x3b5e1b64	0.0033890838
104	0xbdc15db7	-0.09441703
105	0xbd7ade2e	-0.061247043
106	0xbda966f9	-0.082715936
107	0xbdfa941a	-0.122352794
108	0xbd2bec5e	-0.041973464
109	0xbd0e7147	-0.034776
110	0x3c3072d9	0.010769569
111	0x3da8693e	0.08223198
112	0x3d42f4ce	0.047596745
113	0xbd9004be	-0.070321545
114	0xbe2a08d6	-0.16604933
115	0xbc881a09	-0.016613977
116	0x3d4ec7f5	0.050483663
117	0xbcc49cd6	-0.024000566
118	0x3d628c31	0.05530948
119	0xbceb6508	-0.028734699
120	0x3e364813	0.17800932
121	0x3d7b3035	0.06132527
122	0xbd98b1f0	-0.07455814
123	0xbdd4209b	-0.103577815
124	0xbdce2c79	-0.10067076
125	0xbe32c5ea	-0.1745831
126	0x3e49838a	0.19679084
127	0x3e2129db	0.15738623
128	0xbd05e508	-0.032689124
129	0xbe48908f	-0.19586395
130	0x3d0a1086	0.033707164
131	0xbf4df1d0	-0.804471
132	0x3e736d5e	0.23772189
133	0xbcb12a81	-0.021626713
134	0x3e63dfcc	0.2225334
135	0xbdd381a1	-0.10327459
136	0xbe1a5bec	-0.15074128
137	0xbdd1573a	-0.10221715
138	0x3dda0614	0.106456906
139	0x3d942c99	0.07235069
140	0x3d1d74ee	0.03844159
141	0x3d9e7263	0.07736661
142	0x3c70785d	0.014677134
143	0x3e1a7b43	0.15086083
144	0xbadb4eae	-0.0016731822
145	0xbd978033	-0.07397499
146	0x3ca91d62	0.020643894
147	0xbe245ad3	-0.16050272
148	0x3d4b5449	0.049640927
149	0x3d925f20	0.0714705
150	0xbd8bca88	-0.06825739
151	0xbbe01776	-0.0068387343
152	0xbdf6099e	-0.12013553
153	0x3e8e5823	0.27801618
154	0xbe2ae412	-0.16688564
155	0xbe1e36c4	-0.15450579
156	0x3b0589d3	0.002037634
157	0x3c3b4686	0.011430388
158	0xbd38eda7	-0.045148518
159	0x3db9c29d	0.09070323
160	0x3b73f35a	0.0037223906
161	0xbd1f1b96	-0.038844667
162	0x3bf5b550	0.007498421
163	0x3d785820	0.060630918
164	0xbdb65b45	-0.08904127
165	0xbe20e638	-0.15712821
166	0x3e8b2b72	0.27181584
167	0xbe42ae02	-0.19011691
168	0xbbd2446d	-0.0064168484
169	0x3d762010	0.06008917
170	0x3dc7aa0d	0.097492315
171	0xbe12782a	-0.14303651
172	0xbde0c8af	-0.10975777
173	0xbc0e6d3f	-0.0086930385
174	0x3d8a74c6	0.06760554
175	0xbd9976bc	-0.0749335
176	0xb93538f5	-0.00017282723
177	0x3da9b6e4	0.08286837
178	0x3ed6e3e0	0.4197073
179	0xbd0cc4c4	-0.034367338
180	0x3d606146	0.054780267
181	0xbda621aa	-0.0811189
182	0xbc8d7124	-0.017265864
183	0xbb0a5a54	-0.0021110969
184	0x3dde2361	0.10846592
185	0xbcd3ff2a	-0.025878508
186	0x3b606670	0.0034240745
187	0xbb6ab946	-0.0035815998
188	0x3d59e516	0.05319699
189	0xbccea28d	-0.025223995
190	0xbdce3c02	-0.10070039
191	0xbe4f6db0	-0.20256686
192	0x3d6e42b0	0.058169067
193	0x3e2bee13	0.16790037
194	0x3cd083d0	0.025453478
195	0xbc73664a	-0.014855931
196	0x3b605f40	0.003423646
197	0xbebf4ef1	-0.37364915
198	0xbd2eb69f	-0.04265463
199	0xbafd58e3	-0.0019328858
200	0xbdd72b44	-0.10506299
201	0x3c83577a	0.016032923
202	0xbd0abecb	-0.03387336
203	0xbe19bf1d	-0.1501431
204	0xbc5d6071	-0.013511763
205	0x3ca82e30	0.020529836
206	0x3d7e7b25	0.06212916
207	0xbde90920	-0.113786936
208	0xbc638099	-0.013885641
209	0x3d901d86	0.07036881
210	0xbe33be50	-0.17553067
211	0x3da6fc6e	0.08153616
212	0x3e4b4d14	0.19853622
213	0x3c1af22a	0.0094571505
214	0x3dbe0bf4	0.09279624
215	0xbc85905b	-0.016304186
216	0x3a1e338b	0.0006034902
217	0xbdaed78f	-0.08537208
218	0x3de3ff7d	0.11132715
219	0x3e6cf571	0.23140503
220	0x3def8c05	0.116966285
221	0xbdee93ab	-0.11649259
222	0xbbd1c106	-0.006401184
223	0x3e206ffe	0.15667722
224	0xbd244769	-0.040107165
225	0x3d2bab26	0.041911267
226	0x3b17a0e0	0.002313666
227	0x3b2d7800	0.002646923
228	0xbdde53ec	-0.108558506
229	0x3c9825a0	0.018572628
230	0x3f3b8098	0.73243093
231	0x3c0a943a	0.0084581915
232	0xbd180820	-0.037117124
233	0xbb6c81cd	-0.003608811
234	0xbdb9dc2f	-0.090752
235	0x3ebc0f36	0.36730355
236	0xbd570278	-0.05249259
237	0x3e13f754	0.14449817
238	0xbe0d7964	-0.13815838
239	0xbdb5a121	-0.088686235
240	0xbde97e48	-0.11401039
241	0xbccdc75b	-0.025119474
242	0xbd4f6b35	-0.05063935
243	0xbc005529	-0.007832804
244	0xbbc9c384	-0.0061573405
245	0x3dd38b24	0.10329273
246	0xbc836dd0	-0.016043574
247	0x3dc4aa42	0.096027866
248	0xbdbddd3d	-0.092707135
249	0x3ce5e32d	0.028062427
250	0x3d981bdb	0.07427188
251	0x3db3fdcb	0.087886415
252	0x3d065ba9	0.032802258
253	0xbdeac7e5	-0.11463908
254	0x3dc49e72	0.096005335
255	0x3cea5b5f	0.028608022

fc1.bias f4 [256]
0	0x3da33613	0.07969298
1	0xbdef2e07	-0.11678701
2	0xbc9b9ab0	-0.01899466
3	0xbe64223e	-0.22278687
4	0x3cf87410	0.03032878
5	0xbcb658cd	-0.02225914
6	0xbe733c52	-0.23753479
7	0xbd78e461	-0.060764674
8	0x3d481d34	0.048855975
9	0x3e0cd9e6	0.13754997
10	0xbe54f233	-0.20795517
11	0xbd7bf869	-0.0615162
12	0xbded7660	-0.11594844
13	0xbc9fe196	-0.019516747
14	0x3e2463f9	0.16053762
15	0x3e8094f5	0.25113645
16	0x3d449e1c	0.048002347
17	0xbd13c64c	-0.036077783
18	0xbe93f9ce	-0.28901523
19	0xbe3a4263	-0.18189387
20	0xbc16cc38	-0.009203963
21	0xbdb7dcbc	-0.089776486
22	0xbcff42b5	-0.031159738
23	0x3d8df163	0.069308065
24	0xbe1a3639	-0.15059747
25	0xbdbb197f	-0.09135722
26	0x3e2bbe56	0.16771826
27	0x3d4fee43	0.050764333
28	0x3c663465	0.014050578
29	0xbe86a02d	-0.2629408
30	0xbde69489	-0.112587996
31	0xbe59d32e	-0.21271965
32	0xbd815dc9	-0.06316716
33	0x3d521314	0.051287726
34	0xbe3d4e43	-0.18486886
35	0x3d7c6f61	0.061629657
36	0xbe562713	-0.20913343
37	0xbdd80820	-0.10548425
38	0x3deaa897	0.11457937
39	0x3d75fb9d	0.06005441
40	0xbdf28ea8	-0.11843616
41	0xbda0dcab	-0.07854589
42	0x3d2d33a8	0.04228559
43	0x3e1c2645	0.15248974
44	0x3e41ab57	0.18913017
45	0xbb80d1e3	-0.0039312704
46	0x3dd15265	0.10220794
47	0xbe557fa2	-0.2084947
48	0x3e0735e2	0.13204148
49	0x3bfaac56	0.0076499386
50	0xbe5b0655	-0.21389134
51	0x3d1ff33f	0.039050337
52	0x3d4a6119	0.049409006
53	0xbd085353	-0.03328259
54	0xbdcc8485	-0.099862136
55	0x3de81b58	0.113333404
56	0x3da0a331	0.07843626
57	0x3e71addd	0.2360148
58	0xbeaba4b9	-0.3352411
59	0x3e0fe3bf	0.14051722
60	0xbdc8435c	-0.09778473
61	0xbe0bab2e	-0.13639519
62	0xbd57f30d	-0.052722026
63	0x3c0ba9b0	0.008524343
64	0xbe4bb646	-0.1989375
65	0xbdbf6c2e	-0.093468055
66	0x3e5c32c2	0.21503738
67	0xbd97099e	-0.07374881
68	0xbc190016	-0.009338399
69	0xbdd851cf	-0.10562479
70	0xbb8bacf3	-0.0042625605
71	0xbcc35a85	-0.023846874
72	0xbe5fa271	-0.2183931
73	0x3e6f820e	0.23389456
74	0x3dd0acb7	0.10189193
75	0x3e5472a6	0.2074686
76	0xbe651f9a	-0.22375336
77	0xbd2bde8a	-0.041960277
78	0xbe5b286a	-0.21402135
79	0xbd660630	-0.056158245
80	0x3e45e650	0.19326138
81	0xbd618374	-0.055057004
82	0xbdc896c2	-0.0979438
83	0xbe030cd5	-0.12797864
84	0xbd2df291	-0.042467657
85	0xbbb29f83	-0.005451144
86	0xbeac164f	-0.3361077
87	0xbe019bf7	-0.12657152
88	0xbe46f78c	-0.19430369
89	0x3d8e13ab	0.06937345
90	0xbdf7fcc7	-0.1210876
91	0x3e016054	0.12634403
92	0xbcec9783	-0.02888084
93	0x3dd336ad	0.10313163
94	0xbcd152b9	-0.02555214
95	0xbc9d10a6	-0.019172978
96	0xbca9888e	-0.020694997
97	0xbe5c9bb2	-0.21543768
98	0xbd9d4f39	-0.07681126
99	0x3da802e2	0.08203675
100	0x3dcf3320	0.10117173
101	0x3e164ad9	0.1467699
102	0xbde96963	-0.11397054
103	0x3d919dda	0.07110186
104	0xbdf127c2	-0.11775161
105	0xbdf9a0b2	-0.12188853
106	0xbe393630	-0.18087077
107	0x3d0d3653	0.034475636
108	0xbc359fbd	-0.011085448
109	0xbd73d8b1	-0.059532825
110	0x3e65ddd7	0.22447906
111	0x3d3fa851	0.04679138
112	0xbe40d188	-0.1882993
113	0xbe8df98b	-0.2772945
114	0x3ba76ac9	0.0051091653
115	0xbdb55714	-0.088544995
116	0xbd88ec5d	-0.06685708
117	0xbd81ca95	-0.063374676
118	0x3d766228	0.060152203
119	0xbe028c48	-0.12748826
120	0x3caee952	0.02135149
121	0x3d9f897e	0.077898964
122	0xbe46a131	-0.19397427
123	0xbb109dbf	-0.002206668
124	0x3d73056d	0.059331346
125	0xbd0b71eb	-0.034044188
126	0xbd5d4393	-0.054019522
127	0x3d53cb01	0.05170727
128	0xbd9dad49	-0.07699067
129	0xbdbdb7c0	-0.09263563
130	0xbe37e0d2	-0.17956856
131	0xbe48e7ca	-0.1961967
132	0x3dc76250	0.097355485
133	0xbe811b26	-0.25216025
134	0xbd9acc48	-0.07558495
135	0x3cf66869	0.030079084
136	0xbdb78664	-0.0896118
137	0xbde5d12d	-0.11221538
138	0xbe2934eb	-0.16524093
139	0xbd891a93	-0.06694522
140	0xbe556d3f	-0.20842455
141	0xbd76769b	-0.060171705
142	0xbe008f2c	-0.12554616
143	0xbc82ec66	-0.015981864
144	0xbdec0980	-0.115252495
145	0xbe70d29f	-0.23517846
146	0xbe1f45b9	-0.15553941
147	0x3b20a836	0.0024514324
148	0xbd1525c2	-0.03641296
149	0xbe9e084e	-0.3086571
150	0xbca8ddcf	-0.02061358
151	0xbd2ba27b	-0.041903
152	0x3cccb0f6	0.024986725
153	0xbdb560e7	-0.08856373
154	0xbcc8b1aa	-0.02449878
155	0xbe238f77	-0.15972696
156	0xbd920819	-0.07130451
157	0x3e56874b	0.20950048
158	0xbda17572	-0.07883729
159	0xbe23d4f5	-0.15999205
160	0xbd4c4e6b	-0.049879473
161	0xbe3d1c2c	-0.18467778
162	0x3d4320c6	0.047638677
163	0x3da0886f	0.07838523
164	0x3e04b93f	0.12961291
165	0xbd323701	-0.043509487
166	0xbe11e311	-0.14246775
167	0xbdd8d680	-0.10587788
168	0xbdb24a1d	-0.08705542
169	0x3c85ab59	0.016317056
170	0x3c90833f	0.017640708
171	0x3ddfb294	0.10922733
172	0xbceacaf1	-0.028661223
173	0x3d5755cb	0.052572053
174	0xbc7bd272	-0.015369998
175	0x3dbfe33f	0.09369516
176	0xbdde8016	-0.10864274
177	0xbe208881	-0.15677072
178	0xbd89adf8	-0.06722635
179	0x3dafbe01	0.08581162
180	0xbdd71cc8	-0.105035365
181	0x3d8e0ab4	0.06935635
182	0x3d876e60	0.06612849
183	0xbe4f7449	-0.20259203
184	0x3dc77d97	0.09740751
185	0x3baa7b65	0.005202698
186	0x3d4530dc	0.0481423
187	0xbe5740f8	-0.21020877
188	0xbd869da5	-0.06573037
189	0x3e5a6e7f	0.21331213
190	0xbdeab689	-0.11460597
191	0xbcdb7278	-0.026787981
192	0x3da55f80	0.08074856
193	0xbd6ceec6	-0.0578449
194	0xbe028308	-0.12745297
195	0xbe007ffd	-0.12548824
196	0x3c798503	0.015229466
197	0x3d86923d	0.065708615
198	0xbe156dc0	-0.14592648
199	0x3d3d69c1	0.046243433
200	0x3ddee39c	0.10883257
201	0x3e5a0736	0.21291813
202	0x3d5f5a3b	0.05452941
203	0x3dc91a3c	0.09819457
204	0xbd84c0d7	-0.06482094
205	0xbd6cf787	-0.057853248
206	0xbe872e8c	-0.264027
207	0xbe23d163	-0.15997843
208	0xbc1936e6	-0.009351468
209	0x3cd309d4	0.025761522
210	0xbe0b159c	-0.13582462
211	0xbdc43cb6	-0.09581892
212	0xbd7bf60a	-0.061513938
213	0x3c80edbe	0.015738364
214	0xbe36fe57	-0.1787046
215	0xbd1e9522	-0.038716443
216	0xbe442d4a	-0.19157901
217	0xbe454c47	-0.19267379
218	0xbe5ba304	-0.21448904
219	0x3dddaa10	0.108234525
220	0x3ce72f0f	0.028220681
221	0xbe6abf46	-0.22924528
222	0xbaec09a1	-0.0018008241
223	0xbda3bb49	-0.07994706
224	0x3dc032be	0.09384678
225	0xbe0ce210	-0.13758111
226	0xbe12ba6b	-0.14328925
227	0xbe83b893	-0.25726756
228	0xbe1c4bfc	-0.1526336
229	0x3d9361b4	0.0719637
230	0x3d261291	0.04054505
231	0xbd7e3a6f	-0.062067445
232	0xbe284de5	-0.16435964
233	0x3d04f201	0.032457355
234	0x3c3b30b2	0.011425184
235	0xbd9c6ad3	-0.076375626
236	0x3d691fb8	0.056915015
237	0x3de7389f	0.112900965
238	0xbe1ffc95	-0.15623696
239	0xbe19509b	-0.14972155
240	0xbd384fa2	-0.04499782
241	0xbe80e05d	-0.25171176
242	0xbc9418ce	-0.018078234
243	0xbdfe8918	-0.12428492
244	0xbc87a55c	-0.016558342
245	0xbd5d57ef	-0.054038938
246	0xbcb67798	-0.022273824
247	0x3e199b16	0.15000567
248	0xbd9a80c3	-0.075440906
249	0x3e4b5829	0.19857849
250	0x3c3e57db	0.011617626
251	0xbe852082	-0.26001364
252	0xbe5ded7a	-0.21672621
253	0x3c0b4b84	0.008501891
254	0xbe86856e	-0.26273674
255	0xbd59b452	-0.053150482

fc2.weight f4 [256, 256]
0	0xbe15e2c6	-0.14637288
1	0xbc379bff	-0.011206626
2	0x3e6c1064	0.23053128
3	0xbe9d6644	-0.30742085
4	0xbc90696b	-0.017628392
5	0xbe23e136	-0.1600388
6	0x3ddd473f	0.10804605
7	0xba9d7596	-0.0012013193
8	0xbeb0cd6b	-0.3453172
9	0x3c42caa5	0.0118891345
10	0xbd6d5691	-0.057943884
11	0xbd84468f	-0.064587705
12	0xbd2c8c6c	-0.042126104
13	0x3d32729d	0.043566335
14	0xbe5fd32f	-0.21857904
15	0xbec8e31d	-0.39235774
16	0xbacbc920	-0.0015547611
17	0xbd0d4f04	-0.034499183
18	0xbe324dcc	-0.1741249
19	0x3dc3e6c3	0.09565499
20	0xbe6ae2c5	-0.22938068
21	0xbca399bd	-0.019970769
22	0x3c4daa79	0.012552851
23	0x3d1c9189	0.03822473
24	0x3e35093c	0.17679304
25	0xbddf78b5	-0.10911695
26	0xbdc7e648	-0.097607195
27	0x3d942c31	0.07234991
28	0x3c93ebc3	0.018056756
29	0xbd35df57	-0.044402447
30	0x3db30834	0.08741799
31	0x3dc1567d	0.094403245
32	0xbe89bbe9	-0.26901177
33	0xbb48061e	-0.0030521224
34	0xbb1423c2	-0.002260432
35	0x3cc1dda5	0.023665259
36	0x3e08ddcb	0.13365857
37	0x3c0201ee	0.00793503
38	0xbada304b	-0.0016646473
39	0x3e3093be	0.17243859
40	0xbe67231f	-0.22571991
41	0xbe09df46	-0.13464078
42	0x3ddc47b6	0.10755865
43	0xbdc6927b	-0.09695908
44	0xbe8b6622	-0.2722636
45	0xbc1b8307	-0.009491689
46	0xbdff794c	-0.124743074
47	0xbb4b3140	-0.0031004697
48	0x3d663dbe	0.056211226
49	0x3d6c4fde	0.057693355
50	0x39b77df2	0.00034998317
51	0xbd29adbc	-0.04142545
52	0x3d6cacef	0.05778211
53	0x3d86bcd1	0.065789826
54	0xbe04d96a	-0.12973562
55	0xbe0ab69c	-0.13546222
56	0xbdf87af0	-0.121328235
57	0xbd9eeec0	-0.07760382
58	0xbda1f576	-0.07908146
59	0xbddb5462	-0.10709454
60	0xbd1e1ec3	-0.038603555
61	0x3dafffe0	0.08593726
62	0xbcfd8766	-0.030948352
63	0x3d01bce9	0.0316743
64	0xbdc411e3	-0.09573724
65	0x3d70031e	0.058596723
66	0xbd5c5bfd	-0.053798664
67	0xbd263a17	-0.040582743
68	0xbdd797c7	-0.10526996
69	0xbbfc3d5e	-0.007697745
70	0x3db3ce00	0.08779526
71	0x3cb7cfb6	0.022437911
72	0x3d892bee	0.06697832
73	0x3dcf099e	0.10109256
74	0x3d537952	0.051629372
75	0xbe3194fe	-0.17341992
76	0xbbb2b884	-0.005454125
77	0xbde2d1bb	-0.11075159
78	0x3e647c84	0.22313124
79	0x3c4ce29c	0.0125052
80	0xbe021dd9	-0.12706698
81	0x3dcb1e0a	0.09917839
82	0xbd3a5376	-0.04548975
83	0x3d1ef55a	0.038808204
84	0x3d2008d8	0.039070934
85	0x3c0edffb	0.008720393
86	0x3e24dfb8	0.16100967
87	0xbe160a25	-0.14652307
88	0x3e4ab3ae	0.19795105
89	0xbde479b9	-0.11156029
90	0x3d623992	0.055230685
91	0x3ce5fed1	0.028075607
92	0x3e5e5115	0.21710618
93	0x3e40c9ab	0.1882693
94	0x3b92e7be	0.004483192
95	0xbe0a5b71	-0.13511445
96	0x3cbcc96d	0.023045266
97	0x3dafc613	0.085827015
98	0xbc2cfccf	-0.010558321
99	0xbe47921c	-0.1948933
100	0xbcc963e0	-0.024583757
101	0xbc33598a	-0.010946641
102	0xbe06493d	-0.13113876
103	0xbcbfb486	-0.02340151
104	0xbccfdc42	-0.025373582
105	0x3d08699b	0.03330384
106	0x3df42f42	0.11923076
107	0x3d1c0b1d	0.038096536
108	0xbd124f2c	-0.035720035
109	0xbdbd090a	-0.0923024
110	0xbd9164f7	-0.07099336
111	0xbe78ff6b	-0.24316184
112	0x3da535e1	0.08066917
113	0xbe6098c3	-0.21933274
114	0xbe7c138e	-0.24616835
115	0x3ca5c3b9	0.02023493
116	0xbca97d9a	-0.020689774
117	0xbe147349	-0.14497103
118	0x3e3098ba	0.1724576
119	0x3c84a02e	0.01618966
120	0xbd87e111	-0.06634725
121	0xbc1bee64	-0.009517286
122	0x3e46263a	0.1935052
123	0x3e2ed200	0.17072296
124	0x3d92c25e	0.07165979
125	0x3d9f4714	0.07777229
126	0xbc0b644c	-0.008507799
127	0xbe52cff3	-0.20587139
128	0xbea74eb8	-0.32677245
129	0x3e0ce100	0.13757706
130	0xbd019059	-0.0316318
131	0x3e1b0fca	0.15142742
132	0xbcfbc2fc	-0.030732624
133	0xbbcd3db4	-0.006263459
134	0x3d2cc2dc	0.04217802
135	0x3d272918	0.040810674
136	0x3b630d5b	0.0034645412
137	0x3c7e4ea7	0.015521682
138	0x3e197624	0.14986473
139	0xbe7d68e7	-0.24747048
140	0x3e5a90ec	0.21344346
141	0x3db0b544	0.08628324
142	0x3d65883f	0.056038138
143	0xbe047a0e	-0.12937185
144	0x3dc45424	0.09586361
145	0xbd4b0b4e	-0.049571328
146	0x3d111e15	0.03542908
147	0x3d3e7a5a	0.046503402
148	0xbd395bf7	-0.04525372
149	0x3e8c43c5	0.27395454
150	0x3d702f76	0.058639012
151	0xbdad0408	-0.084480345
152	0xbc3daad6	-0.011576375
153	0xbd1f384f	-0.03887206
154	0x3dbb670d	0.09150515
155	0x3e41f355	0.1894048
156	0xbe0f6516	-0.14003405
157	0xbe4a036c	-0.19727868
158	0xbdf677a0	-0.120345354
159	0x3e5cab68	0.21549761
160	0x3df67867	0.12034684
161	0xbd51650f	-0.051121768
162	0xbd59602a	-0.053070225
163	0xbec8e5eb	-0.39237913
164	0x3e2f54f8	0.17122257
165	0x3d95c9e9	0.07313902
166	0x3e40bcb9	0.18821992
167	0xbb988c92	-0.004655429
168	0xbe8e40aa	-0.2778371
169	0xbe7f1ba6	-0.24912891
170	0xbe8914da	-0.2677372
171	0xbdbe316e	-0.09286772
172	0x3ce2ff65	0.027709672
173	0x3e1c08f8	0.15237796
174	0x3c3d5103	0.011554959
175	0xbe658165	-0.22412641
176	0x3d36a61e	0.044592015
177	0xbcf41ef4	-0.029799916
178	0xbe868390	-0.2627225
179	0xbe09e8a5	-0.13467653
180	0x3dbcbdfe	0.09215926
181	0xbd306233	-0.0430624
182	0x3d838d9d	0.06423495
183	0x3e0e4c6a	0.13896337
184	0x3cbcea32	0.023060892
185	0xbe92f60e	-0.2870335
186	0xbc0566bb	-0.008142169
187	0x3d1d2439	0.038364623
188	0x3d8b7fca	0.06811483
189	0x3dc8d2d3	0.098058365
190	0x3c9e6f62	0.01934022
191	0x3d308a40	0.043100595
192	0xbe6edce5	-0.23326452
193	0x3e3480ec	0.17627305
194	0x3c90e6ee	0.01768824
195	0xbcd6bea5	-0.026213953
196	0xbc86e349	-0.0164658
197	0xbdf60569	-0.12012751
198	0xbdbda713	-0.092603825
199	0x3d18be2b	0.037290733
200	0xbd4794f9	-0.048726056
201	0xbcc0c4e9	-0.023531394
202	0xbb7d03c6	-0.0038606985
203	0x3c19cb5b	0.009386863
204	0x3dbc95f1	0.092082866
205	0x3e40256e	0.18764278
206	0x3e09f57e	0.13472554
207	0x3dd29ace	0.10283433
208	0xbdef6d20	-0.11690736
209	0x3d9658a1	0.07341123
210	0x3e04bbbf	0.12962244
211	0x3c294597	0.010331533
212	0xbeb6c2e5	-0.35695568
213	0xbe6bc54d	-0.23024483
214	0x3ca43a18	0.020047233
215	0xbe6bc720	-0.23025179
216	0xbe26cf23	-0.16289954
217	0xbbb6e087	-0.005580965
218	0x3e3f13c3	0.18659882
219	0xbc2387a2	-0.009981068
220	0x3d00bb85	0.031428833
221	0xbe1a02e6	-0.15040168
222	0x3deca908	0.11555678
223	0xbe071fc9	-0.13195719
224	0x3d659c15	0.056057055
225	0x3d7d3068	0.061813742
226	0x3d159ead	0.03652828
227	0x3de1fd96	0.11034696
228	0xbbb17783	-0.0054158582
229	0xbe1d84fe	-0.15382764
230	0xbde35db2	-0.11101855
231	0x3e728d2c	0.23686665
232	0xbd52cd18	-0.051465124
233	0x3d129994	0.035790995
234	0xbcd1c7c9	-0.02560796
235	0xbd76fb58	-0.060298294
236	0xbd2a1cd9	-0.041531418
237	0x3b628079	0.003456144
238	0x3dc03554	0.093851715
239	0x3d49dd2f	0.049283203
240	0xbdddf79e	-0.10838245
241	0x3d3f2c67	0.046673205
242	0x3db2d43d	0.087318875
243	0xbda3a5a9	-0.079905815
244	0x3dd93068	0.10604936
245	0xbdb650ac	-0.08902106
246	0xbdfd9932	-0.12382735
247	0x3e357f55	0.17724355
248	0xbe1efa24	-0.15525109
249	0xbe027c64	-0.12742764
250	0xbe48a2a2	-0.1959329
251	0x3d0945dd	0.033513892
252	0x3d911f29	0.070860215
253	0x3de7c561	0.11316944
254	0x3e786b1c	0.24259609
255	0xbd33354d	-0.043752003

fc2.bias f4 [256]
0	0xbd083079	-0.033249352
1	0xbe007c19	-0.1254734
2	0xbd3da7fe	-0.046302788
3	0xbe5a12c8	-0.21296227
4	0x3cb32e32	0.021872614
5	0xbd03b68d	-0.032156516
6	0xbd2417bb	-0.040061694
7	0xbc4509e0	-0.01202628
8	0xbd2a7d07	-0.04162314
9	0x3d9069ee	0.070514545
10	0x3cba57e3	0.022746986
11	0x3d90db48	0.070730746
12	0x3d08bb0e	0.033381514
13	0xbd4688a7	-0.048470166
14	0xbdd2079a	-0.10255356
15	0xbd463631	-0.048391525
16	0xbdc7198d	-0.0972167
17	0x3d646d4c	0.055768296
18	0xbd3f72c2	-0.0467403
19	0xbd88e01d	-0.06683371
20	0xbd12c6eb	-0.035834234
21	0xbde2fae9	-0.110830136
22	0x3d6c08c9	0.057625566
23	0x3dad5058	0.0846259
24	0x3bf06a42	0.0073368857
25	0x3ce21d4f	0.027601866
26	0x3d5e4df4	0.05427356
27	0x3cc0335c	0.02346199
28	0xbced99b1	-0.02900395
29	0xbcdf022f	-0.02722272
30	0xbd53d459	-0.051716182
31	0x3da96bea	0.08272536
32	0xbc31acb4	-0.010844398
33	0xbd371a10	-0.04470259
34	0x3cac90ad	0.02106508
35	0x3d6688b4	0.056282714
36	0x3d707b3c	0.058711275
37	0xbcbff465	-0.023431966
38	0xbc2826f4	-0.010263193
39	0xbdfa8e4a	-0.12234171
40	0xbd23aa08	-0.039957076
41	0x3c01a8cb	0.007913779
42	0xbdb57381	-0.08859921
43	0x3c90945f	0.017648874
44	0xbdd8568c	-0.105633825
45	0x3d07902b	0.033096474
46	0x3d0c205f	0.03421056
47	0xbdfc5837	-0.12321513
48	0xbd90be2c	-0.070675224
49	0x3cd0ad84	0.025473364
50	0x3d06a5a6	0.03287282
51	0xbbe1f13b	-0.006895212
52	0x3d92ef6f	0.071745746
53	0x3db9ea36	0.09077875
54	0x3d69c1ac	0.057069466
55	0x3d4de32d	0.05026548
56	0x3c21cc56	0.009875378
57	0xbd0a74e0	-0.033802867
58	0x3be68a03	0.0070354952
59	0x3cb5d73e	0.022197362
60	0x3d4f981b	0.05068217
61	0x3dc7c239	0.09753842
62	0x3c9ddf2d	0.019271458
63	0x3cb653c2	0.022256736
64	0xbc8551da	-0.016274381
65	0x3cd2553c	0.025675409
66	0xbc023336	-0.00794678
67	0xbdcb5d6f	-0.099299304
68	0xbcfa8bd1	-0.030584248
69	0xbe174358	-0.14771783
70	0x3c2323c9	0.009957262
71	0x3d958c5c	0.07302162
72	0x3d908737	0.0705704
73	0x3d30265a	0.043005325
74	0x3d50b4d7	0.050953712
75	0x3d5ca6bd	0.05386995
76	0xbd2098e5	-0.03920831
77	0xbdd186d3	-0.10230794
78	0x3a1bd6a3	0.0005944764
79	0x3d3ca8d3	0.04605944
80	0x3c4779bb	0.012175019
81	0xbd08c370	-0.03338951
82	0xbdb81b45	-0.08989576
83	0xbd855ead	-0.065121986
84	0xbd22ef27	-0.039778855
85	0x3d27bd25	0.040951867
86	0x3bcaf4f6	0.0061937524
87	0x3d2272e2	0.039660342
88	0xbd486523	-0.048924576
89	0x3cd728af	0.026264517
90	0xbd28fbba	-0.04125569
91	0xbd8e37fc	-0.06944272
92	0xbe1da9b2	-0.15396765
93	0xbddafa72	-0.106923
94	0x3c81e1d9	0.015854763
95	0x3d191c29	0.03738037
96	0x3d3ae50f	0.045628604
97	0xbd2b5dc9	-0.041837487
98	0xbcd4b05a	-0.025962997
99	0xbd1517c7	-0.03639963
100	0xbc7f4d91	-0.015582458
101	0x3bd8f26a	0.006620695
102	0x3c2a387b	0.010389443
103	0x3d2653a8	0.040607125
104	0xbd584942	-0.05280424
105	0xbd98aa9e	-0.07454418
106	0x3cbfe365	0.02342386
107	0xbc53ad13	-0.012919682
108	0xbd0efa92	-0.03490693
109	0xbd12c289	-0.035830054
110	0xbda2d2d6	-0.0795037
111	0x3cd625e6	0.026141118
112	0xba728ef7	-0.0009252871
113	0xbc7bb0b3	-0.015361953
114	0xbd5f7403	-0.054553997
115	0xbc7274bb	-0.0147983385
116	0xbdc42426	-0.09577207
117	0x3d352097	0.044220533
118	0xbcf27b08	-0.029599681
119	0x3b924676	0.004463966
120	0x3d8aceb5	0.067777075
121	0x3d2e53df	0.042560454
122	0xbd0242fd	-0.031802166
123	0xbcc6d842	-0.024273042
124	0xbde35f70	-0.11102188
125	0xbd477777	-0.048697915
126	0xbe3f19fe	-0.18662259
127	0x3ca95a98	0.020673081
128	0x3bf5e968	0.007504631
129	0xbdf35246	-0.11880927
130	0xbcdcda86	-0.026959669
131	0xbe2f20c6	-0.17102346
132	0xbd9303f0	-0.071784854
133	0xbceb8af1	-0.028752776
134	0xbbc6b75d	-0.006064339
135	0xbddc367f	-0.10752582
136	0xbc7c18b2	-0.015386747
137	0xbd4969de	-0.04917323
138	0xbbbd092f	-0.005768917
139	0xba925ab2	-0.0011165945
140	0xbb10f054	-0.0022115903
141	0xbd52065c	-0.051275596
142	0xbdaafa81	-0.08348561
143	0xbcb8377e	-0.022487398
144	0x3d35f930	0.044427097
145	0x3cf1432b	0.029450973
146	0xb930efd3	-0.0001687401
147	0x3da9c213	0.0828897
148	0xbd31b20c	-0.04338269
149	0x3c7a1a31	0.015265034
150	0xbd6d59e5	-0.05794706
151	0xb891d29d	-6.9533686e-05
152	0xbc8fd9cc	-0.017559908
153	0x3ad3056e	0.0016099641
154	0x3db337cd	0.087508775
155	0x3c9e7da6	0.019347023
156	0x3c854e6c	0.016272746
157	0xbd9af7df	-0.07566809
158	0x3da2ed29	0.07955391
159	0x3d95626a	0.072941616
160	0x3d8de906	0.06929211
161	0xbdbe0a88	-0.092793524
162	0x3cfd9f38	0.03095971
163	0xbcf8a5d9	-0.03035252
164	0xbe01f70c	-0.12691897
165	0x3df468f8	0.11934084
166	0x3d8b0c98	0.067895114
167	0x3b6c6d2a	0.003607581
168	0xbc64be46	-0.01396138
169	0x3ce4edad	0.027945364
170	0xbd9e163a	-0.07719083
171	0xbd540919	-0.05176649
172	0xbbd24258	-0.0064166
173	0xbca1bef2	-0.01974437
174	0x3d0f79b1	0.035028163
175	0x3ddaf7e7	0.10691815
176	0xbd9a8fb8	-0.075469434
177	0xbbda67b5	-0.006665195
178	0x3d76ac8a	0.06022314
179	0xbd7f716b	-0.062364023
180	0xbc69e559	-0.014275872
181	0x3d82ed7f	0.06392955
182	0xbd1612b4	-0.03663893
183	0xbd94da3a	-0.07268186
184	0xbe17ef95	-0.14837487
185	0x3daeda44	0.085377246
186	0x3c9b64c6	0.018968951
187	0xbdb7ef65	-0.08981208
188	0xbe0ae8d7	-0.13565384
189	0x3ca95686	0.02067114
190	0xb92cb482	-0.00016470443
191	0x3d3b3b8f	0.045711096
192	0xbdd5711c	-0.104219645
193	0x3bce6e05	0.0062997364
194	0xbbde9651	-0.0067928215
195	0xbd095957	-0.033532467
196	0x3d3a0c08	0.04542163
197	0x3cc3ec8d	0.023916507
198	0x3d1fd85b	0.039024692
199	0xbd60249a	-0.054722406
200	0x3d1b1fad	0.037872005
201	0xbd3a337c	-0.045459256
202	0x3d4bcfa4	0.04975857
203	0xbc3cd29a	-0.011524821
204	0xbd96fd47	-0.073725276
205	0x3d2810a2	0.041031487
206	0xbdb29871	-0.08720482
207	0x3cdda5c5	0.027056584
208	0xbcf16b77	-0.029470189
209	0xbcdd33cf	-0.027002243
210	0x3d1b994c	0.037987992
211	0xbde82d9f	-0.113368265
212	0x3d51c785	0.051215667
213	0xbdd27e0f	-0.1027795
214	0xbde933df	-0.11386847
215	0xbe2908bc	-0.16507238
216	0xbd25b6f4	-0.04045768
217	0xbca200f4	-0.019775845
218	0x3d1f900b	0.03895573
219	0x3ce28e88	0.027655855
220	0x3d3965c3	0.045263063
221	0xbdaec06b	-0.085327946
222	0x3d2854a1	0.041096333
223	0xbd811520	-0.063028574
224	0xbd8d593e	-0.06901787
225	0x3d43302c	0.047653362
226	0xbd05ab36	-0.032633983
227	0x3c257d6d	0.010100705
228	0x3d88e92d	0.066851
229	0xbd162486	-0.036655925
230	0x3c811e06	0.015761387
231	0x3d20d6c4	0.039267316
232	0xbd18ff3b	-0.03735278
233	0xbdc7d757	-0.0975787
234	0x3d3bfd25	0.045895714
235	0xbd18055f	-0.037114497
236	0x3c209e15	0.009803315
237	0xbd107b00	-0.035273552
238	0x3d8b8a8d	0.06813536
239	0x3c19794d	0.009367299
240	0xbc988be1	-0.018621387
241	0x3d218d51	0.03944141
242	0x3d5acd6d	0.053418566
243	0xbd197a9f	-0.037470456
244	0x3d97dc60	0.0741508
245	0xbe02cd5a	-0.12773648
246	0x3d3a9d90	0.04556042
247	0xbda30f26	-0.07961874
248	0xbd614cf4	-0.05500503
249	0xbd27c551	-0.04095966
250	0x3dde8ad0	0.1086632
251	0xbd662fa9	-0.056197796
252	0x3a76988f	0.0009406888
253	0xbe970ca0	-0.2950182
254	0x3ce98ad8	0.028508589
255	0x3d4377f1	0.047721807

fc3.weight f4 [4, 256]
0	0x3e08b300	0.13349533
1	0x3ef1f9ce	0.47260898
2	0xbf007fb5	-0.50194865
3	0x3e999fb1	0.30004647
4	0xbdc20226	-0.09473066
5	0xbddc2381	-0.10748959
6	0x3e93b325	0.28847614
7	0xbd970e24	-0.07375744
8	0x3f06fd5a	0.52730334
9	0xbc97f5c3	-0.018549806
10	0xbd4fc191	-0.05072171
11	0xbe013ecc	-0.12621611
12	0xbdeff04b	-0.11715754
13	0xbe084f86	-0.13311586
14	0xbebad1e9	-0.36488274
15	0xbe5f80af	-0.21826433
16	0xbd7e3d3d	-0.06207012
17	0x3e10fee7	0.14159738
18	0xbf063425	-0.52423316
19	0x3de09a60	0.10966945
20	0xbbd4a873	-0.0064898073
21	0x3cf2cbe1	0.029638233
22	0x3eafeea8	0.34361768
23	0x3e0ae981	0.13565637
24	0xbe071629	-0.13192047
25	0xbefc9157	-0.49329636
26	0x3e4b9e6d	0.19884653
27	0xbb3a308a	-0.002841028
28	0x3d6a1d2f	0.057156738
29	0xbe081f0e	-0.13293096
30	0x3e32873a	0.17434397
31	0xbe543089	-0.2072164
32	0xbe129ddd	-0.14318033
33	0x3f082e89	0.53196007
34	0x3d99bb2d	0.07506404
35	0xbd804056	-0.06262271
36	0x3e7159d5	0.23569424
37	0xbe0af854	-0.13571292
38	0xbe0295f3	-0.12752514
39	0xbe610483	-0.21974377
40	0x3d9d2661	0.07673336
41	0xbe77504c	-0.24151725
42	0x3de08a5c	0.1096389
43	0xbe91d1cd	-0.28480378
44	0x3ccdf22f	0.025139896
45	0x3cbf3b1e	0.023343619
46	0x3e399181	0.18121912
47	0x3fb89f15	1.4423548
48	0xbec23549	-0.37931278
49	0xbec15bd6	-0.37765378
50	0xbeb38739	-0.35064104
51	0x3ecd9149	0.40149906
52	0x3d1c2b61	0.038127307
53	0xbd9316d3	-0.07182088
54	0xbe1f2061	-0.15539695
55	0x3ca2a67e	0.01985478
56	0xbf07fb56	-0.53117883
57	0x3ca93e12	0.02065948
58	0xbefbe230	-0.49196005
59	0x3d4056ad	0.04695766
60	0x3ed22101	0.41040805
61	0xbc9e8dec	-0.019354783
62	0x3d19d171	0.037553255
63	0x3f2e864a	0.6817366
64	0xbd4a747d	-0.049427498
65	0x3ea49901	0.32147983
66	0x3e2019c8	0.15634835
67	0xbea0cacf	-0.3140473
68	0x3e54154d	0.2071125
69	0xbe89fe9c	-0.26952064
70	0x3e6eeeb8	0.23333251
71	0xbd8a5bcd	-0.06755791
72	0xbd792d5a	-0.060834266
73	0x3d9ffb95	0.07811657
74	0xbf2371f0	-0.6384573
75	0x3e7282f7	0.23682772
76	0xbddc53be	-0.1075816
77	0x3ee6ac86	0.450535
78	0x3e2140cd	0.15747376
79	0xbd9bf3ec	-0.07614884
80	0xbd5664c9	-0.05234221
81	0xbeda028b	-0.42580065
82	0x3f00275f	0.50060076
83	0x3e49d76b	0.19711082
84	0xbf170684	-0.5899432
85	0x3dba202a	0.09088166
86	0xbeb56700	-0.35430145
87	0x3eceff93	0.40429363
88	0xbe2d0a4c	-0.16898459
89	0xbedb8676	-0.42876023
90	0x3ecf35d2	0.4047075
91	0x3db975e1	0.09055687
92	0xbf005af3	-0.5013878
93	0xbe6b1575	-0.22957404
94	0x3ca83fa2	0.020538155
95	0x3d9aa740	0.07551432
96	0xbc2e0aa2	-0.010622652
97	0x3f07603b	0.5288121
98	0x3e3447fa	0.17605582
99	0xbed02525	-0.4065334
100	0xbdfe45a5	-0.124156274
101	0x3d81b3a1	0.063330896
102	0xbda5cb19	-0.080953784
103	0x3db16609	0.0866204
104	0x3d23f2b8	0.040026397
105	0xbef32d92	-0.47495705
106	0x3dc3213a	0.09527822
107	0xbc96b4c0	-0.018396735
108	0x3e1206c5	0.14260395
109	0x3b90df20	0.00442113
110	0xbec85d8f	-0.3913388
111	0x3ce25add	0.027631218
112	0xbd9bf872	-0.076157466
113	0x3eb000f4	0.34375727
114	0x3dc83dc4	0.09777406
115	0x3e60dce4	0.21959263
116	0x3e15f8e8	0.14645731
117	0xbf1f562a	-0.6224085
118	0xbdd4a161	-0.10382343
119	0x3e3a9775	0.18221839
120	0x3e6479c7	0.2231208
121	0x3e470b4c	0.19437903
122	0x3f0e79c8	0.55654573
123	0x3dcc6947	0.099810176
124	0xbe7e4f6e	-0.24834988
125	0xbf30df89	-0.6909109
126	0x3e20b3aa	0.15693536
127	0x3f8d971e	1.1061742
128	0xbdfba808	-0.12287909
129	0x3f160816	0.5860609
130	0xbc9fb7a2	-0.019496743
131	0xbe2648b4	-0.16238672
132	0xbf0be174	-0.5464089
133	0xbebb7353	-0.36611423
134	0x3e2f8851	0.17141844
135	0x3eef4371	0.4673114
136	0xbe97e74f	-0.29668662
137	0x3f5b69de	0.85708416
138	0x3e33ab42	0.17545798
139	0xbb137871	-0.0022502209
140	0xbf0ddb15	-0.5541242
141	0xbe5adb77	-0.21372782
142	0xbf049763	-0.517935
143	0x3eb2b8b2	0.34906536
144	0x3e2846fd	0.1643333
145	0x3d1413ff	0.036151882
146	0x3e422647	0.18959914
147	0xbcb884a6	-0.02252419
148	0x3ebd581e	0.3698129
149	0x3db97040	0.09054613
150	0xbe98058a	-0.29691726
151	0xbf0a401c	-0.54004073
152	0xbec31470	-0.3810153
153	0x3e82a661	0.25517562
154	0xbeae68a1	-0.340642
155	0xbe09702c	-0.13421696
156	0xbeebcbb0	-0.4605384
157	0x3dac186d	0.08403096
158	0x3eb010f0	0.34387922
159	0xbe324361	-0.17408516
160	0x3e39a141	0.1812792
161	0xbdfcfef9	-0.1235332
162	0xbe31ea84	-0.17374617
163	0x3cfb7d93	0.030699527
164	0xbea765cd	-0.32694855
165	0x3e2d11fd	0.16901393
166	0xbe37d463	-0.17952113
167	0x3d19fd82	0.03759528
168	0xbf01b42d	-0.5066555
169	0xbec5389b	-0.3851975
170	0x3ebbadb7	0.3665597
171	0xbe8241ad	-0.25440732
172	0xbead8b5b	-0.33895382
173	0xbd627d8b	-0.05529551
174	0x3d134064	0.03595008
175	0x3e308cee	0.1724126
176	0x3ef1ffdc	0.47265518
177	0xbd8f854f	-0.070078485
178	0x3ebb63f9	0.3659971
179	0xbe79c2c5	-0.24390705
180	0x3d816f47	0.063200526
181	0x3d0e5211	0.034746233
182	0xbc68d006	-0.014209753
183	0xbe3fb0b6	-0.18719754
184	0x3eb2f7b5	0.3495461
185	0x3d706776	0.058692418
186	0xbed7e06d	-0.4216341
187	0x3e5b5542	0.21419242
188	0xbf2247bc	-0.6339071
189	0xbf0e9c30	-0.55707073
190	0xbdaa33b5	-0.083106436
191	0x3ec249c9	0.3794692
192	0xbd370531	-0.044682685
193	0xbe8a3bc6	-0.2699873
194	0x3d3ceeeb	0.046126287
195	0xbe198fc8	-0.14996254
196	0xbdcdb907	-0.10045057
197	0x3e8cbfe0	0.2749014
198	0x3dbf4083	0.093384765
199	0xbf079108	-0.52955675
200	0xbdba7912	-0.091051236
201	0x3ec28569	0.3799241
202	0xbdaf5d73	-0.08562746
203	0xbe6ddbc7	-0.2322837
204	0x3ec1ac0d	0.37826577
205	0x3c27f94e	0.01025231
206	0x3e907f30	0.28222036
207	0xbd200dcb	-0.039075654
208	0xbf242d69	-0.6413179
209	0xbd48f889	-0.049065147
210	0xbe29762a	-0.16548982
211	0x3e789ee8	0.24279368
212	0x3eb4a43a	0.35281545
213	0x3df51057	0.11966007
214	0x3ec361f4	0.3816067
215	0xbee5de96	-0.44896382
216	0x3d0d5946	0.034508966
217	0x3e398b05	0.18119438
218	0xbe79d7c7	-0.24398719
219	0x3f2bcbfd	0.67108136
220	0xbf1515a3	-0.5823614
221	0xbe80e0b6	-0.2517144
222	0xbe8f7fc6	-0.2802717
223	0xbdb70206	-0.08935933
224	0x3f40e4ef	0.75349325
225	0xbf001b78	-0.50041914
226	0x3e781ec5	0.24230488
227	0xbdd58a32	-0.10426749
228	0x3e41a191	0.18909289
229	0xbea754ad	-0.3268179
230	0x3e0d5f5b	0.13805906
231	0xbd1db6c7	-0.03850439
232	0xbcf9070d	-0.03039887
233	0xbe2ded80	-0.1698513
234	0x3e38ddd2	0.18053368
235	0xbe3d0e5b	-0.18462507
236	0x3df01e8b	0.117245756
237	0xbda2c9f2	-0.07948674
238	0xbd962c6c	-0.073326916
239	0xbf0b2a8f	-0.54361814
240	0xbe369940	-0.17831898
241	0x3dedb833	0.11607399
242	0x3f51e6c2	0.81992733
243	0x3f4abe9b	0.7919709
244	0x3e5162fd	0.20447917
245	0x3d35d63b	0.04439376
246	0xbd469a5b	-0.04848705
247	0x3f0cfdd5	0.55074817
248	0xbd88b3ca	-0.06674917
249	0xbeea2cf9	-0.45737436
250	0x3e76fe09	0.24120344
251	0xbe9467ef	-0.28985545
252	0xbd50f252	-0.051012345
253	0x3f67cdc3	0.9054834
254	0x3e316945	0.17325313
255	0x3e845e9a	0.25853425

fc3.bias f4 [4]
0	0xbbdd5dea	-0.00675558
1	0x3d6beee2	0.057600863
2	0xb9ab3b09	-0.00032659646
3	0x3d05c4d1	0.032658402
