checkpoints/checkpoint_actor_ddqn_13.pth (torch_old, 303163 bytes, 6 tensors)

fc1.weight f4 [256, 33]
0	0xbe1fd976	-0.15610299
1	0xbcf24848	-0.029575482
2	0xbe3bbd6c	-0.18333977
3	0xbd332153	-0.043732952
4	0x3d78ae1f	0.06071293
5	0xbd334793	-0.04376943
6	0xbd81c1bd	-0.06335781
7	0x3d0ef3cb	0.034900468
8	0xbd8459f0	-0.06462467
9	0x3e1cdcbf	0.15318583
10	0x3b943bbb	0.004523722
11	0xbd81df31	-0.063413985
12	0x3b2bec5e	0.0026233415
13	0x3e991a35	0.29902807
14	0x3d1f1505	0.038838405
15	0x3dee6f78	0.11642355
16	0xbbaa6827	-0.005200404
17	0x3c3296a5	0.010900174
18	0x3d07862a	0.033086933
19	0xbdb5aec4	-0.088712245
20	0x3be2d24d	0.0069220425
21	0x3c8e1481	0.017343761
22	0x3e1044cd	0.14088745
23	0x3ddbe0c7	0.10736232
24	0x3c22caf9	0.009936088
25	0x3d7464b2	0.059666343
26	0xbe29deff	-0.16588973
27	0xbdd31863	-0.10307386
28	0xbe134f30	-0.14385676
29	0xbd199326	-0.037493847
30	0x3c0d6743	0.008630577
31	0x3d256c44	0.040386453
32	0x3f0a0c13	0.53924674
33	0x3db80fbe	0.089873776
34	0x3cb347ad	0.021884764
35	0xbedb7eee	-0.42870277
36	0x3c63c95b	0.013902987
37	0xbdf9f66c	-0.12205204
38	0xbe030cfa	-0.12797919
39	0xbda04102	-0.07824899
40	0x3c9e0d5a	0.019293476
41	0xbd0c1b28	-0.034205586
42	0xbe50e941	-0.2040148
43	0x3c852dd4	0.016257204
44	0xbca92c4b	-0.020651003
45	0xbd46dc7d	-0.048550118
46	0xbc96df80	-0.01841712
47	0xbdd73532	-0.10508193
48	0x3e839e08	0.25706506
49	0x3ded335d	0.115820624
50	0xbd16d2a6	-0.036821984
51	0x3d95e4e2	0.073190466
52	0x3d7694f5	0.06020065
53	0x3be4c974	0.006982023
54	0xbb463147	-0.0030241774
55	0x3d271e24	0.04080023
56	0x3c812b5e	0.01576775
57	0x3ce52aba	0.027974475
58	0x3c0fe98e	0.008783711
59	0xbcb86f78	-0.02251409
60	0xbda92421	-0.08258844
61	0x3c963ac3	0.018338567
62	0x3d6114a6	0.054951333
63	0x3c0d8769	0.008638241
64	0x3d66edda	0.056379177
65	0xbe9c9c29	-0.3058789
66	0xbd8b4726	-0.0680068
67	0x3daf61e1	0.08563591
68	0xbe228bdf	-0.15873669
69	0xbd76edbb	-0.06028531
70	0x3de41237	0.11136287
71	0xbe3c5ca1	-0.1839471
72	0xbcacc0a0	-0.021087945
73	0xbd1cb805	-0.038261432
74	0xbb996bde	-0.004682048
75	0xbe030f42	-0.12798789
76	0x3ddf91c2	0.10916473
77	0x3d1493d0	0.036273777
78	0xbd4f387b	-0.050590973
79	0x3d7456fe	0.059653275
80	0x3d165d8b	0.036710303
81	0x3e6b3df4	0.22972852
82	0x3d400895	0.046883184
83	0xbd363f98	-0.04449424
84	0xbd903d16	-0.07042901
85	0xbd9a7c53	-0.07543244
86	0xbd65b552	-0.056081124
87	0x3b4a6de4	0.0030888254
88	0xbc82ab9a	-0.015950967
89	0x3e7f3e02	0.24925998
90	0xbd87413c	-0.06604239
91	0x3c815be7	0.015790893
92	0x3e126de8	0.14299738
93	0x3e253322	0.16132787
94	0xbde3682d	-0.11103854
95	0xbcdb9528	-0.026804522
96	0xbe171fcc	-0.14758223
97	0x3d65469c	0.05597554
98	0x3e97e889	0.29669598
99	0xbd0c0cec	-0.03419201
100	0x3e2bf3ee	0.1679227
101	0xbe975a4e	-0.29561085
102	0x3d9cdf4e	0.076597795
103	0xbe25e2d4	-0.1619981
104	0x3e66b88e	0.2253134
105	0xbd09f8b8	-0.033684462
106	0xbd267d89	-0.040647063
107	0x3e0dc705	0.13845451
108	0xbdc9796f	-0.09837615
109	0xb9eb78d7	-0.00044912726
110	0x3db13866	0.08653335
111	0xbd2044a8	-0.039127976
112	0xbd4d9175	-0.050187547
113	0xbe5ef346	-0.21772489
114	0x3b948d93	0.0045334785
115	0x3dfedae7	0.12444096
116	0x3d8c55f2	0.0685233
117	0x3d2f8a43	0.042856466
118	0xbbe1b8ca	-0.0068884837
119	0x3e0c748b	0.13716333
120	0x3c878ec0	0.01654756
121	0xbd80150d	-0.06254015
122	0xbd173fe6	-0.036926173
123	0xbd5fa1c1	-0.05459762
124	0x3c8a70f9	0.016899573
125	0x3d665476	0.056232892
126	0x3dadd5cb	0.084880434
127	0x3d94a2d7	0.07257622
128	0xbd05e508	-0.032689124
129	0xbdabefca	-0.083953455
130	0x3d0a1086	0.033707164
131	0xbf197dc5	-0.59957534
132	0xbcfd4fe7	-0.03092189
133	0xbd6c05e3	-0.0576228
134	0xbe0eac63	-0.13932948
135	0xbd0c7318	-0.03428945
136	0xbd183c7d	-0.03716706
137	0x3e939b22	0.28829294
138	0x3c8c4340	0.017121911
139	0x3e14dee1	0.14538147
140	0xbd0d60d2	-0.034516163
141	0xbd4a0acf	-0.049326714
142	0x3daedad6	0.085378334
143	0x3da01192	0.07815851
144	0xbcc071b1	-0.023491712
145	0xbd0b5df1	-0.034025136
146	0xbd9613b3	-0.07327976
147	0x3e265d8d	0.16246624
148	0xbe4c209a	-0.19934312
149	0xbdade9fe	-0.08491896
150	0x3bf1554a	0.0073649036
151	0x3dad8de4	0.08474329
152	0xbda31ece	-0.0796486
153	0x3e005251	0.12531401
154	0xbe385415	-0.18000825
155	0xbc9c5052	-0.019081268
156	0x3db16d62	0.08663441
157	0x3c98f21b	0.018670132
158	0x3d384346	0.044986032
159	0x3e151d15	0.14561875
160	0xbe13860c	-0.14406604
161	0xbd1f1b96	-0.038844667
162	0xbd423797	-0.047416296
163	0x3d785820	0.060630918
164	0x3ed87132	0.4227386
165	0xbe6ae6e9	-0.22939648
166	0x3e5de100	0.21667862
167	0xbe82636a	-0.25466472
168	0x3cad99c4	0.021191485
169	0x3d10ce9e	0.035353296
170	0x3df4fd32	0.11962356
171	0xbd87517c	-0.06607339
172	0xbe04fec3	-0.12987809
173	0x3ddf3578	0.1089887
174	0x3e1ec0c6	0.15503225
175	0xbd1ddfac	-0.03854339
176	0xbc0e8212	-0.008698003
177	0xbc8e79af	-0.017392008
178	0x3dc2d35b	0.09512969
179	0xbd0204e4	-0.031742945
180	0x3e06d00c	0.13165301
181	0x3c7b9677	0.015355698
182	0x3d7faf8e	0.06242328
183	0xbdde8fcb	-0.1086727
184	0x3c0857cd	0.008321715
185	0xbdb4f86c	-0.08836445
186	0x3d363f85	0.04449417
187	0x3962490b	0.0002158025
188	0xbd8af659	-0.06785268
189	0xbc1e7d77	-0.009673468
190	0xbdb014c8	-0.08597714
191	0xbdcfd1f6	-0.10147469
192	0xbd2c1887	-0.04201558
193	0x3c6d8e84	0.01449931
194	0x3cd083d0	0.025453478
195	0x3daec1b5	0.085330404
196	0x3b605f40	0.003423646
197	0x3f03cb4a	0.5148207
198	0xbcdf7286	-0.027276289
199	0x3ef6e624	0.48222458
200	0xbe95280c	-0.29132116
201	0xbe4354c1	-0.190753
202	0x3e132e30	0.14373088
203	0x3e05095a	0.12991849
204	0xbe65a9a6	-0.22427997
205	0x3db2c0b5	0.08728162
206	0x3d493fcb	0.049133103
207	0x3dd485b7	0.103770666
208	0xbd1572c5	-0.036486406
209	0x3df7a468	0.12091905
210	0xbdd75977	-0.10515111
211	0x3e2e77f5	0.17037947
212	0x3f2d3241	0.67654806
213	0x3e70bf5f	0.23510502
214	0x3dbed55f	0.09318041
215	0x3d2e4022	0.04254163
216	0x3e13ac85	0.1442128
217	0xb9094311	-0.00013090322
218	0xbdfba3fa	-0.122871354
219	0x3e3134e3	0.17305331
220	0xbd3c94e4	-0.04604043
221	0x3ccdf8e3	0.025143092
222	0x3def1c11	0.11675275
223	0x3dbe051b	0.092783175
224	0xbe2aeb04	-0.16691214
225	0xbd55a61d	-0.05216037
226	0x3c976678	0.018481478
227	0x3b2d7800	0.002646923
228	0xbc6d6087	-0.014488346
229	0x3c9825a0	0.018572628
230	0x3e39c367	0.18140946
231	0x3e445ef5	0.19176848
232	0xbdce984f	-0.10087644
233	0xbbd5c106	-0.0065232543
234	0xbdd1b1e9	-0.10239012
235	0x3c3d9c14	0.011572856
236	0x3df39747	0.11894088
237	0x3e1a7e04	0.15087134
238	0x3d9d8fcb	0.07693442
239	0x3e82802e	0.25488418
240	0xbda95f23	-0.08270099
241	0x3d41dbe8	0.04732886
242	0x3d80b8f7	0.06285279
243	0xbe074509	-0.13209929
244	0xbe7156f9	-0.23568334
245	0x3d2b7356	0.04185804
246	0x3dca1851	0.09867919
247	0xbd960aca	-0.073262766
248	0xbcef23a4	-0.0291918
249	0xbd81796e	-0.06321989
250	0x3c93f421	0.018060746
251	0xbe9f13e6	-0.3106987
252	0xbe75f5a5	-0.24019487
253	0xbda68520	-0.0813086
254	0x3c1caf39	0.009563261
255	0xbddab322	-0.10678698

fc1.bias f4 [256]
0	0x3cbac0d9	0.022797035
1	0xbd81b2e7	-0.06332951
2	0xbc970179	-0.01843332
3	0xbde31422	-0.110878244
4	0xbcc96890	-0.024585992
5	0x3d9f9827	0.07792693
6	0xbe12e7f6	-0.14346299
7	0x3d325960	0.043542266
8	0x3ddd7ec8	0.10815197
9	0x3d7c862a	0.061651386
10	0xbdf30026	-0.11865263
11	0x3dae5eb0	0.08514154
12	0x3bd50dcb	0.0065018884
13	0x3da02fb8	0.07821602
14	0x3e519f3d	0.20470901
15	0x3d992071	0.07476891
16	0xbd26c025	-0.040710587
17	0x3c4b6b59	0.01241573
18	0xbe4d24dc	-0.20033592
19	0xbe927b4c	-0.28609693
20	0x3ccaf078	0.024772868
21	0xbe37e812	-0.17959622
22	0xbd4ea787	-0.050452735
23	0xbc2a4b98	-0.0103939995
24	0xbe53ca20	-0.20682573
25	0xbdb2c586	-0.08729081
26	0xbac4a557	-0.0015002888
27	0xbd73f971	-0.059564058
28	0x3d4dadc5	0.050214548
29	0xbe3065d5	-0.17226346
30	0xbe25a03e	-0.16174409
31	0xbd6f2899	-0.058388326
32	0x3d2e9dd9	0.042631004
33	0xbdd0c23b	-0.101932965
34	0xbe2fd510	-0.1717112
35	0x3d47238b	0.04861788
36	0xbe474f6f	-0.19463895
37	0x3d1cc222	0.038271077
38	0x3d72c5d8	0.05927071
39	0x3d97c6d3	0.074109696
40	0xbe97ae58	-0.296252
41	0xbd9b18c0	-0.0757308
42	0x3e098ec5	0.13433369
43	0x3e698587	0.22804843
44	0x3e37bfa6	0.17944202
45	0xbdfd9ba6	-0.12383203
46	0x3c032458	0.0080042705
47	0xbe103d01	-0.14085771
48	0x3e25ab4d	0.16178627
49	0x3da3dde0	0.08001304
50	0xbe28f933	-0.16501312
51	0x3d932cca	0.07186277
52	0xbda109ca	-0.07863195
53	0x3c222dda	0.009898627
54	0xbdbed8b7	-0.09318679
55	0x3c8fae3a	0.017539132
56	0xbc9cbe68	-0.019133762
57	0x3ddcb343	0.10776379
58	0xbe288ca7	-0.16459905
59	0x3e78b035	0.24285968
60	0xbe3545cd	-0.17702408
61	0xbe0b2b8d	-0.13590832
62	0xbcdd8518	-0.027041003
63	0x3d80979d	0.06278918
64	0xbe28a335	-0.16468509
65	0xbe2c4f88	-0.16827214
66	0x3df1d673	0.11808481
67	0xbd62b97c	-0.055352673
68	0xbd204005	-0.039123554
69	0xbe361671	-0.17781998
70	0x3de40c52	0.111351624
71	0x3dc9fd86	0.09862809
72	0xbe15f592	-0.14644459
73	0x3d0d8e9a	0.034559824
74	0x3d132ce3	0.03593148
75	0x3e170ee6	0.14751777
76	0xbe7e7a98	-0.24851453
77	0x3db616da	0.08891077
78	0xbe573410	-0.21015954
79	0x3cd69836	0.026195627
80	0x3d90a606	0.070629165
81	0xbdb79d19	-0.08965511
82	0xbe10ac78	-0.14128292
83	0xbd9b34b0	-0.07578409
84	0x3a366d6b	0.00069590536
85	0x3d3baeb1	0.045820896
86	0xbe8bfde2	-0.27342135
87	0xbdd847c8	-0.10560566
88	0xbd5d770e	-0.054068618
89	0x3cb5a74e	0.022174504
90	0x3c225705	0.009908442
91	0xbc0013e7	-0.007817245
92	0xbdd2750d	-0.10276232
93	0x3e538c20	0.20658922
94	0xbd248745	-0.040168066
95	0x3c57e11d	0.01317623
96	0xbe51c3e0	-0.20484877
97	0xbe4934af	-0.19649003
98	0xbc7fe455	-0.015618403
99	0x3ce9abe0	0.02852434
100	0x3d349dcd	0.044095803
101	0x3dc00f4f	0.0937792
102	0x3c9c5539	0.019083606
103	0x3cf24744	0.029574998
104	0x3d404f66	0.04695072
105	0xbd37e682	-0.044897564
106	0xbd9e22bf	-0.07721471
107	0xbd0656c5	-0.032797594
108	0x3dc360fe	0.09539984
109	0xbd951b6f	-0.07280623
110	0x3e9eaf9b	0.3099335
111	0x3d38f370	0.045154035
112	0xbe7263bb	-0.23670857
113	0xbe895fc3	-0.26830873
114	0x3d837c90	0.06420243
115	0xbd110e49	-0.035414014
116	0xbe24b27a	-0.16083708
117	0xbcb31fa9	-0.021865683
118	0x3e1bbe39	0.15209283
119	0xbe4f1664	-0.20223385
120	0x3e463d54	0.19359332
121	0x3e940c6c	0.28915727
122	0xbdcd15ff	-0.10013961
123	0x3cdb3506	0.026758682
124	0x3db49c71	0.08818901
125	0xbb55d545	-0.003262834
126	0xbda98600	-0.082775116
127	0x3c8b19db	0.016980102
128	0xbe326155	-0.17419942
129	0xbe600596	-0.21877131
130	0xbe271dc3	-0.16319947
131	0xbe815efa	-0.25267774
132	0x3c4bffa6	0.012451088
133	0xbe61df41	-0.22057821
134	0xbe1a00b0	-0.15039325
135	0x3d65a97c	0.056069836
136	0xbd08c855	-0.033394177
137	0xbe71e1b3	-0.23621254
138	0xbe1e9704	-0.15487295
139	0xbe104241	-0.14087774
140	0xbe309a34	-0.17246324
141	0xbd02d27c	-0.031939015
142	0x3cd07f90	0.025451452
143	0xbdb6efee	-0.08932482
144	0xbe015205	-0.12628944
145	0xbd8a5a0b	-0.067554556
146	0xbe328ed9	-0.17437305
147	0xbd3012ab	-0.042986553
148	0x3d5544ca	0.052067555
149	0xbe509900	-0.20370865
150	0xbe5e128f	-0.21686767
151	0xbe2d0c1e	-0.16899154
152	0x3d14bc27	0.03631225
153	0xbe14001b	-0.14453165
154	0x3d2e15e9	0.042501364
155	0xbd8f9bea	-0.0701216
156	0xbd3d87d4	-0.046272114
157	0xbc4faf53	-0.012676078
158	0xbd881543	-0.0664468
159	0x3d5c5c06	0.053798698
160	0x3b8631d6	0.0040952964
161	0xbe04897c	-0.12943071
162	0x3d9c2631	0.07624472
163	0x3d5c7f35	0.05383225
164	0x3e32314d	0.1740162
165	0xbddefc38	-0.10887951
166	0xbdac8bc3	-0.08425095
167	0xbceaf6b0	-0.028682083
168	0xbe48f6cf	-0.196254
169	0xbe6ce8cc	-0.2313568
170	0xbc956724	-0.018237658
171	0x3e057430	0.13032603
172	0xbdf58455	-0.11988131
173	0xbd3d6965	-0.04624309
174	0xbd8af227	-0.06784468
175	0x3d3d334d	0.046191502
176	0xbe40c8ca	-0.18826595
177	0xbe5aa6fe	-0.21352765
178	0xbe249171	-0.16071106
179	0xbc89b7ff	-0.016811369
180	0xbe04e6f2	-0.12978724
181	0x3c655d50	0.013999298
182	0xbd31b19d	-0.043382276
183	0xbe931ce4	-0.2873298
184	0x3d4e2fb4	0.050338462
185	0x3bcc0a73	0.0062268316
186	0x3e357268	0.17719424
187	0xbe3cf569	-0.18452992
188	0xbe054aeb	-0.1301686
189	0x3ddd2523	0.10798099
190	0xbe80c25e	-0.2514829
191	0xbd367c3c	-0.044552073
192	0x3e27f7c5	0.1640311
193	0xbdf38717	-0.11891001
194	0xbdbcdf3e	-0.092222676
195	0xbde5a9dd	-0.112140395
196	0xbd21f6b7	-0.039541926
197	0x3b129c40	0.0022370964
198	0xbdebedec	-0.11519989
199	0x3e279a7a	0.16367522
200	0x3e466b4d	0.1937687
201	0x3e4ca5fe	0.19985196
202	0xbd169e55	-0.03677209
203	0x3d9eff3b	0.07763525
204	0xbd9de60a	-0.07709892
205	0xbe4e76db	-0.20162527
206	0xbe105025	-0.14093073
207	0xbe2b681b	-0.16738932
208	0xbd0d222e	-0.034456424
209	0x3de2b72a	0.11070092
210	0xbd3b935c	-0.04579483
211	0xbe1bf5f4	-0.15230542
212	0xbda7dd25	-0.08196477
213	0x3cb2a391	0.02180651
214	0xbe59dd9b	-0.21275942
215	0xbd75fb48	-0.060054094
216	0xbe16a23e	-0.14710328
217	0xbe6ec091	-0.23315646
218	0xbdf9ac88	-0.12191111
219	0x3d765d04	0.0601473
220	0xbdf41502	-0.119180694
221	0xbeb29ad8	-0.3488376
222	0xbd13d515	-0.036091883
223	0xbe5f1b99	-0.21787871
224	0x3d056f50	0.03257686
225	0xbe5580d2	-0.20849922
226	0xbe056ee0	-0.13030577
227	0xbdb0baff	-0.08629417
228	0xbe425487	-0.18977557
229	0x3e06193c	0.13095564
230	0xbdaf9f43	-0.08575299
231	0xbdb55ee5	-0.0885599
232	0xbe5f0262	-0.21778253
233	0x3d85cfd5	0.065337814
234	0xbd735f5d	-0.059417117
235	0xbd16f4f2	-0.03685469
236	0x3d988c60	0.074486494
237	0x3d150bde	0.03638827
238	0xbd470d4d	-0.04859667
239	0xbd057ec8	-0.03259161
240	0xbd9c697a	-0.076373056
241	0xbe8a30d2	-0.26990372
242	0xbd88fe32	-0.06689109
243	0x3cfd7f29	0.030944424
244	0x3d3711d2	0.04469473
245	0xbe022477	-0.12709223
246	0xbd802d7c	-0.062586755
247	0x3d738efc	0.059462532
248	0x3cda525e	0.026650604
249	0x3d774aa6	0.060373925
250	0xbd4a14c8	-0.049336225
251	0xbe802704	-0.25029767
252	0x3d00bc56	0.03142961
253	0xbb54e21d	-0.0032483407
254	0xbcbd4d83	-0.02310825
255	0xbe4579e3	-0.19284777

fc2.weight f4 [256, 256]
0	0x3d8d0002	0.06884767
1	0x3cf75f54	0.030196823
2	0x3e653573	0.2238367
3	0xbca43b1a	-0.020047713
4	0x3dd52c06	0.104087874
5	0xbe737771	-0.23776032
6	0xbe0e761d	-0.13912244
7	0xbec7d8b5	-0.39032522
8	0xbe835d31	-0.25657037
9	0x3d715826	0.058921956
10	0xbd9e0916	-0.07716577
11	0x3e000d17	0.12504993
12	0xbee02eb6	-0.43785638
13	0xbcb600a8	-0.02221711
14	0x3d4a9542	0.04945875
15	0xbe45c69f	-0.19314049
16	0xbdea5c6c	-0.11443409
17	0x3e4d16ac	0.2002818
18	0xbeaa7a4a	-0.33296424
19	0x3d43005b	0.04760776
20	0xbe044496	-0.12916788
21	0xbcf6306b	-0.030052384
22	0x3df613c7	0.12015491
23	0x3d4d61fb	0.05014227
24	0x3de5d651	0.11222518
25	0x3d43bcb2	0.047787376
26	0x3ce66770	0.028125495
27	0x3ebeb174	0.3724476
28	0x3e241301	0.16022874
29	0xbe7c9fd9	-0.24670352
30	0x3e300a0a	0.1719133
31	0xbd9063af	-0.07050263
32	0x3d42125a	0.047380783
33	0x3dcad507	0.09903913
34	0x3e23568c	0.15950984
35	0x3ddfe8d4	0.1093308
36	0x3cfad5ce	0.030619528
37	0x3d9440fd	0.07238958
38	0xbe1bf638	-0.15230644
39	0x3c98e299	0.018662738
40	0xbc51b7f1	-0.012800203
41	0x3cfea493	0.031084334
42	0x3b321b55	0.0027176936
43	0xbc93e802	-0.018054966
44	0x3d139af7	0.036036458
45	0xbd0185a0	-0.031621575
46	0xbe01533b	-0.12629406
47	0xbdfceca9	-0.12349827
48	0x3d979b7b	0.074027024
49	0xbe6b581a	-0.22982827
50	0x3cda4ade	0.026647028
51	0x3d4aa5e6	0.04947462
52	0x3c2f3536	0.010693839
53	0xbdea9b8f	-0.11455452
54	0xbc9ff833	-0.01952753
55	0xbd87d613	-0.06632628
56	0xbe5ea6b8	-0.21743286
57	0xbea2a31b	-0.31765065
58	0xbdb4d4dd	-0.08829663
59	0x3dde92ab	0.108678184
60	0xbe8a4e72	-0.27012974
61	0x3cb8fb65	0.022580812
62	0x3cdd538a	0.027017374
63	0xbe964731	-0.2935119
64	0x3dab2171	0.08355988
65	0xbe28bdff	-0.16478728
66	0xbddc983e	-0.107712254
67	0xbea21955	-0.31659952
68	0xbebebaa6	-0.37251776
69	0x3d16403b	0.03668235
70	0x3dbbd913	0.09172263
71	0xbe27979a	-0.16366425
72	0xbddd383f	-0.10801744
73	0xbc9573cb	-0.018243691
74	0xb903cbea	-0.00012569097
75	0xbbfec651	-0.007775106
76	0x3d0aee6f	0.033918794
77	0xbe1c2561	-0.15248634
78	0x3d1fd761	0.03902376
79	0x3d120be9	0.03565589
80	0xbed8f817	-0.42376778
81	0xbd566751	-0.052344624
82	0xbda0a7be	-0.07844494
83	0xbd8431de	-0.06454824
84	0x3d0fa7b6	0.03507205
85	0x3d710180	0.05883932
86	0x3e3dc9af	0.18533967
87	0xbeb8614a	-0.36011726
88	0xbe1e803b	-0.15478604
89	0x3de74f45	0.11294416
90	0xbd97def5	-0.074155726
91	0xbe1e2407	-0.15443431
92	0x3cd9b9ac	0.026577793
93	0xbe3185d4	-0.17336208
94	0xbed89081	-0.42297748
95	0x3d156566	0.036473654
96	0xbcdaa1a2	-0.0266884
97	0xbeb7a6ce	-0.3586945
98	0xbca71573	-0.02039597
99	0x3d4741c1	0.048646692
100	0x3c648a76	0.013949027
101	0xbdb0fcec	-0.08641991
102	0xbe3ea5cd	-0.18617935
103	0xbdbc6d08	-0.092004836
104	0x3e31ff53	0.17382555
105	0x3d831a59	0.0640151
106	0x3e7ffd11	0.24998881
107	0xbd847b04	-0.06468776
108	0xbec32008	-0.38110375
109	0x3cf0a3b4	0.029374935
110	0xbe2178bd	-0.15768714
111	0xbe24a18e	-0.16077253
112	0x3d018730	0.031623065
113	0x3d30a4c0	0.043125868
114	0xbe4a6901	-0.19766618
115	0x3d064e39	0.032789443
116	0x3df9b450	0.12192595
117	0x3e049a77	0.12949549
118	0xbd43017f	-0.04760885
119	0x3e50a521	0.20375492
120	0xbcf228b0	-0.029560417
121	0xbe7efa1c	-0.24900097
122	0xbd88a778	-0.06672567
123	0xbe0c5218	-0.13703191
124	0x3d3116e5	0.043234725
125	0xbc69d8c6	-0.014272874
126	0xbe85dd38	-0.2614534
127	0xbe19020a	-0.14942184
128	0x3e212bf4	0.15739423
129	0x3d85e9c0	0.06538725
130	0x3e248ddc	0.1606974
131	0x3e6917c9	0.2276298
132	0x3e0283fe	0.12745664
133	0x3dc764bd	0.09736011
134	0x3efde8ef	0.49591777
135	0xbdfba588	-0.12287432
136	0xbc64bb13	-0.013960618
137	0x3e402e4e	0.18767664
138	0x3badcfec	0.0053043272
139	0xbe267a75	-0.16257651
140	0xbc9f0d9d	-0.019415671
141	0x3d8bb3ca	0.068214014
142	0xbdfdb209	-0.12387473
143	0xbe8d9fe2	-0.27661043
144	0xbd2dd988	-0.042443782
145	0xbe0915f6	-0.13387284
146	0xbe460400	-0.19337463
147	0x3e91e07a	0.28491575
148	0x3d903016	0.07040422
149	0xb9addd97	-0.0003316223
150	0x3e1410c9	0.14459528
151	0x3e32cf90	0.17461991
152	0x3db54b6f	0.088522784
153	0xbe311dce	-0.17296526
154	0xbcc27837	-0.023738964
155	0x3a0940f7	0.0005235816
156	0x3d36de1c	0.044645414
157	0xbdbc6788	-0.091994345
158	0x3d4c242c	0.049839184
159	0x3e138946	0.14407834
160	0xbd7e85e9	-0.062139425
161	0xbde536a9	-0.11192066
162	0xbcae8c43	-0.021307116
163	0xbdef1af9	-0.116750665
164	0x3e900d6a	0.28135234
165	0x3eaededc	0.34154403
166	0x3d27e6e4	0.04099168
167	0x3e7c04ea	0.2461125
168	0x3d760811	0.060066286
169	0xbe224094	-0.15844947
170	0xbd327ede	-0.04357802
171	0x3eabb834	0.33538973
172	0x3d435fdb	0.047698837
173	0x3e444e98	0.19170606
174	0x3dbbba5b	0.09166404
175	0x3d3d3402	0.046192177
176	0xbe66d303	-0.22541432
177	0x3b694c06	0.0035598292
178	0x3cb841a6	0.022492241
179	0xbd01f7e6	-0.031730555
180	0x3e3c7ac8	0.18406212
181	0xbe31c499	-0.17360152
182	0xbe4cdbfa	-0.2000579
183	0xbd313cda	-0.043270923
184	0xbeafad02	-0.34311682
185	0xbdbafdc8	-0.09130436
186	0xbd891933	-0.066942595
187	0x3bd79ff3	0.0065803467
188	0x3ea2422a	0.31691104
189	0xbbf3662c	-0.0074279513
190	0x3d58cd63	0.052930247
191	0x3cff5c13	0.031171834
192	0x3dcce2d5	0.10004202
193	0x3ced4f3d	0.028968448
194	0x3e00f74d	0.12594338
195	0x3c292825	0.010324513
196	0x3e973052	0.29529053
197	0xbd6324a0	-0.05545485
198	0xbd7c1f28	-0.06155315
199	0x3ebf566b	0.3737062
200	0x3cdb87a4	0.026798077
201	0x3baf184a	0.0053434717
202	0x3e560481	0.20900156
203	0xbe22584d	-0.15853997
204	0xbd6979a3	-0.057000767
205	0x3c93e5f5	0.018053988
206	0xbe38caf8	-0.18046176
207	0x3dee7957	0.116442375
208	0x3d53702f	0.05162066
209	0x3d415ec4	0.047209516
210	0xbc7d3718	-0.01545503
211	0x3cb55945	0.022137294
212	0xbe155191	-0.14581896
213	0xbdaa4ae6	-0.08315067
214	0x3c80bc8a	0.015714902
215	0xbe44b51d	-0.19209714
216	0xbd9286e8	-0.071546376
217	0xbd3c7d90	-0.046018183
218	0xbd45d770	-0.04830116
219	0xbbcf6227	-0.0063288393
220	0xbda738bf	-0.0816512
221	0x3ca8cf3f	0.020606635
222	0xbd8e1727	-0.0693801
223	0xbeac953a	-0.337076
224	0xbd2f4f02	-0.042799957
225	0x3e411b9d	0.1885819
226	0x3dc7faa6	0.09764604
227	0x3e03e7d1	0.128814
228	0xbb9f8b3a	-0.004868892
229	0xbdecf967	-0.11571007
230	0x3cbe300d	0.023216272
231	0x3e2c2577	0.16811167
232	0xbe67ab09	-0.22623838
233	0xbd50ff69	-0.051024828
234	0xbd802e41	-0.06258822
235	0xbdc5c337	-0.09656375
236	0xbd2dfaa8	-0.042475373
237	0xbc9497ee	-0.018138852
238	0x3c6ae42d	0.014336628
239	0xbe12cee2	-0.14336732
240	0xbe85fc7f	-0.26169202
241	0x3eb155b6	0.34635705
242	0x3d20b369	0.0392336
243	0xbc195496	-0.009358546
244	0xbe98a955	-0.2981669
245	0x3d15d01e	0.03657543
246	0x3eb1db65	0.34737697
247	0x3dda3a6d	0.10655675
248	0xbd85f24d	-0.06540356
249	0xbd860615	-0.06544129
250	0x3cdce82a	0.026966173
251	0x3e1a8c93	0.15092687
252	0x3df7e495	0.121041454
253	0xbeded077	-0.4351842
254	0xbc8519a9	-0.016247587
255	0x3c10dc1e	0.0088415425

fc2.bias f4 [256]
0	0xbde0078e	-0.10938941
1	0x3ba42630	0.005009435
2	0x3d0453ed	0.0323066
3	0xbca939e2	-0.020657483
4	0x3cedf10f	0.02904561
5	0x3d27c606	0.040960334
6	0x3c4398eb	0.011938314
7	0x3d29cef1	0.04145712
8	0xbd9ab82b	-0.075546585
9	0x3dfd622f	0.12372243
10	0x3d7270f1	0.05918974
11	0x3daf9a2a	0.08574326
12	0x3c1947f5	0.009355535
13	0xbbc9b4fe	-0.006155609
14	0xbda985f0	-0.082775
15	0x3cfaafa8	0.030601338
16	0xbda5993e	-0.08085869
17	0x3d226f0e	0.03965669
18	0xbcf3e48f	-0.029772071
19	0xbd0ed56f	-0.034871515
20	0xbd566d3c	-0.052350268
21	0xbe0e9342	-0.13923362
22	0x3d4b76f0	0.049673975
23	0x3dd4a2e1	0.10382629
24	0xbcb77940	-0.022396684
25	0xbc0d64d8	-0.00863
26	0xbcffbc9b	-0.031217864
27	0xbc969063	-0.018379396
28	0x3d5c80bb	0.053833704
29	0x3c8716f9	0.016490446
30	0xbd9e916a	-0.07742579
31	0x3c970f69	0.018439965
32	0x3d6b445c	0.05743824
33	0xbd332af7	-0.043742146
34	0x3cede52c	0.029039942
35	0x3ca063bb	0.019578805
36	0x3ca2c60d	0.019869829
37	0xbc19abfe	-0.009379385
38	0xbd052b83	-0.0325122
39	0xbd5c4640	-0.053777933
40	0x3d19224f	0.037386235
41	0x3c8bf205	0.017083177
42	0xbc0715bb	-0.008244927
43	0x3d57b2ab	0.052660625
44	0xbc540c53	-0.012942391
45	0x3dc8d23b	0.09805723
46	0x3dc40123	0.09570529
47	0x3dc63992	0.096789494
48	0xbdd90f49	-0.105986185
49	0xbd312dba	-0.0432565
50	0x3d566b10	0.052348197
51	0x3d590fb3	0.052993488
52	0x3ccfc3d7	0.025361938
53	0xbcca3c01	-0.024686815
54	0x3d9ebd4e	0.07750951
55	0xbcb264f4	-0.021776654
56	0xbddd4af7	-0.10805314
57	0xbd274c08	-0.040843993
58	0x3deb3340	0.114843845
59	0xbe12cd73	-0.14336185
60	0xbc9f52a1	-0.01944858
61	0x3da33cae	0.07970558
62	0x3d624623	0.05524267
63	0x3c6f96a6	0.01462332
64	0x3bd11583	0.006380738
65	0xbb37da4d	-0.0028053701
66	0xbcd4e324	-0.025987215
67	0xbd3f67cd	-0.04672985
68	0x3d73accb	0.05949096
69	0xbcd7b4a8	-0.02633126
70	0xbc73cb84	-0.014880065
71	0x3bfe1f95	0.0077552297
72	0xbb2b5f3b	-0.002614929
73	0xbb30205c	-0.0026874756
74	0x3cce8969	0.025212007
75	0x3c39eb1e	0.01134756
76	0xbd102bcb	-0.035198014
77	0xbd573d54	-0.05254872
78	0x3d1d63e0	0.038425326
79	0x3cd8eaeb	0.026479205
80	0xbcf8dfb4	-0.030380107
81	0x3d92c4cb	0.071664415
82	0xbd4ec69b	-0.050482374
83	0xbd310bf6	-0.043224297
84	0x3d19584a	0.037437715
85	0xbdec35cd	-0.11533699
86	0x3d379f00	0.04482937
87	0xbb23269c	-0.002489484
88	0xbbf37fa0	-0.0074309856
89	0x3d138afd	0.03602122
90	0x3c9c5fe9	0.019088702
91	0xbdd59557	-0.10428875
92	0xbe636887	-0.22207843
93	0xbd76bae8	-0.06023684
94	0xbe0a6394	-0.13514549
95	0xbcc1d0a2	-0.023659054
96	0x3c924531	0.017855259
97	0xb9c84bf7	-0.0003820357
98	0xbe2f7fa3	-0.17138533
99	0xbd6cf3fe	-0.057849877
100	0x3d1bee64	0.038069144
101	0xbbf4c71b	-0.0074700243
102	0xbcd2dfb2	-0.025741432
103	0x3c4bb3b9	0.012432986
104	0xbec02751	-0.37529996
105	0xbd9cdd06	-0.076593444
106	0xbae25fa0	-0.001727093
107	0x3ca2ba48	0.019864216
108	0x3ce2d51d	0.027689511
109	0xbdedc0c2	-0.11609031
110	0xbc8055fe	-0.015666004
111	0x3c49f2c0	0.0123259425
112	0x3d3178ff	0.04332828
113	0xbd1711c6	-0.036882184
114	0xbd70efcc	-0.058822438
115	0xbbf4ad9f	-0.0074669863
116	0xbd5b957a	-0.05360935
117	0x3ceb404c	0.028717183
118	0xbc9a9e08	-0.018874183
119	0xbc5ff5eb	-0.013669471
120	0x3de84d28	0.113428414
121	0x3ce7253d	0.028215999
122	0xbe3dfbe5	-0.18553121
123	0xbdcdde2a	-0.1005214
124	0xbdcbaf24	-0.09945515
125	0xbd758b6b	-0.059947412
126	0x3ced2fe9	0.02895351
127	0xbcd5a231	-0.026078315
128	0x3ba4e289	0.005031888
129	0xbc7e77aa	-0.01553146
130	0xbaeb8be6	-0.001797077
131	0xbceef792	-0.029170785
132	0xbd30d513	-0.043171953
133	0x3da800d0	0.0820328
134	0x3d79bb03	0.060969364
135	0xbd294c31	-0.041332427
136	0xbd31551a	-0.04329405
137	0xbcc45363	-0.023965543
138	0x3d14216e	0.036164694
139	0x3c95215e	0.018204387
140	0xbd390825	-0.045173783
141	0xbd6f8105	-0.058472652
142	0xbbc530e3	-0.0060177906
143	0xbcff91ef	-0.031197516
144	0xbbed358a	-0.0072390484
145	0xbcdc3bbb	-0.02688395
146	0x3d4989e5	0.049203772
147	0xbc6441df	-0.0139317205
148	0x3aa309c0	0.0012438819
149	0x3a9bdd20	0.0011891462
150	0xbcf35212	-0.02970222
151	0x3cbc00fb	0.022949686
152	0xbc67def0	-0.014152274
153	0x3c300827	0.010744131
154	0xbd485808	-0.04891208
155	0xb9e1de13	-0.00043080802
156	0xbd6fd779	-0.0585551
157	0xbc6e04da	-0.014527524
158	0x3b601bbc	0.0034196218
159	0xbd2d32f1	-0.04228491
160	0x3dca91a8	0.09891063
161	0x3ca80a17	0.020512624
162	0x3c5af93b	0.013365085
163	0xbde22656	-0.11042468
164	0xbd1e9630	-0.03871745
165	0x3c14ed1c	0.009089734
166	0x3d0d87c6	0.03455331
167	0x3dc176ce	0.09446488
168	0x3d085e7f	0.033293243
169	0x3da604fe	0.08106421
170	0xbd06f89b	-0.032951932
171	0xbd936317	-0.07196634
172	0xbd0d2847	-0.03446224
173	0x3b7301e2	0.003707998
174	0x3d311491	0.043232504
175	0x3c9b669d	0.018969828
176	0x3dbd16b1	0.09232844
177	0x3d6f24b4	0.058384612
178	0x3d2e1f9f	0.042510625
179	0xbe34e26c	-0.17664498
180	0xbc95d39b	-0.018289378
181	0x3c4aed45	0.012385671
182	0xbd1ab806	-0.037773155
183	0xbd049c70	-0.032375753
184	0xbcc4803f	-0.023986934
185	0x3c7e2962	0.015512796
186	0xbd25bdbc	-0.040464148
187	0xbe04bfce	-0.12963793
188	0x3c6902f7	0.014221898
189	0x3be086f5	0.0068520256
190	0xbe5ba35e	-0.21449038
191	0xbd5aff1a	-0.05346594
192	0xbd719165	-0.05897655
193	0x3d12a92d	0.03580587
194	0x3cadeaa1	0.021230044
195	0x3bdf2c5f	0.0068107094
196	0x3d13dbb9	0.036098216
197	0xbb1c3506	-0.0023835315
198	0x3d7981d3	0.060914826
199	0xbd7fb580	-0.06242895
200	0xbd0a4328	-0.03375545
201	0x3d397987	0.045281913
202	0x3d1938bb	0.037407618
203	0xbcf71023	-0.030159062
204	0xbdb80e5e	-0.08987115
205	0x3d31c5f7	0.043401685
206	0xbde3d217	-0.11124056
207	0x37416bea	1.1528822e-05
208	0xbec26b01	-0.37972263
209	0xbce3fc92	-0.027830396
210	0x3d830ec3	0.063993
211	0xbc2cf34a	-0.0105560515
212	0x3caa8079	0.020813214
213	0xbe1ad796	-0.15121302
214	0xbdb9a8e3	-0.09065416
215	0x3c983c6a	0.018583495
216	0xbd97e7bb	-0.07417246
217	0x3c2067d0	0.009790376
218	0xbda61ecb	-0.08111342
219	0x3bb180f8	0.0054169856
220	0xba8f0a16	-0.001091304
221	0xbd766d51	-0.060162846
222	0x3dc54b42	0.09633495
223	0xbd7830ca	-0.060593404
224	0xbb6fe47f	-0.00366047
225	0x3d2425bd	0.040075053
226	0x3cd7e084	0.026352175
227	0x3cf057a7	0.02933867
228	0x3d7b5a31	0.06136531
229	0xbda4637e	-0.08026789
230	0xbcf50991	-0.029911788
231	0x3db6f746	0.089338824
232	0x3bc4ac00	0.0060019493
233	0x3cf89fde	0.030349668
234	0x3cb48821	0.022037568
235	0xbd2af01e	-0.0417329
236	0x3c1ea8b4	0.009683777
237	0x3c202889	0.009775289
238	0x3d02f457	0.031971302
239	0x3bbb6f4a	0.005720054
240	0xbcab6b41	-0.020925166
241	0x3cdfbcb3	0.027311658
242	0x3c3c6e7f	0.011500954
243	0xbd1c2f8c	-0.03813128
244	0x3dc17dc7	0.09447818
245	0xbd19ddda	-0.03756509
246	0x3ca5f798	0.020259663
247	0xbc524e2f	-0.012836023
248	0x3acbd263	0.0015550371
249	0x3ca7ac64	0.020467944
250	0x3cc5c025	0.024139473
251	0x3d36490a	0.04450325
252	0xbd044376	-0.0322909
253	0xbcd68853	-0.026188051
254	0xbcf34451	-0.029695662
255	0xbdcee968	-0.101031125

fc3.weight f4 [4, 256]
0	0x3eb20c7a	0.34775144
1	0x3f0a2dc5	0.5397609
2	0x3e82ed37	0.25571606
3	0x3eb5008a	0.35351974
4	0xbe983bba	-0.29733068
5	0xbf02f6f1	-0.5115805
6	0x3e0aeb22	0.13566259
7	0xbc10014e	-0.008789374
8	0x3f4fc4e1	0.8115979
9	0x3c12268e	0.008920325
10	0xbe14d1df	-0.14533184
11	0x3dbb187c	0.091355294
12	0x3eb933ad	0.36172238
13	0xbf307b07	-0.68937725
14	0x3e418272	0.18897417
15	0xbf193bde	-0.59856975
16	0xbe9d5b6b	-0.3073381
17	0xbcee633d	-0.029100055
18	0xbeaaaff4	-0.33337367
19	0xbe897c95	-0.2685286
20	0xbf4b36fb	-0.7938077
21	0x3ea7feb5	0.32811514
22	0x3d973138	0.073824346
23	0x3e5219d9	0.20517673
24	0x3dcebbc5	0.10094408
25	0x3da70fe6	0.08157329
26	0xbd95e3b0	-0.073188186
27	0xbde725b3	-0.112864874
28	0x3ef12cf6	0.47104615
29	0xbe45b48b	-0.19307153
30	0xbd3bb207	-0.045824077
31	0xbf33b400	-0.70196533
32	0x3e590215	0.211922
33	0x3db7bced	0.089715816
34	0x3de22058	0.11041325
35	0xbe553247	-0.2081996
36	0x3e243c4c	0.16038626
37	0xbdf436ab	-0.119244896
38	0xbed5f93c	-0.41791713
39	0x3aa5c165	0.0012646137
40	0x3de743f2	0.112922564
41	0xbc808614	-0.015688933
42	0x3db6f3f2	0.089332476
43	0xbea04b6d	-0.31307545
44	0x3e3ab64a	0.182336
45	0xbda7777d	-0.081770875
46	0x3e533fbe	0.20629784
47	0x3f14aea6	0.5807899
48	0xbe861997	-0.26191399
49	0xbd0b5781	-0.034018997
50	0x3e2b3f8c	0.1672346
51	0x3e55674c	0.20840186
52	0x3ef2d3e5	0.47427288
53	0xbf0927eb	-0.53576535
54	0xbe977dfd	-0.2958831
55	0xbf472216	-0.77786386
56	0x3f6fcdf7	0.9367365
57	0xbe9ffd27	-0.31247827
58	0xbeebd91a	-0.46064073
59	0x3e719970	0.23593688
60	0x3d11d94b	0.035607617
61	0xbdc2ca6b	-0.095112644
62	0xbd340edf	-0.043959495
63	0x3e92d244	0.28676045
64	0x3dffbc4f	0.12487089
65	0x38bc2878	8.9720765e-05
66	0xbe5efda4	-0.21776444
67	0xbe5bff05	-0.21484001
68	0xbd733fb5	-0.059386928
69	0xbe40c8ce	-0.18826601
70	0xbe0692c1	-0.1314192
71	0x3d60f8f6	0.054924928
72	0xbe5ecefa	-0.21758643
73	0x3ed123a9	0.4084752
74	0x3cde8af9	0.027165877
75	0xbd6c8a18	-0.057748884
76	0x3e1609e0	0.14652205
77	0xbea60f76	-0.3243367
78	0x3e0cf48c	0.13765162
79	0x3ee0ffe9	0.43945244
80	0x3e40b51d	0.18819089
81	0xbea8520b	-0.32875094
82	0x3e32b7ef	0.17452978
83	0x3d83d0eb	0.06436332
84	0xbe4d3439	-0.20039453
85	0x3c4979d1	0.01229711
86	0xbeba690e	-0.36408275
87	0x3eb85020	0.3599863
88	0xbf25454b	-0.6455886
89	0x3dab9ecd	0.08379898
90	0x3e1af5ca	0.15132824
91	0xbf14db9e	-0.5814761
92	0x3eda7ad4	0.42671835
93	0x3eb80c7d	0.35947028
94	0x3ede587c	0.43426883
95	0x3ce834f7	0.028345568
96	0x3e33ba2d	0.17551489
97	0x3efafb6f	0.49019954
98	0x3f2e9bf4	0.68206716
99	0x3dd81cec	0.105523914
100	0x3e2f27a4	0.17104965
101	0x3ea4bb7a	0.32174283
102	0x3e3d3ebd	0.18480964
103	0xbe803106	-0.25037402
104	0x3dd28e37	0.102810316
105	0xbf3ec9a2	-0.7452642
106	0x3b1916e3	0.0023359589
107	0xbd17ac59	-0.037029598
108	0x3c69162e	0.014226479
109	0x3dd8be40	0.10583162
110	0xbea88919	-0.32917097
111	0x3f18602c	0.59521747
112	0x3eeeb099	0.46619108
113	0xbb804161	-0.003914044
114	0xbc6b68d2	-0.014368253
115	0xbe43d076	-0.1912249
116	0x3d037840	0.0320971
117	0x3d6de992	0.058084078
118	0x3d0b3a40	0.0339911
119	0xbf244a51	-0.641759
120	0x3e8dbb9c	0.27682197
121	0x3b974b65	0.004617142
122	0x3edc3589	0.43009594
123	0xbf32d3d0	-0.6985445
124	0xbf16d67f	-0.58921045
125	0xbe6f048f	-0.23341583
126	0x3eeabdf3	0.45848045
127	0x3ea17cbe	0.31540483
128	0x3c5885c4	0.013215486
129	0xbe5f5704	-0.21810538
130	0x3d20f98e	0.039300494
131	0x3ede6d39	0.43442705
132	0xbe1f0595	-0.15529473
133	0x3e27b948	0.16379273
134	0xbe18ad07	-0.14909755
135	0xbe0f6fa7	-0.14007436
136	0xbedf33e6	-0.43594283
137	0xbef56528	-0.4792874
138	0x3f4da911	0.803361
139	0xbe889c2a	-0.26681644
140	0xbd96bba2	-0.07360007
141	0x3ef9b918	0.48774028
142	0xbcba4f4f	-0.022742895
143	0x3e73c2a6	0.23804721
144	0x3e9416ee	0.28923744
145	0xbe83521c	-0.25648582
146	0xbe90079e	-0.2813081
147	0xbe1da95b	-0.15396635
148	0xbf9140fb	-1.1347955
149	0x3e2c6880	0.16836739
150	0xbf15c7bd	-0.585079
151	0xbdea42ef	-0.11438548
152	0xbec00d8a	-0.3751033
153	0x3eccb91e	0.39984983
154	0x3a1ca80c	0.00059759687
155	0xbf1a768a	-0.60337126
156	0xbf262303	-0.64897174
157	0xbddcc682	-0.1078005
158	0xbe0b23f7	-0.13587938
159	0xbeb5daa4	-0.35518372
160	0x3f43f627	0.76547474
161	0x3d8e3a68	0.06944734
162	0xbe12d8db	-0.14340536
163	0xbc663a11	-0.01405193
164	0x3e280b8a	0.16410652
165	0xbf08d2a0	-0.5344639
166	0x3ee7b397	0.45254204
167	0x3e54a0a0	0.20764399
168	0x3e854eac	0.26036584
169	0xbf038563	-0.51375407
170	0xbf0bbc27	-0.5458397
171	0xbf29cb5d	-0.6632593
172	0xbeab383c	-0.3344134
173	0xbd5be43b	-0.053684454
174	0xbd926f69	-0.07150156
175	0x3e8d3df8	0.2758634
176	0x3e829372	0.25503117
177	0x3e6e860a	0.2329332
178	0x3d83e383	0.06439879
179	0x3e843ed4	0.25829184
180	0x3d77ad69	0.06046811
181	0xbe7a1ef0	-0.24425864
182	0x3e627d51	0.22118117
183	0xbe9d1133	-0.30677184
184	0xbdc11a65	-0.094288625
185	0xbe8ec216	-0.2788245
186	0xbede80e7	-0.4345772
187	0x3f2cd200	0.67507935
188	0xbdcd708a	-0.10031231
189	0x3d930c18	0.07180041
190	0xbf0a4e8f	-0.5402612
191	0xbe94655b	-0.28983578
192	0xbe93fca9	-0.28903702
193	0x3d4f7b37	0.050654616
194	0xbf21dccd	-0.6322754
195	0xbe9c79bb	-0.30561623
196	0xbd200dbe	-0.039075606
197	0x3e89b4c4	0.26895726
198	0xbe4e5e06	-0.20153055
199	0xbe0d791a	-0.13815728
200	0xbf486b32	-0.7828857
201	0x3e5da053	0.2164319
202	0xbd500b7f	-0.050792214
203	0xbe97c180	-0.29639816
204	0xbe3252ff	-0.17414473
205	0xbdc67b35	-0.096914686
206	0xbda3b1d2	-0.07992901
207	0xbd9fa139	-0.07794423
208	0xbd154dad	-0.03645103
209	0x3e37d490	0.1795218
210	0xbe773a2f	-0.24143289
211	0xbe14b9cf	-0.14524005
212	0x3f15bd60	0.5849209
213	0xbc0949ae	-0.008379383
214	0xbdce3eb3	-0.10070553
215	0xbef8fde7	-0.48631212
216	0xbe83daf2	-0.2575298
217	0x3dd35226	0.10318403
218	0xbf10577e	-0.563835
219	0x3e39b954	0.18137103
220	0xbebef1ef	-0.37293956
221	0xbefb6389	-0.49099377
222	0xbeaa62bc	-0.33278453
223	0xbf32a6c0	-0.6978569
224	0x3e9be172	0.3044544
225	0xbf007ee8	-0.50193644
226	0x3f032846	0.5123333
227	0x3d50dc34	0.050991252
228	0xbeaa8178	-0.33301902
229	0xbeaa697e	-0.3328361
230	0xbf335bd7	-0.7006201
231	0x3e15fd7b	0.14647476
232	0xbc8f74dd	-0.01751178
233	0xbe29b55d	-0.16573091
234	0xbdd8ec04	-0.105918914
235	0xbe342e01	-0.17595674
236	0x3c800363	0.015626615
237	0x3d9347f1	0.07191456
238	0xbdf1caf2	-0.11806287
239	0xbee81a71	-0.45332673
240	0xbeaab318	-0.33339763
241	0x3e579fba	0.21057025
242	0x3f31bbb9	0.6942707
243	0x3f25c788	0.64757586
244	0x3edb924f	0.42885062
245	0xbed37b84	-0.41305172
246	0xbed6e4dd	-0.41971484
247	0x3ec2679a	0.37969667
248	0xbcc33efe	-0.023833748
249	0xbe756c1c	-0.23967022
250	0x3dac149e	0.0840237
251	0xbf102d7a	-0.5631939
252	0x3e033e23	0.12816672
253	0x3ebd0409	0.3691714
254	0xbf1c6f22	-0.61107075
255	0xbe528a84	-0.20560652

fc3.bias f4 [4]
0	0x3cc66fc7	0.024223221
1	0x3d1bf85f	0.038078662
2	0xbc233a9f	-0.009962707
3	0x3d6d9054	0.05799897
