checkpoints/checkpoint_actor_ddqn_15.pth (torch_old, 303163 bytes, 6 tensors)

fc1.weight f4 [256, 33]
00000000: 9b07 bbbd 71d3 d4bd 5211 c63b 9d1d 5bbd
00000010: 87a6 cbbb 00c6 ee3d f6ac 233d 60db 37bd
00000020: e8c1 663d c293 813d ff36 bdbd 858b c83d
00000030: f40b 4a3d 3c25 f73d 5c54 b23e d3b7 313e
00000040: 004d 4e3d 7a90 ba3c d59a a4bb c353 da3c
00000050: 2a13 a93a 3d5b f3bb fbd5 83bc b8a4 c1bc
00000060: 210b 983c ceda 5d3c 23ec 88be 64d1 13be
00000070: efa2 43be 2693 19bd 606f 4c3d 446c 253d
00000080: 6322 b0bd 243d 7c3e c65b 013e 98f8 30be
00000090: 505b 64bd def6 493d 28e5 d7bd 2072 52be
000000a0: 1d63 a23c d981 c4bd c9d2 223d 7d0e 3a3e
000000b0: 4351 d7bc a94f e7bd 81f7 213b 09de 32be
000000c0: 0362 dd3d 6b7e 423e 87d2 a83d bfee 88bd
000000d0: 02ee 8e3c 5b6e c5bb de2c 74bd df8f 48be
000000e0: e4fd d6bd 79ef ed3c 79a8 f73c 624d 8e3b
000000f0: 299e 60bc 8e82 023d a614 613d 84bf 76bd
00000100: daed 663d e6bd 0bbe 654f 33be f23a 6d3e
00000110: 3bbb b73d 98c5 65bd e76f 93bc 5716 38bb
00000120: fe61 c6bd 54b5 57bd aef3 9d3e 58b6 ffbd
00000130: 7c88 52bd f87f 183d a87a 233d 2b32 ea3d
00000140: bf58 4cbe 201b 153e a731 dd3d 718c bb3c
00000150: 76a3 d73d ae18 39bd 5778 fdbb c394 0fbe
00000160: c5f7 7abd 09ce ea3c ee1a eebc dc6b f5bc
00000170: bf5a a73d fb08 293d bc51 18be 2895 dbbc
00000180: 5c78 e1bc 9c46 653d 019f 11bf 0c95 2e3e
00000190: d60b 423e ecda 56be e9d1 4bbd 9d00 69bd
000001a0: 92b0 cabd 3850 a13d a9d4 cabd b66a f73c
000001b0: 1667 c23a 67be 5bbc 8214 1abd e046 87bd
000001c0: 55b6 ab3b a470 5c3c 97b8 523d 0480 ad3c
000001d0: 6008 4dbd cd4c 173e a681 8dbc 6ef5 1d3d
000001e0: 102a 32be f031 04be b4dd 66be c6a8 4abe
000001f0: d647 0abd 05e6 95bb 85e5 463e a056 b13d
00000200: 08e5 05bd 81f2 45be 8610 0a3d 2882 65bd
00000210: b2ac d13d 048f 353d b9c5 283e d890 a4bd
00000220: 371e b23d b3bf ddbd 0519 92bd 1696 b3ba
00000230: 11bd 35be 8d83 9c3c 6734 123d 5b8d c63c
00000240: fcd1 dabc 47ec 893e 76c9 253e 9cb1 89bd
00000250: c075 70bd 102d 73be cbf6 3f3d 4b3c feba
00000260: c432 82bd 202e 2e3e ac26 1dbe 9821 cb3c
00000270: 9f49 2bbd 94c6 4fbd b6dd dabd 396f 1a3e
00000280: 13ce 1c3d 961b 1fbd fb7f 57bd 2058 783d
00000290: a40e 02bd 4681 0fbc e0dd 293e dad0 033e
000002a0: 49ca a23d 0286 6abd d729 a73c 341c 8b3d
000002b0: ad17 e0bd 06ba 71be 3186 51be 41f7 a4bd
000002c0: f1a9 913d 2d6f f73c 9edc 543e 43c9 46bd
000002d0: 5569 273e 0c6b 8d3d ff0f 983c 7f65 dd3d
000002e0: a4e3 e6bb 75d5 2d3d 13fc 0dbe 0180 873b
000002f0: 930b 873d 19b5 c83c eafc d2bc 9e6a 8dbe
00000300: d476 d03d 53f8 debd d083 d03c 5484 6fbd
00000310: 405f 603b 8d11 1d3f ba6f acbd 119f b43e
00000320: 5963 273d 3d10 853e 9197 2ebe 6a19 da3d
00000330: 273d 223d 4aa8 a43d c54f a4be 3936 5e3e
00000340: 91f3 f03d d0e5 d03d 66a6 55bd 8346 3cbd
00000350: b24a 903d 6d3e 473c 3bca 39bd e0a8 22bd
00000360: 01d4 203e f113 aebd 1c7e 5d3e c819 75bd
00000370: 05f4 7d3d 3df4 16bd 740c 7f3d a163 b7bd
00000380: 1616 f0bd 5bb7 123e ed15 873d 0078 2d3b
00000390: 6af6 56be a025 983c 5f80 813d 6825 01be
000003a0: 41e7 47be 08b7 a037 56f8 033c 0051 1cbe
000003b0: 73e2 4d3c d3ff 9d3c afeb ef3c 6997 5f3d
000003c0: ba31 633d 3887 233d 5335 3dbd 879b 16be
000003d0: 8fce b53b 04c6 c23e 2ded 12bd fb7d 0f3e
000003e0: 4180 863d d26c 1f3e 36d7 77bd 75c9 c73a
000003f0: 0613 00be b993 f3bc b9ae 003e 9ae0 973d
-0.0913231 -0.10391892 0.006044545 -0.05349504 -0.00621492 0.11658859 0.03995987 -0.044886947
0.056337267 0.06327011 -0.09239005 0.09792236 0.049327806 0.12067649 0.34829986 0.1735528
0.0503664 0.02277397 -0.00502334 0.026651269 0.0012899388 -0.007426648 -0.016093245 -0.023638114
0.018559994 0.013540937 -0.26742658 -0.14435345 -0.19105123 -0.037493847 0.049910903 0.040386453
-0.08600309 0.24632698 0.12632665 -0.17282331 -0.055751145 0.049307697 -0.10541755 -0.20551348
0.019822652 -0.09595079 0.0397518 0.1816959 -0.026283866 -0.11294491 0.0024714174 -0.17467512
0.1080971 0.18993537 0.0824328 -0.06686162 0.017447475 -0.0060251183 -0.0596131 -0.19586132
-0.104976445 0.029044854 0.030231701 0.004342721 -0.013709583 0.031862788 0.054951333 -0.060241237
0.056379177 -0.1364666 -0.17510755 0.23167017 0.08971258 -0.056096643 -0.017997695 -0.0028089487
-0.09686659 -0.052663162 0.30849975 -0.12485951 -0.051399693 0.037231416 0.039911896 0.1143535
-0.19955729 0.14561129 0.10800486 0.022894116 0.105292246 -0.045189552 -0.007735293 -0.14021592
-0.061271448 0.028662698 -0.029065575 -0.029958658 0.08171605 0.04126833 -0.14874929 -0.026804522
-0.027523212 0.05597554 -0.56883246 0.17049044 0.18949828 -0.2098195 -0.049760733 -0.05688535
-0.09896959 0.07876629 -0.09903843 0.03020225 0.0014831747 -0.013412095 -0.037617214 -0.06605315
0.0052402415 0.01345459 0.05144557 0.021179207 -0.050056815 0.14775391 -0.017273735 0.038564138
-0.17398858 -0.12909675 -0.2254551 -0.19790944 -0.033759914 -0.0045745396 0.19423492 0.086591005
-0.032689124 -0.19330789 0.033707164 -0.05603233 0.10238017 0.044325843 0.16481675 -0.08035439
0.08697169 -0.10827579 -0.07133678 -0.0013701345 -0.17747904 0.019105697 0.035694506 0.024237325
-0.026711456 0.26938078 0.16190132 -0.067233294 -0.058706045 -0.23747659 0.04686622 -0.0019396631
-0.06357339 0.17009783 -0.15346783 0.024796292 -0.041818257 -0.05072649 -0.10686819 0.1508149
0.038282465 -0.038844667 -0.052612286 0.060630918 -0.031752244 -0.0087588485 0.16588545 0.1287264
0.07948739 -0.057256706 0.020405693 0.06792489 -0.10942016 -0.23606119 -0.20461346 -0.080549724
0.07112492 0.03020438 0.20787284 -0.048531782 0.16348775 0.06905183 0.018562315 0.108103745
-0.00704618 0.042439897 -0.1386569 0.0041351323 0.065940045 0.024500417 -0.025755364 -0.27620405
0.10178915 -0.10887208 0.025453478 -0.058475807 0.003423646 0.61354905 -0.08419748 0.35277608
0.04086623 0.2598895 -0.17050005 0.106493786 0.0396091 0.08039911 -0.3209211 0.21700372
0.117652066 0.10200083 -0.052160643 -0.045965683 0.07045497 0.01216088 -0.045358878 -0.039711833
0.15705873 -0.08499897 0.21630138 -0.05983904 0.062000293 -0.036854018 0.062267736 -0.089545496
-0.117229626 0.14327757 0.06595979 0.002646923 -0.20992437 0.018572628 0.06323313 -0.12611926
-0.1952181 1.9158717e-05 0.008054813 -0.15265274 0.012566197 0.019287026 0.029287187 0.054587755
0.055467345 0.039923877 -0.046193432 -0.14707766 0.0055483053 0.380417 -0.03587072 0.14012901
0.06567431 0.15568855 -0.060507976 0.0015242534 -0.12507257 -0.029733526 0.12566651 0.07415886

fc1.bias f4 [256]
00000000: f13a 833d de61 07be 1c20 d03d 9c84 61be
00000010: 63f9 f3bc 83eb 86bd 3185 adbe fca9 81bd
00000020: 7ec3 c8bd 8e90 b93d cba2 1cbe 4384 2d3d
00000030: e4a9 a9bd f232 883c c1ef 913e ab6a 483e
00000040: e9bf 1bbd bb43 7ebd 9994 4bbe de9e 5abe
00000050: 7ccf 2bbd 0bb6 12be 2ac8 97bc af3e a63c
00000060: a069 e4bd e346 663d b639 963d a0bf 253c
00000070: 7b35 2f3c 27ed eabd 6844 e0bd 83c2 51be
00000080: baea 503d 3e56 04bd d97d 51be d8dc 003d
00000090: 144c 57be cd98 43bc 6ec8 993d 63e4 e43d
000000a0: 2390 52be 210a 11bd 58e6 9ebd 6af7 d83d
000000b0: fc1d 2b3e 4b33 87bd 2dda 343e e844 42be
000000c0: c738 da3d 4656 ca3d ac79 25be 08ff c03d
000000d0: 3b81 01be 596e 0a3d 7e1e cebd 6441 633d
000000e0: 7b03 03be a14d d03d 0b0f 84be feaa 4c3d
000000f0: 2b7b 26be 0bce 49be 91f7 a6bd 6036 033e
00000100: abf6 19bc c309 86be e1ee 473e ca75 52bd
00000110: d615 c0bc de56 bcbd 7b95 ea3d f5f3 c9ba
00000120: 24b2 6dbe 3b0e 233e e7ae 2ebb 47d5 4e3d
00000130: a360 4cbe e352 89bd ffea 59be bca0 9ebc
00000140: 87a3 573e ccba f1bc fbed 38be 44ee 17bd
00000150: 6b33 4b3d 47a6 9d3b 9da1 eebe 60c7 fbbd
00000160: 2640 74be 26a2 863d 54d5 81bd 9189 c63c
00000170: bf14 453c d57f 563e f087 20bd 61e0 0cbc
00000180: 7ab2 d5bd 3978 86be 8e72 44bd 7117 733d
00000190: 390e f93c 7b95 563e ce4e 01bd 4fb1 953e
000001a0: 8079 863d dd1d 39be bacf 05be d267 a3bd
000001b0: 886e d33d 580d 813b 42cf 873e 4498 e2bb
000001c0: d479 76be 3d22 b9be 7604 803d 905a 03be
000001d0: 71be 31be 1289 32bd 0ff4 043e c5d2 95bd
000001e0: 11f0 bb3d ba3d 563e 7214 19be 5b9e 5abd
000001f0: b639 943d 7312 313d e0a0 15be aa99 81bd
00000200: 9bd5 03be 9770 25bd 0ef2 22be 33d6 69be
00000210: 2877 2b3d 8008 39be 03f5 c2bd ae7b 92bd
00000220: 96a3 6fbe 9d99 c7bd 9f32 4cbe 9339 3bbd
00000230: ae38 bdbd ee31 00bd 16a3 b13c 30b5 51be
00000240: 842d 88be 25bf 2fbe 862b 26be d503 63bd
00000250: 8220 da3d d8ed 69be 4404 213d 1241 8c3d
00000260: 154c 983d 1b85 cdbd 8f43 2d3d 53d9 04bd
00000270: 8090 d3bd 87e9 a03d c5fc 32bd f4f6 32bd
00000280: afdd 93bd bc98 fabd a202 e63d f053 c23c
00000290: e7e6 3d3e 13a2 dcbd 28c3 36be 1545 e0bd
000002a0: 0e44 57bd a403 0ebc fe42 e83d 1aff fd3d
000002b0: c170 48bd e8e6 82bd 47ad c0bd 433a 803d
000002c0: 0d4f 1ebe 3a7b 4fbe 0ad5 74bd 2d3a 943b
000002d0: 6275 babd 9c88 0d3d 2cc4 4cbd 47c8 48be
000002e0: 9141 babd 227f 89bb aba7 363e 68fd 1dbe
000002f0: 3ebc 59be 5e0b 173e e116 4dbd d1e7 43bc
00000300: dc3d 1b3e f32f 03be 1297 60bd 7327 5c3b
00000310: 676e 583d 4609 0d3d 9a70 81be e6fc 153e
00000320: 26a5 003e 8871 813d a160 5abc 69ff 9a3d
00000330: d9b6 86bc 095f 30be b1eb 42be 6ad5 59be
00000340: 54f9 2fbb 2430 723d f43d a0bd 3165 8bbd
00000350: 128e 92bd 666e 183d 4cf4 29be 7083 81bd
00000360: 9e5c 42be 0c04 e3bd b11c 39be 040a 253e
00000370: 4f37 5d3c e989 91be 1506 3abd f04a 2ebe
00000380: f4a1 cf3b d7bc abbe 11a3 22be debc 4cbe
00000390: 204e 3abe 08d1 393e 2a29 e93b 554c d0bd
000003a0: 35f1 72be 6652 2c3e 9beb ac3c e4b7 dbbd
000003b0: 197d 7dbc fd67 ee3d bdf4 a8be 775a d0bc
000003c0: 6ee6 34bd 3049 0dbe 4468 b2bd bc0d ecbc
000003d0: 16c8 aa3b 82ed 5cbd 9b9d c8bd 1b0b e23d
000003e0: a956 2bbd f3ef af3d 7058 c7bd df27 86be
000003f0: 8160 81be 78d9 dd3d c7d7 14be 82e4 c7bd
0.064077266 -0.13220927 0.101623744 -0.22023243 -0.029782003 -0.06587889 -0.3389068 -0.0633125
-0.09802912 0.09060775 -0.15296476 0.042362463 -0.08284357 0.016625855 0.2850323 0.1957194
-0.038024817 -0.06207631 -0.19880904 -0.21349666 -0.04194592 -0.14327256 -0.018528063 0.020293562
-0.11152959 0.056219947 0.07335226 0.010116488 0.010693903 -0.114710145 -0.109505475 -0.20484357
0.051005103 -0.03230881 -0.20458163 0.031460613 -0.21025115 -0.011938286 0.07508932 0.11176374
-0.20562796 -0.03541005 -0.07758778 0.105940655 0.16710657 -0.0660158 0.17661352 -0.18971598
0.10655361 0.098797366 -0.16159695 0.09423643 -0.12646954 0.033796642 -0.1006441 0.055482283
-0.12794296 0.101710565 -0.25792727 0.04996776 -0.16257922 -0.19707505 -0.08152688 0.12813711
-0.009397189 -0.26179323 0.19524719 -0.051381864 -0.023447912 -0.09196256 0.114542924 -0.0015407788
-0.23212487 0.15923397 -0.0026654543 0.050496366 -0.19958739 -0.067052625 -0.2128105 -0.019363753
0.21058474 -0.029508017 -0.18059532 -0.037092462 0.049609583 0.0048110816 -0.46607676 -0.12293887
-0.23852596 0.06573896 -0.06339517 0.024235519 0.012028872 0.20947202 -0.03919214 -0.008598418
-0.10434432 -0.26263598 -0.04796081 0.059348527 0.03040229 0.2095546 -0.031569295 0.29236838
0.06566143 -0.18077798 -0.13067523 -0.079787865 0.103238165 0.0039383583 0.26525313 -0.006915124
-0.24069911 -0.36158934 0.06250851 -0.12827516 -0.17357804 -0.04358775 0.12983726 -0.07315592
0.091766484 0.20921984 -0.14949206 -0.053373676 0.0723757 0.043230485 -0.1461215 -0.06328137
-0.12874453 -0.040390577 -0.15912649 -0.22835617 0.041861683 -0.18069649 -0.095193885 -0.07152496
-0.23402247 -0.09746096 -0.19941185 -0.045709204 -0.092393264 -0.031297617 0.02168421 -0.20479274
-0.26597226 -0.1716276 -0.1622754 -0.055423576 0.106507316 -0.22844636 0.03931071 0.06848349
0.074363865 -0.100351535 0.042300757 -0.03243382 -0.103302956 0.07857042 -0.04369809 -0.043692544
-0.07220017 -0.12236163 0.11230971 0.023721665 0.18545114 -0.10773101 -0.17847884 -0.10950676
-0.052555136 -0.00866786 0.11340903 0.124021724 -0.048935656 -0.06391698 -0.0940805 0.062611125
-0.15459843 -0.20261851 -0.059773482 0.0045235367 -0.0910442 0.03455411 -0.04999177 -0.1960765
-0.09094537 -0.0041960636 0.17837398 -0.15428698 -0.21263215 0.1475043 -0.050070647 -0.011957125
0.15160316 -0.1281126 -0.054831572 0.003359285 0.052839663 0.034432672 -0.2528122 0.14647254
0.12562999 0.063204825 -0.013328702 0.07568247 -0.01644461 -0.17223753 -0.19035222 -0.21272817
-0.0026851492 0.05912794 -0.078243166 -0.0680641 -0.07156004 0.03721466 -0.16597098 -0.06323898
-0.18980643 -0.11084756 -0.18077351 0.16117102 0.013501956 -0.2842553 -0.045415957 -0.17020774
0.006336445 -0.3354251 -0.15882517 -0.19993922 -0.18193865 0.18146145 0.007115503 -0.10170809
-0.23724826 0.16828308 0.02110844 -0.10728434 -0.01547172 0.11640928 -0.3299922 -0.025433762
-0.044165067 -0.1379745 -0.08711293 -0.028815143 0.0052118404 -0.053937443 -0.09795686 0.110372745
-0.041830692 0.085906886 -0.09733665 -0.26202294 -0.2526894 0.108324945 -0.14535438 -0.09760381

fc2.weight f4 [256, 256]
00000000: ac78 40be ed14 1bbe 9f86 103e 2c9f 0d3c
00000010: 1fa1 1639 162e 073d 6108 833e dfb1 1dbc
00000020: 31f5 333e b6d6 efbd 759d b93c f355 3fbd
00000030: 8c7f 833c f974 e23d c85f f6bd 37b0 5a3d
00000040: 9c70 d8bc f59a 493d 50f9 04be 2e77 503e
00000050: 434e ebbd 539b d73d bc3c 23bd d5a4 c5bc
00000060: 91b9 4fbd 85d4 abbd 7726 3fbd 7038 803d
00000070: 1247 a8bc 2bd6 7dbe d55e 023e 41c1 333e
00000080: 7016 553e 06fc 18be e991 c33d 59b5 7ebd
00000090: 0832 9abd 053a 70bd 8215 29be 74a9 a5bd
000000a0: 2a09 91bd 219c 62bd 2870 edbc 941f 8abe
000000b0: 7062 5bbe eb8f 3cbd 0f84 2d3c 1c05 55bb
000000c0: 35c1 313d 4a1f 8e3d 3045 9fbe 66d9 273c
000000d0: d455 34be 8181 8abd 38ae ec3d 214b 22be
000000e0: 92e6 82be f9db f93d c898 ab3b 331f ce3d
000000f0: dfb3 56bd bcfa 4b3e 71eb edbc 287d eebc
00000100: aa1f 8ebd 7eb6 c53d eed0 fe3d ab9b 4cbe
00000110: d1e8 25be d0e6 9cbb 464e a83d 6143 0bbe
00000120: 3d7c 14be dd58 0b3d cbc7 2d3d 1ff0 96be
00000130: 288b 08be 0b39 9e3d 4906 b3bd dcb2 d8bc
00000140: a956 c8bc 351c 0d3d 3dda 78be 82bf 02be
00000150: b19b 9e3d dcc2 1fbd 83ec ba3e 284c 05be
00000160: 2037 e0bc 07a1 55be b14e fdbe aff7 2abe
00000170: 8d1e 8d3c 3397 243e 8e97 8339 add2 5abd
00000180: 0a19 c0bb 14b0 b1bb ec7b 86bd d1d6 b93c
00000190: 20ba 96bd c522 343d 679b 253e d353 033e
000001a0: c15f 613c 280e 19be 18f5 b23d 6586 363d
000001b0: ab0b 123d 856f 6cbd 8ecf 25be a1d4 dcbe
000001c0: 96de db3c d5c4 9b3c a7d6 79bd 5f3c c83d
000001d0: c334 1ebd 95e3 e8bc 9500 823e 5a73 39be
000001e0: 4923 febc 9b6c d0bd 2599 cf3d d3c1 dc3d
000001f0: 7aa1 ad3d 8773 fe3d e50f a3bd 4cba 7e3d
00000200: ab68 1b3e caba 8bbd eab4 9abd 980a 873d
00000210: 34f7 f73c 995d 023e 8ea7 853d 6b8e 2dbe
00000220: 77b8 fb3d 29c1 d6bd 5d14 6bbd f919 dcbd
00000230: f5ee 8dbd 857b 5dbe b996 023d 6d4c 6c3c
00000240: b8b9 c13d 8617 e73d 7a1c 87be ebd8 203d
00000250: 638c 9fbd a1e6 ea3d 34e7 67bd b872 183d
00000260: f81b b03d e8f7 393d 82aa 0b3e 3b31 b33d
00000270: 2cd3 adbd 737b 803d 0e82 a4be 44e5 11be
00000280: 3e91 983d 871e 05bf 17ea 23be fd16 1a3e
00000290: 8690 aa3c 537e 2b3e 5450 093e 940f 1cbe
000002a0: 5037 4abd bb83 06be f3aa b8be 74b2 043e
000002b0: 5a85 e93d 7322 eb3b 12f0 943c 6b88 4fbe
000002c0: 4caa 4abe e7b0 263e 5507 16bd cc00 4fbc
000002d0: cf7f 823d 1f6b bc3c 2f7d 8b3e 1dd2 edbd
000002e0: ddaa 193c 87e2 a8bd 91e5 893d b054 96be
000002f0: 289b 3c3e 5077 b23c 3779 e43d 1212 f9bb
00000300: 958b 7fbe 31a0 35bc f65b 1b3d 1dd9 c43b
00000310: e12f a0bd 85cb cdbd 52fe 4e3e deec b4bd
00000320: 7a57 cb3d 6b25 25bd 0544 72ba c3de 1fbe
00000330: 4dc2 afbd 254f da3d 3116 fcbc 58da 963b
00000340: 0daa f53d 9fa2 da3d 39d3 153d 8871 d63d
00000350: b4ae 143c 550a 63be b600 13bd 13d2 c2bc
00000360: f128 81be eb83 b73d c900 033e 9c72 023d
00000370: b80f 22bd 78c5 75bc 5cf5 b9bd b071 993c
00000380: 06b0 283e 33c8 76be 95d8 8b3d ac71 7cbd
00000390: a733 27be 4f58 d5bc cdfc c43c 6f07 383e
000003a0: 01f2 87bd e55b 87bd 42db 723c 31cd 97be
000003b0: 3649 543d 2888 7ebc b891 9a3e 3963 60bc
000003c0: e3e6 eebe 3628 333e 59c5 b9bc d2a3 60be
000003d0: 34fa b83c fb8a c8bd 0f5c e0bd 28ed d73d
000003e0: 179a 8b3b 876f 113e e439 2cbe 0ab5 85be
000003f0: 0893 5b3e 3663 1c3e 2a5f 613e e407 6dbd
-0.18796033 -0.15144701 0.14113854 0.008643907 0.00014365137 0.033002935 0.2559233 -0.009624927
0.17574002 -0.11710875 0.02265809 -0.046712827 0.01605203 0.11057467 -0.120299876 0.053390708
-0.026420884 0.049220044 -0.1298573 0.20357963 -0.114895366 0.105276726 -0.039852843 -0.02412645
-0.05071408 -0.08390144 -0.046667542 0.062607646 -0.020541701 -0.2478873 0.12731488 0.1755419
0.2080934 -0.1493989 0.095493145 -0.062184665 -0.07529074 -0.05864908 -0.16512111 -0.08088961
-0.07081826 -0.055324677 -0.028984144 -0.26977217 -0.2142427 -0.04603569 0.010590567 -0.0032504266
0.043397147 0.06939562 -0.31107473 0.010244703 -0.17610866 -0.06762982 0.11556667 -0.15848972
-0.25566536 0.122001596 0.005236719 0.100645445 -0.052417632 0.19919866 -0.029042931 -0.029112414
-0.06939633 0.09653948 0.12442194 -0.19981258 -0.16202094 -0.004788257 0.082180545 -0.13599922
-0.14500518 0.034020294 0.042426866 -0.29480073 -0.13334334 0.07725724 -0.08741433 -0.026452474
-0.024455385 0.03445073 -0.24302001 -0.12768367 0.077445395 -0.03900419 0.3650857 -0.13017333
-0.027370036 -0.20862208 -0.494741 -0.16696046 0.017226482 0.16073303 0.00025099184 -0.053423572
-0.00586236 -0.0054226015 -0.06566605 0.02268544 -0.07359719 0.04397847 0.16172563 0.12824945
0.01375574 -0.14946806 0.08738154 0.044561762 0.03565566 -0.05772354 -0.16192457 -0.43130973
0.026839536 0.019014755 -0.060995724 0.0977714 -0.038624536 -0.028428832 0.2539107 -0.1811041
-0.031022685 -0.10176965 0.10136632 0.107791565 0.08478065 0.12424379 -0.07962016 0.062189385
0.15176646 -0.068227366 -0.07554038 0.065938175 0.030269243 0.12731017 0.06526099 -0.1694886
0.12291043 -0.10486061 -0.057392467 -0.107471414 -0.06930343 -0.2162915 0.03188202 0.014422518
0.09459251 0.112837836 -0.26388913 0.03926937 -0.077904485 0.1146977 -0.056616977 0.03721878
0.085990846 0.045402437 0.13639262 0.08749624 -0.084875435 0.06273546 -0.32130474 -0.14247614
0.07449578 -0.51999706 -0.16007267 0.15047832 0.020820867 0.16747408 0.13409549 -0.15240318
-0.049369156 -0.13136189 -0.36067924 0.129587 0.11402388 0.0071757375 0.01818088 -0.20266883
-0.19791526 0.1627842 -0.036628086 -0.012634467 0.06372034 0.023000298 0.27243945 -0.116123416
0.009379116 -0.08246332 0.067332394 -0.29361486 0.18418562 0.021785408 0.111559324 -0.007601031
-0.2495559 -0.011085556 0.037929498 0.006007327 -0.07821632 -0.10048584 0.20214203 -0.08834241
0.09928794 -0.040318888 -0.0009241703 -0.1561232 -0.08581982 0.10659627 -0.0307723 0.0046036653
0.11995325 0.10675549 0.03657839 0.10470873 0.009074856 -0.2217191 -0.03588935 -0.023781812
-0.25226548 0.08960708 0.12793268 0.03184758 -0.03956577 -0.0150006935 -0.09080002 0.018730968
0.16473398 -0.24099807 0.06828419 -0.061631843 -0.16328298 -0.026043085 0.024046326 0.17971586
-0.066379555 -0.06609324 0.014822783 -0.29648736 0.051827632 -0.015535392 0.301893 -0.0136955315
-0.46660528 0.17495808 -0.02267711 -0.21937492 0.022580244 -0.097921334 -0.10955059 0.10543281
0.0042603123 0.142027 -0.16818959 -0.26114684 0.21442807 0.15272221 0.22008958 -0.057868853

fc2.bias f4 [256]
00000000: 6ea0 8ebc 0f1c 82bc 70ec f43b 606e cabc
00000010: 9e0a 6f3d c741 2e3b cc72 913d 8d9c 683d
00000020: e9ea 42bd 38cc 8a3d 4830 763d 5bc2 c53d
00000030: c3a2 da3c c1fa 743c ae17 76bd a5ab adbc
00000040: 4499 88bd 57bd 9a3d b609 c9bb 5922 adbd
00000050: 410e c2bc 1f91 aabd 86e1 88be d6b7 693c
00000060: a9f5 c9bc 531f 6d3d a8b8 92bd 0632 753c
00000070: e14b da3c 68ba 04bd 3584 93bd 4839 9f3d
00000080: 5594 ae3d e2d7 5bbd 7c13 09bd a325 613d
00000090: f264 c53c bec0 37bd 7aa8 ea3b e072 b8bd
000000a0: 0fee 70bb 67ad 963d 7135 c53d f180 533d
000000b0: 02ac 31bc 0538 053d 41b0 b63c ed1f 883d
000000c0: 95dc cbbc f78f a4bd 87f1 4dbe 577c 5c3d
000000d0: 6d88 383d bef4 973d dda5 273d 0d31 72bd
000000e0: 6676 233d 381c 3ebe b8df 80bb 000f 14bd
000000f0: 38b8 153c 7075 d83c 8359 993d a79d 09b9
00000100: f1f3 85bd 5ca4 0fbb 6c62 9f3c c3c0 66bd
00000110: 2f58 c7bc bc06 c1bd c0b4 46bd 5ff3 e2ba
00000120: f88e 823a dbd1 be3c 054c 953d 6370 24be
00000130: 5a14 61bd 5fad 3dbd 8547 9b3b b99a 2f3d
00000140: e90f 093d d857 683d 06d4 ffbd ee68 9ebd
00000150: b732 88ba 6482 a23b 04e9 c53c f72e 04bb
00000160: a8fb 273c 874c b9bb 4626 00bd 6d6e c4bd
00000170: 63b6 1bbe 492b 973c 4abc 71bd 497b d83c
00000180: af9b b0bc 777e dbbd c339 54bd baff 6cbd
00000190: ebed 6d3d 1404 c43d 4f75 76bd 2777 bebd
000001a0: dcfb 38bd a5a8 22bc dc4e d4bc 7b22 943b
000001b0: b3d0 543c 8cbc e8bc 8c46 353c 2ec0 143b
000001c0: 0957 19bd 0d3e c2bc 8090 0c3b 3873 0cbc
000001d0: 1fb2 e1bd 143f 683d 0daa 723d 1561 d23c
000001e0: ccf0 e2ba 2b9c 043d d754 96bd ec01 72bd
000001f0: 81a0 03be 1548 41bd d550 093c c4e6 60bd
00000200: 5ad8 c43c d3b4 87bd 7206 a7bd 7a86 933d
00000210: 3bbf fbbd 7bf2 fa3c 825f b53d ca49 903c
00000220: c272 f2bc 2e98 723c 5253 b23d e3b7 3f3d
00000230: 8e44 51bd 4144 16bd 8014 a3bc 7feb 89ba
00000240: a730 dfbc 6825 203d 2a95 b83c 61c5 16bd
00000250: a40b 573c fc25 363d 5c3a 86bd e2da 92bd
00000260: c340 09bc 15a4 e33d 9389 593d aa93 b5bd
00000270: 240d aebc 08f3 94bd 0337 2e3d ac8d 13bc
00000280: 0d07 e63c af34 debb 1468 ed39 4e75 f4bd
00000290: 23a2 8fbd 3077 2ebc e12a 72bd c48a 8c3d
000002a0: 2e19 65bc 62b1 103e f992 62bd aa76 8abd
000002b0: 960a 9f3c 2d05 cebc 9344 7cbc 69ee 46bd
000002c0: 1e04 933d 8083 f5bb 8428 90bd 51e4 46bd
000002d0: 5bc8 1d3d a3fb c93c 3954 e1bc 78e9 18bd
000002e0: 83a6 14be 8ebc 913d 3cdf 963b ab9c dfbd
000002f0: 2d28 29bd 5926 25bd 6d4c 02bd d534 07bb
00000300: 0e17 52bd eb2f bf3c 0077 4d3c d8fe c5bd
00000310: dd52 423d cff9 9a3d bc30 8b3d 0f22 07be
00000320: 7e0f cdbc 9715 84bd 7896 a53d a481 063d
00000330: c0c4 523c 519c dcbb 3369 07be adf9 2abd
00000340: 798c 2fbd 2308 91bd 4065 263d 6132 cd3b
00000350: a5f3 91bd 1f7d 1dbd e52f 8bbd a7db 6dbe
00000360: c07f 70bd f9d6 bb3c 4572 7d3d a0c1 3abc
00000370: edf2 09bc 044f 493d e4a2 9f3d ac4e 33bd
00000380: 9bf9 43bd f1ca 7b3b b790 1cbc 19e8 82bc
00000390: ad8f 753d fcc8 18be e8f3 1737 c30c eb3d
000003a0: 7115 dbbb 2961 14be 46a4 9abc e73f 27bd
000003b0: b0bf 3dbc 5018 c4bd cc35 21bd caa3 12bc
000003c0: 32a4 843d 798f 723c e7ed 023e 16e1 89bc
000003d0: c7d0 9fbb 2f00 27bd bac4 0bbd dba6 ee3b
000003e0: f981 c3bd 56fc 8d3a c11e 743d 6065 f73c
000003f0: 06c7 813d bb11 43bd 17fe 3fba fdd6 13be
-0.017410483 -0.01588252 0.0074744746 -0.024710834 0.058359735 0.00265895 0.07101974 0.056789923
-0.04758731 0.06777233 0.06010464 0.09656211 0.026688939 0.0149523625 -0.060081176 -0.02120001
-0.06669858 0.07555645 -0.006135191 -0.08453817 -0.023688437 -0.08328461 -0.2673456 0.014265021
-0.024653273 0.0578912 -0.07164127 0.01496554 0.02664751 -0.032404333 -0.07202951 0.077745974
0.08524386 -0.05367268 -0.033465847 0.054967534 0.024095986 -0.044861548 0.0071611973 -0.09006286
-0.0036762988 0.073572926 0.09629334 0.05163664 -0.0108442325 0.032524128 0.022300841 0.06646714
-0.024885455 -0.080352716 -0.20111667 0.053829517 0.04505198 0.07419728 0.040929664 -0.05912881
0.039907835 -0.18565452 -0.0039329194 -0.036147118 0.009138159 0.026423186 0.07487776 -0.00013124068
-0.06540669 -0.0021918034 0.01945611 -0.056336176 -0.024334041 -0.094251126 -0.04851222 -0.0017314962
0.0009960821 0.023293426 0.0728989 -0.16058497 -0.05495105 -0.046307918 0.0047387504 0.042872164
0.03346244 0.0567244 -0.12491612 -0.077348575 -0.0010391091 0.0049593914 0.024158962 -0.0020169595
0.010252871 -0.0056548747 -0.0312865 -0.095913745 -0.15206294 0.018453257 -0.059017457 0.026425974
-0.02155861 -0.10717481 -0.0518129 -0.057861067 0.058088224 0.0957109 -0.060170468 -0.0930007
-0.045162067 -0.009927903 -0.02591651 0.004520712 0.012989211 -0.028410219 0.011064183 0.0022697556
-0.03743652 -0.023711229 0.0021448433 -0.008572392 -0.11020302 0.05670078 0.059244204 0.025681058
-0.0017314195 0.032375496 -0.07340401 -0.059083864 -0.12854196 -0.047187883 0.008381088 -0.054907575
0.024028946 -0.06626286 -0.08155526 0.07203384 -0.12292334 0.030633202 0.08856107 0.01761331
-0.029595736 0.01480679 0.08707298 0.046806227 -0.05109077 -0.036686186 -0.019907236 -0.0010522454
-0.027244879 0.039098173 0.022532064 -0.03680933 0.013125334 0.04446982 -0.065541 -0.07170655
-0.008377257 0.111152805 0.053109717 -0.08866055 -0.0212465 -0.07272917 0.042532932 -0.009005945
0.028079534 -0.0067811827 0.00045281707 -0.119364366 -0.07013347 -0.010648534 -0.059122924 0.06862405
-0.013983054 0.14130166 -0.055315945 -0.067609146 0.019414227 -0.025148952 -0.015397209 -0.04856721
0.0717852 -0.0074924827 -0.07038978 -0.048557583 0.038521152 0.024656123 -0.02750598 -0.03733203
-0.14516644 0.07116042 0.0046042483 -0.10918554 -0.04129808 -0.040319774 -0.031811167 -0.0020630856
-0.051291518 0.023338279 0.012540579 -0.09667748 0.047442306 0.075671785 0.06796405 -0.13196586
-0.025031801 -0.064494304 0.0808534 0.03283848 0.012864292 -0.0067325016 -0.13223724 -0.041742016
-0.042858575 -0.0708163 0.040623903 0.006262109 -0.0712655 -0.038449403 -0.067962445 -0.23228322
-0.058715582 0.022929655 0.061876554 -0.011398703 -0.008419734 0.04914762 0.07794741 -0.0437762
-0.047845464 0.0038420523 -0.009555987 -0.015979813 0.059951473 -0.1492042 9.05709e-06 0.114770435
-0.0066859056 -0.14490189 -0.01887716 -0.040832426 -0.011581346 -0.0957495 -0.039357945 -0.008950183
0.0647663 0.014804714 0.12786065 -0.016830962 -0.004877183 -0.04077166 -0.03412316 0.0072830743
-0.09546275 0.0010832648 0.05959964 0.030199707 0.06336789 -0.04762433 -0.0007323934 -0.1443748

fc3.weight f4 [4, 256]
00000000: 22d0 753d cf38 dc3e 16cc 2fbc 4592 d03e
00000010: 4416 99bd f680 ae3e 6624 8d3e 4e70 c33c
00000020: c0e0 fe3e 78ea 2dbd 8529 bcbd 9141 773e
00000030: 15ae 9f3e 4ec6 e63e 2801 febe b70c ddbe
00000040: cb70 5dbd d934 103f 7acf cfbe b2db 7fbe
00000050: 49c7 03bf 9ce3 0b3e 480d 953f 9f72 f73e
00000060: 66a9 b8bd d27d 3bbd ba33 b53e 3d54 5ebf
00000070: 404a f03e b9dd 21bf a626 0dbf aa8c 1fbf
00000080: 6911 9b3e f871 dbbe 1f08 7ebe baab 833d
00000090: aad0 103e 034b 63be 69df 4ebd f2ac 22be
000000a0: 5656 87bd 9678 833d ee1b 803c f97d 6a3d
000000b0: 5a74 b8bc 12a7 df3e 4a78 63bd 813c 593e
000000c0: 07a7 94bd b594 11bf aeb3 203e fa47 a53e
000000d0: c870 8e3e 44f7 8fbc ed3e 1b3d 302a 96bb
000000e0: ddc3 e0bd 1a8c d3be 1879 d8be dcd7 a63d
000000f0: 95f5 973c 4e7c c8be e0b0 883e bf73 3a3e
00000100: 9b48 c73d 2de5 b43d 6d7e a9be 6f5a 083f
00000110: e5dd d53c 464e 82be 06a4 7fbe 89f4 83bd
00000120: 3603 9abe 00a4 953e 42e4 abbe ece4 2c3f
00000130: 9cb1 1fbe f041 a6be e4a9 98bd 28ea 643e
00000140: 5e2f 88bd 63c7 f1be 1abc b13e 7b5c c03c
00000150: c9ad 2e3d c07a 7d3e 806d acbe 591e d03e
00000160: 2180 4fbe d62c 38bf 53d8 87be 3f03 cdbd
00000170: 0206 ebbd f28c e83d e675 19bf 8fd9 c63c
00000180: 8274 8bbe b5a6 183f 10f5 153f 9f87 83be
00000190: f78c 563d b968 2a3c 06e5 0fbf 57e1 26bf
000001a0: 25dd 67be 433e 603d 10e9 2cbe 9b58 65bf
000001b0: 6846 3bbd 1c51 593e d09e c3be ad4d b43e
000001c0: 3a04 753d 31e8 1fbc 6731 f83e e8bd f1bc
000001d0: 8015 9fbe b5d5 eb3c 13a1 1b3e 7bc7 0ebf
000001e0: ea94 de3e f2f3 dc3d 787e 843d 8bf7 1f3c
000001f0: fa33 e3be 0849 05bf 5f6c fe3e 0bb7 933e
00000200: 05b6 07be f4eb a83e bb51 003e 6866 7d3e
00000210: abfd 68be 6982 08be 2de2 52bd 8bf2 4b3e
00000220: fff0 a4bd 0b87 96be 2c43 6b3e 107a b63d
00000230: 565c c3be 40a3 a7be 0ef2 54be 2581 293f
00000240: 8616 c73d f3fe b23d 02e9 d2be 5100 a8be
00000250: b80e 0abe 822f f43d 2f5d 83be 2d18 cf3d
00000260: de53 60be ee24 013f f278 803d 885e a4be
00000270: 2d4b 78be 38ab 08be f4b7 2f3e 3f3f eabe
00000280: 13d5 e63e c783 4abe 9c82 44be 1ba9 d7be
00000290: 96df b3bd 14b5 cabe 9e27 ffbc d006 2f3e
000002a0: f772 87bd 79ac e3bd 51b8 6abe 6db3 7a3e
000002b0: ce1c 61be 4bc9 1bbf 96d6 5ebe 22c7 37be
000002c0: 4701 9b3d 2202 23bd 82f6 e83c e151 0abe
000002d0: ab75 9c3e 13cb e73d b01b 443e 369b 25bf
000002e0: a1e8 48be 6150 843d 9d78 5b3e f7a4 833d
000002f0: 2c46 b6bd ae71 21bd 87be 9abd 4dad 39be
00000300: f6c8 1b3e e952 103f 96a7 593e 739b 8bbd
00000310: 5ec3 23bd 5b09 1e3e f400 033e cf35 a3be
00000320: 2985 a8be e51e 66bd 25f8 7ebc b183 2d3d
00000330: 1ab2 293e 2aa9 993d 295c 6fbe 082a 0ebc
00000340: 7316 eabd 9262 863e 3b6b febe 70e4 aa3e
00000350: a126 063f 336f c1bd c72d c1be 130c 223e
00000360: 337f 1db9 f64a 923e c98e 48be 1039 563e
00000370: 096c 8ebe ede5 a2be e50d a23e 5a51 0abe
00000380: 5d3d 863e 2d90 7cbe bd7a a63e e20f 343d
00000390: 4ec3 6f3d 81dd 31be 778c 23be 2ad1 7c3d
000003a0: b94a 21bd f5a7 92be ee73 17bf f1c2 153e
000003b0: 3cfe 88be d97e 15be a5e3 82be 8102 993b
000003c0: 3a50 65bd e4dc 633e 2965 5e3e e919 8c3e
000003d0: b02e f63e 4344 593d 3461 39bf d369 ec3e
000003e0: dfc8 6fbe 97f1 17bf b64c b43e 17c3 5dbe
000003f0: 9dbb 653d 3f53 b23d 7e00 e1be 4c2a 5fbf
0.060012944 0.43012092 -0.01072981 0.40736595 -0.0747495 0.34082764 0.27566832 0.023857262
0.49780846 -0.042459935 -0.09187607 0.24146105 0.31187502 0.4507317 -0.49610257 -0.43173763
-0.054062646 0.5633064 -0.4058798 -0.24986151 -0.5147596 0.13661045 1.1644678 0.48329636
-0.09016685 -0.04577429 0.35391027 -0.8684729 0.46931648 -0.63228947 -0.551371 -0.6232401
0.3028672 -0.4286039 -0.24807785 0.064292386 0.14142099 -0.22196583 -0.05050603 -0.15886286
-0.06608264 0.06419484 0.015638318 0.057249043 -0.022516418 0.43682152 -0.05553464 0.21214487
-0.072584204 -0.56867534 0.15693542 0.32281476 0.2782042 -0.01757396 0.037901808 -0.004582666
-0.10974858 -0.41317827 -0.42279887 0.08146641 0.01854972 -0.39157337 0.26697445 0.18208216
0.09730645 0.08832774 -0.33104268 0.5326299 0.026106784 -0.25450343 -0.24964914 -0.06443126
-0.30080575 0.29226685 -0.33572584 0.6753681 -0.15595096 -0.3247218 -0.07454279 0.22354949
-0.066496596 -0.47222432 0.34713823 0.023481598 0.042646203 0.24753857 -0.33677292 0.40648153
-0.20263721 -0.71943414 -0.2653223 -0.10010385 -0.11475755 0.11355008 -0.59945524 0.024273662
-0.27237326 0.59629375 0.5857706 -0.25689408 0.05238053 0.010400944 -0.5620884 -0.6518759
-0.22642954 0.054746877 -0.16885781 -0.89588326 -0.04572144 0.21222347 -0.38207102 0.35215512
0.059818484 -0.009759949 0.4847519 -0.0295095 -0.3107109 0.028788427 0.15198164 -0.55773133
0.43472987 0.107887164 0.064694345 0.009763609 -0.44375592 -0.5206456 0.49692056 0.28850588
-0.13253029 0.32992518 0.12531178 0.24746096 -0.22753017 -0.13330998 -0.05148523 0.19916742
-0.08053779 -0.29399905 0.22974843 0.0891 -0.38156384 -0.32741737 -0.20795462 0.66212684
0.09721093 0.08740034 -0.41193396 -0.3281274 -0.13482177 0.11923124 -0.2565703 0.10112033
-0.21906993 0.50446975 0.062730685 -0.32103372 -0.24247427 -0.13346565 0.17160016 -0.45751378
0.45084438 -0.19776832 -0.19190449 -0.42121205 -0.0878288 -0.39591277 -0.03114682 0.17092443
-0.06613725 -0.11116881 -0.22921874 0.24482508 -0.21983644 -0.60854024 -0.21761546 -0.17947057
0.07568603 -0.039796956 0.028437857 -0.13507797 0.30558524 0.1131803 0.19151187 -0.6468996
-0.19619991 0.064606436 0.21432729 0.06427949 -0.08900103 -0.039415054 -0.075558715 -0.18132515
0.1521338 0.5637651 0.21255335 -0.06816759 -0.03998124 0.15433256 0.12793332 -0.3187699
-0.32914093 -0.056181807 -0.015562092 0.04236192 0.16571847 0.075029686 -0.23375 -0.008677013
-0.11430063 0.26247078 -0.49691185 0.3337741 0.52402693 -0.09445038 -0.37730238 0.15824918
-0.00015020072 0.28572816 -0.19585718 0.20920205 -0.278168 -0.31816044 0.31651226 -0.13507596
0.2621869 -0.24664374 0.32515517 0.04396046 0.058535866 -0.17369653 -0.15971552 0.061722912
-0.0393779 -0.28643766 -0.5916127 0.14625145 -0.26756465 -0.1459917 -0.25564304 0.004669488
-0.055984713 0.22252232 0.21718277 0.27363518 0.48082495 0.053043615 -0.72413945 0.46174487
-0.2341647 -0.5935301 0.35214776 -0.21656452 0.056087125 0.08707284 -0.43945688 -0.87173915

fc3.bias f4 [4]
00000000: fe28 f4b7 4895 953d 8657 efbb 1e39 603d
-2.9106155e-05 0.07303864 -0.007304135 0.05474197
