checkpoints/checkpoint_actor_ddqn_1.pth (torch_old, 303163 bytes, 6 tensors)

fc1.weight f4 [256, 33]
000000 6e 6c 61 be 66 9e 00 be c1 80 43 3d 57 63 af bd
       -0.22014019 -0.12560424 0.04773021 -0.085638694
000010 37 d2 67 bd e2 ea 48 bb 53 d5 6a 3d 53 d3 e9 3d
       -0.05659696 -0.003065758 0.057332348 0.1141726
000020 b6 8a 76 3d e0 92 b3 bd c3 d6 73 bd c1 28 35 bd
       0.06019088 -0.087682486 -0.059530985 -0.04422832
000030 c5 83 27 bd 00 a3 66 3e d8 10 bc 3e 7b 9d e6 3d
       -0.04089715 0.22523117 0.367316 0.11260506
000040 66 e3 31 bd 98 bb 27 bd 28 8a ef bc 07 27 6a 3c
       -0.043429755 -0.040950388 -0.029240683 0.014291531
000050 d8 3e 99 bc ed 3f b4 bd 5f c7 00 3d 3c de 61 3d
       -0.018706724 -0.088012554 0.031440135 0.05514358
000060 36 fd 0a 3e 0c 6b 45 3d 8a ca 55 be 35 17 8b bd
       0.13573155 0.04819779 -0.20878044 -0.06791536
000070 01 55 e1 bd 26 93 19 bd 1c 51 d9 bc 44 6c 25 3d
       -0.11002541 -0.037493847 -0.026527934 0.040386453
000080 2f 0c 36 bd 25 3d 0b 3e 06 b9 8d 3d 99 0f 97 be
       -0.044445213 0.13597544 0.06920056 -0.29504088
000090 9d 99 27 bd a6 d3 fa 3d 0a 8e ef bd 6b 57 c2 bc
       -0.04091798 0.122474 -0.11697014 -0.023723325
0000a0 65 aa 0f bd 7d 04 d8 3d fd 01 45 3d 88 7a 87 3d
       -0.03507461 0.10547731 0.0480976 0.06615168
0000b0 ea e5 2b bd 6d 57 7b bd 4a 68 e4 bd 34 af 12 be
       -0.04196731 -0.061362673 -0.11152704 -0.14324647
0000c0 9b 66 89 3e d7 7c 02 3e d9 b1 b1 3d f3 6e f7 3c
       0.26836094 0.12742935 0.086765 0.030204272
0000d0 a0 85 23 3d dd 5c 0b 3c 6d ba fd 3d 92 55 ce 3c
       0.039922357 0.008506027 0.123890735 0.025187287
0000e0 c5 32 9a bd 5d af 96 3c d1 57 26 3d 2a 1b 11 3d
       -0.07529215 0.018394167 0.040611092 0.035426296
0000f0 09 ac cd bd 21 53 83 bd a6 14 61 3d 3b e4 d8 3c
       -0.10042579 -0.0641234 0.054951333 0.026476016
000100 da ed 66 3d de 67 36 be 5a c9 27 3e b2 3b d0 3d
       0.056379177 -0.1781306 0.16385403 0.10167636
000110 35 ee d7 bb 11 38 73 be c2 1f 45 bd e9 74 81 3e
       -0.006589676 -0.23751856 -0.04812599 0.25284508
000120 8b ad 20 3e f1 b1 61 3d 23 d2 3c be 86 92 3d be
       0.15691201 0.05510134 -0.18439536 -0.18512926
000130 b2 bd b5 bd d5 cf 01 be 9e 4b c2 3d 8e 23 8a 3d
       -0.08874072 -0.12676938 0.09487079 0.06745063
000140 10 88 3a 3d 70 f8 3d 3e c4 bc cd 3d ae 89 82 bd
       0.045539916 0.18551803 0.1004577 -0.063739166
000150 e8 b0 63 3d ce d8 3e bd f9 1f 0f 3e 5b 84 8e bc
       0.055588633 -0.04659348 0.1397704 -0.017397096
000160 53 b2 ae 3d 81 ab 69 bd 6d 8c 36 bc ae b6 e1 3c
       0.085301064 -0.057048324 -0.011141879 0.027552929
000170 df 58 9d 3d 3a 36 94 3d 67 bf e2 bd 28 95 db bc
       0.076829664 0.072369054 -0.11071663 -0.026804522
000180 99 1f 70 bd 9c 46 65 3d f1 f8 f0 3e f5 f3 56 3c
       -0.058623884 0.05597554 0.47064927 0.013119687
000190 08 de 8a 3d 67 56 19 bd 07 b1 1e bd 12 20 4e 3e
       0.0678063 -0.037435915 -0.038743045 0.20129421
0001a0 d4 88 0f 3e 52 ff 34 3d 94 40 27 bd 86 c2 1b be
       0.1401704 0.044188805 -0.04083307 -0.15210924
0001b0 74 fe 45 3d bd a0 cf 3d d4 15 bb 3b 8f d4 e4 3d
       0.04833837 0.1013808 0.005709389 0.11173355
0001c0 01 0d 12 3e 9e 21 72 be 3a 8a 12 be b9 24 12 be
       0.14262773 -0.23645636 -0.14310542 -0.14271821
0001d0 ba 61 c4 3d ef 49 3f be 00 a9 c5 3d c5 61 17 3e
       0.09588952 -0.18680547 0.09651375 0.1478339
0001e0 63 23 ce bd 1b aa 71 bd ba 06 cb bd a1 2f 2e be
       -0.10065343 -0.059000116 -0.09913392 -0.17010356
0001f0 37 48 9d bd e4 eb fd bc fa a4 4a 3e 86 c1 e9 3d
       -0.076797895 -0.03099627 0.19789496 0.11413865
000200 08 e5 05 bd ec b1 49 be 86 10 0a 3d 33 d8 c0 be
       -0.032689124 -0.19696778 0.033707164 -0.37664947
000210 63 21 4d bd 9e 73 d7 3b 9e 3a da 3d d0 a4 af bd
       -0.05008067 0.006575062 0.106557116 -0.08576357
000220 79 da 31 be 89 42 77 be 63 d7 8b 3d f3 a9 d1 bc
       -0.17368497 -0.24146475 0.06828191 -0.025593733
000230 2c 18 e1 3d a8 61 23 3e c2 d1 35 3d 3b b0 3a 3e
       0.109909385 0.15955222 0.044389494 0.18231289
000240 07 3a f7 bc ab dd 37 bc 77 2f 14 be fb 92 1c bc
       -0.030179037 -0.011222283 -0.14471231 -0.009556527
000250 b8 59 7d bd 99 e6 88 3d 85 0f 6d 3d ee 32 15 3d
       -0.06185314 0.06684608 0.05787613 0.036425523
000260 d3 23 4d be 89 21 07 be b7 fd 38 3d de c8 ee bc
       -0.20033197 -0.13196386 0.045163836 -0.029148515
000270 15 91 c5 bb a5 c5 49 3d 2c c2 3d 3d 95 28 3c 3e
       -0.006029258 0.049260754 0.046327755 0.18374856
000280 2f 94 b3 bd 96 1b 1f bd d1 32 af bd 20 58 78 3d
       -0.08768498 -0.038844667 -0.08554614 0.060630918
000290 69 e9 1a 3f a9 9c 66 be 00 69 95 bd b4 84 83 be
       0.60512406 -0.22520699 -0.07295418 -0.25687182
0002a0 2c 6e 75 3c 8c 30 02 3d 34 70 9f 3c 5d f7 39 be
       0.01497988 0.03178458 0.019462682 -0.18160768
0002b0 53 11 07 be 26 44 b9 be da c0 a3 bc 11 42 66 bd
       -0.13190202 -0.36184806 -0.01998942 -0.05621535
0002c0 39 8f 0a 3e 39 1e 8d 3c 20 97 ea 3d 4a 07 01 3e
       0.13531198 0.017226325 0.11454606 0.12600437
0002d0 94 41 73 3e 05 80 c8 3d ac 09 b2 3c 42 90 9f 3d
       0.23755485 0.09790043 0.021733128 0.07791187
0002e0 32 ce 5c 3c 05 5f 17 3d df 0c 00 be 21 4a ad bc
       0.013476895 0.036955852 -0.1250491 -0.021153511
0002f0 2e 63 68 3d 89 91 52 bd da 11 4d 3d 67 bc 19 3e
       0.05673521 -0.051408324 0.050065853 0.15013276
000300 4c cd 06 3e 62 d0 26 3d d0 83 d0 3c 11 e6 b4 bd
       0.13164252 0.040726073 0.025453478 -0.08832944
000310 40 5f 60 3b b0 7d 32 3e e6 57 7b bd fb 1a 00 3e
       0.003423646 0.17430758 -0.061363123 0.12510292
000320 ed ba 0c bd 4b e9 ad 3d 6b f3 b3 3d 7a e5 08 be
       -0.034357954 0.08491763 0.08786663 -0.13368788
000330 b5 7f 0f 3d 30 56 cb 3c 2e 88 1f bd c8 70 8d bd
       0.0350339 0.02482137 -0.03894823 -0.06906277
000340 d8 e4 08 3d 1c e7 e4 bd 8f 39 c6 3d cc 30 4d 3e
       0.033421367 -0.11176893 0.09678947 0.20038146
000350 04 a9 5b 3e 5a 55 5b 3c 65 be 09 bd 29 05 05 bc
       0.21451193 0.013387049 -0.03362884 -0.008118906
000360 34 79 91 be 39 80 08 3e 1f 57 39 3e ea 80 ef bd
       -0.28412783 0.13330163 0.1809964 -0.1169451
000370 83 b7 23 bc 3f 84 07 3d 5c 2c 06 bd 5a 54 8a 3e
       -0.009992483 0.033085104 -0.03275715 0.2701748
000380 66 df f0 bd 84 b0 8f 3d 1c 39 35 bd 00 78 2d 3b
       -0.1176136 0.070160896 -0.044243917 0.002646923
000390 c3 17 0c be a0 25 98 3c 11 92 b1 3e 50 ab a2 3c
       -0.1368094 0.018572628 0.34681752 0.019857079
0003a0 30 a7 9f bd 5a c0 ce bd 54 48 a4 bd f1 d3 1f be
       -0.0779556 -0.10095282 -0.08021608 -0.15608193
0003b0 80 f1 45 bb 1c 18 92 3c 60 84 d8 bd 58 c1 6b 3e
       -0.003020376 0.017833762 -0.105721235 0.23022974
0003c0 b6 03 4a be 28 16 20 bd 52 b1 45 be 5d 7c ea bd
       -0.19727978 -0.03908363 -0.19305924 -0.11449502
0003d0 b7 c0 9d bd 34 32 a6 3d 6d 9b 6b 3d 4a 33 d5 bd
       -0.07702773 0.08115044 0.057521272 -0.10410173
0003e0 8a 1c db bd 83 4e 1f be ac 15 df bb 08 ce 03 3e
       -0.10698803 -0.15557294 -0.0068080034 0.12871563
0003f0 f4 2f e0 bd ba d8 15 be 7e a5 0a 3e c8 73 ce 3c
       -0.10946646 -0.14633456 0.13539693 0.025201693

fc1.bias f4 [256]
000000 75 88 4a bc 47 56 3a bd fb 6d 90 3d 23 44 65 be
       -0.012361635 -0.045492437 0.07052227 -0.22389273
000010 fd 70 80 bd 83 0f c4 bd be 14 88 be cc 66 0f bd
       -0.06271551 -0.09573271 -0.26578325 -0.035010144
000020 88 2b ae 3d 6e 38 a0 3d 41 bc 74 be 00 8f bf 3d
       0.08504397 0.07823263 -0.23899938 0.09353447
000030 59 50 96 bd bb a5 cc 3d 0e 46 21 3e c2 4b ea 3d
       -0.07339544 0.09992548 0.1574938 0.11440231
000040 29 8a bf bc ab 66 a3 bd c1 70 5f be b4 74 5c be
       -0.02338131 -0.07978567 -0.21820356 -0.21528894
000050 d2 b2 09 3d b8 a1 d5 bd d5 3e c0 bc 73 67 1b 3e
       0.033617802 -0.10431236 -0.02346746 0.15176181
000060 ca 7b b2 bd 9c 24 1e bd 55 84 76 3e fe d6 db bc
       -0.08715017 -0.038609132 0.24073918 -0.026835915
000070 cb 63 9c bd 0e 01 c3 bd 67 4d da bd fd ad b8 bd
       -0.076362215 -0.095216855 -0.106592946 -0.09017561
000080 ca 5d 0b bd 92 4f 43 3c 2f 3e f4 bd 1c c3 9d 3d
       -0.03402499 0.0119208265 -0.11925923 0.0770323
000090 b6 ac bb bd f6 86 06 be 46 18 4a 3e 12 65 47 3c
       -0.09163801 -0.13137421 0.19735822 0.012170093
0000a0 d5 8e 0c be cc 24 58 bd 01 e9 44 3e 11 bd 15 3e
       -0.13726361 -0.052769467 0.19229509 0.14622904
0000b0 e2 91 7f bc ff 4c 31 bd 44 38 0d 3e 8e 11 c0 bd
       -0.015598746 -0.04328632 0.13790995 -0.09378348
0000c0 44 db 0d 3e 2b 1c 00 3e 56 3d 62 be 1d eb c0 3d
       0.13853174 0.12510745 -0.2209371 0.09419844
0000d0 77 f5 c2 bd 50 42 c1 bd 3a a4 0f be 00 f8 a2 bb
       -0.09519475 -0.09436476 -0.14027491 -0.0049734116
0000e0 e7 15 cf bd 40 57 83 3d 65 8a 6d be dd 6f f7 3d
       -0.101115994 0.06413126 -0.23197325 0.12081883
0000f0 15 24 c8 bd 95 e7 17 be c8 de 4e bd 78 53 d7 bc
       -0.09772507 -0.14834435 -0.05050543 -0.026284918
000100 aa 01 4d be 51 87 a7 bd 56 e2 c8 3d 65 61 dd bc
       -0.20020166 -0.081801064 0.09808795 -0.02702398
000110 e0 3c 19 3d 18 d5 11 be dd b4 4e bd 83 3f 5b bc
       0.03741157 -0.14241445 -0.050465453 -0.013381842
000120 cb 24 60 be db fb 87 3d 21 b8 43 bb 44 af a2 3d
       -0.21889035 0.066398345 -0.0029864388 0.079435855
000130 dd 24 53 be c6 73 e1 3c c5 94 71 be 81 c2 5c 3d
       -0.20619531 0.027521025 -0.23591907 0.05389643
000140 bc 6e 81 3e 2a ae b4 bd 88 f2 53 be 0d 01 90 bc
       0.25279796 -0.08822282 -0.20697987 -0.017578626
000150 fc 90 3d bd ec de 1d 3b 29 38 8d be dc b1 91 bc
       -0.046280846 0.002408917 -0.2758191 -0.017785005
000160 b0 3e 95 be 61 d9 14 3e 3c 7f b3 b9 b4 74 2a 3d
       -0.2914939 0.14536048 -0.00034236338 0.041615203
000170 c5 9f 0d bb 0b e6 fd 3d 31 d1 df bd 70 81 ba bd
       -0.0021610123 0.12397393 -0.10928572 -0.091067195
000180 ee 18 02 be 65 41 4a be 7b 6c 55 bd 5d 23 11 3e
       -0.12704822 -0.19751509 -0.05210541 0.14173646
000190 37 cd e9 bd 11 c2 fd 3c 52 fe 08 3e ef 16 dd 3d
       -0.11416095 0.030976327 0.13378266 0.1079539
0001a0 62 ee de ba 0d 51 37 bd 6e 27 7b bd 5c e3 b2 bb
       -0.00170083 -0.04475503 -0.0613169 -0.0054592323
0001b0 7d c4 bf bd a5 2d 91 bc 5a 87 60 3e 60 89 38 bc
       -0.09363649 -0.01772196 0.21926633 -0.0112632215
0001c0 c4 5f 95 be 5b 73 b8 be 9c 02 54 3d df 35 10 bd
       -0.29174626 -0.3602551 0.0517603 -0.035207625
0001d0 fd 87 55 be 98 c9 d5 bd e0 13 52 3b b0 bb 3f be
       -0.20852657 -0.104388416 0.0032055303 -0.18723941
0001e0 42 50 0f 3e 5b ce 9a 3d ee 24 12 be 13 81 55 bd
       0.1399546 0.075588904 -0.142719 -0.052125048
0001f0 5c 2c 14 3e c5 f2 44 3d e7 4e 53 be 4d 38 a7 bd
       0.14470047 0.048083086 -0.20635568 -0.081650354
000200 69 09 dd bd dd 02 87 be 43 8b 56 bd e8 84 b1 be
       -0.107928105 -0.26369372 -0.052378904 -0.34671712
000210 ac 20 9f 3d e4 84 3a be c5 15 16 be a4 e2 a8 bd
       0.077699035 -0.18214756 -0.14656742 -0.08246353
000220 52 ca 8b 3c 80 84 3a bd 5c 71 04 bd 21 95 ef bd
       0.017064247 -0.045536518 -0.03233467 -0.11698366
000230 2b 08 46 bd ad c3 86 bd 1c f4 b1 bc 7a 90 10 be
       -0.048347633 -0.06580291 -0.021722846 -0.14117613
000240 79 51 91 bd 25 a8 3b be 79 36 61 be bf e8 0c 3d
       -0.07095618 -0.18325861 -0.21993436 0.03440165
000250 4c 84 42 3d ea 9e 6e be a8 6f 2f be 14 b7 83 bd
       0.04748945 -0.23302808 -0.17132437 -0.06431404
000260 e9 54 a5 3d f6 94 11 be 2e da 72 3d cd c0 12 be
       0.08072836 -0.1421698 0.059290104 -0.1433136
000270 cc 10 49 bd 41 aa 01 3e 1e 04 49 bd 68 a6 0f bd
       -0.049088284 0.12662603 -0.049076192 -0.035070807
000280 89 4f db bc 85 09 97 bd f6 4a 42 3e d9 80 f8 3d
       -0.026771324 -0.073748626 0.18973908 0.12133951
000290 b4 83 1b 3e c9 96 c3 bd b7 3d 1d be 9e 82 a3 3b
       0.1518696 -0.09550244 -0.15355574 0.004989936
0002a0 7e b2 f3 bd 77 74 90 bd 4e b5 1a 3e bf 6c 54 3e
       -0.11899279 -0.07053464 0.15108225 0.20744608
0002b0 56 13 11 be 72 72 53 bb 16 79 08 3d d3 7a 0d 3d
       -0.14167532 -0.003226426 0.0333186 0.034540962
0002c0 d1 d4 f2 bd e5 1e 48 be 54 9a 85 bd 1e c6 0f 3b
       -0.11856998 -0.19543035 -0.065235764 0.0021938155
0002d0 2f 6d 36 be 6c d2 10 3e b6 b1 f5 bd 89 b0 74 be
       -0.17815088 0.1414277 -0.11996786 -0.23895468
0002e0 58 bb 56 3d 07 b6 ad bd ca cc cf 3d 09 56 74 bd
       0.05242476 -0.084819846 0.10146482 -0.059652362
0002f0 4f 6f 4d be 6a 77 63 3d ac 81 76 bd 5a 62 b7 bb
       -0.20061992 0.055533804 -0.06018226 -0.005596441
000300 14 57 8b 3d 4f 29 2b be d5 2d 75 bd a7 70 3c be
       0.06803718 -0.16714977 -0.059858162 -0.18402348
000310 d5 0f 4e 3d 76 dd 96 3d 06 8c 60 be c8 c1 25 3d
       0.050308067 0.07366459 -0.21928415 0.040468007
000320 b5 3e 4e 3e 44 30 bc 3d 47 36 e3 3d 5e 4d 62 bd
       0.20141108 0.091888934 0.11094337 -0.055249564
000330 1a 3d 53 bd e2 20 05 be ea 20 99 be ee 2d e7 bd
       -0.051571943 -0.13000825 -0.29907924 -0.11288057
000340 28 2f a0 3d 61 70 a4 3d 08 43 ae bd b0 23 dc bb
       0.07821494 0.08029247 -0.08508879 -0.0067181215
000350 0e f8 e2 bd 6c eb 61 3c c3 c5 1f be 1f c4 37 bc
       -0.11082469 0.013789039 -0.15602784 -0.0112161925
000360 c9 10 9c bd f2 0f 48 be 90 27 88 be 0f ab 9b 3d
       -0.07620389 -0.19537333 -0.26592684 0.07600986
000370 86 7c 53 3b ba 4d 15 be 96 28 d8 3c d4 6f 0d be
       0.0032270267 -0.14580432 0.02638654 -0.1381219
000380 b7 21 39 3d c3 3d 1f be 12 16 60 bd 47 08 37 be
       0.04519817 -0.15550904 -0.054708548 -0.17874251
000390 37 35 6b be 94 e4 db 3d f8 55 eb 3c 47 7c 9f bd
       -0.22969519 0.10736957 0.028727517 -0.07787376
0003a0 ee 4f 3a be 77 80 2a 3e 28 75 ab 3c 4f dc 06 be
       -0.18194553 0.16650568 0.020929888 -0.13169979
0003b0 95 66 c1 3c bf ea 82 bc cb 7e 6f be 13 ef 17 bd
       0.023608485 -0.015981076 -0.23388211 -0.037093233
0003c0 ef 85 4e be 97 65 64 be 2b 4a 45 bd 0d 9a 14 be
       -0.20168279 -0.22304378 -0.048166435 -0.1451189
0003d0 84 d3 08 bd 62 cf 66 be 86 91 e7 bd 70 37 58 3e
       -0.033404842 -0.22540048 -0.11307053 0.21114898
0003e0 d6 3e a3 bd e1 58 00 3e 4b ec 5a 3d fa b8 84 be
       -0.079709694 0.12533905 0.053448003 -0.25922376
0003f0 15 ea 20 be 71 55 77 3d 23 ae 1d be e1 39 25 be
       -0.15714295 0.060384218 -0.15398459 -0.1613536

fc2.weight f4 [256, 256]
000000 d3 3e 66 bc d6 dc ca 3b c9 7e 54 3e e0 67 e5 3c
       -0.014053064 0.0061908765 0.2075149 0.028003633
000010 43 46 1f bd 86 a9 db bd 38 8f 76 3e 77 d2 13 3d
       -0.038885366 -0.107256934 0.24078071 0.036089387
000020 66 ce 13 be f1 84 aa bb 0e f3 04 bd 45 00 86 be
       -0.14434204 -0.005203836 -0.032458358 -0.2617208
000030 a3 65 c9 3d d7 a8 81 3e 1c 14 f5 bd d4 57 81 be
       0.09833839 0.25324127 -0.11966726 -0.2526232
000040 19 8a be 3d 85 8d 1b bc 2d c1 16 be 9c 32 ba bd
       0.09303684 -0.00949419 -0.14722128 -0.09091684
000050 e2 b8 c0 bd 4a 98 e2 bd 91 f5 a3 bc c8 b6 be 3d
       -0.094102636 -0.11064203 -0.020014556 0.093122065
000060 e0 5e 78 bd 82 6d 47 3e 27 e5 69 bc 2e 8f 86 3e
       -0.060637355 0.19475368 -0.014275826 0.26281112
000070 db cd d1 3d 0c 7e 7e be 77 99 ce 3c f7 70 e7 3d
       0.10244342 -0.2485277 0.025219662 0.11300843
000080 df 5d 8d bc 22 25 19 be 61 57 70 bd 47 56 57 3d
       -0.017256675 -0.14955571 -0.05867708 0.052572515
000090 2a e1 f7 bd 7e 8b dc 3c 5f af c3 bd 3d 46 49 bd
       -0.121034935 0.026921984 -0.09554934 -0.04913925
0000a0 7a f8 28 be 60 4c 5f bd 1e 00 5f 3d 34 5d 1c be
       -0.16501036 -0.054516196 0.05444347 -0.15269929
0000b0 71 70 1b 3e bb 1f 2c 3d 29 f5 1d 3d a2 5a c3 bd
       0.15179612 0.042022448 0.03856388 -0.09538771
0000c0 02 56 7f 3e 5f 57 8a be 4b ce 6c 3e b5 69 8b 3e
       0.24935153 -0.27019784 0.2312557 0.27229086
0000d0 1c a9 82 3c 39 12 44 3e 83 ca 25 bd 65 12 52 3c
       0.015949778 0.19147576 -0.040476333 0.012821768
0000e0 32 d8 37 be e6 5d 48 be 52 12 14 be 5f d1 2b be
       -0.17953566 -0.1956707 -0.14460114 -0.16779087
0000f0 31 61 86 be 55 6c e0 3b 78 1b 8f 3d 45 bf 00 3d
       -0.26246026 0.0068488517 0.06987661 0.03143241
000100 6c bc f2 3d 9f 9e a8 be 83 65 4d be ea 6d 6e bd
       0.11852345 -0.32933518 -0.20058255 -0.05821029
000110 24 b0 2d 3d ce dd 35 3d 54 77 8a bc 6f c7 4d bd
       0.04240431 0.044400983 -0.016902603 -0.050239023
000120 af 6d 04 3d c2 38 80 be 85 4a 11 3d 07 9f b6 bd
       0.032331165 -0.25043303 0.035471458 -0.08917051
000130 fa 65 4f bd 56 23 09 be d7 00 ef 3c 13 e8 f4 bc
       -0.05063436 -0.13392386 0.029175205 -0.029895818
000140 3d 58 b2 3d 45 7c 18 3e 08 ac 6f be 3d 29 b9 3d
       0.08708236 0.14891155 -0.23405468 0.09041069
000150 43 d7 a8 3d bf fc 79 bc 4f 2a 37 3e 89 54 59 bd
       0.08244183 -0.015258013 0.17887233 -0.053059135
000160 79 2c 81 bb f1 60 19 be 3b 9b f1 3d 65 e7 0d 3e
       -0.003942069 -0.14978386 0.11797186 0.13857801
000170 97 75 f4 ba 94 8d 7c bd 6b 90 17 3e ff c1 5c bc
       -0.0018650767 -0.061658457 0.14801185 -0.013473987
000180 e2 fd 9a 3d 42 0b 42 3e 7c ab ae 3d 70 06 4f be
       0.075679556 0.18949607 0.08528802 -0.202173
000190 2f 83 5a 3b 25 cc 32 be ca c7 b5 3d 38 31 a1 3d
       0.0033342352 -0.17460687 0.08875997 0.07870716
0001a0 70 e3 04 3e c8 59 88 bd fa c7 50 3e e3 1b d5 bc
       0.12977386 -0.066577494 0.20388785 -0.026014274
0001b0 50 51 83 3e af a3 8c bc d8 00 75 bd 9d 57 1f bd
       0.25647974 -0.017167894 -0.059815258 -0.038901914
0001c0 9b 83 82 3d 80 fe 65 3e e2 f1 3e be fb a2 0a 3d
       0.06372758 0.22460365 -0.18646958 0.033846837
0001d0 53 83 5b bd c5 07 4a be f2 a0 fc bd 45 5f 41 3e
       -0.053592037 -0.19729526 -0.123353854 0.18883999
0001e0 0c 12 29 3c 00 1c ee bb ce 89 19 3c 4a c6 98 bc
       0.010319244 -0.0072665215 0.009371234 -0.01864924
0001f0 3c 64 47 bd ab c8 d9 bc 3e a5 43 3d c8 c3 85 bd
       -0.048679575 -0.026584944 0.04776501 -0.06531483
000200 29 5a 5f be a4 2a f4 be 8f 3b f0 bd 30 e4 ab 3d
       -0.21811737 -0.47688782 -0.1173011 0.08393133
000210 d0 64 ad be fb 6e 06 3d 67 3a 14 3e 90 ff 2e bd
       -0.33865976 0.032820683 0.14475404 -0.042724192
000220 8d 66 19 3e 58 25 0e be 04 a7 e8 bd e7 19 cc bd
       0.14980526 -0.13881433 -0.11359981 -0.09965878
000230 8b 93 0c bd 7e 92 1a 3c 46 ac 20 be e8 6a 14 be
       -0.034320395 0.0094343405 -0.15690717 -0.14493906
000240 f4 32 90 bc 80 55 3e bc 12 ed 09 be 87 c4 b8 bc
       -0.017602421 -0.0116170645 -0.13469341 -0.022554649
000250 4f 37 b9 bd ff 95 4e bc e6 2e a1 3c 65 dd e3 3d
       -0.090437524 -0.012609004 0.019675683 0.11126212
000260 68 7b 62 bc 5c 4c c8 bd 85 9d ad bb d4 ce d1 bd
       -0.013823368 -0.097801894 -0.005298319 -0.102445275
000270 92 69 15 be 8e b0 8c bd 5b 7e ac 3d 69 f5 b1 be
       -0.14591053 -0.06869613 0.08422538 -0.34757546
000280 00 38 8e 3a bf 0d 74 bd a7 17 76 bd eb 14 c3 be
       0.001085043 -0.05958342 -0.06008115 -0.38101897
000290 05 4f 93 3d e9 e7 b5 3c ed d4 9c 3d 8b c2 0a 3e
       0.07192806 0.02220531 0.076578 0.13550775
0002a0 6b 7b 3c 3d 13 a4 9a bd 69 9c 99 bd 2d 69 24 be
       0.046016138 -0.07550826 -0.07500536 -0.16055746
0002b0 b0 b6 60 3e 99 c2 8a 3e 5c 39 ca be 91 eb 25 3e
       0.2194469 0.2710159 -0.39496887 0.16203143
0002c0 61 16 25 be 90 c0 21 bd e1 6f 00 be a3 66 c1 3c
       -0.16121818 -0.039490283 -0.12542678 0.023608511
0002d0 84 3f e4 bd c2 cd 83 be 23 19 4e 3e 26 77 88 3e
       -0.11144927 -0.25742918 0.20126776 0.26653403
0002e0 d0 d7 17 bd 53 f5 9e 3d 9a 29 44 3d 2e 1f b8 bd
       -0.03707105 0.07761636 0.047891237 -0.08990322
0002f0 d9 87 b9 3d 61 63 1a 3e 42 f6 0d be 3f 2c 82 bd
       0.09059114 0.15076973 -0.13863471 -0.063560955
000300 a6 91 da bd 55 00 26 be 47 49 70 3d c4 a2 24 3e
       -0.106723115 -0.16211064 0.058663633 0.16077715
000310 11 e4 37 bd 30 c2 f9 bd 45 88 bd 3d 06 ad 83 bd
       -0.044895235 -0.121952415 0.09254507 -0.06429486
000320 0b db 74 3e 5b 8c d7 3d 9f 40 7c 3e 97 25 ae be
       0.23911683 0.105248176 0.24634026 -0.34013054
000330 ef 2b a1 3d 83 35 b6 bc f0 18 3a 3b 41 c7 5d bd
       0.07869708 -0.022242313 0.0028396212 -0.0541451
000340 2d d0 a7 3e f9 13 1e 3e 15 e8 d5 bd f5 7c 29 3d
       0.32776013 0.15437306 -0.10444657 0.041378934
000350 af 9a 0e 3e fa 14 4c bd b5 a1 5b bc 1e 79 52 3e
       0.13926195 -0.049824692 -0.013405253 0.20554015
000360 c8 fc 24 be 1b 3f c8 be 78 d2 fc bd 29 83 87 3d
       -0.16112053 -0.39110646 -0.12344831 0.06616814
000370 8e a3 b7 be 75 a1 42 be a9 d2 07 3e 70 e0 26 be
       -0.3586697 -0.19006903 0.13263954 -0.16296554
000380 5b a1 2f 3d 08 5c bc 3d 58 4c 0f bd 65 ae 02 be
       0.04287849 0.09197241 -0.034984916 -0.12761839
000390 31 38 e8 bb 63 50 34 be 10 62 ce bd fb 02 db 3b
       -0.0070867767 -0.1760879 -0.10077298 0.006683705
0003a0 ad b3 2f be d3 6a 51 be c6 2c c9 3c 60 78 0f bd
       -0.17158385 -0.20450906 0.024557482 -0.035026908
0003b0 d8 8a 0a 3d d4 82 2d 3c f0 5b f2 3d b9 f0 84 bc
       0.033823818 0.010590274 0.11833942 -0.016228067
0003c0 a4 a5 11 bd b4 53 90 3e f6 6a 47 bd 12 96 30 3e
       -0.035558358 0.2818886 -0.04868599 0.17244747
0003d0 e8 b6 02 be f1 2f 5d 3e f0 7a 37 be 08 34 fd 3c
       -0.12765086 0.2160032 -0.1791799 0.0309086
0003e0 ba 28 7c 3d ef b9 bd 3d c1 8f ec 3c 5a 91 19 bc
       0.061562277 0.0926398 0.028877141 -0.009373033
0003f0 d6 e6 8b 3d df 4a e0 bd 79 e7 e9 bc 26 12 8b bd
       0.06831138 -0.109517805 -0.028552758 -0.06790571

fc2.bias f4 [256]
000000 de 44 80 bd 09 b1 5a 3c c1 75 f8 3b ae 2f fe bd
       -0.062631354 0.0133478725 0.0075823967 -0.12411438
000010 29 de 52 bc 3d cb 7f bd 9b ab 75 3c 94 8c a0 3d
       -0.01287035 -0.062449683 0.014994527 0.07839313
000020 9f 0f cc 3c 79 97 00 3e b1 c9 d0 bb 60 49 e5 3d
       0.024909792 0.12557782 -0.0063716997 0.11195636
000030 fb 88 c5 bc 24 5e 2a 3d 71 23 91 bd f7 18 6a bc
       -0.024113169 0.041593686 -0.07086838 -0.014288179
000040 48 c1 ee bd 98 94 ad 3c 55 7f 63 bc db 86 15 bd
       -0.11657959 0.02118902 -0.013885339 -0.03650556
000050 fd d8 84 3a 5a 70 c9 bd 96 e9 90 3c 1e 8d 57 3d
       0.0010135468 -0.098358825 0.017689507 0.052624814
000060 3d e0 a1 bd 4f fe e4 3d 6f 4a e6 3c 95 7b bb 3d
       -0.07904098 0.11181318 0.028111665 0.09154431
000070 84 78 a0 3d 52 a5 d0 bd f7 f5 a1 bd 9c 94 99 3c
       0.078354865 -0.10187782 -0.07908242 0.01874762
000080 60 23 b0 bb 4d fd de bd 71 c6 f8 3b a0 f9 0b 3d
       -0.005375311 -0.10888157 0.0075920154 0.034173608
000090 e2 86 e2 3b d7 7b 54 bc 0d 1d 2e 3d 4c 38 a5 bd
       0.006913052 -0.012968979 0.042508174 -0.080673784
0000a0 bd 1c 1f 3d 7d e3 df 3c 82 6e eb 3d ef 68 54 3d
       0.038845766 0.027330155 0.11495687 0.051857885
0000b0 e1 21 59 bc ab ef 16 bb 74 f2 d6 bc ad 12 c6 bc
       -0.013252706 -0.0023031037 -0.026238658 -0.024178827
0000c0 c8 a4 09 be d5 42 a5 bd e8 80 55 be 54 30 fc bc
       -0.13441765 -0.08069388 -0.20849955 -0.030784763
0000d0 b7 71 ff 3c 75 e1 c2 3d 5a ec 8a 3c 66 ad 01 3d
       0.031182153 0.09515659 0.016958404 0.031659506
0000e0 74 54 02 3d ac 3f 9b bd a0 5a 08 3d 5b d6 96 bd
       0.031818822 -0.07580504 0.03328955 -0.07365104
0000f0 80 f6 3f 3d 19 34 93 bc a3 c0 b6 3b cb a4 3d 3c
       0.04686594 -0.017969178 0.0055771633 0.011574934
000100 4e 1e 29 bd 94 3d 93 3c 67 62 08 3d 26 71 a7 bd
       -0.041288666 0.017973699 0.03329697 -0.08175878
000110 3f a7 82 3d b6 de a2 bc 89 6a e7 b8 a9 53 db 3d
       0.06379556 -0.019881587 -0.00011034782 0.10709316
000120 e9 f3 32 3d 1f df 02 bd 5e 0a 33 3d 58 95 c1 bd
       0.043689642 -0.031951066 0.04371106 -0.09452313
000130 18 c7 14 3d 51 0c 13 3d 7b 51 28 3d b0 3c 84 3d
       0.036322683 0.035900418 0.04109333 0.06456888
000140 0b 56 2e 3d 56 be 14 bc 90 4b ee bd 0a 1d e5 bc
       0.042562526 -0.009078583 -0.11635506 -0.027967948
000150 1c fc af bc b2 c8 3a be da cd dc 3b 23 8a b6 3c
       -0.02148252 -0.18240622 0.0067384066 0.022282666
000160 a0 55 50 bb ad d4 d6 3c 68 3d 23 bd 9d ea d2 bd
       -0.0031789318 0.026224459 -0.039853483 -0.10298655
000170 a9 8a f6 bc 08 c6 d2 bd 92 ea dd bd 6f ee 70 bd
       -0.030095415 -0.10291678 -0.10835756 -0.058821138
000180 d2 dd a8 3c b7 63 b6 bc f2 f5 d6 3b 3c 8e fa bd
       0.020613585 -0.022264345 0.0065600807 -0.1223416
000190 fe 1b 16 bd f1 c8 46 3d 77 35 6c bd 09 e2 40 3d
       -0.03664779 0.048531476 -0.057668176 0.047090564
0001a0 23 a0 cd bd cf 83 f4 bc b5 4d 01 bd 0f 09 88 bd
       -0.10040309 -0.029848007 -0.031568248 -0.06642353
0001b0 55 b3 f0 bb 3c cc a0 bd d6 18 cc bc 7f 65 b9 3c
       -0.007345597 -0.078514546 -0.024914186 0.022631405
0001c0 8d 73 d1 3c c1 22 c8 bd 27 7d 23 bd 7c c2 a1 3a
       0.025567794 -0.09772254 -0.039914276 0.0012341286
0001d0 7e 1b c8 bd 65 81 b0 3d 17 4f a0 3d c1 7f 9f bd
       -0.09770869 0.0861843 0.07827585 -0.07788039
0001e0 a0 77 74 3d ba 1c 90 bc 35 d7 88 bd 9f 1b 8b bc
       0.059684396 -0.017591823 -0.066816725 -0.016980944
0001f0 47 6e 04 bd a8 1c 93 3c 2f 26 0c 3d 33 e6 13 bd
       -0.03233173 0.017958 0.034216102 -0.036108207
000200 fe c1 eb 3a 15 12 c5 3c 15 c3 c7 bc 36 6a ca bd
       0.0017986891 0.024056474 -0.024385015 -0.098835394
000210 d3 26 6e bd 07 a8 db 3c b4 80 a9 bd 2a f8 02 be
       -0.058142494 0.02681352 -0.08276501 -0.1278998
000220 4e 1e b3 bd 48 b9 9c 3c 47 56 61 3d db 95 15 3d
       -0.087460145 0.019131318 0.05501392 0.036519866
000230 c5 a8 b4 bd bb 64 be bc ab 9a 94 bd 91 8c f2 3b
       -0.08821253 -0.023241391 -0.07256063 0.0074020107
000240 d2 23 3c 3d 54 2d 05 3d bc aa 94 3c d6 9f e2 bc
       0.0459326 0.03251393 0.018147819 -0.027664106
000250 f4 5a fe bc 9b 47 26 3d 0d 0d 16 bc 2d ea 16 3d
       -0.03104923 0.040595632 -0.009158385 0.03684442
000260 cb a8 8f bb 2c 4a 10 3c a6 24 bd 3c e0 09 89 3d
       -0.0043841354 0.008806746 0.023088764 0.06691337
000270 f2 38 25 bc 90 4a fb bc 2f 91 83 ba 49 9d 43 3d
       -0.010084378 -0.030675203 -0.0010037775 0.04775742
000280 b9 dc 56 3d c2 b6 03 3c 26 32 43 3b 9d 18 ea bc
       0.05245659 0.008039178 0.002978453 -0.02857619
000290 81 f1 39 bd 46 72 4a 3b ca 7f 5c 3d e1 a6 69 3d
       -0.04539633 0.0030890866 0.053832807 0.057043914
0002a0 6e fe 5e bd 3e 52 5a 3d ca 54 85 bd b1 e4 7b bd
       -0.05444186 0.05330109 -0.06510313 -0.061497394
0002b0 d7 43 d1 bb e6 65 c4 bc 95 57 a9 bb bd ce 66 3d
       -0.006386261 -0.02397437 -0.0051679113 0.056349505
0002c0 75 16 a2 3b c5 14 93 3a 7a a1 1d 3c e7 ac 4f bd
       0.0049465247 0.00112214 0.009621019 -0.050702002
0002d0 b7 ed 45 b7 cc 3d f6 3b c7 32 e5 bc 0b 8e b7 bd
       -1.1797462e-05 0.007514691 -0.027978314 -0.089626394
0002e0 be e2 b3 bd a9 81 0a 3d bb 0e 42 3c 87 cf 67 ba
       -0.08783482 0.03381506 0.011844332 -0.00088428747
0002f0 0d ff ac 3c fc 60 42 3d bc 31 a3 3c 43 8a df bc
       0.021117711 0.047455773 0.019921176 -0.027287608
000300 21 d2 ed bd 16 1d 94 bc 79 4c 26 3d c2 7f 7e 3d
       -0.116123445 -0.018080276 0.040600274 0.062133558
000310 a7 cb d3 3c e8 38 64 3c f1 51 14 be bd b9 96 bd
       0.025853945 0.013929583 -0.14484383 -0.073596455
000320 16 64 bb bc 1a bd a6 3d cc b3 fe 3c 49 36 94 ba
       -0.022874873 0.08141537 0.031091593 -0.0011307682
000330 e7 bf d3 bd 6a 6c 82 3d 65 ab bb bd 80 cc 5e 3d
       -0.10339337 0.063683346 -0.0916355 0.054394245
000340 5f 4a 8f bd 39 73 3a bc 26 c3 36 3c de 11 03 bd
       -0.06996607 -0.01138001 0.011154925 -0.03199946
000350 f1 30 8b bc eb 54 30 bd 90 dd a5 bd 86 06 2f bc
       -0.01699111 -0.043049734 -0.080989 -0.010682708
000360 70 fa 7b bd 1e ba 74 bd 96 a9 3e bd f2 41 6d bd
       -0.061518133 -0.059747808 -0.04654845 -0.05792422
000370 72 6f 87 3d 23 fe d7 bc b0 53 2a 3d 27 67 54 be
       0.066130534 -0.026366299 0.041583717 -0.20742474
000380 09 0e 9b bc 39 dc 93 3d f6 70 07 3c 82 b6 68 bd
       -0.01892759 0.072197385 0.008266678 -0.056814678
000390 c4 eb e6 3d 3d 6f 53 be b0 32 0b 3d a4 75 94 3d
       0.112754375 -0.20647903 0.033983886 0.07249001
0003a0 7d fe c4 bc 4a 27 1e bd d3 d4 48 bd 5b 64 80 bd
       -0.02404713 -0.038611688 -0.04903109 -0.06269141
0003b0 cf 0d 82 3d bc 1e 36 bd 88 e1 61 3d e3 fc 52 bc
       0.0635029 -0.044462904 0.055146724 -0.012877676
0003c0 0f 9d 12 bd 4b 5a 11 3e ff 14 01 3e 61 1c 8a bd
       -0.035794314 0.141946 0.12605666 -0.06743694
0003d0 d0 86 81 3d f8 c5 a0 bd cf a5 77 3d ee 77 2b 3c
       0.063245416 -0.078502595 0.06046086 0.010465605
0003e0 cd db 5c bb 53 d4 70 bc 0a 37 72 bc e1 65 b7 3b
       -0.0033700347 -0.01469906 -0.01478363 0.0055968617
0003f0 bb 72 75 3a 70 1d b7 bb ab 56 44 3c 78 e9 0d be
       0.00093631045 -0.005588226 0.011983554 -0.13858593

fc3.weight f4 [4, 256]
000000 98 bb 80 be 9f 7b 6c 3e 41 97 fa 3d dd 9d b3 3e
       -0.25143123 0.23094033 0.12235881 0.35081378
000010 33 23 d1 bb b8 9a 6a bf 9c 51 4e 3f a3 b3 2b be
       -0.00638237 -0.9164233 0.80593276 -0.16767745
000020 ec 73 c8 3e a6 83 4b bd 53 97 50 bd 36 e5 9a bd
       0.3915094 -0.049686097 -0.050925564 -0.0756325
000030 47 6d 34 3e d6 1f 8c 3e 26 4e 15 bd 1e 42 f8 bb
       0.17619811 0.2736804 -0.03645148 -0.007576241
000040 c0 0c 07 bf 61 a7 f9 be 0e d7 e5 be db ab 52 bf
       -0.5275383 -0.48760512 -0.44890636 -0.8229348
000050 dd 20 f7 be 9b 6c e7 3d 63 55 5f 3e da 40 d0 3e
       -0.4826726 0.11300012 0.21809916 0.40674478
000060 30 41 e4 3e d4 09 de 3e b1 f8 d1 3e f0 20 ab be
       0.44580984 0.43366873 0.4101005 -0.33423567
000070 8c 8e b6 3e 50 53 81 be 2a 4e 48 be 70 b2 98 be
       0.3565563 -0.25258875 -0.19561067 -0.29823637
000080 33 eb 3b be a2 1c c9 3d 62 39 dd be 53 a2 ad be
       -0.1835144 0.098199144 -0.43207842 -0.33912906
000090 62 e2 9f 3e f5 06 0e be a5 f3 2c be 78 b3 38 be
       0.31227404 -0.13869841 -0.16889818 -0.18037212
0000a0 79 2f 36 3d 55 2f d5 be 4d 50 54 3e 0d 9f 95 be
       0.044478867 -0.41637674 0.20733757 -0.2922291
0000b0 6d 05 37 3e 6f cc f8 bc d3 05 b1 3e ed 70 ea 3e
       0.17873164 -0.030370919 0.34574756 0.4578928
0000c0 73 e9 bb 3e 76 b5 5c be 2e dc 41 3e c3 ff d5 3e
       0.36701545 -0.21553597 0.18931648 0.41796693
0000d0 c2 83 bd 3e 97 97 07 3d 3b 32 b1 bd 53 35 94 3c
       0.37014586 0.03310355 -0.08652159 0.018091833
0000e0 92 6d 2a bf 67 21 cb bd 39 27 5e be 1a b4 a3 be
       -0.6657344 -0.0991848 -0.2169465 -0.31973344
0000f0 e6 e6 17 3f 4b 16 7c be ab 23 bf be a5 fe 5b 3e
       0.593367 -0.24617879 -0.373319 0.21483858
000100 6e 79 ea 3e c8 2e f1 3d 16 cc 7c be dd 57 32 be
       0.45795768 0.11776501 -0.24687228 -0.1741633
000110 6a eb 8c 3d 68 8b 44 be ee 2a a0 be 7c b0 55 be
       0.06880839 -0.19193804 -0.31282753 -0.20868105
000120 2b 2d 08 bf e7 17 e6 3e 9c 3e 93 be 8a 0e 69 3f
       -0.5319392 0.4494011 -0.28758705 0.9103781
000130 56 57 3d bc 94 63 fa 3d 17 10 d6 3d 17 5c ae 3e
       -0.011556467 0.12226024 0.10452288 0.34054634
000140 67 1b 06 be 11 11 26 bf e6 59 1e 3e 86 5a 83 3e
       -0.1309639 -0.6486979 0.15463981 0.25655
000150 68 e5 b8 be b8 84 31 3f 65 40 e3 bd 40 49 ad 3e
       -0.36112523 0.6934314 -0.11096267 0.33844948
000160 49 20 1e be 06 75 ec bc c5 91 98 be 13 47 d7 be
       -0.15442003 -0.028864395 -0.29798713 -0.42046413
000170 73 8c 9d be 2d 12 ba be f7 6f dc 3e a7 8c 33 be
       -0.30771217 -0.36341992 0.43054172 -0.17534123
000180 8c 7a b2 bd 0d e9 13 be 7a d8 e7 3e 7b 6d a2 3e
       -0.0871478 -0.1444437 0.45282346 0.31724152
000190 2c 6c f0 3d 17 bd 27 3d 2d 19 37 3e 51 b9 56 be
       0.11739382 0.040951815 0.17880698 -0.2096913
0001a0 28 91 3f 3e 1c 69 12 3d 8f 33 35 be dc 55 3a be
       0.18707716 0.03574477 -0.1769545 -0.18196815
0001b0 01 79 12 bd 85 70 ce 3d 8e b0 d2 be 26 75 72 3d
       -0.03575993 0.10080055 -0.41150326 0.059193753
0001c0 5a 84 02 3f 9e aa 09 3f 20 a0 b0 3e ca aa 67 be
       0.509832 0.53775966 0.34497166 -0.22623745
0001d0 37 9e 3d be f3 2c 9c bd 5d e9 4d 3e 12 56 d5 be
       -0.18517385 -0.07625761 0.20108552 -0.4166723
0001e0 e3 da 38 3f 56 df 5e 3f 12 05 d5 3d 9a 40 60 bd
       0.72208995 0.87059534 0.10401358 -0.05474911
0001f0 79 3e 89 bd 5c 61 a5 bd d3 cc a5 3e bb 5d 0f 3f
       -0.06701369 -0.080752105 0.3238283 0.56002396
000200 ca 8b 35 3e 05 4d 02 3e 1f 66 0c bf c1 38 88 3e
       0.17729107 0.12724693 -0.54843324 0.266058
000210 c2 7c 60 bf b2 9c e7 bb de 62 02 3e fd f6 d7 3e
       -0.87690365 -0.00706824 0.12733027 0.42180625
000220 51 93 1f 3e df e6 aa be 49 eb 1d 3d dc bf e7 be
       0.1558354 -0.33379266 0.038554464 -0.45263565
000230 4e ef b1 3d 46 54 7d 3d 88 a2 8c be 3d d5 20 bc
       0.08688222 0.061847948 -0.27467752 -0.009816465
000240 ba cd bb 3e 18 ec ae be b6 d2 20 be 00 31 b9 bd
       0.36680394 -0.341645 -0.1570538 -0.09042549
000250 00 0b 1b 3e 77 3d 0e 3f 5f ab cb bd df 93 59 3d
       0.15140915 0.5556254 -0.09944796 0.053119536
000260 ab a5 6a bf 1b ae be 3e 3f 24 98 3d f7 0e 2b bf
       -0.9165904 0.37242207 0.074287884 -0.6681971
000270 37 48 94 be f1 2d a9 3e 1d a2 a9 bd 75 7b 6d be
       -0.28961346 0.33042863 -0.08282874 -0.23191626
000280 fb 4d 24 3f 06 24 df 3d 8b 0a 34 be 21 f7 98 3e
       0.6418149 0.10895543 -0.17582147 0.29876044
000290 99 f3 f7 3d ff 5d 68 3e ac 6a 37 be 79 9d bd 3d
       0.121070094 0.22692107 -0.17911786 0.09258551
0002a0 40 32 ce 3e eb ef 20 be 32 bb 85 be 38 a2 73 bf
       0.40272713 -0.15716521 -0.2611938 -0.951694
0002b0 87 4f 0c be 50 64 e0 be eb 79 40 3e 72 bd 88 3e
       -0.13702212 -0.43826532 0.18796508 0.26707035
0002c0 f3 57 df 3e f5 fa a6 3d 34 10 b7 3e d5 e5 64 be
       0.43621787 0.08153335 0.3575455 -0.22353299
0002d0 c3 91 8a be 10 2e 9d be 30 56 84 3e 02 a6 17 bf
       -0.27064332 -0.30699205 0.25847006 -0.5923768
0002e0 0a 2f bb be 4c a8 1e bf 61 66 8b be 56 ea 7d 3c
       -0.36559325 -0.6197555 -0.27226546 0.015497765
0002f0 5b 76 79 be 7e 81 1d bd d8 e1 7d be b2 0b eb 3c
       -0.24361555 -0.03845357 -0.24793184 0.0286921
000300 0a a0 59 bf fe 16 54 be b6 11 ec be 5b 42 e8 be
       -0.85009825 -0.20711896 -0.46107262 -0.45363125
000310 f8 1d 86 be 6c 66 96 be 94 e8 4a 3f 58 a4 cc be
       -0.2619474 -0.29375017 0.79261136 -0.39969134
000320 90 4d d2 be 49 a8 87 3e c8 72 b8 3d 84 59 e0 be
       -0.410748 0.2649558 0.09006268 -0.43818295
000330 3c f6 b5 3e 32 3a 9f 3e 28 87 d2 3d 50 ff 39 3e
       0.35539424 0.31099087 0.10279685 0.181638
000340 fe 19 87 bd 9a 51 17 3e b8 a0 31 be 6d 75 0d 3e
       -0.065967545 0.14777222 -0.17346466 0.13814326
000350 54 c8 a5 3e 98 7d 06 bf f5 63 ab be 51 74 13 3f
       0.323794 -0.5253539 -0.334747 0.5759936
000360 c5 45 a2 be 36 8d 4c bd e2 73 36 bf ec 59 9c 3d
       -0.31693855 -0.049939357 -0.71270573 0.07634339
000370 b6 10 1e 3d 7d 1c 8b be 6b 76 bc be 0a ea 71 be
       0.038590156 -0.27170172 -0.36809096 -0.23624435
000380 af a1 6f 3e 4d 24 92 bd 92 d3 84 3e c7 33 ee 3c
       0.23401521 -0.0713583 0.25942665 0.029077424
000390 3b e8 84 3e 5f df 92 bd aa 2a 09 bf f8 90 0d be
       0.25958428 -0.07171511 -0.53580725 -0.13824832
0003a0 17 1c df be 3f 32 c0 be 41 26 b1 be d9 00 1a be
       -0.43576118 -0.37538335 -0.34599498 -0.15039386
0003b0 9e 88 9b be 6f da 32 3e 76 29 0d bf d3 f6 f1 be
       -0.30377668 0.17466138 -0.5514139 -0.47258624
0003c0 47 95 9d be f1 b5 6d 3d 11 28 de 3d b2 e3 6e 3e
       -0.30777952 0.05803484 0.10847486 0.23329046
0003d0 ab c7 9b 3e 53 d6 9f 3e 63 ba e0 be f2 43 cd 3e
       0.30425772 0.31218204 -0.43892202 0.400909
0003e0 83 75 fb 3d cd c9 16 bf 13 ac 12 3f 03 65 12 be
       0.12278273 -0.58901674 0.57293814 -0.14296345
0003f0 13 11 8f be 97 1b 4b 3e 0c 9c d1 3c 32 48 93 3e
       -0.27942714 0.19834743 0.025587104 0.28766018

fc3.bias f4 [4]
000000 18 42 58 bc 0d 40 df 3c a3 6a 2a bb 9b 28 85 3d
       -0.013199352 0.027252221 -0.0026003502 0.065018855
