checkpoints/checkpoint_critic_ddqn_16.pth (torch_old, 304178 bytes, 5 tensors)

fcs1.weight f4 [256, 33]
000000 04 69 9f bc 17 09 4a 3d 13 13 99 bc a6 ab 11 bc
       -0.019459255 0.049325075 -0.018685853 -0.008891022
000010 49 3e 9c bc b0 70 c6 bc dd ce 3e 3d 5f 10 18 bc
       -0.019072669 -0.024223655 0.046584 -0.009281247
000020 86 9c 36 bd df 77 c3 bc f2 53 9b 3c 10 4e 29 3c
       -0.044582866 -0.02386087 0.018960927 0.010333553
000030 48 7d 95 bd 6a 63 3b 3d 09 01 35 3c 5f c0 b6 3b
       -0.07299286 0.045749106 0.01104761 0.0055771316
000040 0f e6 4c 3c 47 c5 50 bc 0a ef 39 bd e6 6f 8e bc
       0.012506022 -0.012742347 -0.04539398 -0.017387342
000050 25 4d 07 bd cc de ff 3d 05 7e 0b 3c 6d 65 b3 bc
       -0.033032555 0.12493667 0.008513932 -0.02189895
000060 e7 9b 91 bb 0a 63 af 3d ab 1a 35 bd 99 f5 b8 3d
       -0.004443634 0.08563812 -0.044214886 0.09031219
000070 f8 61 1b 3d e8 43 51 3d 51 9e bb bd 44 17 a6 3c
       0.037935227 0.05109015 -0.09161056 0.020274766
000080 e3 62 39 be fc b9 18 bd 6a 80 72 3c 88 38 53 3d
       -0.18104129 -0.037286744 0.014801124 0.051567584
000090 38 06 81 3c d2 91 87 bd d1 5a c2 ba 81 c9 be 3c
       0.015750036 -0.0661961 -0.0014828091 0.023289444
0000a0 9d 75 d0 bc fb dc 8a bd 48 4e e9 bb 37 10 e2 3a
       -0.025446707 -0.0678043 -0.0071199276 0.0017247264
0000b0 7a 3e 3f bc 12 50 63 3c 7a 1b 43 3d 53 da 00 bd
       -0.01167261 0.013874071 0.047633626 -0.03145821
0000c0 d3 55 66 bd 46 32 52 3c ef 49 4b bd d1 ac 1c bc
       -0.056234192 0.012829369 -0.049631055 -0.009562687
0000d0 b3 63 cd bc 6a 28 0c 3c 43 7f 97 bd 06 28 f3 3c
       -0.025071954 0.008554557 -0.0739732 0.02968217
0000e0 67 00 b6 bc 9c d1 c3 bb f5 05 fb bc 72 68 9b bc
       -0.022216989 -0.005975915 -0.030642489 -0.018970702
0000f0 2f cc 61 3d f8 bb 32 bc c8 8d 3b 3c a8 a5 7f 3c
       0.055126365 -0.010909073 0.0114473775 0.01560346
000100 4c ed 0a 3d 36 78 0f be 11 96 99 3c 86 7c 92 bd
       0.03391771 -0.140107 0.018748315 -0.07152657
000110 24 76 2d bc ac 2d 35 bb c5 91 40 bd 3b 66 c7 b8
       -0.010587249 -0.002764563 -0.047014017 -9.508101e-05
000120 46 42 c0 bc da 5f d0 ba bd 72 9b 3c 68 03 8d bc
       -0.023469102 -0.0015897707 0.01897561 -0.017213538
000130 6f d8 6f 3c 63 04 c1 3b 06 da cb bb 0d cc ba 3c
       0.014639004 0.0058904155 -0.006221059 0.022802377
000140 c4 3a 01 3d 8c 82 b0 bc f7 2c 7f bc a5 8c db 3c
       0.031550184 -0.021546625 -0.015574685 0.026800463
000150 fa b2 5d 3c 40 aa b8 3c 54 41 86 3c 33 87 8f bc
       0.013531441 0.022542119 0.016388573 -0.017520523
000160 89 63 c6 bb 3f 32 77 3c 30 0f 07 3c 77 bc b2 bc
       -0.006054346 0.015087663 0.008243367 -0.021818383
000170 3c a7 5c 3c 50 1b 6a bc 6b 38 f2 bc 86 9f 5b 3d
       0.013467606 -0.014288738 -0.029567918 0.05361893
000180 7a b5 0a 3d d4 7f 97 3c 6d 02 f0 bd f2 b5 16 3d
       0.033864476 0.01849357 -0.11719213 0.03679461
000190 79 60 1f 3d 79 95 5a 3c 69 89 f4 3b 6e 8a e5 bc
       0.038910363 0.013341301 0.0074626696 -0.02802011
0001a0 ef 41 08 3d f9 70 91 3d f8 e7 02 3c 8b 48 b5 bd
       0.033266004 0.07101626 0.007989876 -0.08851727
0001b0 6d 13 ca 3d ba f1 ca 3b 1e e7 b0 bb d7 e9 c1 bb
       0.098669864 0.006193367 -0.005398645 -0.0059177685
0001c0 cf f1 07 3d 22 87 41 bd b1 9a 92 bd b8 c5 c5 3b
       0.03318959 -0.047248013 -0.07158411 0.006035533
0001d0 bc 65 c6 bc 8a 9b 58 bd cf 70 50 3b 92 f0 0f bc
       -0.024218433 -0.05288271 0.003180552 -0.008785384
0001e0 83 cd 66 bb a1 0b 29 3c ff 70 1a 3c b7 0e 3d bd
       -0.003521771 0.010317714 0.009426354 -0.04615661
0001f0 e0 11 d6 bc 7d a1 81 bc ec 23 2b 3d 71 29 8e 3d
       -0.02613157 -0.015824074 0.041782305 0.06941498
000200 d0 3c 78 bc 24 42 3a bc 84 ef b6 bc 02 01 6c 3e
       -0.015151218 -0.011368308 -0.022331007 0.2304726
000210 ac 2e 39 bd 26 12 1b bd ad 7e c3 3b b5 62 ad 3d
       -0.045210525 -0.037859105 0.0059660287 0.084660925
000220 02 2d c8 3c 1f 16 18 bd 32 af 09 be c8 91 02 3c
       0.024435524 -0.03713047 -0.13445738 0.007969327
000230 41 57 a5 3d 8d 0f 13 bd 18 98 e9 bc 1c da 93 bc
       0.08073283 -0.035903502 -0.028514907 -0.018048339
000240 83 f4 14 3d 02 2a 31 3d 73 5b 46 3e 89 38 26 3c
       0.036365997 0.043252952 0.19370823 0.010145315
000250 38 05 4c 3d d8 5c 3e bd e8 72 39 3d bc c3 fe bc
       0.049809664 -0.04647526 0.0452756 -0.031099193
000260 cd 81 8a bc 80 f4 4c 3d 2d 14 9d 3c fa 12 11 3c
       -0.016907597 0.05003786 0.01917466 0.008854622
000270 9c 5e 92 3b bf 4c e0 bb df ff c3 3c 9f b1 15 3d
       0.0044668447 -0.0068450863 0.02392572 0.036546346
000280 71 cf 88 3c 00 55 3b 3d 3e f2 d0 bc 20 99 2e bc
       0.016700478 0.04573536 -0.025506135 -0.010656625
000290 e3 08 aa bd 78 cc 2a 3d be 8a 3f bd af 35 67 bd
       -0.08302476 0.041698903 -0.046763174 -0.05644768
0002a0 c2 96 3a bd 74 95 90 3b 9e 6a f2 3c c2 55 07 3d
       -0.04555393 0.0044123475 0.029591855 0.03304077
0002b0 74 f2 68 bc 6c 6d 5d bd c2 93 83 3c 02 74 7e bb
       -0.014217962 -0.05405943 0.016061667 -0.003882647
0002c0 59 92 4d 3c d0 64 86 3c c6 eb ce 3c 30 e7 35 3c
       0.012547099 0.016405493 0.02525891 0.011102483
0002d0 66 f4 a4 bc cf b5 18 3d 57 cd 4f 3c 7a da 3e bc
       -0.02013607 0.03728276 0.012683234 -0.011648769
0002e0 f3 63 38 3c 26 46 80 bc 42 c9 65 bc dd 7a 6e bb
       0.0112542985 -0.01565845 -0.014025034 -0.003638915
0002f0 0f 11 9c 3b 3f b0 eb bc c4 1d d4 bc fa 24 c9 bc
       0.0047627757 -0.028770564 -0.0258931 -0.024553765
000300 a3 9b a3 3d 3f 5d 46 3d 74 40 34 3d 68 58 44 bb
       0.0798867 0.04842877 0.04400678 -0.002995992
000310 30 e9 b1 3c 98 a9 24 be f1 cb 99 bd 5f 3a 07 3e
       0.021717638 -0.1608032 -0.07509602 0.1320586
000320 b3 9f 06 be 6f eb 48 bc 9e 1c 2c bc 0c 38 7a bd
       -0.13146858 -0.012263163 -0.01050487 -0.061088607
000330 8e 75 d6 3c b6 72 7d bc ed ac d7 3c a3 7b 21 bc
       0.026179101 -0.015469244 0.026327575 -0.009856137
000340 e4 d6 0f bd 2c cf 46 3c 41 92 02 bc f8 86 87 3d
       -0.035117045 0.012134355 -0.00796944 0.0661754
000350 bb a0 a8 bd c6 57 1b 3e ad 98 cc 3b 0e f9 35 3c
       -0.08233782 0.15170202 0.0062437863 0.011106743
000360 60 67 8b bb 3f 28 3a bc 2e bd 99 bb 95 6a 13 bd
       -0.0042542666 -0.0113621345 -0.0046917414 -0.035990316
000370 14 80 65 3b fe 29 09 3d e8 06 1d bd 78 66 11 3d
       0.0035018967 0.033487312 -0.038336664 0.035498112
000380 6c 22 75 bd b9 d7 bb 3d 2c 3a 88 bd 9e 0d 58 bd
       -0.05984728 0.09172005 -0.066517204 -0.05274736
000390 e0 c8 8f 3c e0 65 4f 3c 75 4d 8b be 80 63 d4 bd
       0.01755184 0.012658566 -0.27207533 -0.103705406
0003a0 1b 54 0a bd 35 9e 6d bc c7 74 d0 bd 29 81 74 bc
       -0.033771615 -0.0145030515 -0.101785235 -0.014923372
0003b0 d0 db bc 3c 49 cb 41 bc c3 99 89 3c 0c 9b ed bc
       0.023054034 -0.011828252 0.016796952 -0.029004596
0003c0 98 0f c5 bc 19 c6 9e bc 01 37 d8 bc 83 df 20 bc
       -0.024055287 -0.01938157 -0.026393415 -0.009818914
0003d0 95 cd 80 3d b6 2a a4 bc 9e 44 a0 ba ce 13 63 bd
       0.06289212 -0.020039897 -0.0012227481 -0.05543881
0003e0 45 3e 94 bc f1 ba 7e 3d a9 4e 27 bd 4e c3 4a bc
       -0.018096099 0.06219 -0.0408465 -0.012375666
0003f0 01 20 e9 bc 82 79 3b 3c b0 e0 e3 3c 53 68 4c 3c
       -0.028457643 0.011442544 0.0278171 0.012476045

fcs1.bias f4 [256]
000000 72 a3 7b bd 0b 16 d9 bd 21 41 f8 3d fa 6c 00 be
       -0.06143517 -0.105999075 0.12121797 -0.12541571
000010 38 b0 40 3c dc 09 87 bd 3c e4 57 be 0a 12 26 3d
       0.011760764 -0.065936774 -0.21083158 0.040544547
000020 1f d0 8b bb 7e d9 af 3d e2 93 28 be 7f 6d 90 3d
       -0.0042667533 0.08586405 -0.16462663 0.07052135
000030 bd d1 ad bd 4f 10 00 3e 8d f4 a9 3d 20 b7 04 3e
       -0.0848727 0.12506221 0.082985975 0.12960482
000040 d6 4c 08 3d 0c e5 3e bd 34 8f 00 be 74 d2 4f be
       0.0332764 -0.046605155 -0.12554628 -0.20295125
000050 f0 61 59 bd ae d0 03 be 99 a9 98 bd 15 da bf 3d
       -0.053071916 -0.12872574 -0.07454223 0.09367768
000060 1c 76 06 be 62 e6 80 bd c7 6f fe 3d f5 52 39 3c
       -0.13130993 -0.06293942 0.124236636 0.011311282
000070 41 f6 67 bc 2b a7 2a be ad bf 19 be 48 e8 f7 bd
       -0.014157833 -0.16665332 -0.15014525 -0.12104851
000080 51 9d 0b 3d e9 04 36 be 47 a8 21 be bb a9 b7 3d
       0.034085575 -0.1777531 -0.15786849 0.089679204
000090 f9 3b 52 be 98 2b 58 be 91 40 4e 3d 44 62 6c 3d
       -0.2053069 -0.2111038 0.050354544 0.0577109
0000a0 13 cb 5f be 91 44 59 3c c6 8d fb 3c f7 b4 16 3e
       -0.2185481 0.013260976 0.030707251 0.1471747
0000b0 12 e8 e5 3d c3 8b 81 bd 14 18 5a 3d a8 aa b9 bd
       0.112259045 -0.063254856 0.05324562 -0.09065753
0000c0 90 80 a8 3d aa 2b 19 3c ff 14 32 be 07 e4 8d bc
       0.08227646 0.009348789 -0.17390822 -0.017320646
0000d0 e1 69 1b be 00 a9 96 bd 1d 9f 5d bd 30 de 8e 3d
       -0.15177108 -0.07356453 -0.05410682 0.06975973
0000e0 36 a7 77 bd 45 e9 a0 3d 10 ed 1b be ab fb 07 3d
       -0.0604622 0.07856993 -0.15227151 0.033198994
0000f0 49 c5 f4 bd 91 6b 1f be ce e9 0f bd 71 fa 0c bd
       -0.11951692 -0.15568377 -0.035135083 -0.034418527
000100 d8 79 a2 bd 5f 92 24 be 97 8d 13 3e 36 ec b1 3b
       -0.07933396 -0.16071461 0.14409481 0.00542977
000110 0c 4c 2a bd ab c9 25 be b4 a3 68 3d 2b 46 14 be
       -0.04157643 -0.16190211 0.056796744 -0.14479892
000120 b8 28 60 be 1d 57 97 3d eb 4e a2 3d 52 42 b9 3d
       -0.21890533 0.073896624 0.07925209 0.09045853
000130 f8 55 29 be 9a 5d 9d 3b 10 91 3c be a9 d7 12 bd
       -0.165367 0.004802418 -0.18414712 -0.0358502
000140 5d 63 fd 3d 78 a8 c5 bd 19 d6 04 be eb a3 a7 b9
       0.12372468 -0.096512735 -0.12972297 -0.0003197485
000150 88 57 10 bb de e7 d5 3c b3 09 5b be fc bf b6 bd
       -0.002202483 0.02611154 -0.21390419 -0.08923337
000160 a0 c8 ab bd c0 8f ff 3d f9 32 bf bd 97 93 e4 3b
       -0.083878756 0.1247859 -0.09335894 0.006975602
000170 55 0b 5c 3d dc 08 18 3e 0e 2f 19 bd fc 53 9e bd
       0.053721745 0.1484713 -0.03739839 -0.077308625
000180 4b 15 c8 bc f4 44 e2 bd cb 03 02 be a8 0c 9c 3d
       -0.024424216 -0.11048308 -0.1269676 0.076196015
000190 1a d3 4d 3d 03 c1 d5 3c 26 1a 30 bd f5 5a 60 bc
       0.05025015 0.026093012 -0.042993687 -0.013693561
0001a0 5f 9e 5e 3d 1e ba 99 bd 40 73 3b bd c8 00 c0 3c
       0.054350253 -0.07506202 -0.045764208 0.023437873
0001b0 58 62 39 3c ab 88 a4 3c 78 50 fd 3d c7 4e f1 bd
       0.011314951 0.0200847 0.12368864 -0.11782604
0001c0 7d 89 35 be 8f bf 88 be ab 99 52 3d 57 1f 42 bd
       -0.17728229 -0.26708648 0.05141608 -0.04739317
0001d0 8e 9c ab bd cd 35 16 be 02 82 0e 3d b1 58 0b bc
       -0.0837947 -0.14668961 0.034791954 -0.008505032
0001e0 8f 83 f4 3d aa 4e 91 3d a3 74 2b bd 46 9a 62 3d
       0.11939155 0.07095082 -0.04185928 0.055322908
0001f0 74 34 24 3e 1a d0 a9 3c 33 5e 05 be 00 82 e1 bd
       0.16035634 0.020729113 -0.13024215 -0.11011124
000200 cb bf d3 bd eb e3 89 be ff 82 01 be c5 80 ea bd
       -0.10339316 -0.269317 -0.12647627 -0.11450342
000210 90 b2 d2 3d d1 3e 0c be 80 f9 5c bc 40 31 b4 bc
       0.10287964 -0.13695838 -0.01348722 -0.02199614
000220 a7 67 3e bc 1b a4 05 be 63 5f 09 be cd 96 60 bd
       -0.011621392 -0.13050883 -0.13415293 -0.054831315
000230 91 f1 48 3c fa 1c ae bc 63 2f 6d 3d 3a 6e a6 bc
       0.012264625 -0.021254051 0.05790652 -0.020316232
000240 d3 c1 0e be 2c 74 1a be 92 3b bc bd 39 71 07 3e
       -0.13941126 -0.15083379 -0.0919105 0.13226785
000250 4b 0e 8c 3d 40 33 36 be d1 b3 24 be f6 7e 0a 3d
       0.06838664 -0.17792988 -0.1608422 0.033812486
000260 e1 9d 90 3c 54 d2 99 bd 9d bc 51 bb fc a3 b4 bd
       0.017653408 -0.0751082 -0.0032003291 -0.0882034
000270 41 4c f5 bd 55 a7 48 3c d1 0f fb bd b6 15 1b be
       -0.11977435 0.012246926 -0.12258876 -0.15145001
000280 7d b2 0f 3c 81 28 19 be 49 d2 0b 3c ab 4f e6 3d
       0.008770582 -0.14956857 0.008534023 0.11245664
000290 ba dd 36 3d 89 0c b2 bd 0e 24 9d bd 3f 2f 03 be
       0.04464505 -0.08693797 -0.076728925 -0.12810992
0002a0 95 26 29 be 1c 07 c1 bd b9 51 bd 3d 58 9f de 3d
       -0.16518624 -0.09425184 0.09244103 0.10870236
0002b0 56 82 1c be c4 fa 2c 3c 17 30 9e bd 50 e0 1e 3d
       -0.15284094 0.010557834 -0.07724016 0.03878814
0002c0 f0 5c 0e be c9 74 e0 bd 16 6d 1a be 58 1c 3a be
       -0.1390264 -0.10959775 -0.15080675 -0.18174875
0002d0 1a ad 8e bd 2a 39 69 3d a1 d2 96 bd cf a5 4b be
       -0.0696661 0.05693928 -0.07364393 -0.1988747
0002e0 65 61 06 bd 47 d1 09 3d 2a f4 7e 3c 83 e5 3c be
       -0.032807726 0.033646848 0.015561143 -0.18446927
0002f0 4e 6d 08 be a9 8a cf 3d 84 34 0e be c1 24 53 3c
       -0.13322946 0.10133869 -0.1388722 0.012887181
000300 5c e3 78 3d b8 22 b5 bd 09 b4 88 bd 6e 7a 30 be
       0.0607637 -0.08844513 -0.06674964 -0.17234203
000310 9c ae 2f bb 28 cc b5 bb 65 63 81 be 61 09 22 3c
       -0.0026806956 -0.005548019 -0.25271145 0.009889931
000320 40 67 08 3e 1e 35 48 3e fe 69 af 3c dc 31 9b 3d
       0.13320637 0.19551513 0.021412846 0.07577869
000330 8e 1d a6 3b 2c 58 1a be bf 5f 2a be dd 44 3c be
       0.005069441 -0.15072697 -0.16638087 -0.18385644
000340 b2 4e 8c 3d 8d 40 6b 3c d8 f6 f4 bd ef 62 8d bd
       0.068509474 0.014358652 -0.11961144 -0.06903636
000350 6a fa fd bd 19 9d 45 bd 71 f2 25 be 78 d0 13 3d
       -0.12401278 -0.048245523 -0.16205765 0.036087483
000360 39 8f d2 bd 64 04 40 be e3 18 d2 bd 53 9a b8 3d
       -0.10281224 -0.18751675 -0.10258653 0.0901381
000370 78 e3 da 3c ea 42 2e be d7 5a 36 3d f5 43 5b be
       0.026719794 -0.17017713 0.044520225 -0.21412642
000380 d6 cd 0b 3e ca 69 58 be ea b0 c8 bd d5 b9 50 be
       0.13652739 -0.21134105 -0.09799369 -0.2038339
000390 54 e8 87 bd b9 5a 19 3e af 13 f6 bc f8 ef 34 bd
       -0.0663611 0.14976014 -0.030038683 -0.044174165
0003a0 db 1e 14 be 36 c1 52 3d 89 5e 96 bd 8e 35 b8 bc
       -0.14464895 0.05145379 -0.0734225 -0.022486474
0003b0 7c 07 7f 3c c5 85 35 3d 85 e9 b3 bd 68 17 d4 bc
       0.015565749 0.044317026 -0.08784775 -0.025890067
0003c0 ba 4a 40 be aa d8 22 be 90 77 85 bd c1 fd 16 bd
       -0.18778506 -0.15902963 -0.06516945 -0.036863092
0003d0 35 5d ed 3c 48 7d ee bd d7 04 a1 bc 1f 81 be 3d
       0.028975109 -0.11644989 -0.019655628 0.09301972
0003e0 f6 15 22 bd 08 97 80 3d 97 f8 c8 bd dc bc 54 be
       -0.039571725 0.06278807 -0.0981304 -0.20775169
0003f0 a6 ef ba bd 51 56 84 3d 4e 72 cc bd 94 76 11 be
       -0.091277406 0.06461776 -0.099827394 -0.1420539

fc2.weight f4 [256, 260]
000000 42 4e ad 3d da d1 e9 bc 95 8e d9 3a 1d 4a 89 bc
       0.08462192 -0.028542448 0.0016598279 -0.016758973
000010 c4 8c 9f 3d 78 5e f9 bd 60 89 0f 3e bd 20 7b 3d
       0.07790521 -0.121762216 0.14017248 0.06131052
000020 27 f5 38 bc 10 63 eb 3c d2 f6 2f bd 9d 05 6d bc
       -0.011288918 0.02873376 -0.042959996 -0.01446667
000030 41 00 b8 bd 74 73 74 bc 7d 86 03 bd 07 bb ce 3d
       -0.089844234 -0.014920104 -0.03211068 0.100942664
000040 f8 04 a3 3c 7c f2 64 bd ad 33 95 3d 07 37 b8 3d
       0.01989983 -0.055895314 0.07285247 0.08994871
000050 97 a8 55 bb 92 b4 42 3d 0a f6 48 3c 40 c6 ea bc
       -0.0032601708 0.047535487 0.0122656915 -0.028658986
000060 74 17 a2 bd c3 5f 9c 3d aa 95 1c ba f4 75 6f 3d
       -0.079146296 0.076354526 -0.00059732294 0.0584621
000070 b4 23 cb bc 8a 7d 11 be 90 23 43 bd 4b 89 9f ba
       -0.024797298 -0.14208046 -0.047641337 -0.0012171654
000080 29 78 33 3e 3c 6e 34 bc 8d e4 98 bb 78 c3 48 bb
       0.17526306 -0.01101261 -0.0046659173 -0.0030634087
000090 18 64 31 bc 1e ee ab 3c 4b c0 c8 bd 9c d5 c6 3c
       -0.010827087 0.020987567 -0.09802302 0.024271779
0000a0 ea cb 3a 3d e8 ae 90 bc 08 d0 46 3d be 14 b7 bc
       0.045604624 -0.017661527 0.048538238 -0.022348758
0000b0 ad 29 60 3c f8 89 5c 3a 27 f1 b9 3b 12 29 a4 3c
       0.013681811 0.0008412893 0.0056744996 0.020039115
0000c0 db 5c a8 bd 41 9d 97 bd db 10 42 bc f4 0f 8d 3d
       -0.08220836 -0.07403041 -0.011844839 0.068878084
0000d0 8d 2c 51 bc 0f f9 97 3b 53 3c fa bd f9 79 4e 3d
       -0.012766969 0.0046378444 -0.12218537 0.05040929
0000e0 85 db 55 3d 62 d2 a7 3c b5 71 e0 bd fe 6c 90 bd
       0.052211303 0.02048606 -0.10959188 -0.070520386
0000f0 d4 43 b8 bc 8b 5b 78 bc 0f ed 0f bd c8 0f 85 bd
       -0.02249328 -0.015158544 -0.035138186 -0.06497151
000100 16 56 0f 3d 4a a5 00 be 44 fb c9 bc ec 64 8e bd
       0.034994207 -0.12563053 -0.024655946 -0.06952843
000110 93 c0 b9 3d 59 a3 67 bd 19 7d f4 3c af 5c 4f 3c
       0.09069934 -0.056552265 0.029844807 0.012656375
000120 51 b9 79 bd 0d e3 b6 bc d1 af 8f bd d2 4c b0 bd
       -0.060967747 -0.022325063 -0.07015956 -0.08608402
000130 a6 c5 e1 3d 0d ce 9a bd 8c 7c 2e 3d 35 1e 7b bd
       0.110240266 -0.07558832 0.042599246 -0.061308105
000140 31 f0 3c bb db 47 73 bd d3 ac 98 bd 78 68 9f 3d
       -0.0028829689 -0.0593947 -0.074548386 0.07783598
000150 ac 99 da bd e7 ef e7 bb 0d e7 dd 3c 40 6d a5 3c
       -0.10673842 -0.007078159 0.027087713 0.020193696
000160 6a 8e b8 3c 02 a7 99 3c b5 41 c5 3c fe e3 9d 3d
       0.022528846 0.018756393 0.024079183 0.07709502
000170 57 f4 5e 3d fd 57 f6 3c 61 b2 0e 3d de d8 72 3c
       0.05443224 0.030071253 0.034838084 0.014822213
000180 87 af e0 3c 21 ea 45 3d d2 1d 83 3d 69 ac a4 bd
       0.027427448 0.048318986 0.06402172 -0.08040697
000190 2e 17 83 3d 9f 77 07 3d b9 37 1c be 99 5b e6 3a
       0.064009055 0.033073064 -0.15255632 0.0017574906
0001a0 66 28 7c bc d0 32 e5 ba d3 f9 61 3d de 95 d8 bc
       -0.015390491 -0.0017486457 0.05516989 -0.02643865
0001b0 ec 8a a5 3d 2b 6b 29 bd fb 83 7e bd 77 35 d7 bb
       0.08083138 -0.04136197 -0.062137585 -0.006567653
0001c0 b1 31 b1 bd a6 68 56 3a 51 ca 5e 3d 6e 3d c3 bc
       -0.08652056 0.0008179046 0.054392163 -0.023833003
0001d0 34 f4 27 bc 6c e8 80 3d 18 29 1f 3d d8 7d ff 3c
       -0.010251094 0.06294331 0.03885755 0.031187937
0001e0 3a f1 73 ba ae a9 a2 3c 15 67 98 39 9e ab fa bd
       -0.000930566 0.0198563 0.000290685 -0.12239765
0001f0 64 b3 29 3d 15 b1 ce 3b 2e fe 97 bc da 55 2a 3d
       0.041430846 0.006307731 -0.01855382 0.04158578
000200 e8 b2 4a 3d 09 f8 9f 3c a6 7f 93 3c c1 30 6e bd
       0.049487025 0.019527452 0.018005203 -0.058151964
000210 0b 7d ae 3c 6a 99 d8 3d c6 4f cc bb 8d a3 65 bb
       0.02129986 0.105761364 -0.0062350957 -0.003504011
000220 ad 0b 9b bd 29 d0 e2 3d cc e2 9f bc 12 f3 44 3d
       -0.07570586 0.1107486 -0.019517325 0.048083372
000230 fa b9 d0 bb 17 24 fc bc 7f 5b a2 bd a7 3e 2b 3d
       -0.0063698264 -0.030778928 -0.07927608 0.041807797
000240 ca 38 49 bd 80 8b 66 3c b6 ad 29 3d 2b 3a 53 bd
       -0.049126424 0.014071345 0.04142543 -0.051569145
000250 13 2b 2b bc 30 56 c3 3c 24 08 c7 3b 46 5b d3 bd
       -0.010447281 0.023844808 0.0060739685 -0.103201434
000260 1c 67 86 bd a0 5c 25 3d d5 c2 e0 bc 05 22 d2 3d
       -0.06562635 0.040371537 -0.027436653 0.10260395
000270 fb c6 c9 bd d0 02 93 bc 34 c6 9f bc e2 f6 50 3c
       -0.09852406 -0.017945677 -0.01950369 0.012754174
000280 74 8e c3 bd 54 9a a6 3c bd 39 0b 3d 9b 3b 3a bc
       -0.09548655 0.020337261 0.03399061 -0.01136675
000290 5d 31 b4 3a 9e 77 ce 3c b4 d7 35 bd 9d 61 88 bc
       0.0013747622 0.025203522 -0.044395164 -0.016648108
0002a0 63 54 f6 bd fa 58 e9 3d de b4 bb bd 68 df dc bb
       -0.12027814 0.11393924 -0.09165357 -0.0067404993
0002b0 9e 39 17 3c 12 bf 5f 3d 09 fb d5 3b 14 ce 1a bd
       0.009230046 0.05462558 0.00653017 -0.037794188
0002c0 38 9e 50 3d 0a 87 78 bd 93 25 8a bd 7e 48 46 be
       0.05093214 -0.06067566 -0.06745448 -0.19363591
0002d0 1b 40 30 3d a4 dd de bc ee fe 5e 3d 5a c4 bb bd
       0.043029886 -0.027205296 0.05444234 -0.091683105
0002e0 f8 a5 62 3d 92 72 8f bd 4b a1 08 3d 11 98 db bd
       0.05533406 -0.070042744 0.033356946 -0.10722364
0002f0 df 6d 94 3b 91 2c c4 bd d9 2e 8e bd b3 02 a3 bc
       0.004529699 -0.09578813 -0.06942529 -0.019898748
000300 47 03 c3 3b 34 ce 8c 3d e4 5f 90 3d 2f 6b 01 bc
       0.0059513184 0.068752676 0.0704954 -0.00789909
000310 11 d0 90 bd 90 d4 75 3d 80 fd b7 3d e6 d4 3a 3d
       -0.070709355 0.06001717 0.08983898 0.045613192
000320 3f 46 5d bd c2 cf be bd 8e 57 9d bd 2d 3f b6 3d
       -0.05402207 -0.093169704 -0.07682715 0.088987686
000330 87 7b 59 bc db 43 ed bd 22 c5 80 3d 38 b1 90 bd
       -0.01327408 -0.11585208 0.062876 -0.07065052
000340 bd 8f 84 bd 9a 44 20 3b c3 ca 8d 3b bd b4 d0 bb
       -0.064727284 0.0024454952 0.0043271496 -0.006369202
000350 01 59 65 bc 48 96 65 bd 51 e1 a2 3d 47 d1 28 bd
       -0.013998271 -0.056051522 0.07953132 -0.041215207
000360 bb 24 28 3d 0e b4 e6 bb 60 0d f1 3d 23 22 73 3d
       0.041050654 -0.007040507 0.11770129 0.059358727
000370 cb 31 4f be 74 f4 a7 3d fe 08 b5 3d 08 8b 42 3d
       -0.20233838 0.082009226 0.08839606 0.04749587
000380 73 31 92 bc e6 18 a4 bd 74 b7 05 be 1b 30 0b be
       -0.017845845 -0.080125615 -0.13058263 -0.1359257
000390 8a 78 d3 bc 4a 11 b7 bc 00 28 a7 bd 1e 1c bc bb
       -0.025814313 -0.022347111 -0.08161926 -0.0057406565
0003a0 e3 d1 f2 3d b8 5a 1f bd 8a 84 83 3d 49 a2 e6 bd
       0.11856439 -0.038904876 0.06421764 -0.11261422
0003b0 ea 43 89 bd 7d cc 6d be dd 48 65 3d 2e 51 a5 3a
       -0.06702407 -0.23222537 0.05597769 0.0012612694
0003c0 3e 54 53 3d 4c 8f 00 bc 39 33 bf bc c8 1e a0 bd
       0.05159401 -0.007846665 -0.023339855 -0.07818371
0003d0 2a 36 f3 bd e1 3c 03 3d 47 f4 61 3a ba ee cc bc
       -0.11875565 0.03204048 0.0008619469 -0.025016177
0003e0 6e a3 81 3d 47 66 d2 bd aa 4f 09 3d 3e 07 e7 bd
       0.0633 -0.10273414 0.03352324 -0.11280678
0003f0 0f 76 08 bd 5f 10 57 3c 87 0c 9b 3d b5 24 75 3d
       -0.033315714 0.013126462 0.07570749 0.05984946

fc2.bias f4 [256]
000000 fb d2 20 bd d4 a9 7a bd 45 b1 a8 3c 51 5f 25 3d
       -0.039263707 -0.061197117 0.020592341 0.040374104
000010 91 4f 3a 3d 2c 27 e8 bc b5 7d ae 3c 39 6b 31 3d
       0.045486037 -0.028338991 0.021300176 0.043315146
000020 39 ff 85 bd 11 e7 d9 bc 99 05 66 3c c4 c1 25 bc
       -0.065428205 -0.026599439 0.0140394205 -0.010116998
000030 9e b9 90 3d 50 5b 31 bc 0b ca f4 3c 4d 29 67 bc
       0.07066654 -0.010824993 0.029881498 -0.014108968
000040 54 31 c2 3d 53 ef bd bc d4 d5 52 bd 91 5c e4 bc
       0.09482065 -0.023185408 -0.051473454 -0.02787617
000050 47 da 13 3c a7 96 0d bd 4c 0d f3 3b 11 79 01 bc
       0.009024209 -0.0345675 0.0074173566 -0.0079024
000060 f5 c1 11 3d fd c3 6e 3d e2 73 37 bd 04 5d 26 3d
       0.035585362 0.058292378 -0.04478825 0.04061605
000070 e8 b0 5a 3d b2 ca d6 bc cd b2 c1 bc 8d 2f 9c 3d
       0.053391367 -0.0262197 -0.02364483 0.07626257
000080 90 7d 5d 3d b7 28 2a 3c 98 f1 17 3d 8a b1 27 bb
       0.054074824 0.010385684 0.037095636 -0.0025588
000090 8d 08 5d ba 17 42 a8 3a dc d5 c6 bc 82 ab 81 bd
       -0.0008431755 0.0012837079 -0.024271898 -0.06331541
0000a0 fe 0b 54 bd 2f bd 52 bd 92 77 c9 bd 07 60 3c 3c
       -0.05176925 -0.05144995 -0.09837259 0.011497504
0000b0 8e 4a 9e bd 93 21 82 3d f4 ab c5 bc 4d ca 4d bd
       -0.07729064 0.0635406 -0.024129845 -0.050241757
0000c0 ab 0a 86 bc 71 dd ea bc b3 1b 03 3c 77 a6 a6 3c
       -0.016362509 -0.028670045 0.0080022095 0.020343048
0000d0 a0 66 12 bd dd 4a 8c 3c 16 e4 d4 bb 94 d2 97 3d
       -0.035742402 0.017125541 -0.0064969165 0.074132115
0000e0 53 4e 8e 3c 2b 34 d6 3c 72 f3 b7 3c 06 00 89 3c
       0.017371332 0.026147923 0.022454951 0.016723644
0000f0 65 68 88 3d 1e 5c 0b 3d ee 6b 09 bc c1 c0 48 bd
       0.06660537 0.034023397 -0.008387549 -0.04901195
000100 3b e2 30 3d 6d b0 fe 3c 32 32 c9 3d 9d dc 2b bd
       0.0431845 0.031089986 0.09824027 -0.04195844
000110 98 3a 26 3c d3 a0 64 3d 26 c1 82 bd 86 76 68 bc
       0.010145806 0.055817436 -0.063844964 -0.014188414
000120 8c da 36 bb f5 e6 f9 3c 29 af 69 3d 6f c0 cd bc
       -0.002790126 0.030505637 0.05705181 -0.025116174
000130 be 84 c7 bd 5f 95 1e 3d 73 eb 2d bc 2c 71 08 3d
       -0.097421154 0.03871667 -0.0106152175 0.033311054
000140 18 7a fd 3c 52 05 a3 bc ed cf 41 3b d6 7f f4 3b
       0.030942008 -0.019899998 0.0029573396 0.0074615283
000150 bd 18 a5 bd 46 17 47 3d b3 a3 00 3d 30 7f c5 3d
       -0.08061359 0.04860618 0.031406116 0.096434
000160 78 14 2b 3b 14 4e 57 3d 58 e6 03 3d c8 94 39 bc
       0.002610473 0.052564695 0.032202095 -0.011326976
000170 1a e4 be bc 47 20 66 bd 91 f9 84 3b e8 b7 85 3d
       -0.023302127 -0.056183126 0.004058071 0.06529218
000180 d3 c7 4b bd f3 08 64 bc 50 ae 37 3b 5e fc da 3a
       -0.049751114 -0.013918149 0.0028027482 0.0016707291
000190 62 ef 75 3d fd 26 91 bd c0 92 07 bd f6 a1 79 bd
       0.060042746 -0.070875145 -0.033098936 -0.060945474
0001a0 20 5c e9 bc b6 f8 1f 3d ab 69 5c 3d d4 1b f9 3c
       -0.028486311 0.03905555 0.05381171 0.030408777
0001b0 9e 2f 2a bd 69 d3 9c bc 0e a4 63 3b 29 c9 dd 3b
       -0.041549318 -0.019143777 0.0034735235 0.006768365
0001c0 45 a8 64 3b a9 05 ac bb 42 b3 86 bc ee b0 27 bc
       0.0034890336 -0.005249698 -0.016442899 -0.010235054
0001d0 d8 6b 98 bc 18 f3 08 3d 8c 24 e9 3d 30 7b 87 3d
       -0.018606111 0.033434957 0.11383924 0.06615293
0001e0 14 ec 88 3c 29 5c d5 bd e0 ae 15 bd 2f da 53 3d
       0.016714133 -0.10417969 -0.036543727 0.051721748
0001f0 9a d2 50 bd 7c 5e a5 bb 4e 37 1e 3d 79 15 45 3d
       -0.050982095 -0.005046664 0.03862696 0.04811618
000200 30 68 9b bd f3 07 50 3c f3 34 59 3d d6 ba bd bb
       -0.075882316 0.012697208 0.053029012 -0.005790095
000210 f7 23 33 bd a8 c4 d5 bc c7 86 0c 3c 91 44 97 bb
       -0.04373547 -0.02609475 0.008577055 -0.004616328
000220 3c 15 ce b8 42 4a 0b 3d c1 34 0b bd 7d d9 89 bd
       -9.826801e-05 0.034006365 -0.033985857 -0.06730936
000230 e4 14 b8 3d 6e ba 21 bc 46 12 a9 bd dd a0 40 bd
       0.089883596 -0.009871108 -0.082554385 -0.04702841
000240 4e ec 4c bd c7 b2 c1 3d 6f c0 e9 bc 81 7b e6 3c
       -0.050030045 0.09457927 -0.028534142 0.028135063
000250 76 a1 b0 bd 47 82 88 bd 51 61 25 3d 90 0c 74 bd
       -0.08624546 -0.066654734 0.04037601 -0.059582293
000260 de e7 59 3c 14 25 57 bd 48 e1 32 3d 4b 36 44 bd
       0.01329991 -0.052525595 0.043671876 -0.04790334
000270 35 97 24 3c 8b 8e a4 3c 7b 67 5d bc 76 31 7f bd
       0.010045816 0.020087501 -0.013513441 -0.06230303
000280 61 36 31 3c 77 e5 2c 3c 5f 22 6a bd e5 ed 95 3d
       0.010816188 0.010552756 -0.057161685 0.073207654
000290 49 9b 14 3d c9 69 ad bc 20 f2 eb 39 87 00 58 bd
       0.036280904 -0.021168606 0.0004500309 -0.052734878
0002a0 02 19 b2 bd 66 c5 b4 bb cc 0f bf bc 3b 30 1f 3d
       -0.08696176 -0.005516696 -0.023322962 0.038864356
0002b0 1d 8d 3c bc 9d f8 91 3c ae 80 30 bd ba 76 aa bc
       -0.011508253 0.017818743 -0.04309147 -0.020808566
0002c0 d4 f1 db bc c8 38 84 bc 9a 8a b6 3d de 87 3b bc
       -0.026848711 -0.016140357 0.08913155 -0.0114459675
0002d0 e6 92 2e 3d 90 0b 51 3d 4d fa 32 3d a6 c1 a4 bd
       0.042620562 0.051036417 0.043695737 -0.08044748
0002e0 89 89 7c bd 2e 1d 04 3d 34 28 0b bd e7 9f be 3b
       -0.0616546 0.03225439 -0.033973888 0.0058174017
0002f0 f7 78 74 3d c0 b1 60 3c 74 93 8c 3c b1 b8 f6 3d
       0.059685674 0.013714254 0.017160155 0.12046946
000300 9d b5 a4 3c f9 e1 16 bd a8 0b 4a 3d c8 a9 ac 3c
       0.020106131 -0.036836598 0.049327523 0.021077052
000310 b3 7e a7 bc d9 93 25 3d 1c 71 c6 bc f5 aa 1f 3d
       -0.020446157 0.0404242 -0.024223857 0.038981397
000320 32 30 8d 3c ef bf 1f 3d 61 0e 11 bd 17 82 af bb
       0.017234895 0.0390014 -0.035414103 -0.005356084
000330 1c 5b 91 ba f9 d4 62 3d 31 4b fb 3b 65 58 07 3d
       -0.0011089775 0.055378888 0.0076688756 0.033043284
000340 58 89 c8 bc 8d 61 05 bd ba 56 b0 3d 7c 8f c7 3c
       -0.024479553 -0.032563735 0.08610292 0.02436041
000350 0c f5 c7 3b 2b 31 99 3c b3 58 1c 3d ad 58 18 3c
       0.00610221 0.018700203 0.038170528 0.009298486
000360 9a d1 de bc 1d bb aa bd 5f f5 12 bd 12 cd e2 3c
       -0.027199555 -0.0833647 -0.035878535 0.027685676
000370 d6 e8 4c 3d 1c 4c a6 3d 4d ed f6 3d 8f eb 52 bd
       0.050026737 0.081199855 0.1205698 -0.051494177
000380 c1 0c 34 bd 67 2d 87 bc 75 f6 ce bc 58 17 26 3d
       -0.043957476 -0.016501142 -0.025264004 0.040549606
000390 66 8c 9b 3c d8 2f e9 bc de e7 f7 3c a9 6b 0f bd
       0.018987846 -0.028465196 0.03026193 -0.035014782
0003a0 b2 dc 0f bd 4f 65 14 3d 61 29 7e bd 00 1d 34 bc
       -0.03512258 0.036229428 -0.06205118 -0.010993242
0003b0 2b 6e 1a bb 73 59 a8 bd bd 89 10 3d 6e 9b 0f bd
       -0.00235642 -0.08220186 0.035287607 -0.03506034
0003c0 be 8d de 3c ad 17 39 3b 77 41 44 bd 53 74 68 bb
       0.027167197 0.0028242872 -0.047913995 -0.0035469725
0003d0 f5 cc fb bc 16 e7 14 bd 77 5d 3c 3c 56 e3 23 3d
       -0.03073738 -0.036353193 0.011496893 0.040011726
0003e0 47 00 87 bd bd 1d 5d bd 4f d6 75 bc e8 01 b6 bd
       -0.0659185 -0.05398344 -0.015004708 -0.08887082
0003f0 a1 4f 18 3d 1b fb 11 3d 69 de 18 39 c1 75 8c 3b
       0.037185315 0.035639863 0.00014578704 0.0042864983

fc3.weight f4 [1, 256]
000000 d8 fa d5 3c a6 db b1 bc 7b f8 62 3d 9b 79 c6 bc
       0.026120588 -0.021711182 0.05541275 -0.024227908
000010 ea 0d 01 3d b6 d1 d8 bd e4 e9 0a 3e 41 0b 97 3d
       0.03150741 -0.10586874 0.13565785 0.073751934
000020 69 7c e4 bc 2f b2 74 bc 19 fb e2 bc 74 5a 80 3d
       -0.027891355 -0.01493506 -0.027707623 0.062672526
000030 43 64 e5 3c 13 23 ea bc f8 88 3b 3d 07 cc 2f 3d
       0.02800191 -0.028581178 0.04578492 0.042919185
000040 fe 54 81 3d dd b9 b4 bd ec ec 81 bd 41 7e bf bc
       0.06315039 -0.08824513 -0.063440174 -0.023375632
000050 d6 27 1b 3d ac 08 81 bc 58 4b 2e bc f0 93 fb 3b
       0.037879787 -0.015751205 -0.010638081 0.0076775476
000060 62 80 ac bb a8 94 c7 3c c3 b9 84 3d 97 d4 d5 3c
       -0.005264328 0.024362877 0.06480744 0.026102347
000070 0a 6d c9 3c e8 2d cc bd e1 50 2a bd fa a1 22 3d
       0.024588127 -0.099696934 -0.04158104 0.039705254
000080 94 7e 4c bc 77 ad ef bc 74 b7 a0 bc 56 66 e2 bc
       -0.01248135 -0.02925752 -0.019618727 -0.027636688
000090 b0 25 b8 bc 9c 89 dd bc ae 7f 22 3d a1 37 3b bc
       -0.022478908 -0.027043156 0.039672546 -0.011426837
0000a0 c9 2a eb bc 28 81 0a bd 9f cf 6c bd cc ec be 3c
       -0.028706925 -0.03381458 -0.05781519 0.023306273
0000b0 a3 ba 47 bd 4e d9 9c 3d b0 79 fb bd d1 47 f1 bd
       -0.048761975 0.07658635 -0.122790694 -0.11781276
0000c0 16 61 05 bd d0 c9 28 3c 65 f0 5a bc 97 9f 5b bd
       -0.03256329 0.010302022 -0.013362979 -0.053618994
0000d0 2d 55 71 3d 7e 98 13 bd 70 ab 72 3c d6 0f 47 3d
       0.05891912 -0.0360341 0.014811382 0.048599087
0000e0 b0 9c 58 3c e0 8a c2 bc 4a aa 52 bc f8 ae 68 bc
       0.013220951 -0.023747861 -0.012857983 -0.014201872
0000f0 42 86 f1 bc f2 a8 ba bc 42 37 98 bd 0f 67 d9 bc
       -0.029482964 -0.022785638 -0.074324146 -0.0265384
000100 b7 1e 21 3d 65 e0 60 bc a3 3b c5 3c d4 13 28 bd
       0.039335933 -0.013725375 0.024076289 -0.041034535
000110 08 24 9c 3c e9 fc ef 3c 15 60 ee bc f7 fd 38 bc
       0.01906015 0.029295402 -0.02909855 -0.011291019
000120 ec 14 1f 3c a3 f2 08 bd cd 3c a2 bc 56 92 20 be
       0.009709578 -0.03343452 -0.019804383 -0.15680823
000130 d4 2d 16 bd fb 10 a0 bc 17 c0 cf 3c 3b a4 e0 bc
       -0.0366648 -0.019539347 0.02536015 -0.027422061
000140 bc dd 25 3d d2 56 7f 3d dc 6d b5 bc f0 78 9f 3d
       0.040494666 0.062338658 -0.022147112 0.07786739
000150 cc 50 99 bc dc 59 02 bc 53 c2 84 3d ee 00 89 3e
       -0.018715285 -0.007955994 0.06482377 0.26758522
000160 0c 32 06 bd c0 02 8d bc bd d2 86 3c a5 33 55 3c
       -0.032762572 -0.017213225 0.01645791 0.013012801
000170 8e 8b 2f bd f4 9e 5b bd 9a 86 03 bd f0 24 f8 3c
       -0.0428577 -0.053618386 -0.032110788 0.03029105
000180 ec 6e be 3d 36 17 5b bc 64 2a 5b bd 5a 36 fb 3d
       0.092985004 -0.013372233 -0.053507224 0.12266226
000190 62 9f cd 3c 33 3f cd bd 96 67 64 bc 19 2f f7 bc
       0.025100414 -0.1002182 -0.013940712 -0.030173825
0001a0 cb 11 f6 bc d3 5e be 3c 88 ad 1a 3d ad 03 94 bc
       -0.030037781 0.023238575 0.03776315 -0.018068159
0001b0 0e 2a 38 3d 9d 24 90 bc 6d 3a 9c bc 6f 9d 9f bc
       0.04496198 -0.017595584 -0.019070828 -0.01948425
0001c0 08 84 3a bd 7c 7a 91 3d 1f aa f9 bb 71 11 64 bc
       -0.04553607 0.0710344 -0.007619157 -0.013920174
0001d0 44 90 d3 bc ca 5b a5 3d 0c d6 8b 3d 21 f5 9a 3c
       -0.025825627 0.08074148 0.068279356 0.018915715
0001e0 19 55 3e bc c6 f2 42 bd 90 17 22 bd fd 80 6e 3c
       -0.011616969 -0.047594808 -0.039573252 0.01455712
0001f0 93 77 01 3e 35 7c c9 bc 20 33 8e 3c f3 b2 f2 bc
       0.1264327 -0.02459536 0.017358363 -0.029626345
000200 79 3b 80 bd be dc 8c bd 57 26 93 3d c6 33 25 bd
       -0.062613435 -0.06878041 0.07185047 -0.040332578
000210 a0 6b 3f 3d 55 a5 3b bc 71 75 3d bd cc 5e 15 3d
       0.0467335 -0.011452992 -0.04625458 0.03646736
000220 b9 5f 55 bc 5a d1 9a bd d3 fa d4 bc 27 5f 7e bc
       -0.01302331 -0.07559462 -0.025998509 -0.015525616
000230 47 41 90 3d 77 4e b5 3c 4e f3 3f bd e2 6a 90 bc
       0.07043701 0.022132142 -0.046862893 -0.01762909
000240 e7 f2 90 3c e9 c9 21 3d 5c 57 4c bd ee da 3e be
       0.01769395 0.039499197 -0.049888 -0.18638203
000250 39 ef 37 bd 1f 2c 1b 3d 9e 3c 82 3c df 8e 5e bc
       -0.044905875 0.037883874 0.015898045 -0.013583868
000260 36 d0 9c bc 8e 6a 90 3c 21 30 17 bc 9f 1c 13 3e
       -0.019142251 0.017628934 -0.009227783 0.14366387
000270 53 53 c7 bc 35 f1 c1 3c 41 08 da bc 95 52 3d bd
       -0.024331724 0.023674587 -0.026615264 -0.046221334
000280 55 91 11 bd cb 7f 3a bd ca 2b a5 bc 02 f0 61 3d
       -0.03553899 -0.04553203 -0.020162482 0.05516053
000290 ed 67 d3 3c 90 33 de 3c dd 82 32 bc 44 55 21 bc
       0.025806392 0.027124196 -0.010895458 -0.009846989
0002a0 fe 0c 48 bd 25 40 c2 3c e0 33 34 bc 88 ce fe 3c
       -0.048840515 0.023712227 -0.010998696 0.031104341
0002b0 64 13 15 bd cb 1f 37 3d 74 5c b2 bd b0 4f 87 bc
       -0.036395445 0.044708055 -0.0870904 -0.01651749
0002c0 75 8c fb bc f3 ab 57 bc 87 f7 ba 3d 08 06 e3 bc
       -0.030706624 -0.0131635545 0.09129243 -0.027712837
0002d0 7e bc a5 3c db bb b8 3c 7d 23 09 3e 62 1e b5 bc
       0.020231482 0.022550514 0.13392444 -0.022109214
0002e0 94 ff 03 be 0a ed b2 3c 0e 22 05 bc 13 8b 97 3c
       -0.12890464 0.021841545 -0.008125795 0.018498933
0002f0 7d fd a0 3c 00 b5 b8 3c df 91 9f 3c b3 40 47 3d
       0.019652123 0.022547245 0.019478736 0.048645686
000300 c5 f1 d1 bc 59 ed 13 bd e1 37 27 bd fd 2d b5 3c
       -0.02562798 -0.036115024 -0.040824775 0.022116655
000310 5b 7c 7a 3c 89 0a ce bb c9 ae 81 bc bb e9 6f bc
       0.015288438 -0.006287877 -0.015830414 -0.014643128
000320 ed 6d a7 bd 3a d3 ec 3c a8 5b 74 3c bb e2 8b 3c
       -0.081752636 0.028909314 0.014914431 0.017075887
000330 d7 07 7a bd 0f c9 d6 3d ee d3 d6 3d 99 c9 75 3c
       -0.061042633 0.10487568 0.10489641 0.015001678
000340 6c 19 86 bc fc 24 80 bc f4 3b 53 3d 68 9d 9a 3c
       -0.016369544 -0.015642636 0.051570848 0.018873885
000350 69 54 e8 3d 4e aa 7c 3c 09 6f 37 3c 8d 02 ff bd
       0.11344225 0.015421463 0.011195906 -0.124516584
000360 50 a4 3a bd 01 b0 28 3d ba ae 80 bc 7c d9 cf bb
       -0.045566857 0.041183475 -0.015708316 -0.006343065
000370 f1 59 c1 3c f5 ce ad 3c 9e 75 1c 3d 32 2e 27 3d
       0.023602458 0.021216849 0.038198106 0.04081554
000380 c7 fd 59 bd 60 28 b5 bc d0 3e 19 3d 3e 22 52 3c
       -0.053220537 -0.022113979 0.03741342 0.012825547
000390 a5 a3 c0 3c 17 fb c0 3c a0 2b 0b 3d 61 fe 11 3d
       0.023515532 0.023557229 0.03397715 0.035642985
0003a0 50 19 3c bd f5 5a fd bd b0 fd 51 bd 51 e3 65 bd
       -0.045922577 -0.12370864 -0.051267326 -0.05612499
0003b0 8d b5 ee bc b3 31 3b bd 05 ee 54 bd 44 ae 85 3c
       -0.029139305 -0.045701694 -0.051984806 0.016318448
0003c0 b2 5b c1 bd fa 2c f1 3c 15 9d 87 bc 42 de 93 bc
       -0.094413176 0.029440392 -0.016554395 -0.018050317
0003d0 6d f9 9a bc 5a f9 04 be 71 57 79 3c e1 c2 57 bc
       -0.018917764 -0.12985745 0.015218602 -0.013169021
0003e0 89 b7 cd 3c 75 c3 d4 bc 3a e0 37 bc 23 9e 07 bd
       0.02511193 -0.025972107 -0.011222893 -0.033109795
0003f0 4f c7 01 bd 52 16 b5 3c 5b c5 7b 3c 15 a0 9a bc
       -0.031684216 0.02210537 0.015366877 -0.018875161
