checkpoints/checkpoint_actor_ddqn_12.pth (torch_old, 303163 bytes, 6 tensors)

fc1.weight f4 [256, 33]
00000000: 19bb 17be 257d d2bd 3454 21be 3fc2 a0bc
00000010: e23c c53c d2fa 4abe 9a6b ebbd e002 133e
00000020: 4107 0fbd ef89 5836 85c3 39bd b132 42bc
00000030: 546f 9a3c 9bc9 723e d21c 413e 3c81 e23e
00000040: 76f8 6b3d f5db 1fbc cadb 9e3d d552 5abd
00000050: eabc aebd eb36 9d3c 1239 d73d 817d 413d
00000060: 1d8a 933d cce5 e93d 4b27 7cbe 0d93 f5bd
00000070: 61b1 3abe 2693 19bd de9e d03c 446c 253d
00000080: 0928 35bf 3b1c f03d 8d6d f1ba ab9f 9abe
00000090: ef91 103c 5151 b7bd 7709 0b3d 99dd e13d
000000a0: 857e 923d 57b4 d4bd aa57 eabc 6c54 1ebd
000000b0: 80d9 82bd e8b1 0d3d b098 86bd 6350 edbd
000000c0: 2d71 7c3e a9bc 593d 5ef7 0f3c 51fa 843d
000000d0: 3b0c 743c 549d 093c bab8 3d3e 7530 673d
000000e0: 9378 89bc f35d f23b 22bf b53a 1253 013d
000000f0: 140e 38bd b72c 74bd a614 613d 80b0 edbc
00000100: daed 663d 977b 53be 268d 5f3e 9152 c83d
00000110: 8209 a5bd 66c4 61be d45e 36be 8c81 d0bd
00000120: e604 7e3d 5bf4 263d 7d6d 1bbe 4ead e7bd
00000130: e270 ed3d 80ac 643d 4e77 3d3e 0dcf e73d
00000140: b79e 963e 42f4 2c3e f121 473e d16a 923c
00000150: 5adc d5bd 8f5e f93c bdf3 77bd 512f babe
00000160: abb0 f0bd 6d47 1ebe 672e 0a3e bfae 1a3c
00000170: 806f 4a3a 0b7f 243e 6e6a a33c 2895 dbbc
00000180: c96b 16be 9c46 653d 7e47 2c3e 587a 96bd
00000190: 7845 153e 99e4 67be f328 a7bc 837b 3dbd
000001a0: 8c3c 86bd dd0b 9c3d 607e 8ebd 95e9 db3d
000001b0: f62d 833d 1324 ab3d 75b2 0c3e 0df6 d73a
000001c0: d6e1 d0bd b92e 8abe 57e7 073d 7bed 8dbd
000001d0: 058e a03c fa28 abbc c807 f939 131f 253e
000001e0: 0c9d 54be 7dce dbbc 6914 a3bd 7eee 19be
000001f0: 7591 dfbc 7594 0d3e 2fbc 0e3e 5120 573d
00000200: 08e5 05bd 3ac9 0dbe 8610 0a3d b953 c3bd
00000210: 861a bd3d f9dc 36be dde5 aa3e 0f81 07be
00000220: 06dd b9bc ca22 c3bd cdd8 8ebd 79d7 3b3d
00000230: 6856 81bc 6609 d7bc d707 e13c 9bd2 16bd
00000240: 2ed3 843d a16e cb3d 9726 97bd d5df 6cbe
00000250: 7b75 24bd 86f0 34bd 737d 033d 8d3a af3d
00000260: ff19 31bd ed5e 1d3d 92e0 743d bb6a f83b
00000270: 88a8 5fbd de5e 09bd d181 96bd 4724 ac3c
00000280: 54ba 9f3b 961b 1fbd cb14 9e3d 2058 783d
00000290: 7c2c 60be 2427 50be a7da 983e af0e 013e
000002a0: 4f9b 7ebe 0b0f af3e 0d59 e0bd 3ced a9bd
000002b0: 0a0e e6bc 4d60 f9bd 8d8b cabd 6ce7 71be
000002c0: 33d9 8e3e 9db8 9d3d d7f9 02bd b21b 923d
000002d0: e882 de3c d173 d8bc 620a 55bd 536b 7f3d
000002e0: 1687 49bd fbf0 93bd 7854 443e 4cdd 3ebd
000002f0: feb1 2d3e 8819 9bbb af4e 56bc c5d6 8fbd
00000300: 4d79 8e3c 2ed9 333b d083 d03c ba5a d43c
00000310: 405f 603b 5538 423f 4c94 cd3c 25d0 7c3e
00000320: facf 9f3d 7634 1fbd 671b 9cbc ab4d 5c3d
00000330: 7a72 aebd eb56 be3d a1b0 073e a521 bbbb
00000340: e825 8f3d f62c ba3d d902 09be db12 053d
00000350: 8c5e e63e c073 b73d d591 1e3e 2d09 22bc
00000360: bf5a dcbd 320b df3d 6e90 32bd af94 80bc
00000370: 4441 163e e651 22bd 85d6 843d 1436 2c3e
00000380: e975 07be 970c 3a3d 742c 23be 0078 2d3b
00000390: 5685 e5bd a025 983c 7ca1 da3e b91d e53d
000003a0: 30e4 ccbd 4914 0abd 7d50 a03d 3efa 9fbd
000003b0: 6849 c13d 68dc 023c 452a 013d 31e7 d6bd
000003c0: c72f 903d ea6e be3d a364 c7bd f170 97bd
000003d0: d248 d0bd 4f66 2e3e 9a53 d23d 3488 033d
000003e0: 7193 2c3d c36b debd 6ee8 1abd 1294 87bd
000003f0: c216 1f3d d537 46be d8d4 613e 1e4b 753d
-0.14817466 -0.10277776 -0.15754777 -0.019623874 0.024076883 -0.19822243 -0.11495133 0.14356565
-0.034919027 3.2266796e-06 -0.045352478 -0.011852906 0.018851914 0.23709719 0.1885865 0.44239223
0.057609998 -0.009757032 0.07756765 -0.05330165 -0.08532126 0.019191226 0.10508932 0.04723883
0.072040774 0.114207834 -0.24624364 -0.11990938 -0.18231727 -0.037493847 0.025466379 0.040386453
-0.70764214 0.117241345 -0.001841949 -0.30199942 0.008823856 -0.08951057 0.033944573 0.110285945
0.07153038 -0.103859596 -0.028606255 -0.03865473 -0.06389141 0.034593493 -0.065720916 -0.11587598
0.24652548 0.053158436 0.008787004 0.064930566 0.014895494 0.008399326 0.18527499 0.056442697
-0.016781127 0.0073964535 0.0013866166 0.031573363 -0.0449353 -0.059612956 0.054951333 -0.029014826
0.056379177 -0.20652615 0.21831188 0.09781373 -0.08058454 -0.22047576 -0.17809612 -0.10180959
0.06201639 0.04076038 -0.15178485 -0.11312352 0.11593796 0.05582857 0.18502542 0.11318789
0.29417965 0.16890052 0.19446541 0.0178732 -0.10442419 0.030440597 -0.06053518 -0.36364225
-0.11752447 -0.15456934 0.13494264 0.009441077 0.0007722303 0.16064088 0.01994821 -0.026804522
-0.14689554 0.05597554 0.16824147 -0.07347554 0.14577281 -0.22645797 -0.020405268 -0.046260368
-0.06554517 0.0761945 -0.06957698 0.107379116 0.06405251 0.0835649 0.13739951 0.0016476527
-0.10199325 -0.26988772 0.033179607 -0.069300614 0.01959897 -0.020893563 0.00047498778 0.16125135
-0.20763034 -0.02683186 -0.07962877 -0.15032384 -0.027291039 0.13826163 0.13938974 0.052521054
-0.032689124 -0.13846293 0.033707164 -0.09537453 0.092335746 -0.17857732 0.33378497 -0.13232826
-0.0226884 -0.0952812 -0.06974945 0.045859788 -0.015788272 -0.026249599 0.027469559 -0.036821943
0.06485592 0.0993321 -0.07380407 -0.2313226 -0.0401511 -0.044174694 0.03210206 0.085560896
-0.043237682 0.038420606 0.05978448 0.0075810826 -0.054604083 -0.033537738 -0.07348979 0.021013392
0.004874507 -0.038844667 0.0771881 0.060630918 -0.2189197 -0.20327431 0.29854318 0.12603258
-0.24863933 0.34191164 -0.10954485 -0.08297202 -0.028082866 -0.12176571 -0.098898984 -0.23623437
0.27900085 0.07701228 -0.031976547 0.07134189 0.02716203 -0.026422413 -0.052011855 0.06235821
-0.049201094 -0.07223698 0.19172847 -0.046597764 0.1696243 -0.004733268 -0.013080283 -0.07023386
0.017391825 0.0027442682 0.025453478 0.025922168 0.003423646 0.75867206 0.025095128 0.24688776
0.0780334 -0.03886839 -0.019056035 0.053785007 -0.085179284 0.09293922 0.13250972 -0.005710798
0.06989652 0.09090607 -0.13379993 0.032488685 0.4499401 0.089576244 0.15485318 -0.009889883
-0.10759496 0.10890807 -0.04359477 -0.015695898 0.14673334 -0.039628886 0.06486229 0.16817504
-0.13228573 0.045422163 -0.15934926 0.002646923 -0.112070724 0.018572628 0.42701328 0.1118731
-0.10004461 -0.03371075 0.07827852 -0.07811402 0.09437829 0.007987119 0.031534452 -0.10493315
0.07040363 0.09298499 -0.09735992 -0.07394589 -0.10170139 0.17031215 0.10269852 0.032112315
0.0421328 -0.10860398 -0.03781932 -0.06620039 0.038840063 -0.19357236 0.2205385 0.05988609

fc1.bias f4 [256]
00000000: 2a56 223d c7cf cebd 0d6a 91bc 4d5b 29be
00000010: 0fd6 cc3d 73b4 973c 84d4 76be b028 e63c
00000020: e859 7a3c 28ce 91ba 8555 4fbe 0010 5bbd
00000030: c666 1e3d 7c88 e0bc 5428 593e e840 4f3e
00000040: db3d 0d3d 58c8 b0bc 252b 2ebe 1cbf 8bbe
00000050: 89f2 72bd 4074 53bd 0d0a 7dbc 21ae ad3c
00000060: f287 28be cdec d5bc b1e9 fcbc 7f8e 6fbd
00000070: 1d7f 88bd 22de 36be ea95 e1bd 37f5 c8bd
00000080: 5049 2abd 9652 14be 7f1b 33be 9a00 003e
00000090: 6c29 46be 4e41 65bd dc5e 013e d5fc febc
000000a0: 1b63 85be 338f 94bc b06b 053e 19e0 dd3d
000000b0: 6314 c73d 61f7 c0bd c4dc d43d 681e acbd
000000c0: e167 f83d 4af2 4abd 12f2 32be 9255 413e
000000d0: f8fa 34bd f3d9 573d fe93 c2bd da3e 233e
000000e0: 0b34 b4bd 9a05 673d 8068 93be 278a 513e
000000f0: fb1c 15be c1ad 0fbe c30b 17bd 4ed1 2c3d
00000100: d3eb 32be 113c f9bd 2dd4 5c3e 56b7 c0bd
00000110: fa24 d8ba 963b 21be 4673 903d a594 563d
00000120: 29b0 83be 10d4 a73d c7b7 533d a84f 383e
00000130: d56f 66be 2f07 fdbc df88 1fbe bc32 34bd
00000140: 866c 203e 9fec 673d 8f09 70be 5a17 e23c
00000150: 6e8a 7a3c 1db4 c93d ece5 0cbe 3c16 b5bc
00000160: 6f8c 6abd de11 5d3d eb4a 03be 3dfb 0cbe
00000170: 72b6 f4bc 4e6f 003e 540c c3bd 8ea0 2f3d
00000180: 0d5e fdbd 3185 31be 5308 93bd 6a8b 7abb
00000190: e486 e13c 4c29 853c a46d bfbc 850a 663d
000001a0: 0cc1 aa3c 0f9f 88bd 4c0d 66bd 5091 c0bd
000001b0: c4f7 773d f6f0 17be 1c97 6c3e 1e64 64bd
000001c0: cdb2 83be 4e7c 4cbd f065 e1bc a38e 0bbe
000001d0: be08 f0bd 984a dbbd 6abf 883d 64fb 1ebe
000001e0: ea80 063e abec 4c3e 9a58 12be 9c41 10bd
000001f0: a7ed 533e 556d 003d 7a61 12be 28b9 2f3d
00000200: ad7c 46bd da65 13be 13e5 2bbd e348 96be
00000210: aea7 0e3e 4069 1fbe 284a 91bc 2fde c0bc
00000220: 8f0a 8abc c2e9 45be 5d24 36be 3561 08be
00000230: 3bec 44bd 1681 3fbd e062 bbbd 6aef 01bc
00000240: 319a 31be 667b 4ebe 0b12 69be ecb9 593d
00000250: 29da 9e3d 772f 76be 8b08 7dbd dfc1 e7ba
00000260: bb78 2bbd 9893 aebd 1186 ff3d b277 fbbd
00000270: c0a5 cbbd d92b cb3d e5d4 04be 260d f0bd
00000280: 88b9 babd 2a76 45be 5fe2 6e3d 834d 0f3e
00000290: 55e2 f43c 38f6 34bd 5335 4ebe 8241 14be
000002a0: 861c 2bbd 19f7 cebd 3739 193e 1ac0 d73d
000002b0: 4a41 8cbd ece6 b43c 8aff d3bd d9c1 8a3d
000002c0: 988b 40be 7bc7 1abe 79de 4cbe 2492 4a3d
000002d0: e5b4 68be 6b88 0b3e 885f d4bc a537 68be
000002e0: 93c7 55bc 462a 45bc 7cbd 803e 8fd6 87bd
000002f0: a40e 06be 7a37 b33d 8451 40bd e8b0 153c
00000300: eb8e ac3c 0ed7 0ebd bb5a 2abe 8d7b 8dbd
00000310: bfd0 a7bb 6ab1 acb8 9419 6bbe cc40 d0bc
00000320: 7659 f23d ae43 f23c ed6b 2c3e 87a1 233e
00000330: 83f6 cbbd 10d2 66be 09c6 2ebe 211b d6bd
00000340: ce7e 453c 1871 fc3d b7db 25be da0f 9fbd
00000350: 5ec0 0abe 556f 18bd 2492 31be 9a17 cf3d
00000360: 95b7 04be 1426 5bbe 686a f0bd 1df0 913d
00000370: c568 9fbc 6798 67be 7b06 bc3d 1730 1bbe
00000380: 969f ce3d bbf3 4abe eb1e a6bd e36b 65be
00000390: ae14 50be 342d 133e 74f6 853d 9c01 27be
000003a0: 204f 36be 3408 7b3d 6bd4 503c b1c3 36bd
000003b0: c730 b03d 8847 243d ad2a 1fbe 67f3 2bbd
000003c0: 2af8 36be 0c95 c9bd fedb e0bc 6e6d f3bc
000003d0: c014 0f3d d07d 32be 262f b5bd 8bc3 5c3d
000003e0: 996f 973d 3246 913d 92b4 6dbc ab01 70be
000003f0: eb2e acbd 8d19 01be 48fb 32be 5b74 83bd
0.039632954 -0.10098224 -0.017750764 -0.16538735 0.10001766 0.018518662 -0.24104506 0.028095573
0.015280224 -0.0011124061 -0.20247467 -0.053482056 0.03867223 -0.02740883 0.2120679 0.20239604
0.034482818 -0.021579906 -0.17008646 -0.27294242 -0.05931333 -0.051624537 -0.015444291 0.021201195
-0.16458109 -0.026113892 -0.030873151 -0.058485504 -0.0666487 -0.17858174 -0.11014922 -0.09812396
-0.041573822 -0.14484629 -0.17490958 0.1250023 -0.19351739 -0.055970483 0.12633842 -0.03112642
-0.26052174 -0.018134689 0.13029361 0.10833759 0.09720685 -0.09422184 0.1039367 -0.08404237
0.12129188 -0.04954747 -0.17475155 0.18880299 -0.044184655 0.052698087 -0.095008835 0.15941945
-0.08798989 0.056401826 -0.28790665 0.20462857 -0.14561836 -0.14031126 -0.03687645 0.042191796
-0.17472772 -0.1216966 0.21565314 -0.094099686 -0.0016490512 -0.15745386 0.07053237 0.052387852
-0.25720337 0.081947446 0.051688936 0.17999136 -0.22503598 -0.030887214 -0.15579556 -0.043993697
0.15666398 0.056622144 -0.23441146 0.027599026 0.015291793 0.09848807 -0.13759583 -0.022105329
-0.057262834 0.053972118 -0.12821548 -0.13767715 -0.029872153 0.1254246 -0.09523836 0.042877726
-0.123714544 -0.17335965 -0.07179322 -0.003823007 0.027530141 0.016255043 -0.02336771 0.056162376
0.020844005 -0.06670963 -0.056165025 -0.09402716 0.060539022 -0.14838013 0.23104519 -0.05575954
-0.25722352 -0.049923234 -0.027514428 -0.1362863 -0.117204174 -0.10707587 0.06677134 -0.15525585
0.13135114 0.20012157 -0.14291611 -0.03521882 0.20696126 0.031354267 -0.14294997 0.042901188
-0.048458744 -0.14394322 -0.04196651 -0.29352483 0.13931152 -0.15567493 -0.017735556 -0.023543445
-0.016850738 -0.19327453 -0.17787309 -0.13318332 -0.04807685 -0.046753965 -0.09149718 -0.007930616
-0.17343976 -0.2016426 -0.22760789 0.053155825 0.077564545 -0.24041544 -0.061775725 -0.001768168
-0.041863184 -0.08524245 0.12476743 -0.122786894 -0.09943724 0.09920473 -0.12971838 -0.11721258
-0.091174185 -0.19283357 0.058321353 0.13994412 0.02989308 -0.044180125 -0.20137529 -0.14478114
-0.04177525 -0.10105724 0.14963232 0.10534687 -0.068483904 0.022082768 -0.103514746 0.06775255
-0.18803251 -0.15115158 -0.20006742 0.049455777 -0.22725256 0.13626258 -0.02592446 -0.22677477
-0.0130480705 -0.012034005 0.25144565 -0.06632721 -0.13091522 0.08750816 -0.04695274 0.009136416
0.021064242 -0.03487306 -0.16636173 -0.06908331 -0.00512132 -8.234645e-05 -0.22958976 -0.025421523
0.118334696 0.029573288 0.16838045 0.15979587 -0.09959128 -0.2254107 -0.17067732 -0.10454393
0.012054158 0.123262584 -0.16197096 -0.07766695 -0.13549945 -0.03721555 -0.17340904 0.101119235
-0.12960656 -0.21401244 -0.117390454 0.07125876 -0.019459138 -0.2261673 0.091809236 -0.15155064
0.10089032 -0.19819538 -0.08111366 -0.22404437 -0.20320389 0.14372712 0.06541148 -0.16309208
-0.17803621 0.06128712 0.012745957 -0.04462022 0.086030535 0.04010728 -0.15543623 -0.041980173
-0.17868105 -0.098428816 -0.02744865 -0.029715266 0.034931898 -0.17430806 -0.088468835 0.05389742
0.073943324 0.07093467 -0.014508383 -0.23438136 -0.084073864 -0.12607403 -0.17478669 -0.064186774

fc2.weight f4 [256, 256]
00000000: 65f9 aabe 345e 113a 199f b73d a654 ad3d
00000010: 4e56 06be e2b4 7f3b 532b b6bc 7cb5 9d3d
00000020: b9f5 4abe 28eb 5ebe eeb3 97bd e5ab 653c
00000030: 410f ebbd 05b8 38bd 6942 96be cf8f 39bd
00000040: d772 8e3d cf63 ed3d e479 85be 9eed b73d
00000050: ef9f 27bc 2d96 89bd f755 de3d 1d73 263d
00000060: 1f7a 3dbd 61c4 a43d c460 8bbd 2a50 5c3e
00000070: 739c b73b bbea 873d 9370 e43d 4c69 3c3d
00000080: 67d9 5ebe 9bdc 493d fd93 83bd 2b5a 03be
00000090: 2dd7 323e 1d0d 42be f38f f6bd 3ff8 b1b9
000000a0: 8451 1dbe d68b f03d 6464 8cbd f578 fcbd
000000b0: b02a 3abd a34f 80bd a388 d73c 69f4 09bd
000000c0: 03fa 0d3e b2c1 7f3e 3e0e a9be 8d55 3abe
000000d0: c233 0d3e 729a fa3c cc66 9ebd c816 ffbb
000000e0: 2e40 9cbe 36ef 503a 927b 8e3d 15bc 31be
000000f0: e494 023e a2a9 5d3d 36f5 4c3d 19be 8bbd
00000100: be87 fa3d 950d f4bd 6764 28bc c746 dbbd
00000110: 9b73 193c 9f44 32bd bd6f 8ebc 9cac 4bbe
00000120: 772d 993d acbc 77bc 24ef 64bc 61e5 44be
00000130: 9041 d63d f97e 4fbd 74f2 123e d586 923d
00000140: a2ec eb3c 726a cc3c 33b3 e93d f99a 133d
00000150: 601f a23d cd0b d53d 236a 883e 6428 da3d
00000160: 8fad 0ebe 1b09 603d d3e7 03bd 564f 0ebd
00000170: 0dda e33d c8af 4f3d e333 893d 0902 483d
00000180: 5fda f93c 0449 98bd 7491 213e db8a 33be
00000190: add0 07be 83cd 88bd a74e c13d f8b1 c93d
000001a0: 2457 073e 2165 b73d f838 2d3e 39d5 253d
000001b0: 1233 8ebd d698 19be c9ca bbbd 8c68 913c
000001c0: a006 c53d c8b3 cc3d c6c5 b93e 1c8e 02bd
000001d0: 1c67 ae3b 8d63 2cbe 92e2 8f3b 9848 61be
000001e0: 54a3 bb3b 467a 6fbe 3fd2 83bd 835d e0bd
000001f0: bea1 c1bd ae19 543d dba4 30be d2ea 9ebe
00000200: 826f 63be 80e4 b63c ccf7 d4bc c09e 253e
00000210: 5530 88bd 5ab4 4cbc b2e2 8e3e 6d24 f7bd
00000220: aade 803d 9c4d 3abe 133c 2abb 1f8a e33c
00000230: 66a3 2a3e 979f 74be 39e4 493e 7388 5d3d
00000240: 4f09 523d 5c0f 923b fe3b 67bd bb55 033e
00000250: a051 1cbe e093 873b 38c5 6abd 2836 e73c
00000260: 131b 653d 2b15 e7bb 170a c5ba aa95 ae3d
00000270: 285c ed3b c753 a73d f374 203e cd17 e7bd
00000280: 7a64 803d a642 51bc d249 373d b349 11be
00000290: e8ed 053e b250 40bd 026c 0d3e cec1 103e
000002a0: c012 cabd 8dbb adbc 0d98 14bc 6a3a 833c
000002b0: 978c 01be d50b 47be 7a85 be3c 985e 8cbe
000002c0: 0eee 9e3d 7089 963d e0d5 0d3d 827d e63d
000002d0: 9f6d 4fbd 76fd 9c3d faeb 73be c437 d5bb
000002e0: c796 25bd de0a e5bd 7f55 133d 01f7 d0bd
000002f0: e2f1 0e3e 821d 093d b061 e03c 8ca7 823d
00000300: b9e9 e73c 2917 21be 544e a53d bf35 9dbd
00000310: 0b76 8dbd 46a2 493d 7604 353e c591 093e
00000320: 857b 0abd 547e 68bd 86fb 013e 3da1 dcbd
00000330: d28c 2abd 3a08 5c3e 34a5 24bd 0034 34be
00000340: 894b 533d a350 63bd 23c0 af3a db76 d0bc
00000350: 0865 94be 2928 bebc 165b 873d 1978 3bbd
00000360: 4ef9 de3c 4b4b 183e c875 7b3d 7fa4 f9bd
00000370: f75a 0d3e 6a53 bcbd 4b47 633d dccc 293d
00000380: bf1f af3d edaa 1f3e bd05 93bc e4c1 2ebb
00000390: d0b5 753d 5042 d2bc b991 86be 59ce 763e
000003a0: b287 37bd 1bdc 12bd 4dca 9fbd c731 2d3e
000003b0: 566e 57bd a169 cf3c 7048 103d f534 f9bb
000003c0: 0ba6 1bbd 953d 4e3d ff2d 153e 03f5 ddbc
000003d0: 0a99 1b3d 82c1 873d e808 74be a000 03bd
000003e0: 82b0 31be 1abb 3e3e 33e9 57bd 06a5 8b3d
000003f0: 85e2 f93c 0d47 de3d 53fb b03d 1083 0abe
-0.33393398 0.00055453484 0.08965892 0.08463411 -0.1311886 0.0039017727 -0.022237455 0.07700631
-0.19820298 -0.21769392 -0.07407366 0.014018034 -0.11477519 -0.04509737 -0.29347542 -0.045303162
0.06955498 0.115913026 -0.26069558 0.08980869 -0.010231002 -0.06718097 0.1085624 0.040637124
-0.046259042 0.08045269 -0.06805566 0.21514955 0.005603367 0.06636568 0.11154284 0.045998856
-0.2176262 0.04928265 -0.06424711 -0.12827365 0.17464896 -0.18950315 -0.12039175 -0.0003394503
-0.15363127 0.117454216 -0.068550855 -0.12327758 -0.045450866 -0.062651895 0.02631027 -0.033680353
0.13864903 0.24976233 -0.33018678 -0.18196698 0.13789275 0.030591223 -0.07734451 -0.007784698
-0.30517715 0.00079702155 0.06957163 -0.17356904 0.1275211 0.054116853 0.05003854 -0.068233676
0.12232922 -0.11916653 -0.010277844 -0.10706859 0.009365941 -0.043522473 -0.017387265 -0.19890064
0.07479375 -0.0151206665 -0.013973031 -0.19228126 0.10461724 -0.0506582 0.14350301 0.071546234
0.028799359 0.0249531 0.11411133 0.036036465 0.079161406 0.104026414 0.26643476 0.10652235
-0.13933395 0.054696184 -0.032203507 -0.03474363 0.11125574 0.050704747 0.0669935 0.048830066
0.030499635 -0.074358016 0.15778142 -0.17533438 -0.13263197 -0.06679823 0.0943883 0.09848398
0.13216835 0.08954836 0.16916263 0.040486548 -0.06943335 -0.14999709 -0.091695376 0.017750047
0.09620404 0.09995228 0.36283702 -0.031873807 0.00532235 -0.1683485 0.004391023 -0.22000349
0.0057262573 -0.23386487 -0.06436586 -0.10955336 -0.09454678 0.051782303 -0.17250387 -0.3103853
-0.22210506 0.022325754 -0.025997065 0.1617384 -0.066498436 -0.012494171 0.2790733 -0.120674945
0.0629247 -0.18193668 -0.0025975748 0.027775822 0.16663894 -0.23889004 0.19715966 0.054085206
0.05127841 0.0044573974 -0.056453697 0.12825672 -0.15265512 0.004137501 -0.05731699 0.028224066
0.055934023 -0.007052084 -0.0015032914 0.0852464 0.007243652 0.08170276 0.15669613 -0.112838365
0.062691644 -0.012772238 0.044748135 -0.1418827 0.13079035 -0.046951957 0.13810733 0.1413643
-0.098668575 -0.021207595 -0.009069455 0.016019065 -0.12651287 -0.19438107 0.023257006 -0.2741592
0.07760249 0.07350433 0.034627795 0.112544075 -0.050641652 0.07665531 -0.23820487 -0.006506892
-0.040426996 -0.111837134 0.035970207 -0.10203362 0.13959458 0.033475406 0.027390331 0.06379613
0.02830969 -0.15731491 0.080715805 -0.07676267 -0.069072805 0.04922702 0.17677483 0.13434513
-0.033809204 -0.0567611 0.12693605 -0.10772941 -0.041638203 0.21487513 -0.040196612 -0.17597961
0.051585708 -0.055496823 0.0013408702 -0.0254473 -0.2898333 -0.02321251 0.0660917 -0.04576883
0.027218487 0.14872472 0.06139162 -0.12189578 0.13804232 -0.091955975 0.055487912 0.041455135
0.08550977 0.15592547 -0.017947072 -0.002666586 0.059987843 -0.025666386 -0.26283053 0.24102153
-0.044807144 -0.03585444 -0.07802258 0.1691352 -0.05259546 0.025318922 0.03522533 -0.00760519
-0.038000148 0.050351698 0.14568327 -0.02709437 0.037987746 0.066287056 -0.23831522 -0.031983018
-0.17352489 0.18626061 -0.05271263 0.06818585 0.03050352 0.108533956 0.08641686 -0.13526559

fc2.bias f4 [256]
00000000: 9e50 95bd a06c 7cbd 3a31 333d 5eed 60bd
00000010: 5841 18be 137f 63bd c369 e23d 3de0 cd3b
00000020: 6b22 993d ac0d b53d 651b d2bc 8438 803d
00000030: 92c7 4abd 1ca4 bf3c 5e68 60bd 5f0c 853c
00000040: 4f64 74bc 72a8 ed3c 61c0 ffbc ad12 bebd
00000050: adaf 82bc 2b80 05bd 37d7 cf3d ac07 de3c
00000060: 5437 f9bc ccc6 dabc 5a43 98bc 4368 55bd
00000070: b0f4 883c 2727 00bb a894 73bd ca11 f4bb
00000080: 2d1f 9dbd 52b4 29bc 1507 1f3d e012 84bb
00000090: bb71 713d 27e7 9ebd 6e7c 573d 09cd b4bd
000000a0: 6af7 04bd 32f7 a43d 7896 c1bc 776b 2a3d
000000b0: fc1c 87bc ec40 bb3d 227c 213c f0f9 c73c
000000c0: cea7 93bd 6eee e33a 12a8 1c3d bb77 6bbd
000000d0: 1622 a23d b6c9 5a3d b6f5 64bd fcd5 90bb
000000e0: a548 523c 6fee 34bd 52e4 d9bc 3db0 0d3d
000000f0: 3216 d73d afd2 7bbd bdc0 e93b 054b abbd
00000100: 4713 eb3c 72bd 853c 2a7b 16bc e682 dfbd
00000110: b31c 8a3c 365d b7bd 277c 2ebd 996b 75bb
00000120: 0322 c33b 74f3 c43c 25f1 ae3d 0cb8 af3d
00000130: 96ff be3b 5a27 39bd 2679 973c 552d 443c
00000140: bf21 963b 414f 0bbc 022c cd3c 2abb 20be
00000150: 7b6a 67bd 65da 6d3c d7a0 963b b697 e0bc
00000160: a05a 67bb 3088 e63a 6eeb 693d 22d4 78bd
00000170: d269 9ebd 5ebd 5cbd a0d0 203d 57a0 913c
00000180: 8045 a63c 7d0d 0ebd acfd 3fbd 534d 57bd
00000190: 33b1 d13c 2721 223d fc16 62bd 3253 af3d
000001a0: edb8 77bd 2d96 b3bd 1193 133d 4a6a 48bd
000001b0: 8796 3fbd 2f01 a3ba 6a98 bbbc 7388 3a3c
000001c0: 703c 703d b47b 2c3d 4128 71bd aa45 3abc
000001d0: 41f4 b3bd 4907 4a3d 6959 993d 9dd3 9f3b
000001e0: e0a6 fabb 1444 6f3d 77df 18be d4f5 1bbd
000001f0: eb27 bcbd ec10 90bc 5848 af3c 75d5 0abd
00000200: 03ad c7bd a01f 143c 685c 95bd 37c3 e63c
00000210: 9670 c539 ecae 3f3b 7a91 173d c1c2 e83b
00000220: 3bbc abbd eff6 e5bd 7a44 a23c 9f54 2cbd
00000230: 5aaa 98bd c93d 00bd 6284 e6bc cee1 61bd
00000240: 3df4 dd3c 773b 583d 6b15 6b3d 0213 0d3d
00000250: a3ea b4bd 45a1 223d 6d50 85bc 369a 2c3c
00000260: 5f51 4d3c 0b2d 463b 2027 c93c 7436 09bc
00000270: ed90 0b3d e514 43bd 79ed 053c cc65 933d
00000280: 2939 89bd 5d6b bebc a5f2 053d 04a8 83bc
00000290: 32a8 e7bd 213c 4c3d eaf3 863c 84cb 853d
000002a0: 54b8 b4bd 670e 7f3d 6e3b 25bd 4791 98ba
000002b0: 60c4 27bd ac74 7c3b 5d17 cb3c a8b0 1a3c
000002c0: 04ec 1e3e 434a 863d 8337 94bc 4a63 94bc
000002d0: feca 16bd eb32 4f3d a40b 99bd d8d2 6ebd
000002e0: fd36 c2bc a119 1a3c 879b 6bbc a8f5 4fbc
000002f0: bd49 d3bd 3a72 da3c c884 c2bc 7ceb 11bc
00000300: b3d7 7abd 28eb 933c c2c8 393c ee45 5dbd
00000310: 1a6b 2e3d 260d acbd 6a35 473d dfb6 83bd
00000320: 284e 713c 2ddd 483d 1775 e73c e17b 683d
00000330: 7c36 b1bb 712a 243c ce27 85bd 2b15 793d
00000340: e73d 8fbc b1cd 2cbb 6ddd 9e3d 1f92 49bc
00000350: a75c fbbd 6a4a 70bd 55f8 d7bc 93fc f3bd
00000360: 71d9 3cbd 89b6 47bd 77cb 0bbe b4b4 943c
00000370: abfe da3b 32b6 d0bb b1ce f73b c3cf 71bd
00000380: 8593 cfbd e336 e73c 322f 62be f131 03be
00000390: 991f 843d 33cc 5e3b bfe1 a53b 0f8b 7bbc
000003a0: 738b fd3c 20ff debd 9d62 ac3c 5d0b 25be
000003b0: 5d45 ceba 465a 333d e9ab 85bc 2d5f aa3c
000003c0: 82a9 f53c 241e 9d3c 1ad8 7f3d 61d3 7ebd
000003d0: ae9d 913d cfd1 acbd 4abf 0e3d 87ce 92bc
000003e0: 1e9e e2bc 7483 d3bc 0108 9f3d 21ec d63c
000003f0: 3e05 bb3c 38de 4c3d f90c 033c 16cf 44bb
-0.07290767 -0.06162703 0.043748118 -0.05491387 -0.14868677 -0.05554111 0.11055329 0.006282835
0.07477268 0.08840498 -0.025647828 0.062607795 -0.04950673 0.023393683 -0.054787032 0.01624125
-0.014916494 0.029010985 -0.031219663 -0.09280906 -0.01595291 -0.032592934 0.10148471 0.027103268
-0.03042189 -0.026706122 -0.018586803 -0.052101385 0.016718239 -0.0019554587 -0.05946794 -0.0074484097
-0.07671962 -0.010357933 0.038825113 -0.0040305704 0.058946352 -0.077589326 0.0526089 -0.0882817
-0.032462515 0.08054961 -0.02363132 0.041606393 -0.016493313 0.09143242 0.009856256 0.024411172
-0.072097406 0.0017389783 0.03824622 -0.05748723 0.079166576 0.053415023 -0.05589839 -0.00442004
0.012834703 -0.0441727 -0.02659813 0.034591902 0.1050228 -0.06148022 0.007133572 -0.08363918
0.028695716 0.016325686 -0.009184638 -0.10913639 0.016859388 -0.089533255 -0.04259887 -0.0037448166
0.0059549822 0.024041869 0.085420884 0.08580026 0.005828808 -0.045203544 0.018490385 0.011973699
0.0045816596 -0.008502782 0.025045399 -0.15696397 -0.056498032 0.014517401 0.0045968103 -0.027416091
-0.003530182 0.0017588194 0.05710929 -0.06074918 -0.077350274 -0.053891532 0.03926146 0.017776651
0.020296812 -0.034680832 -0.04687278 -0.052563976 0.02559719 0.039582398 -0.0551977 0.0856079
-0.060479093 -0.08768878 0.036028925 -0.04892949 -0.046774413 -0.0012436266 -0.022899825 0.011385071
0.058651388 0.04211016 -0.05887628 -0.011369148 -0.08786822 0.049323354 0.07487757 0.004877521
-0.0076492876 0.058414534 -0.14928995 -0.038076237 -0.09187301 -0.017586194 0.0213968 -0.033894975
-0.09749796 0.009040743 -0.07293016 0.028169258 0.0003765865 0.0029248549 0.03700397 0.0071032946
-0.083855115 -0.112287395 0.019808043 -0.04207289 -0.07454367 -0.031308923 -0.028139297 -0.055146985
0.027094001 0.052791085 0.057393473 0.034441955 -0.08833816 0.03970458 -0.016273702 0.010534814
0.012531607 0.003023925 0.024554789 -0.008374799 0.03407376 -0.04762735 0.008174294 0.071971506
-0.067003556 -0.023244554 0.032702107 -0.016071327 -0.113113776 0.04986203 0.01647373 0.06532958
-0.0882422 0.062269595 -0.04033988 -0.0011639976 -0.040958762 0.003852169 0.024791414 0.009441532
0.1551972 0.06557133 -0.018092876 -0.018113751 -0.036814682 0.05058567 -0.074729234 -0.058306545
-0.023707861 0.0094055245 -0.014380342 -0.012692846 -0.10316799 0.026665796 -0.023744956 -0.0089062415
-0.061240863 0.018056467 0.011339368 -0.05402177 0.04258261 -0.08400945 0.048634924 -0.06431364
0.014728107 0.049039055 0.028254075 0.056758765 -0.0054081064 0.010019884 -0.06501733 0.060811203
-0.017485572 -0.0026367719 0.07757077 -0.012302904 -0.122735314 -0.058664717 -0.026363531 -0.11913409
-0.046105806 -0.048758063 -0.13651834 0.018152572 0.006683191 -0.0063693756 0.0075624813 -0.059036028
-0.10135559 0.028224414 -0.22088316 -0.1281202 0.06451339 0.0033996224 0.0050623114 -0.015352978
0.030950284 -0.10888505 0.021043116 -0.16117616 -0.0015737225 0.043787263 -0.016317325 0.020797336
0.029988054 0.019179411 0.06246195 -0.062213305 0.07110153 -0.08438455 0.034850396 -0.017920746
-0.027663287 -0.025819518 0.077651985 0.026235642 0.022829648 0.05001661 0.007998698 -0.003003066

fc3.weight f4 [4, 256]
00000000: d8ef 8b3c 8790 f83e 55da e93c 823d 2c3e
00000010: f800 ef3d f9e7 85be 7a24 1b3f 8cf7 fa3e
00000020: 1604 f93e 5712 7fbd 80cf 00be 1a02 bcbe
00000030: 7b58 39bc abeb 8cbe 13a6 1abd 94a1 0cbe
00000040: 50ef acbe b2be 05be 4981 c8bd e366 c3bd
00000050: 0bcb e7be 820d 3f3d a402 bf3e 39e5 3a3e
00000060: 30c6 e93e b47f 073f c360 0a3f 41ab 81be
00000070: ae94 623e 5406 36be a75a bcbe 06c9 89bd
00000080: 0291 92be c665 d63d 2937 673d a8d4 17bf
00000090: ec24 6a3e 5e74 73bd 6c0d 323e e946 33bf
000000a0: ad90 fb3d 32a1 67be d424 b43e 0cc5 c0be
000000b0: 2f33 103e cc60 2bbe c315 053d bddb 8a3e
000000c0: 07f0 e6be f080 a1bc 70aa 1f3d a281 ad3d
000000d0: b02e 743e 5132 1ebe f861 97be b048 653e
000000e0: 0ab7 5a3e 0845 d9be fd38 bbbe b9f4 923e
000000f0: 8906 0c3e a193 d0be 4136 95bd aba6 b63e
00000100: ba64 febd ab96 a03e 49bd 813c e02d 473f
00000110: a14e e73d f2ee 1cbf 62ca a03b 8fa7 91be
00000120: f793 4639 e4a7 c13e ceea a83d d3da 083e
00000130: c5b3 f33e 4cc6 e53e 775d 14bc 0b65 78be
00000140: 386a 02be 36cf f2be d9d8 c83e ccfe 6a3d
00000150: 4a61 3fbe fbd6 3e3e 5c4f 2cbf 182d 1e3f
00000160: 33c4 39be 726d a0be cb83 2c3d 08b2 053f
00000170: af4d c1bd a186 babe 1775 37be 0e18 983e
00000180: 51ca ff3c 8325 3a3e 2ba1 a83e 9cbe fcbd
00000190: 0a46 49be 78f7 543d 03cf a7bd 97af fcbe
000001a0: c9de e23d e612 30be 8ccb 43be f14e b4be
000001b0: a238 8abd 62f9 b2be 3fe5 6b3e 5bc2 86be
000001c0: 174a 9e3e aa70 86be 32c5 84be 2ab1 693e
000001d0: f15a cebe ed19 3dbf 2810 79be d3db a6bd
000001e0: 9227 a2be 190f 943e 74c7 99bd 3344 cbbd
000001f0: 3dbb d0be 77ed 7ebd 983a 8e3e 467f 903e
00000200: be6e 8e3f d4b0 ffbd f7b6 093e fa04 edbd
00000210: 08b6 b3be 1dbb 0fbd 740f 3cbd 19ff a9bd
00000220: fe26 b2be 8bb0 943d 8180 5cbd ea1f 68bf
00000230: 9f42 f2be b461 2c3d 5bc5 7bbe 3152 bd3e
00000240: cc9f 6a3e fac8 9bbe 6f02 37bf 0f17 cd3d
00000250: 372a 2b3e 9834 43be 8d03 0fbd df00 f53d
00000260: 99c3 99bf 7fc7 543f e9db a63d 8233 9bbd
00000270: e806 eabb 2530 0abe a96a 87bd 61f1 0fbc
00000280: 3c8e 9a3e 1df1 e8be 0a81 95be dd23 75bc
00000290: 0beb 00bf e2ca 0ebd 871c ebbd 36f5 113e
000002a0: 8a95 953e 57e5 b2be 302e 36be 9e5a c73d
000002b0: 4433 b4bd ecdf 82be 4e9b 91bd b70f 203e
000002c0: 69fa 113e ab53 8c3e 6ef2 d03e ce0c a0bd
000002d0: f78c e63e 48a5 673e 9470 e53d 51da d1be
000002e0: 3091 b63d 1b81 c1be aeae 16bf 10e1 8fbd
000002f0: 9915 f5bb 5b89 5abe ac2e 703d e6d9 683e
00000300: a073 d2be 7096 71bd 30d1 f6bc 00ae 40be
00000310: 798b 61bd da7a d13e 59d5 a83e 60d8 f5be
00000320: 7dd8 60be 36a2 18bd 570a e4be 899b bebd
00000330: f7f8 65be 3db5 813e 8580 6e3d 10d0 1c3e
00000340: 03e6 1fbf bdad 6a3e e8eb 3d3d 99a2 10b9
00000350: becd 003f 211f 50be 07fa f0be 65aa 0d3f
00000360: 735b 453e 4cb5 123f 88c5 0dbe e2ba 1e3f
00000370: 7daa 69be 21d6 82be 0a83 003e a6df 413e
00000380: d679 f73e f0ae f9be bccf e63d 2c2d 363f
00000390: 44b6 553e 1e16 34bf 81c5 97bd 9501 87be
000003a0: 9694 16be cd74 d33d 2da9 49bb 81c6 263e
000003b0: b3f3 30bf 2af6 50bc b5c4 babe 9c16 22be
000003c0: 38e5 fdbe 6bf8 9abe 3da7 253f 5cb0 473e
000003d0: 0140 7b3b 92a0 98bd 3944 a8be 5c31 f23e
000003e0: fa9e 7c3d a8ec a5be aef1 1c3f 3634 ebbe
000003f0: dd14 7e3c f955 953e f6bb 28bf c4a0 acbd
0.01708214 0.48547766 0.028546492 0.16820338 0.11670107 -0.26153544 0.60602534 0.49016988
0.4863593 -0.06227335 -0.12579155 -0.36720353 -0.011312599 -0.2752355 -0.037756037 -0.13733512
-0.3377633 -0.13061026 -0.09790284 -0.095411085 -0.45272097 0.04664374 0.37306702 0.18251504
0.45659018 0.52929235 0.54053897 -0.2532597 0.2212703 -0.17775851 -0.36787912 -0.06727795
-0.28626257 0.104686305 0.05644909 -0.5930886 0.22865647 -0.05943715 0.17387933 -0.70030075
0.12283454 -0.22620085 0.35184348 -0.37650335 0.14082025 -0.16736144 0.032491457 0.27120772
-0.45105 -0.019714803 0.0389809 0.08471991 0.23845935 -0.15448882 -0.29566932 0.2239101
0.21358886 -0.4243548 -0.36566916 0.28702334 0.13674368 -0.40737632 -0.07285739 0.35674033
-0.12421556 0.3136495 0.015837329 0.77804375 0.11294294 -0.613021 0.0049069384 -0.2844815
0.00018937873 0.37823403 0.082479104 0.13364725 0.4759809 0.4487785 -0.009055487 -0.24257295
-0.12735832 -0.47423714 0.39227942 0.0573719 -0.18689457 0.18636696 -0.6730859 0.6178756
-0.1814125 -0.313335 0.042117875 0.5222478 -0.09438645 -0.3643084 -0.1791576 0.29705852
0.031224402 0.18178372 0.3293546 -0.12341043 -0.19655624 0.051993817 -0.08193781 -0.49352714
0.11077649 -0.17194709 -0.19120616 -0.35216478 -0.06749083 -0.3495589 0.23036669 -0.26320156
0.309159 -0.2625783 -0.25931698 0.22821489 -0.40303758 -0.73867685 -0.2432257 -0.08147397
-0.31670815 0.2891777 -0.07508746 -0.09925117 -0.4076785 -0.062238183 0.27779078 0.28222102
1.1127546 -0.12484899 0.13448702 -0.11573215 -0.35099816 -0.035090555 -0.045913175 -0.08300609
-0.34795374 0.072602354 -0.05383349 -0.90673697 -0.47316453 0.042085364 -0.24587004 0.3697677
0.2291252 -0.3042677 -0.7148809 0.10014164 0.16715322 -0.19063032 -0.034915496 0.11963057
-1.2012817 0.83116907 0.08147413 -0.07578184 -0.0071419366 -0.13494928 -0.06612141 -0.008785577
0.3018664 -0.45496455 -0.29200011 -0.014962164 -0.5035865 -0.034861453 -0.114800505 0.14253697
0.29215652 -0.34940597 -0.17791057 0.09734081 -0.08798841 -0.25561464 -0.071097 0.15630995
0.1425568 0.27407584 0.4080996 -0.07814942 0.45029423 0.22621644 0.11203113 -0.40986875
0.08914411 -0.37793812 -0.5886029 -0.07025349 -0.0074793813 -0.2134146 0.05863826 0.22739372
-0.4110384 -0.05898136 -0.030129045 -0.18816376 -0.055064652 0.4091404 0.3297527 -0.48016644
-0.21957584 -0.03726407 -0.4453914 -0.0930701 -0.22458254 0.25333586 0.058228035 0.15313745
-0.62460345 0.22917838 0.046367556 -0.00013793483 0.5031394 -0.20324375 -0.47065756 0.55338126
0.19273166 0.5730789 -0.13844883 0.6200391 -0.22818942 -0.25553992 0.12549987 0.18932971
0.4833514 -0.4876628 0.11270091 0.71162677 0.2087031 -0.7034625 -0.07410718 -0.26368394
-0.14705119 0.10325012 -0.0030771003 0.1628666 -0.69121855 -0.012754003 -0.364782 -0.15828937
-0.49588943 -0.30267653 0.6470831 0.1950087 0.003833771 -0.07452501 -0.3286455 0.47303283
0.06167505 -0.32407117 0.61306274 -0.4593827 0.015507904 0.29167154 -0.65911806 -0.08429101

fc3.bias f4 [4]
00000000: c036 033c c354 7a3d 1a73 1fbc ac49 3c3d
0.008008659 0.06111599 -0.009732032 0.045968696
