checkpoints/checkpoint_actor_ddqn_14.pth (torch_old, 303163 bytes, 6 tensors)

fc1.weight f4 [256, 33]
-0.2581519 -0.14167888 -0.17219809 0.0360408 -0.043605033 -0.06946876 -0.11256298 -0.096536905
0.4033021 0.09591648 -0.031741478 -0.07323068 -0.005232906 0.1356073 0.14236897 0.2569188
-0.0021612043 0.11203341 0.031369835 -0.044482574 0.06038447 0.002076582 0.10835461 0.0955165
0.022160811 0.05452667 -0.1519429 -0.09172099 -0.13558975 -0.037493847 -0.0027224682 0.040386453
-0.253645 0.04017466 0.19861563 -0.35139495 0.034930754 -0.16968836 -0.09186403 0.061497435
0.09942174 -0.23846096 -0.052702475 0.09159151 -0.09134173 -0.08955944 -0.012982072 -0.21755122
0.21570121 0.08533157 0.09063724 0.07787882 0.028642563 -0.0075523825 0.0985663 0.050888844
0.03566326 -0.17212111 0.016418565 0.012168558 0.0021841845 -0.06599036 0.054951333 -0.076135084
0.056379177 -0.06623941 -0.037040632 0.13168783 -0.10768483 -0.1759975 0.050869286 0.110413015
-0.022850487 0.14838828 0.118273415 -0.0019132065 -0.0355019 0.049649492 -0.029387005 0.08838186
0.2863057 0.20261286 -0.05992569 -0.21253848 -0.20922989 -0.14192086 0.13969922 0.25537518
0.136372 0.052838642 0.090828955 0.20470099 0.066080734 0.2237971 -0.104733795 -0.026804522
-0.21005182 0.05597554 -0.37587377 0.08837308 0.35839978 -0.05849584 -0.14374565 -0.059340075
0.13081026 0.09755389 -0.1642799 -0.11190609 0.01692105 -0.10834115 0.13763496 0.112022355
-0.24385016 -0.21024185 -0.11083641 -0.040757783 -0.049249176 -0.09988774 0.05004449 0.003482636
-0.1856431 -0.016696436 0.022502715 -0.22730872 -0.035170343 0.03976816 0.11580569 0.062493324
-0.032689124 -0.11487877 0.033707164 0.11865114 0.06261213 -0.045317147 0.43541223 -0.0908017
-0.017974587 0.029866068 0.000952425 0.041833024 0.08335111 -0.04285469 -0.018018065 -0.026075633
0.027250202 0.08352466 -0.094591916 -0.18705468 -0.035787925 -0.029381014 0.0018365091 -0.0047737695
-0.116206996 -0.0014099341 0.059114035 -0.051953956 -0.042047616 -0.023258124 -0.09788794 0.073492065
-0.073392086 -0.038844667 0.024710208 0.060630918 -0.006867341 -0.22053394 0.18029232 -0.21051393
0.010832399 -0.0038146265 -0.20696263 0.17946932 -0.070199095 -0.31075343 0.12512356 -0.060348332
0.1744296 0.06821228 0.25613812 -0.038785167 0.10056097 -0.04779569 0.06272481 -0.0039794794
0.10734816 0.10270825 0.24550214 -0.14617738 0.20768218 -0.06443447 -0.00250946 -0.080394685
0.105458595 0.12873542 0.025453478 -0.06214417 0.003423646 -0.29611287 -0.15036525 0.24812354
-0.07549826 0.07771453 0.06571991 0.044298857 -0.08326566 -0.074704334 -0.10202647 0.07978727
-0.0057276282 -0.023826638 -0.117421 0.2832568 -0.14202538 0.021622365 0.020438565 -0.020311503
0.09330864 0.032413922 -0.08302415 0.008481791 0.022792425 0.094850086 0.030265942 -0.027055645
-0.17593892 -0.07573375 0.034843095 0.002646923 0.009085746 0.018572628 0.87893075 0.15639935
0.07035306 -0.09874997 -0.070128836 0.13334991 0.26029912 0.12017312 -0.20999895 0.08628591
-0.06568053 -0.072695985 -0.04347893 -0.094084926 -0.21946156 -0.105991356 0.12604284 -0.14778018
0.039840903 0.035538446 -0.06730711 -0.05808365 0.025363473 0.047212634 -0.0786357 -0.031732094
00000000: 7c2c 84be 4514 11be b254 30be 859f 133d
00000010: 319b 32bd a345 8ebd 6b87 e6bd 24b5 c5bd
00000020: 9d7d ce3e dc6f c43d 5a03 02bd f7f9 95bd
00000030: cc78 abbb a4dc 0a3e 2cc9 113e dc8a 833e
00000040: fea2 0dbb c671 e53d a87d 003d 5c33 36bd
00000050: b555 773d 4417 083b 06e9 dd3d 289e c33d
00000060: 978a b53c 5c57 5f3d eb96 1bbe 37d8 bbbd
00000070: 0ad8 0abe 2693 19bd 706b 32bb 446c 253d
00000080: c2dd 81be 2f8e 243d e561 4b3e 0aea b3be
00000090: 8d13 0f3d c9c2 2dbe 3523 bcbd bce4 7b3d
000000a0: a09d cb3d 1c2f 74be 8dde 57bd 5494 bb3d
000000b0: 5f11 bbbd f16a b7bd c2b2 54bc bfc5 5ebe
000000c0: c7e0 5c3e 51c2 ae3d 04a0 b93d ee7e 9f3d
000000d0: cfa3 ea3c fa79 f7bb 21dd c93d d270 503d
000000e0: a313 123d 8440 30be 3a80 863c a25e 473c
000000f0: 8924 0f3b f425 87bd a614 613d b6ec 9bbd
00000100: daed 663d 87a8 87bd ebb7 17bd 2dd9 063e
00000110: dd89 dcbd b038 34be 505c 503d 3820 e23d
00000120: f230 bbbc 19f3 173e 5539 f23d 8fc4 faba
00000130: 716a 11bd 445d 4b3d 04bd f0bc 8c01 b53d
00000140: a996 923e bf79 4f3e a474 75bd b0a3 59be
00000150: 5c40 56be b453 11be 500d 0f3e 89c0 823e
00000160: 1aa5 0b3e 556d 583d 8804 ba3d 239d 513e
00000170: 5655 873d 112b 653e ac7e d6bd 2895 dbbc
00000180: d317 57be 9c46 653d 8772 c0be f2fc b43d
00000190: 2d80 b73e 5599 6fbd 0f32 13be 940e 73bd
000001a0: 20f3 053e 55ca c73d fd38 28be 052f e5bd
000001b0: 049e 8a3c f7e1 ddbd 2ef0 0c3e fa6b e53d
000001c0: dbb3 79be a449 57be 33fe e2bd a2f1 26bd
000001d0: 81b9 49bd f291 ccbd 73fb 4c3d f03c 643b
000001e0: 3a19 3ebe f7c6 88bc 9d57 b83c 9ec3 68be
000001f0: c70e 10bd f0e3 223d 892b ed3d 00f9 7f3d
00000200: 08e5 05bd 9045 ebbd 8610 0a3d 5eff f23d
00000210: ca3a 803d 799e 39bd 5aee de3e 3ef6 b9bd
00000220: 713f 93bc afa9 f43c 29ac 793a 1b59 2b3d
00000230: fdb3 aa3d 6688 2fbd 9f9a 93bc 919c d5bc
00000240: d13b df3c fa0e ab3d 68b9 c1bd 438b 3fbe
00000250: 5c96 12bd 74b0 f0bc 05b7 f03a 486d 9cbb
00000260: effd edbd 8acd b8ba 8f21 723d accd 54bd
00000270: 1f3a 2cbd d287 bebc 7979 c8bd 0283 963d
00000280: 974e 96bd 961b 1fbd 106d ca3c 2058 783d
00000290: 6f07 e1bb a6d3 61be 8d9e 383e f790 57be
000002a0: 607a 313c d0fe 79bb 03ee 53be cec6 373e
000002b0: 8bc4 8fbd 131b 9fbe 6420 003e d02f 77bd
000002c0: ac9d 323e e1b2 8b3d 8924 833e 32dd 1ebd
000002d0: e9f2 cd3d 6ac5 43bd dd75 803d 4b66 82bb
000002e0: 5ad9 db3d b458 d23d ea64 7b3e 86af 15be
000002f0: a3aa 543e 38f6 83bd c175 24bb f8a5 a4bd
00000300: adfa d73d 38d3 033e d083 d03c e38a 7ebd
00000310: 405f 603b 1b9c 97be 59f9 19be 1914 7e3e
00000320: d59e 9abd cc28 9f3d 2998 863d b872 353d
00000330: 3087 aabd 96fe 98bd 41f3 d0bd 8267 a33d
00000340: d4ae bbbb 1530 c3bc 6c7a f0bd 0907 913e
00000350: 1a6f 11be 6321 b13c c76e a73c 4f64 a6bc
00000360: 9a18 bf3d 76c4 043d 9108 aabd 36f7 0a3c
00000370: 2eb7 ba3c c340 c23d 48f0 f73c cda3 ddbc
00000380: 5529 34be 4c1a 9bbd a2b7 0e3d 0078 2d3b
00000390: 61dc 143c a025 983c 9b01 613f 2727 203e
000003a0: 4415 903d 6d3d cabd b59f 8fbd e18c 083e
000003b0: ed45 853e 531d f63d f709 57be abb6 b03d
000003c0: 8483 86bd a2e1 94bd f616 32bd 99af c0bd
000003d0: 88ba 60be ff11 d9bd 6011 013e b053 17be
000003e0: 3730 233d c390 113d 4fd8 89bd 1fe9 6dbd
000003f0: 0fc7 cf3c 0962 413d c10b a1bd 83f9 01bd

fc1.bias f4 [256]
0.011443965 -0.1481024 -0.08090509 -0.1418035 0.047539297 -0.069547735 -0.11988831 0.005777806
0.1433065 -0.019851588 -0.19948955 -0.07714586 -0.0024654816 -0.025880214 0.22503929 0.18181506
0.09479401 0.07026935 -0.13730247 -0.29230776 0.12697972 0.008803893 -0.023586426 0.11331952
-0.068829276 -0.10250617 0.18496633 -0.07126376 0.045551043 -0.21661687 -0.16909981 -0.16456015
0.099255435 -0.083784625 -0.047885675 0.12849796 -0.27289444 -0.09474407 0.19926444 0.04330286
-0.22082013 -0.025931276 0.055275753 0.17975402 0.17957744 -0.026859343 0.10125972 -0.13553682
0.17413662 -0.03492783 -0.21483955 0.12005336 -0.038799025 -0.11937411 -0.16464096 -0.0029783
-0.013082029 0.17770395 -0.31586245 0.13275845 -0.054844487 -0.04140521 0.029239923 0.066546485
-0.22838762 -0.08759102 0.050025553 -0.075947 -0.050822757 -0.14384995 0.12174996 -0.10647657
-0.2083322 0.21780129 0.04146735 0.13784961 -0.27286747 0.03421954 -0.14606954 -0.0020268236
0.19593956 -0.07109752 -0.13338329 -0.060347807 0.08818692 0.0063369325 -0.19240859 -0.0557553
-0.06791984 -0.023084208 -0.1471538 0.0033075784 -0.028107151 0.25493723 0.049765993 -0.049546454
-0.05000598 -0.18801443 0.03855932 0.02461275 0.07142447 0.080738805 -0.069354706 -0.028157538
-0.011356885 -0.05130955 -0.08014033 0.082904294 -0.07197153 -0.14556758 0.19234587 -0.0630386
-0.21229619 -0.22212687 -0.03149779 -0.081234604 -0.021229219 -0.098834515 0.07230833 -0.057260584
0.14334747 0.22230378 -0.1598733 -0.03203035 0.1592625 0.05456348 -0.2074621 -0.0668155
-0.14854749 -0.31940278 -0.12911533 -0.17956476 0.04214638 -0.14991432 -0.20650166 -0.07116451
-0.14176413 -0.067391664 -0.19625579 -0.14739434 -0.111774005 0.025030592 -0.038575213 0.08768043
-0.12959474 -0.11367957 -0.19988202 0.059470788 -0.029199656 -0.27406162 -0.07131862 -0.06701338
0.06304829 -0.12951888 0.039074056 -0.13815348 -0.12321651 0.11959038 -0.07963871 0.053754736
0.011232344 0.024197845 0.13204306 0.18562962 0.04984085 -0.08585206 -0.17852502 -0.027501296
-0.2383288 0.001803153 0.13332121 0.15719035 0.0004999168 0.010569724 -0.06733057 0.05162444
-0.15527347 -0.15853369 -0.11047068 -0.040070094 -0.15083157 0.014481864 0.015557798 -0.27092126
-0.038285438 -0.0047793826 0.032995313 -0.21106109 -0.18328938 -0.011440016 -0.16128904 -0.015043591
0.098053835 -0.09289528 -0.14306003 -0.10366678 0.023689544 0.055365965 -0.27055523 0.01800393
0.08717713 0.14535597 0.18049578 0.09126101 -0.030299 -0.15263025 -0.14199188 -0.263089
-0.022577034 0.08093293 -0.11326101 -0.10577164 -0.04282417 0.020003106 -0.18288046 0.02751613
-0.23557638 -0.16097221 -0.20377274 0.09311927 0.010177223 -0.30788338 0.056481294 -0.21288383
-0.054226495 -0.12538813 -0.15571313 -0.2648081 -0.108219914 0.0942508 -0.015441241 -0.06890677
-0.21751595 0.15549558 -0.09850401 -0.104825094 0.12885176 0.0019438347 -0.14914331 -0.03470475
-0.101504646 -0.27965125 -0.018058375 0.019168854 0.025516432 -0.11516895 -0.0033031781 0.18254185
0.008539288 0.081609406 -0.030612534 -0.29587945 -0.1997073 -0.027046941 -0.18502705 -0.19114159
00000000: 787f 3b3c 28a8 17be 91b1 a5bd f034 11be
00000010: 91b8 423d 0b6f 8ebd 0188 f5bd c053 bd3b
00000020: f0be 123e cc9f a2bc fd46 4cbe a6fe 9dbd
00000030: eb93 21bb be02 d4bc b370 663e ba2d 3a3e
00000040: 5d23 c23d 61e9 8f3d 0599 0cbe 5da9 95be
00000050: f906 023e 343e 103c 5238 c1bc 1114 e83d
00000060: 5df6 8cbd c1ee d1bd d067 3d3e bcf2 91bd
00000070: bb93 3a3d d0d0 5dbe 8028 2dbe 7582 28be
00000080: 6f46 cb3d 4697 abbd c523 44bd f894 033e
00000090: d2b8 8bbe 2e09 c2bd fa0b 4c3e 575e 313d
000000a0: ac1e 62be d46d d4bc d468 623d 7011 383e
000000b0: 26e3 373e 2008 dcbc 4261 cf3d 2aca 0abe
000000c0: df50 323e 7c10 0fbd e6fe 5bbe 89de f53d
000000d0: baeb 1ebd 6a7a f4bd a497 28be 952f 43bb
000000e0: 0256 56bc 06f8 353e b9b8 a1be d5f1 073e
000000f0: 9da4 60bd 8298 29bd 9088 ef3c 8649 883d
00000100: 72de 69be ec62 b3bd 98e7 4c3d 1a8a 9bbd
00000110: 862b 50bd 674d 13be 0b58 f93d 6310 dabd
00000120: 0955 55be 4d07 5f3e abd9 293d 7328 0d3e
00000130: 49b5 8bbe ca29 0c3d 4193 15be 75d4 04bb
00000140: 61a4 483e 949b 91bd a195 08be 432f 77bd
00000150: 589b b43d 0ba6 cf3b c206 45be ab5f 64bd
00000160: 8f19 8bbd 181b bdbc 7caf 16be f5c3 583b
00000170: f840 e6bc 2287 823e 6dd7 4b3d 39f1 4abd
00000180: 12d3 4cbd db86 40be 61f0 1d3d aea0 c93c
00000190: fe46 923d 635a a53d d709 8ebd a3aa e6bc
000001a0: 3a12 3abc f629 52bd 9d20 a4bd bac9 a93d
000001b0: cf65 93bd ab0f 15be 51f6 443e 621a 81bd
000001c0: 2c64 59be 3a75 63be d403 01bd 545e a6bd
000001d0: e6e8 adbc c069 cabd 6416 943d 138a 6abd
000001e0: aec9 123e 9aa3 633e d4b5 23be 4232 03bd
000001f0: b515 233e f57d 5f3d f270 54be 91d6 88bd
00000200: d51c 18be c388 a3be cf36 04be d3df 37be
00000210: afa1 2c3d 2483 19be 2c75 53be b3be 91bd
00000220: 9e2a 11be a404 8abd 47f7 48be 8bee 16be
00000230: c5e9 e4bd f50c cd3c 0b01 1ebd cc91 b33d
00000240: 7cb4 04be d6d0 e8bd dfad 4cbe a497 733d
00000250: 1e34 efbc ce51 8cbe 7f0f 92bd 503e 89bd
00000260: 761f 813d 99a0 04be 1e0c 203d 1b78 0dbe
00000270: f058 fcbd cdeb f43d 9f19 a3bd ed2d 5c3d
00000280: de07 383c 8f3a c63c 4c36 073e b115 3e3e
00000290: eb25 4c3d 34d3 afbd 43cf 36be 664a e1bc
000002a0: 770c 74be c657 ec3a 5b85 083e 82f6 203e
000002b0: d90c 033a a32c 2d3c 9ce4 89bd 2674 533d
000002c0: 0200 1fbe a856 22be 743e e2bd 8a20 24bd
000002d0: 9773 1abe 5745 6d3c 22e6 7e3c 31b6 8abe
000002e0: 31d1 1cbd 5e9c 9cbb 1826 073d 6620 58be
000002f0: 36b0 3bbe e86e 3bbc f428 25be 6579 76bc
00000300: 73d0 c83d e13f bebd 547e 12be 404f d4bd
00000310: 9310 c23c 6cc7 623d 3786 8abe fa7c 933c
00000320: ec89 b23d 32d8 143e e3d3 383e 0de7 ba3d
00000330: 9c35 f8bc 1b4b 1cbe 5266 11be 9ab3 86be
00000340: 79f3 b8bc 2ac0 a53d 63f5 e7bd cd9e d8bd
00000350: 6668 2fbd 8edd a33c 0445 3bbe 8269 e13c
00000360: ef3a 71be e6d5 24be cda9 50be 51b5 be3d
00000370: 5ebe 263c e4a2 9dbe ee58 673d 38fe 59be
00000380: 9a1c 5ebd bf65 00be 4373 1fbe ed94 87be
00000390: 67a2 ddbd 9006 c13d 42fd 7cbc fe1e 8dbd
000003a0: 80bc 5ebe 3c3a 1f3e 78bc c9bd 8aae d6bd
000003b0: b7f1 033e 45c8 fe3a 06b9 18be 9126 0ebd
000003c0: abe1 cfbd 732e 8fbe 28ef 93bc 0008 9d3c
000003d0: d607 d13c b3dd ebbd 227a 58bb 40ec 3a3e
000003e0: 5fe8 0b3c d522 a73d 23c7 fabc 837d 97be
000003f0: 1280 4cbe 8c91 ddbc bb77 3dbe 9fba 43be

fc2.weight f4 [256, 256]
-0.14104612 0.20946027 -0.12070988 0.10582521 -0.10601665 -0.046993505 0.16357325 -0.0092461975
-0.07613697 0.048138954 -0.09802935 -0.17408867 -0.1380453 -0.0026638685 -0.025020944 -0.0834922
0.026041504 -0.10475602 -0.024417471 0.114514776 0.14813556 -0.01946992 0.0035336958 0.100354664
-0.06430012 -0.20367545 -0.07936769 0.16537535 0.006601732 0.09978586 -0.044622514 0.099534824
0.07965084 -0.020402329 -0.026135163 -0.17122059 0.10065597 -0.19274932 -0.19135104 0.019516746
0.011362984 0.061671223 0.042215683 -0.23694831 0.094267786 -0.023402534 0.08312123 -0.014351772
0.06834628 0.19757526 0.16642182 0.095875666 0.10386166 -0.0625868 -0.116412506 -0.14858407
0.08118093 -0.35087717 0.02313992 -0.031181643 -0.033394985 0.039707545 -0.13467959 0.047331315
0.015870566 -0.07515222 -0.06843939 0.15236168 -0.048871014 0.2267112 -0.03392287 0.09389122
0.07283154 -0.03655608 -0.2121641 0.04002192 -0.03731781 -0.0061455457 -0.10731295 -0.092580765
-0.0691837 -0.031186316 -0.10071249 0.08437852 -0.057719573 0.024160387 0.22101115 0.013942879
0.08379461 -0.057076804 0.105182365 -0.49877638 0.04746837 -0.1531642 -0.2524961 0.0065763625
0.08391798 -0.07560709 0.11185357 -0.06456718 -0.21542385 -0.055187304 -0.31994718 0.16188653
-0.09710872 0.32892093 0.14106824 -0.23424964 -0.16679274 0.0067095547 -0.16435124 -0.070900716
0.19053636 -0.011617622 0.04270652 -0.11515899 0.19197601 0.09713417 0.13269335 0.023393383
-0.0172625 -0.061733697 0.16695835 0.10573342 -0.22203903 0.028584046 0.087317 0.24177681
0.03260947 0.13877037 -0.08648743 0.0012044738 -0.15194963 0.1231785 -0.23203927 -0.07058904
0.11954901 -0.076423414 0.03575532 -0.10060608 0.06835468 -0.0441657 -0.19402488 -0.25151783
0.07850455 -0.12800387 -0.14182906 0.11071749 -0.09410396 -0.15224741 -0.13609983 -0.024663195
0.042901084 0.012913514 -0.041340284 -0.05229764 -0.080078356 -0.272319 0.0016646457 -0.24499367
-0.03686325 -0.45609304 0.1568273 -0.14486834 0.16966 0.2140485 0.01421911 0.1730321
-0.13035868 0.049835287 -0.012395481 0.02096552 0.15227416 -0.024863673 0.20558877 0.008909806
0.10637547 -0.043250147 0.15106054 -0.17076358 -0.02122282 0.09134729 0.16907379 -0.033434335
-0.012090558 0.04909433 0.15905572 0.20013316 0.025970623 -0.10882075 0.18757673 -0.028160784
0.010680321 0.15238744 0.02389274 -0.026933929 -0.06627806 0.123879716 0.08144443 0.14612493
0.19670717 -0.2656867 0.09772569 -0.14460537 0.019610874 0.13834295 -0.29051074 -0.37100303
0.08598115 -0.063770086 0.009563908 -0.03624511 0.047689326 -0.2050963 -0.021743283 0.05619092
0.11312613 -0.20045997 0.14443192 0.115498416 -0.37142766 -0.027831431 -0.024321204 0.28185835
0.083842464 0.24261141 0.20690332 0.0049650655 -0.03188629 -0.085326135 -0.087803565 0.10386822
-0.0596003 -0.30172166 0.045540974 -0.19341688 0.13351409 0.025078883 -0.015940089 -0.062268857
0.035827953 0.0798431 0.18421736 -0.10627958 0.072629176 -0.11283554 -0.030419953 0.112718575
-0.008192599 0.06821124 -0.05020907 0.061143167 0.12099074 -0.0989961 0.054893646 -0.07934468
00000000: 656e 10be c17c 563e be36 f7bd e3ba d83d
00000010: 421f d9bd 437c 40bd bf7f 273e 5d7d 17bc
00000020: b3ed 9bbd 5a2d 453d 9dc3 c8bd 4d44 32be
00000030: bf5b 0dbe 4c94 2ebb b9f8 ccbc f5fd aabd
00000040: fe54 d53c 538a d6bd 2607 c8bc b986 ea3d
00000050: d9b0 173e 627f 9fbc 9495 673b bf86 cd3d
00000060: c8af 83bd 4c90 50be 878b a2bd 2858 293e
00000070: 5853 d83b 875c cc3d 19c6 36bd ead8 cb3d
00000080: fb1f a33d c922 a7bc 6919 d6bc 7354 2fbe
00000090: b824 ce3d 1460 45be 87f1 43be 95e1 9f3c
000000a0: cf2b 3a3c f79a 7c3d 5aea 2c3d 94a2 72be
000000b0: 780f c13d acb6 bfbc 773b aa3d b223 6bbc
000000c0: 22f9 8b3d 2b51 4a3e 7b6a 2a3e 765a c43d
000000d0: 6cb5 d43d 822d 80bd ae69 eebd 6c26 18be
000000e0: 3042 a63d 2ca6 b3be ee8f bd3c a570 ffbc
000000f0: 2ec9 08bd 61a4 223d 72e9 09be 7bde 413d
00000100: fd02 823c 68e9 99bd f329 8cbd b304 1c3e
00000110: f92c 48bd fb26 683e b5f2 0abd 0a4a c03d
00000120: b428 953d d4bb 15bd 8c41 59be 06ee 233d
00000130: 8fda 18bd 9360 c9bb e4c6 dbbd fc9a bdbd
00000140: 2fb0 8dbd 727a ffbc 5a42 cebd a5ce ac3d
00000150: 5c6b 6cbd 01ec c53c bf50 623e ac70 643c
00000160: 829c ab3d 5ec9 69bd da69 d73d 9e5f ffbe
00000170: 326e 423d 13d7 1cbe 2b47 81be 877e d73b
00000180: 31dd ab3d e4d7 9abd 7c13 e53d cc3b 84bd
00000190: 1298 5cbe 150c 62bd 1ed0 a3be 95c5 253e
000001a0: f0e0 c6bd 5368 a83e 3174 103e 23df 6fbe
000001b0: b7cb 2abe d3db db3b b14b 28be 6534 91bd
000001c0: f71b 433e d757 3ebc 08ed 2e3d 7ad8 ebbd
000001d0: 5c95 443e 48ee c63d c4e0 073e 7ba3 bf3c
000001e0: 166a 8dbc 79dc 7cbd 21f7 2a3e c38a d83d
000001f0: 335e 63be 1729 ea3c 41d3 b23d 5794 773e
00000200: 8291 053d d219 0e3e 5220 b1bd 6fdf 9d3a
00000210: af98 1bbe 0245 fc3d b49b 6dbe fd90 90bd
00000220: 1dd6 f43d e183 9cbd 2c74 123d 8f0a cebd
00000230: 8afd 8b3d 18e7 34bd 75ae 46be f2c6 80be
00000240: fec6 a03d 7213 03be a33b 11be dabf e23d
00000250: 94b9 c0bd bfe6 1bbe c15d 0bbe 780a cabc
00000260: 0cb9 2f3d 3493 533c 6e54 29bd 0d36 56bd
00000270: 1f00 a4bd 656d 8bbe 3e30 da3a 9fdf 7abe
00000280: ebfd 16bd 0785 e9be 5697 203e 5e58 14be
00000290: 5abb 2d3e 882f 5b3e 45f7 683c 542f 313e
000002a0: bf7c 05be 1620 4c3d 6a16 4bbc e2bf ab3c
000002b0: c2ed 1b3e e7ae cbbc dd85 523e 6ffa 113c
000002c0: 62db d93d 1127 31bd 9daf 1a3e a6dc 2ebe
000002d0: 7bdb adbc 4a14 bb3d ae21 2d3e 71f2 08bd
000002e0: 7a17 46bc 2317 493d 81df 223e b5ef 4c3e
000002f0: 58c0 d43c 6add debd 1d14 403e 72b1 e6bc
00000300: 83fc 2e3c 740b 1c3e b5ba c33c 8ba4 dcbc
00000310: cbbc 87bd a6b4 fd3d 56cc a63d c6a1 153e
00000320: 9b6d 493e 1608 88be 6824 c83d 6e13 14be
00000330: fca6 a03c c6a9 0d3e d3bd 94be 1cf4 bdbe
00000340: e316 b03d e499 82bd f0b1 1c3c c175 14bd
00000350: e255 433d c404 52be f81e b2bc 7328 663d
00000360: acae e73d 6145 4dbe f6e5 133e 6f8a ec3d
00000370: c42b bebe befe e3bc 433d c7bc bd4f 903e
00000380: 99b5 ab3d 206f 783e 77de 533e fdb1 a23b
00000390: 339b 02bd 78bf aebd 5bd2 b3bd dcb8 d43d
000003a0: 721f 74bd 437b 9abe 2c89 3a3d 130f 46be
000003b0: ebb7 083e 3b72 cd3c ca94 82bc a10d 7fbd
000003c0: 55c0 123d c784 a33d 7aa3 3c3e 1ca9 d9bd
000003d0: 9bbe 943d 5216 e7bd 4433 f9bc ffd8 e63d
000003e0: 403a 06bc 56b2 8b3d 07a8 4dbd 4271 7a3d
000003f0: fec9 f73d 78be cabd 29d8 603d 777f a2bd

fc2.bias f4 [256]
-0.06659419 -0.034449868 -0.08890813 0.02955525 -0.016725421 -0.04345401 -0.43496162 -0.074249625
0.13265875 0.04541364 0.05723607 0.084319554 -0.03956964 0.042404234 -0.035098333 -0.0101192845
-0.07955553 0.063281454 0.05057882 -0.06544238 0.016426522 -0.118948705 0.045699988 0.1362855
-0.07844546 0.016836949 0.00071714504 -0.037000533 -0.11672443 -6.1847123e-07 -0.11995776 0.027603446
0.02431878 -0.019072432 0.0036667567 0.016058207 -0.023771547 -0.08176289 0.028368413 -0.097610585
-0.021077465 -0.006237325 0.09616332 0.058537826 -0.035597853 0.036862634 0.038093034 -0.041784804
-0.066408 0.029936614 -0.0016935299 0.012379509 0.066985294 0.04259362 0.006946495 0.033170003
-0.15515389 -0.11126573 -0.035545066 -0.024309263 -0.004048298 0.000106486885 0.0149790635 0.04158484
0.052175194 -0.027692847 0.03992592 -0.07312898 -0.011005195 0.0066888114 -0.0433892 0.05207263
-0.019352047 0.036990084 0.09383018 0.06378833 -0.00028129236 -0.0131678935 -0.029785786 0.079701416
-0.07969186 0.035228904 -0.10004615 -0.022161745 0.06035275 0.051443763 0.065925315 0.01919851
-0.061765466 -0.0034153492 0.018867893 -0.05137485 -0.1672352 -0.032492902 0.026735477 -0.014989846
-0.014412846 -0.084007904 -0.06679981 -0.025426254 0.064483926 -0.10849922 0.012301815 -0.012506626
-0.14683825 -0.008342751 -0.0048436667 -0.012013413 -0.06345782 -0.087936305 -0.007504462 0.00057764107
0.010578337 0.008495783 -0.06064812 -0.035337374 -0.008417152 0.013212296 0.037669003 0.07843524
-0.020315526 -0.11345501 -0.13124491 -0.06852783 -0.027142499 -0.03394733 0.050018743 0.051041428
-0.05116287 -0.0499615 0.021316975 0.06223286 -0.033816837 0.038233552 -0.0019558223 0.020239362
-0.08458304 0.01907746 0.06372961 -0.024789223 -0.09286766 -0.01828782 -0.054354776 -0.12345579
-0.02203094 -0.018730635 -0.029856686 -0.04611589 0.086476766 -0.024940152 -0.13102093 -0.017383028
0.031639885 0.052671317 -0.026318863 -0.042979665 0.0076610683 -0.24459547 -0.097970285 0.12047426
0.04150359 -0.008838397 -0.0036139584 -0.041467566 -0.14460918 0.11388689 0.015269589 0.0401866
-0.0064680628 0.031611037 -0.017449152 -0.016772809 -0.043101948 -0.107575275 0.049820792 0.15078427
0.121682316 -0.009760968 0.042859107 -0.038302794 -0.007226087 -0.032808818 -0.00083498907 -0.03470148
-0.06632695 0.09367109 -0.01290768 -0.06433323 -0.11554968 -0.017329484 -0.09468477 0.013834881
-0.05180041 0.06644663 0.024405446 -0.033507433 0.014632308 -0.0036285825 0.07964853 0.024328543
-0.012597828 0.050052922 0.022330489 -0.020289777 0.031677518 0.04785411 -0.13257048 0.010343608
-0.030783925 0.018875342 -0.013642953 0.048973896 -0.0672479 -0.0678444 -0.119322985 -0.028560556
0.024479829 -0.017634623 0.037690543 -0.08142471 -0.01023144 -0.07449242 0.0059705707 -0.04989731
-0.28089324 0.051844418 -0.03920582 -0.03795394 -0.0035381191 -0.04868198 -0.047779914 0.008204327
-0.014389203 -0.080943786 -0.031630494 -0.046169795 -0.17084296 -0.04913416 0.043811705 0.060628906
-0.02887285 0.09102531 0.14081818 -0.104789935 0.06776343 -0.0744621 0.027189232 0.016157748
-0.08496487 -0.0032426084 0.08467911 -0.14979699 -0.0002074111 -0.025818132 0.03411035 -0.03837205
00000000: 8962 88bd 4e1b 0dbd 7715 b6bd da1d f23c
00000010: c003 89bc d5fc 31bd 4ab3 debe 3010 98bd
00000020: b2d7 073e a703 3a3d 5f70 6a3d bbaf ac3d
00000030: c613 22bd 10b0 2d3d 45c3 0fbd 5bcb 25bc
00000040: 02ee a2bd b599 813d bd2b 4f3d a806 86bd
00000050: ea90 863c 619b f3bd e92f 3b3d 6d8e 0b3e
00000060: 03a8 a0bd a4ed 893c cafe 3b3a df8d 17bd
00000070: 380d efbd 0505 26b5 6aac f5bd 9f20 e23c
00000080: 2e38 c73c ca3d 9cbc f84d 703b 808c 833c
00000090: 8cbc c2bc 4d73 a7bd e064 e83c 0fe8 c7bd
000000a0: a6aa acbc 7962 ccbb 46f1 c43d 5cc5 6f3d
000000b0: 0ecf 11bd 46fd 163d 7107 1c3d 8b26 2bbd
000000c0: eb00 88bd a13d f53c 6ff9 ddba 6dd3 4a3c
000000d0: 962f 893d a676 2e3d 6c9f e33b 45dd 073d
000000e0: a9e0 1ebe 49df e3bd b497 11bd 3824 c7bc
000000f0: 96a7 84bb b651 df38 bf6a 753c dd54 2a3d
00000100: a8b5 553d 1cdc e2bc 5d89 233d a6c4 95bd
00000110: 224f 34bc d12d db3b e0b8 31bd 1c4a 553d
00000120: 2f88 9ebc ea82 173d 0a2a c03d 75a3 823d
00000130: 6c7a 93b9 26be 57bc 5201 f4bc 7f3a a33d
00000140: 7c35 a3bd 2f4c 103d ffe4 ccbd 8c8c b5bc
00000150: 7234 773d b2b6 523d da03 873d 3246 9d3c
00000160: c9fd 7cbd 0dd4 5fbb d790 9a3c 6f6e 52bd
00000170: b43f 2bbe 4717 05bd 5c04 db3c f997 75bc
00000180: dc23 6cbc 560c acbd 57ce 88bd b84a d0bc
00000190: 2610 843d d734 debd 8d8d 493c 97e8 4cbc
000001a0: c45c 16be 09b0 08bc 9fb7 9ebb e8d3 44bc
000001b0: 2cf6 81bd f317 b4bd fde7 f5bb d66c 173a
000001c0: c350 2d3c e631 0b3c 2a6a 78bd ecbd 10bd
000001d0: 18e8 09bc 6378 583c d04a 1a3d a8a2 a03d
000001e0: bf6c a6bc 1a5b e8bd 1165 06be 5258 8cbd
000001f0: f259 debc 5b0c 0bbd 74e0 4c3d d110 513d
00000200: 2890 51bd 6ea4 4cbd f0a0 ae3c e2e7 7e3d
00000210: 8683 0abd c99a 1c3d 412d 00bb 05cd a53c
00000220: df39 adbd 5548 9c3c ab84 823d c512 cbbc
00000230: 6631 bebd 57d0 95bc 1da3 5ebd 64d6 fcbd
00000240: 3b7a b4bc fd70 99bc 0296 f4bc 04e4 3cbd
00000250: bb1a b13d 4a4f ccbc 5a2a 06be da66 8ebc
00000260: d398 013d e1bd 573d a89a d7bc 720b 30bd
00000270: b309 fb3b 3c77 7abe a5a4 c8bd 35bb f63d
00000280: abff 293d edce 10bc 29d8 6cbb e5d9 29bd
00000290: 6e14 14be 883d e93d 4c2d 7a3c b49a 243d
000002a0: 0bf2 d3bb 937a 013d 86f1 8ebc 2167 89bc
000002b0: ab8b 30bd 6d50 dcbd e310 4c3d 3167 1a3e
000002c0: 9434 f93d 78ec 1fbc 088d 2f3d 64e3 1cbd
000002d0: d0c8 ecbb 8a62 06bd 2be3 5aba 2423 0ebd
000002e0: 6dd6 87bd a1d6 bf3d bc7a 53bc 24c1 83bd
000002f0: 50a5 ecbd 90f6 8dbc 17ea c1bd b2ab 623c
00000300: ab2c 54bd 2c15 883d eeed c73c 173f 09bd
00000310: 59bc 6f3c 83cd 6dbb c51e a33d a74c c73c
00000320: 1f67 4ebc 4b04 4d3d 6eee b63c bf36 a6bc
00000330: 49c0 013d ac02 443d 8ec0 07be 3d78 293c
00000340: 922e fcbc 76a0 9a3c b186 5fbc da98 483d
00000350: 44b9 89bd 01f2 8abd 9c5f f4bd d4f7 e9bc
00000360: ec89 c83c 7c76 90bc 6661 1a3d 00c2 a6bd
00000370: c5a1 27bc 7b8f 98bd c7a4 c33b 1f61 4cbd
00000380: 3dd1 8fbe d05a 543d 4896 20bd 9775 1bbd
00000390: cadf 67bb c266 47bd dfb4 43bd 716b 063c
000003a0: b1c0 6bbc dbc5 a5bd fa8e 01bd 8a1c 3dbd
000003b0: 75f1 2ebe e740 49bd e773 333d 0456 783d
000003c0: c186 ecbc 7a6b ba3d a432 103e 1b9c d6bd
000003d0: 8ec7 8a3d 967f 98bd f4bb de3c 415d 843c
000003e0: 1002 aebd f181 54bb 3e6c ad3d 6264 19be
000003f0: 7e7c 59b9 8c80 d3bc 4bb7 0b3d 032c 1dbd

fc3.weight f4 [4, 256]
-0.007329758 0.27153698 0.098728545 0.2722844 -0.37662005 -0.0729195 0.844794 -0.64756876
0.6696488 0.06738711 -0.2550193 0.09459856 0.12584105 -0.06597837 0.0011535591 0.14534014
0.075071715 0.13976371 -0.3307197 -0.13887572 -0.095717646 0.29786822 0.36160377 0.3390912
0.38503355 -0.06680971 0.5961916 -0.7261411 0.5457639 -0.33450451 -0.5462998 -0.63928246
0.035079587 -0.5017666 -0.42604542 -0.7257914 0.41130435 -0.15259926 0.0010655619 -0.44951198
0.12217745 -0.54652494 0.10804428 -0.30485702 0.016824314 0.19129942 0.17159663 0.34804457
-0.6424153 0.010039773 0.045818977 -0.15683714 0.053705543 -0.01144402 -0.3935114 0.015321363
-0.117524244 0.05583901 -0.58595735 -0.031848002 0.2661484 -0.38735825 -0.09873883 0.23956901
-0.26613796 0.2909813 0.1320836 0.24238636 0.23063418 -0.43038368 -0.17637369 0.16143003
0.016411772 0.19373837 -0.049647734 0.79135215 0.004008615 0.26881224 -0.13923095 0.22203526
0.0043230923 -0.15291089 0.48668373 0.18445145 0.07864008 0.011173781 -0.25986913 0.27378047
-0.61185396 -0.11723918 0.19526811 -0.13171072 0.3667364 0.29388455 -0.0815145 0.10180567
0.12710243 0.5531382 0.3389197 0.0186246 -0.10720329 0.23929375 0.10933312 -0.617713
-0.23397842 0.027371043 0.053943235 -0.20241839 0.3054597 0.4025899 -0.01950309 0.13245861
0.34094688 0.19286661 0.42350644 -0.07103203 -0.21810646 -0.21929325 0.1190674 -0.11024155
0.6899759 0.5595627 0.14556657 -0.187871 -0.05619859 -0.18277149 0.8089197 0.08458861
0.22031344 -0.23868299 0.2643416 0.14504325 -0.29139188 0.07493913 -0.3639615 -0.3734118
-0.45181575 -0.18708594 -0.026103456 -0.49223214 -0.1475923 0.40575823 -0.26934212 0.34689617
0.4271076 -0.25492358 -0.3155497 -0.046521973 0.41640046 0.08912305 0.42770186 0.15640204
-0.39356914 0.36034784 -0.35923547 -0.21101639 -0.14922395 -0.89523166 -0.966977 -0.0070614386
0.7486736 -0.057986267 -0.064551085 -0.05777616 0.26719356 0.22533983 -0.3087332 0.34241405
0.17033827 -0.16373786 -0.40365234 -0.13329999 -0.06819021 0.59773076 -0.045796115 0.20087086
0.42317316 -0.027242452 0.52645636 -0.24772513 -0.5322908 0.3344937 0.1519623 -0.2980407
-0.019834293 0.01819655 -0.13066015 -0.22282186 -0.09778272 -0.18837522 0.26233557 -0.030153856
-0.4044698 -0.073435456 -0.18913826 -0.17245522 -0.11611177 -0.19897397 0.55285984 -0.49048373
-0.38368294 -0.035497937 -0.4631169 -0.33248284 0.26942968 -0.47738194 0.15203048 -0.32376978
-0.26810944 0.29585847 -0.45200884 -0.110173136 0.73424786 -0.29201937 -0.32645527 -0.23267911
-0.11521908 0.06479474 -0.4764401 -0.64432526 0.1311215 -0.31283897 -0.5078225 0.061681733
0.46122482 -0.5674491 -0.24560738 -0.05668868 0.25573173 -0.5580105 0.5889355 -0.73572487
-0.4446448 -0.2587477 -0.03874576 -0.78459966 0.3617544 0.13099092 -0.3113195 -0.5557674
-0.3620416 0.05736165 0.28443545 -0.0034815667 -0.011659425 0.2747574 0.15310043 0.26842242
0.049348474 -0.21579722 0.34968865 -0.08494301 -0.45030826 0.44147128 0.01655888 0.1675698
00000000: 772e f0bb e506 8b3e 3132 ca3d dc68 8b3e
00000010: 58d4 c0be d256 95bd 6b44 583f 11c7 25bf
00000020: 1b6e 2b3f 4102 8a3d e491 82be e4bc c13d
00000030: 7adc 003e ab1f 87bd 0533 973a 0cd4 143e
00000040: 33bf 993d 381e 0f3e 1854 a9be 7035 0ebe
00000050: 9d07 c4bd 2f82 983e 2124 b93e 5d9d ad3e
00000060: 1e23 c53e 87d3 88bd 03a0 183f 62e4 39bf
00000070: 2fb7 0b3f 2d44 abbe 4eda 0bbf 04a8 23bf
00000080: 9daf 0f3d c773 00bf a022 dabe 77cd 39bf
00000090: 7c96 d23e fb42 1cbe 53aa 8b3a 6f26 e6be
000000a0: 2c38 fa3d 0fe9 0bbf 5246 dd3d 3816 9cbe
000000b0: 25d3 893c ffe3 433e 07b7 2f3e e632 b23e
000000c0: 5475 24bf dc7d 243c aeac 3b3d ea99 20be
000000d0: 58fa 5b3d b37f 3bbc 547a c9be 7406 7b3c
000000e0: 8db0 f0bd 72b7 643d 4d01 16bf 0d73 02bd
000000f0: 9a44 883e d253 c6be 9537 cabd 9451 753e
00000100: 3c43 88be 80fb 943e ec40 073e 2134 783e
00000110: 5e2b 6c3e 405b dcbe 4e9b 34be ea4d 253e
00000120: fb71 863c 5a63 463e 6c5b 4bbd 0e96 4a3f
00000130: b35a 833b c2a1 893e 8f92 0ebe 365d 633e
00000140: baa8 8d3b ac94 1cbe 9c2e f93e d7e0 3c3e
00000150: 0d0e a13d 3c12 373c 910d 85be f42c 8c3e
00000160: 76a2 1cbf 181b f0bd 5df4 473e 2ddf 06be
00000170: e0c4 bb3e 0978 963e 13f1 a6bd 7e7f d03d
00000180: 2427 023e 779a 0d3f e286 ad3e 9e92 983c
00000190: 668d dbbd 6c09 753e 0bea df3d 7022 1ebf
000001a0: 0a98 6fbe 3d39 e03c 95f3 5c3d c446 4fbe
000001b0: 3765 9c3e 4320 ce3e f2c4 9fbc 3ba3 073e
000001c0: 9790 ae3e d37e 453e d6d5 d83e 3e79 91bd
000001d0: 4d57 5fbe 698e 60be 9cd9 f33d 52c6 e1bd
000001e0: 43a2 303f 803f 0f3f 670f 153e 4161 40be
000001f0: 7e30 66bd 7328 3bbe 5d15 4f3f cb3c ad3d
00000200: d999 613e 5069 74be c857 873e 3886 143e
00000210: 5131 95be b079 993d 2959 babe d52f bfbe
00000220: 6554 e7be 7593 3fbe ead6 d5bc da05 fcbe
00000230: 7022 17be 8bbf cf3e 36e7 89be 609c b13e
00000240: d9ad da3e 5885 82be bb8f a1be d38d 3ebd
00000250: 7132 d53e 2586 b63d bdfb da3e db27 203e
00000260: e581 c9be 837f b83e b6ed b7be ae14 58be
00000270: 2ace 18be e72d 65bf ce8b 77bf a463 e7bb
00000280: 13a9 3f3f 0283 6dbd 5c33 84bd b2a6 6cbd
00000290: 98cd 883e 7cbf 663e 4712 9ebe e550 af3e
000002a0: 286d 2e3e e6aa 27be 85ab cebe cb7f 08be
000002b0: 4fa7 8bbd e204 193f b594 3bbd 17b1 4d3e
000002c0: 27aa d83e 902b dfbc d8c5 063f a8ab 7dbe
000002d0: 3644 08bf c242 ab3e 019c 1b3e ca98 98be
000002e0: 877b a2bc ee10 953c c6cb 05be 6a2b 64be
000002f0: 4f42 c8bd 6fe5 40be d950 863e 3805 f7bc
00000300: aa16 cfbe 5465 96bd 76ad 41be 1a98 30be
00000310: 02cc edbd d5bf 4bbe 3988 0d3f af20 fbbe
00000320: 1772 c4be 4966 11bd a91d edbe 313b aabe
00000330: b0f2 893e 686b f4be e1ad 1b3e 27c5 a5be
00000340: a445 89be c37a 973e b46d e7be 74a2 e1bd
00000350: abf7 3b3f 9083 95be 2525 a7be 6f43 6ebe
00000360: fbf7 ebbd 1bb3 843d f5ef f3be 80f2 24bf
00000370: b744 063e 6e2c a0be a800 02bf fca5 7c3d
00000380: a925 ec3e 5844 11bf 8080 7bbe 6432 68bd
00000390: 45ef 823e c7d9 0ebf 7ac4 163f 7758 3cbf
000003a0: 7ca8 e3be 947a 84be e0b3 1ebd 86db 48bf
000003b0: df37 b93e 7c22 063e 4565 9fbe c646 0ebf
000003c0: 845d b9be 0df4 6a3d 86a1 913e ff2a 64bb
000003d0: 2c07 3fbc 00ad 8c3e 5cc6 1c3e aa6e 893e
000003e0: a021 4a3d f2f9 5cbe 640a b33e 9af6 adbd
000003f0: ce8e e6be 8608 e23e 7da6 873c 6b97 2b3e

fc3.bias f4 [4]
-0.014709471 0.051548634 0.0034184644 0.020777805
00000000: feff 70bc a924 533d 5108 603b 3736 aa3c
