checkpoints/checkpoint_actor_ddqn_9.pth (torch_old, 303163 bytes, 6 tensors)

fc1.weight f4 [256, 33]
-0.13547614 -0.16751793 -0.09840056 -0.052810445 -0.06580004 -0.10252549 -0.15410832 -0.008053028
0.20786956 0.031184308 -0.062313125 -0.058621064 -0.00734101 0.06207663 0.18393761 0.3848089
-0.0036185603 0.03814791 -0.1057627 0.033356756 0.031255357 0.0599887 -0.0200629 0.07628631
0.03839449 0.037877467 -0.21728851 -0.040368676 -0.14935052 -0.037493847 -0.054074995 0.040386453
-0.7342434 0.18555543 0.041812044 -0.3027265 0.07692972 0.13637842 -0.0546884 0.19999377
0.0278002 -0.03250812 -0.0066633257 0.033547644 -0.038125332 0.030862657 -0.061979447 -0.16621011
0.28024417 0.047302604 0.027795495 -0.022131477 0.00025813837 0.05736619 0.09411147 -0.006053378
-0.029831463 -0.019897716 0.01495677 0.035076443 -0.022142328 -0.04534361 0.054951333 -0.05180848
0.056379177 -0.08241351 -0.11256925 -0.010628525 0.0044537988 -0.26957366 -0.25709832 -0.021528322
-0.2308047 -0.13503423 0.089520335 0.1450251 0.17787205 -0.13997222 0.031234156 0.059769943
-0.011060668 -0.058022324 0.020589374 0.058259714 -0.07338336 0.051176604 0.0580392 0.18580343
0.014319366 -0.07641319 -0.012529473 0.010553159 0.062184777 0.084313616 0.0077221585 -0.026804522
-0.07056829 0.05597554 0.5426786 -0.032155145 0.03399975 -0.09098517 0.034562826 0.0286164
0.1621779 -0.0071519865 -0.0729711 0.18591179 -0.19346245 -0.022465965 0.34819525 -0.19615114
-0.033604816 0.20745653 0.053869918 -0.028589884 -0.020019436 -0.11528194 0.16781333 -0.25016457
0.0446483 -0.017327484 -0.06292441 -0.06553443 -0.09126519 -0.055799875 0.21001972 0.12305294
-0.032689124 -0.20909275 0.033707164 0.08900917 0.06667323 -0.07363478 0.40341973 -0.050352335
0.0064032986 -0.05050553 0.014217543 0.13885435 0.011766829 0.07183794 0.064424835 -0.044083524
0.088116445 0.010692246 -0.051685475 -0.22599003 0.059729964 -0.047384392 0.053994115 0.015505211
-0.07396534 0.08838606 -0.09185633 -0.06329339 -0.015424197 0.00042983162 9.8659075e-05 0.058566898
-0.0031566264 -0.038844667 0.039635003 0.060630918 -0.22091953 -0.26073226 0.048434664 -0.011420651
-0.012053261 -0.1456159 -0.0007822171 0.06617775 -0.09988017 0.03413152 0.13327953 -0.032957062
-0.028637258 -0.019190993 0.19782282 0.1240183 0.1611937 -0.09374335 0.042078465 -0.06967609
-0.03084883 0.014893054 0.021181958 0.1207141 0.11095811 0.06883151 0.016716504 0.1490217
0.1252436 0.017479056 0.025453478 -0.08192975 0.003423646 -0.065518774 -0.093772836 -0.05235289
-0.22008874 0.0024698894 0.015902923 -0.11594735 0.009773427 -0.04426567 0.11993259 0.247907
-0.034347575 0.011683766 -0.004450963 0.20053363 0.17949827 0.4808487 0.013130471 -0.010464418
-0.035979938 -0.019564306 0.03257741 -0.027861526 -0.0099754175 -0.002118756 -0.0057203183 0.061411895
-0.08787286 -0.09176456 -0.27590027 0.002646923 0.02511589 0.018572628 0.30167648 -0.10045112
-0.25883976 0.032502074 -0.15646009 0.08620622 0.027424771 -0.045600917 0.0038027181 0.0028182887
-0.025855323 -0.06471704 -0.033758443 -0.03148066 -0.13663815 0.09994448 0.08302481 0.058065638
-0.061346076 0.057860628 0.020039016 -0.032370664 -0.1828007 -0.16903555 0.031703044 -0.016511435
00000000: 42ba 0abe d289 2bbe 3c86 c9bd c44f 58bd
00000010: 2cc2 86bd e2f8 d1bd 92ce 1dbe d9f0 03bc
00000020: c2db 543e 3c76 ff3c 0c3c 7fbd a41c 70bd
00000030: db8c f0bb 1044 7e3d 245a 3c3e ac05 c53e
00000040: 5e25 6dbb fc40 1c3d 1d9a d8bd 18a1 083d
00000050: 9e05 003d b6b6 753d f35a a4bc ff3b 9c3d
00000060: 8a43 1d3d 6725 1b3d e180 5ebe a059 25bd
00000070: 58ef 18be 2693 19bd be7d 5dbd 446c 253d
00000080: 60f7 3bbf 3e02 3e3e 1b43 2b3d f8fe 9abe
00000090: 548d 9d3d c9a6 0b3e f200 60bd 2bcb 4c3e
000000a0: 3fbd e33c 3c27 05bd 0758 dabb 4169 093d
000000b0: 4f29 1cbd afd3 fc3c 29de 7dbd fc32 2abe
000000c0: 2a7c 8f3e 60c0 413d 61b3 e33c 124d b5bc
000000d0: bf56 8739 cff8 6a3d 84bd c03d 6a5b c6bb
000000e0: 1d61 f4bc 8900 a3bc 3e0d 753c 51ac 0f3d
000000f0: d463 b5bc 39ba 39bd a614 613d 2135 54bd
00000100: daed 663d 6ac8 a8bd b58a e6bd 4423 2ebc
00000110: 2cf1 913b 8f05 8abe 64a2 83be 2a5c b0bc
00000120: 1158 6cbe 6a46 0abe 7056 b73d 7681 143e
00000130: 1724 363e e154 0fbe c6de ff3c 54d1 743d
00000140: ce37 35bc d1a8 6dbd 0cab a83c bda1 6e3d
00000150: 044a 96bd 8f9e 513d 83ba 6d3d 4143 3e3e
00000160: c69b 6a3c 857e 9cbd 6b48 4dbc 28e7 2c3c
00000170: 77b5 7e3d 9eac ac3d 290a fd3b 2895 dbbc
00000180: 1c86 90bd 9c46 653d fcec 0a3f 1db5 03bd
00000190: 5243 0b3d 6f56 babd c091 0d3d f16c ea3c
000001a0: f711 263e 365b eabb df71 95bd a95f 3e3e
000001b0: 051b 46be 8b0a b8bc a646 b23e d8db 48be
000001c0: 34a5 09bd 7c6f 543e b4a6 5c3d 5535 eabc
000001d0: cdff a3bc f018 ecbd 42d7 2b3e 9215 80be
000001e0: 23e1 363d 5ef2 8dbc 83de 80bd ea36 86bd
000001f0: 3ee9 babd 698e 64bd 690f 573e 2e03 fc3d
00000200: 08e5 05bd 691c 56be 8610 0a3d 714a b63d
00000210: f98b 883d d5cd 96bd 088d ce3e 403e 4ebd
00000220: c3d2 d13b e3de 4ebd b3f0 683c d62f 0e3e
00000230: a8c9 403c c51f 933d 2bf1 833d ed90 34bd
00000240: 6576 b43d 882e 2f3c 26b4 53bd ee69 67be
00000250: 68a7 743d 2316 42bd ef28 5d3d 9209 7e3c
00000260: 247b 97bd c003 b53d 2c1f bcbd f79f 81bd
00000270: c5b5 7cbc 065b e139 30e7 ce38 d8e3 6f3d
00000280: 67df 4ebb 961b 1fbd 5058 223d 2058 783d
00000290: bb38 62be b37e 85be 6d63 463d af1d 3bbc
000002a0: 0a7b 45bc 561c 15be b30d 4dba 3388 873d
000002b0: f98d ccbd 7ecd 0b3d 6e7a 083e fcfd 06bd
000002c0: af98 eabc 6e36 9dbc 1192 4a3e 4efd fd3d
000002d0: f60f 253e 83fc bfbd 785a 2c3d 56b2 8ebd
000002e0: afb6 fcbc ff01 743c c985 ad3c f438 f73d
000002f0: 013e e33d 89f7 8c3d 0df1 883c 2599 183e
00000300: dc3f 003e 3d30 8f3c d083 d03c c9ca a7bd
00000310: 405f 603b b52e 86bd f90b c0bd fc6f 56bd
00000320: f15e 61be dedd 213b d946 823c ce75 edbd
00000330: b920 203c eb4f 35bd 389f f53d 55db 7d3e
00000340: 0bb0 0cbd 446d 3f3c 62d9 91bb b058 4d3e
00000350: 65ce 373e cd31 f63e 3021 573c f372 2bbc
00000360: b35f 13bd 5345 a0bc e46f 053d db3d e4bc
00000370: ef6f 23bc d4da 0abb 8271 bbbb 0a8b 7b3d
00000380: b0f6 b3bd 0fef bbbd cd42 8dbe 0078 2d3b
00000390: d7bf cd3c a025 983c 5775 9a3e 51b9 cdbd
000003a0: a586 84be e520 053d 1337 20be e38c b03d
000003b0: eaa9 e03c 07c8 3abd 0637 793b 0ab3 383b
000003c0: 8bce d3bc 5e8a 84bd 4b46 0abd ddf1 00bd
000003d0: dfea 0bbe b1af cc3d e908 aa3d 3cd6 6d3d
000003e0: 0646 7bbd 44ff 6c3d dd28 a43c 1a97 04bd
000003f0: 1b30 3bbe a817 2dbe 0ddb 013d fd42 87bc

fc1.bias f4 [256]
-0.039907623 -0.12377691 0.05857758 -0.23601772 0.06246664 -0.08933319 -0.103858635 0.013464664
-0.109100655 0.01300828 -0.021669338 0.10163736 -0.08542317 0.05926469 0.012289385 0.19780874
0.10526094 -0.05536498 -0.30233312 -0.22474666 -0.029658267 0.13814487 -0.078204885 0.16610588
-0.0906463 -0.0068757 0.058282785 0.010930778 0.02660509 -0.14552866 -0.26839146 -0.121595964
-0.023437843 -0.032378905 -0.18929684 0.02734256 -0.17860441 -0.15041837 0.21888162 0.031775318
-0.10574518 -0.021628153 0.20697759 0.16676667 0.15856495 -0.07027927 0.19774225 -0.23885526
0.17926973 0.12941368 -0.28155458 0.07194994 -0.115578204 0.03262244 -0.124956794 0.058392994
-0.18783756 0.15399688 -0.3073982 0.066833265 -0.12823589 -0.11692998 -0.11565213 0.05201692
-0.17419435 -0.038125552 0.1674574 -0.111745454 -0.06509719 -0.05244021 0.11629844 0.047892217
-0.16166632 0.078572795 -0.051588338 0.13467427 -0.20337532 -0.023523904 -0.22222659 -0.033487346
0.19313838 -0.104381576 -0.110765256 -0.07429712 -0.007006626 -0.008431361 -0.20255472 0.015790323
-0.19916986 0.035035387 -0.010622184 -0.022920901 -0.06361009 0.13560005 -0.05298189 0.108798616
-0.10910932 -0.21934995 -0.08498247 -0.01651399 0.104680136 0.054833625 0.054046515 0.07426349
0.10208344 -0.070115305 -0.16086452 -0.037173387 -0.099418916 0.02324589 0.1984576 0.058900874
-0.23826744 -0.21596465 -0.13870871 -0.00041783537 -0.14348151 -0.121949896 0.08692041 -0.13377929
0.096269205 0.045969006 -0.19169804 0.092833124 0.16685961 0.028874803 -0.14413594 0.055659864
-0.048566684 -0.15478282 -0.026060062 -0.14748985 0.07405981 -0.18274492 -0.047715217 0.0043635787
-0.16539975 -0.19068244 -0.05193104 0.06719362 -0.19618085 -0.08394111 0.06463042 -0.04221014
-0.0888709 -0.21213706 -0.03368854 0.040341973 0.050904736 -0.23982602 -0.096903786 -0.16241483
-0.0027005752 -0.12221759 0.010793784 -0.06234873 -0.1802915 0.0407953 -0.050522026 0.032003414
-0.05303496 -0.096900985 0.10715942 0.12601599 -0.019469792 -0.107479475 -0.09965518 -0.03163737
-0.11477718 0.0041792495 0.076075114 0.18481869 -0.063353404 -0.007358371 -0.12715782 0.035898045
-0.06433864 -0.016986571 -0.045305975 -0.015396052 -0.19961947 0.008689338 0.00985252 -0.23353761
-0.047427263 0.015168713 0.14056917 -0.034646228 -0.06478213 0.22151452 -0.19881357 -0.046551134
0.13773116 -0.21976762 -0.14128563 -0.07662383 -0.025656749 0.026225021 -0.20372693 0.032444015
0.103112794 0.16877796 0.05157711 0.12027315 -0.020775795 -0.27483276 -0.2762338 -0.17255117
0.015899215 0.005845003 -0.20257495 -0.036558114 -0.06518274 0.049162384 -0.11928903 -0.030072315
-0.14358386 -0.0765046 -0.19866024 0.103888966 -0.021029405 -0.21991576 0.038521193 -0.2586384
0.024640718 -0.1656095 -0.1521228 -0.19227745 -0.00086506666 0.15626913 0.008554223 -0.06645633
-0.21368976 0.13051774 -0.10979181 -0.14490642 0.1601319 0.00061221776 -0.31916428 -0.16717209
-0.20402107 -0.14459738 0.06881549 -0.02384429 0.08365123 -0.15847899 0.013637114 0.13970658
0.053287297 0.06613785 0.09600983 -0.21751718 -0.19944109 -0.082016036 -0.2924202 -0.09352541
00000000: 2d76 23bd c07e fdbd 0bef 6f3d a1ae 71be
00000010: 05dd 7f3d 52f4 b6bd d6b3 d4bd e59a 5c3c
00000020: 2a70 dfbd ae20 553c e583 b1bc 4027 d03d
00000030: 58f2 aebd 88bf 723d 6b59 493c 608e 4a3e
00000040: 0c93 d73d 64c6 62bd 68cb 9abe fd23 66be
00000050: e5f5 f2bc d975 0d3e e229 a0bd a917 2a3e
00000060: c4a4 b9bd 8d4d e1bb eeb9 6e3d 0217 333c
00000070: ebf2 d93c 7705 15be 9b6a 89be 4e07 f9bd
00000080: b800 c0bc be9f 04bd 08d7 41be 81fd df3c
00000090: 13e4 36be 4607 1abe 8122 603e d626 023d
000000a0: ee90 d8bd 862d b1bc eff1 533e e2c4 2a3e
000000b0: da5e 223e 94ee 8fbd f27c 4a3e 7996 74be
000000c0: 7c92 373e 0585 043e ec27 90be 7d5a 933d
000000d0: 44b4 ecbd 1c9f 053d 59e9 ffbd 7e2d 6f3d
000000e0: 7d58 40be 5cb1 1d3e 4c63 9dbe e1df 883d
000000f0: 4550 03be fc78 efbd 06db ecbd b20f 553d
00000100: 0160 32be 8a29 1cbd f479 2b3e cdda e4bd
00000110: ad51 85bd 8ccb 56bd e02d ee3d a12a 443d
00000120: db8b 25be c6ea a03d 4b4e 53bd 0de8 093e
00000130: 9f41 50be 34b5 c0bc 5e8f 63be 072a 09bd
00000140: 11c6 453e 02c6 d5bd e5d8 e2bd 1729 98bd
00000150: d797 e5bb b123 0abc 816a 4fbe b55a 813c
00000160: 2ff3 4bbe 4481 0f3d ab08 2ebc 9dc4 bbbc
00000170: 0246 82bd bdda 0a3e 8a03 59bd cfd1 de3d
00000180: b574 dfbd 469d 60be 4a0b aebd 5948 87bc
00000190: 8a62 d63d 3999 603d e15f 5d3d 7517 983d
000001a0: 1f11 d13d 9d98 8fbd abb9 24be 1f43 18bd
000001b0: 259c cbbd 2a6e be3c 7838 4b3e 0b42 713d
000001c0: 61fc 73be d625 5dbe a809 0ebe ea10 dbb9
000001d0: d1ec 12be dec0 f9bd 5403 b23d 70fd 08be
000001e0: ca28 c53d ff49 3c3d 7e4c 44be 4b1f be3d
000001f0: 3fdd 2a3e da8a ec3c 5f98 13be 99fb 633d
00000200: dced 46bd 637f 1ebe e97b d5bc 9407 17be
00000210: abac 973d 7c21 3bbe 0871 43bd 5afc 8e3b
00000220: 8d5e 29be 4242 43be a4b5 54bd cf9c 893d
00000230: a2e3 48be 51e9 abbd f45c 843d 8ae4 2cbd
00000240: f201 b6bd 753a 59be fffc 09bd a03d 253d
00000250: 7c81 503d f494 75be 7e75 c6bd 1350 26be
00000260: 22fc 30bb 374d fabd 69d8 303c 6261 7fbd
00000270: 569e 38be f918 273d 2ff0 4ebd 0316 033d
00000280: 303b 59bd 0674 c6bd 6676 db3d 560a 013e
00000290: 1d7f 9fbc 331e dcbd 0418 ccbd 3096 01bd
000002a0: 4c10 ebbd 16f2 883b 45cd 9b3d 1c41 3d3e
000002b0: 6ebf 81bd 7d1e f1bb a935 02be d409 133d
000002c0: fac3 83bd 6c27 8bbc c292 39bd b93f 7cbc
000002d0: 0c69 4cbe ba5d 0e3c 776c 213c 7c24 6fbe
000002e0: 1743 42bd 3286 783c 5df1 0f3e 34e9 0dbd
000002f0: 7eac 84bd b4d4 623e c995 4bbe 67ac 3ebd
00000300: 6609 0d3e c30a 61be 2ead 10be f4ec 9cbd
00000310: 1a2e d2bc dbd5 d63c cb9d 50be 04e4 043d
00000320: cd2c d33d 21d4 2c3e 8542 533d c551 f63d
00000330: 0032 aabc e1b6 8cbe 846e 8dbe 41b1 30be
00000340: 123f 823c 7087 bf3b cf6f 4fbe f6bd 15bd
00000350: 877e 85bd 7f5e 493d cf4d f4bd 375a f6bc
00000360: a607 13be 72ae 9cbd 976d 4bbe bdc3 d43d
00000370: dc45 acbc 9931 61be 66c8 1d3d 416c 84be
00000380: 55db c93c 8995 29be 14c6 1bbe 61e4 44be
00000390: a4c5 62ba 0405 203e 0327 0c3c 421a 88bd
000003a0: 7dd1 5abe 71a6 053e 87da e0bd 5962 14be
000003b0: 9ef9 233e 3d7d 203a 8069 a3be 292f 2bbe
000003c0: e6ea 50be 5611 14be 23ef 8c3d 1a55 c3bc
000003d0: 5651 ab3d 5148 22be 346e 5f3c 3e0f 0f3e
000003e0: c843 5a3d 4873 873d cda0 c43d d3bc 5ebe
000003f0: 493a 4cbe 06f8 a7bd 1ab8 95be 408a bfbd

fc2.weight f4 [256, 256]
-0.117547855 0.1336594 0.17250802 -0.1085729 -0.0024913584 -0.044171635 0.03660556 -0.061234254
-0.045899846 0.052700635 0.016410151 0.077351294 -0.062341996 0.038255904 -0.04055106 -0.22616823
-0.11787142 -0.07386145 -0.14621589 0.14848927 -0.018829973 -0.23103252 0.06418578 0.22375128
0.039228193 0.033543497 -0.037945855 0.2611795 0.15294616 0.08292095 0.08641205 -0.10279415
0.15465617 0.076067105 -0.17274976 0.13320132 0.18368252 -0.09111895 -0.02141714 0.07128891
-0.070688024 -0.050652172 0.3352324 -0.06235494 0.22880521 -0.27985612 -0.07696369 0.09988272
0.24588397 -0.06301857 -0.15825073 0.26567802 -0.057033513 0.13698116 0.0350024 -0.12076484
-0.01803443 -0.077774 0.10716775 -0.052587375 0.058542684 0.13648544 0.09229328 -0.007086402
-0.01202289 -0.1347614 0.070904694 0.08626981 -0.19566926 -0.10462138 -0.14417319 -0.51190764
-0.06448451 0.23307481 -0.04656437 -0.023168286 0.21265353 0.101571165 0.08861603 0.012172188
0.08199486 -0.0073410165 0.027907554 0.15620312 0.07198751 0.2461981 0.002479351 -0.18929034
0.034495518 0.05073523 -0.06328911 -0.032257356 0.022534871 0.0012588203 0.118520394 -0.19878855
0.06561906 0.09213673 0.15052713 -0.043360025 -0.18054025 -0.0382899 -0.1903377 0.044171367
-0.05362476 -0.081771865 0.061342865 -0.07568426 0.113131166 -0.036732376 -0.2002977 0.059272896
0.01716419 -0.16961065 0.1467643 -0.020076279 -0.22797957 0.06947347 0.0939545 0.06439341
-0.024107818 -0.002561062 0.08072158 0.07290585 0.022522707 0.02416479 -0.23281954 -0.16565698
0.03853973 0.013428601 0.10208624 0.1559215 -0.21099338 0.0062119965 0.054596946 -0.22544989
0.16484444 -0.13432378 0.04127598 -0.03353385 0.0426831 0.057244692 0.014278858 -0.07658602
-0.03516799 -0.16621736 0.0735761 0.2881913 0.04440343 0.06768062 -0.05644626 0.1240506
-0.084161416 0.123777434 0.17203595 0.14377539 -0.07876796 -0.06764053 0.12166169 -0.042467684
0.12748998 -0.23248515 -0.3033988 -0.122660756 0.040203165 -0.010277066 0.07001525 0.15622245
0.068716764 -0.016437974 -0.20335273 -0.18164168 0.092087016 0.03643555 0.10217502 -0.04580867
-0.07346312 0.094882786 -0.034509107 -0.2381217 0.06927943 0.09600862 0.13896191 0.29855543
-0.07345979 0.3203133 0.00018491673 -0.070527546 -0.052760366 -0.06737796 0.023641746 -0.17679155
0.017551184 -0.1123175 -0.0011716197 0.008117451 0.16463286 -0.08844429 0.026555099 0.113356754
0.1809461 -0.09916463 -0.055681095 -0.13932334 -0.11328608 0.13016257 -0.017333383 -0.035108034
-0.075364195 0.12490186 -0.1724718 0.065571986 0.06793361 0.09595858 0.024658632 -0.22964536
0.00038430197 0.10009869 0.057725333 0.00032836205 -0.18480979 0.15731063 0.12808184 -0.21340343
0.103010155 0.21322875 -0.2555012 -0.29627982 -0.053113353 -0.09454258 0.0038484656 0.06848321
-0.027969617 -0.053287856 -0.06411619 -0.013370164 -0.05862381 0.048783813 0.040515505 -0.28341436
-0.04635204 -0.13006923 0.2597965 -0.11903114 -0.03695959 -0.1740093 -0.2812584 0.05385517
-0.30685338 -0.15186433 -0.16528669 -0.11301781 0.09826892 -0.14782725 0.065233745 0.19688885
00000000: eebc f0bd 02de 083e f1a5 303e 785b debd
00000010: 0f46 23bb 51ed 34bd b6ef 153d c5d0 7abd
00000020: 7a01 3cbd 9fdc 573d 956e 863c 5b6a 9e3d
00000030: 525a 7fbd 39b2 1c3d de18 26bd a598 67be
00000040: 9266 f1bd ac44 97bd 9eb9 15be 920d 183e
00000050: 5141 9abc ca93 6cbe d673 833d 0e1f 653e
00000060: bead 203d e864 093d 1d6d 1bbd 52b9 853e
00000070: eb9d 1c3e 76d2 a93d cdf8 b03d bd85 d2bd
00000080: 305e 1e3e 12c9 9b3d 50e5 30be ed65 083e
00000090: 4517 3c3e 929c babd ff72 afbc ecff 913d
000000a0: e2c4 90bd a778 4fbd 95a3 ab3e e567 7fbd
000000b0: ea4b 6a3e 4d49 8fbe 249f 9dbd 508f cc3d
000000c0: 02c9 7b3e e10f 81bd 7b0c 22be f306 883e
000000d0: f99b 69bd ca44 0c3e ad5e 0f3d 8e53 f7bd
000000e0: f1bc 93bc fa47 9fbd c47a db3d dc65 57bd
000000f0: 74ca 6f3d d7c2 0b3e 4204 bd3d 0c35 e8bb
00000100: a8fb 44bc e4fe 09be 7b36 913d 3aae b03d
00000110: 865d 48be bc43 d6bd 23a2 13be 610c 03bf
00000120: 7410 84bd 2aab 6e3e 48ba 3ebd 6bcb bdbc
00000130: d9c1 593e 8b04 d03d 527c b53d db6d 473c
00000140: ecec a73d e98c f0bb 629e e43c b6f3 1f3e
00000150: 306e 933d 5b1b 7c3e 9b7c 223b 54d5 41be
00000160: 2c4b 0d3d bfcf 4f3d b99d 81bd 4a20 04bd
00000170: 0d9b b83c 00ff a43a d2ba f23d 3a8f 4bbe
00000180: 4963 863d 2fb2 bc3d c923 1a3e 489a 31bd
00000190: 8bdf 38be dfd5 1cbd e3e7 42be 09ed 343d
000001a0: a3a5 5bbd 0278 a7bd a842 7b3d 5900 9bbd
000001b0: 50b1 e73d b074 16bd d71a 4dbe 23c8 723d
000001c0: ea9b 8c3c 6aae 2dbe 6149 163e 0277 a4bc
000001d0: 7a73 69be 1b48 8e3d 386b c03d b1e0 833d
000001e0: c27d c5bc 7ed7 27bb 5b51 a53d aa4f 953d
000001f0: 8a81 b83c 3df5 c53c 3f68 6ebe fca1 29be
00000200: d6db 1d3d a303 5c3c 9712 d13d e3a9 1f3e
00000210: a60e 58be 018e cb3b 0ca1 5f3d 56dc 66be
00000220: fbcc 283e 2c8c 09be 0111 293d ca5a 09bd
00000230: 79d4 2e3d 6979 6a3d dff1 693c 22d9 9cbd
00000240: 4f0c 10bd e234 2abe 11af 963d cf8d 933e
00000250: 5fe0 353d 239c 8a3d 3234 67bd 3e0e fe3d
00000260: d25c acbd 067f fd3d 312a 303e db39 133e
00000270: 1951 a1bd 1e87 8abd c429 f93d 98f2 2dbd
00000280: bc8c 023e 9610 6ebe 1657 9bbe 9035 fbbd
00000290: 13ac 243d 2461 28bc 2864 8f3d c7f8 1f3e
000002a0: 60bb 8c3d eea8 86bc b33b 50be 4700 3abe
000002b0: 1e98 bc3d 713d 153d 2341 d13d dfa1 3bbd
000002c0: d573 96bd e851 c23d 6c59 0dbd 2dd6 73be
000002d0: 60e2 8d3d 2ba0 c43d 084c 0e3e 42dc 983e
000002e0: 1672 96bd 1b00 a43e 35e6 4139 bf70 90bd
000002f0: 411b 58bd 75fd 89bd 56ac c13c d808 35be
00000300: 80c7 8f3c b806 e6bd 0991 99ba 0fff 043c
00000310: 8495 283e 4822 b5bd 148a d93c 9627 e83d
00000320: ef49 393e d316 cbbd dc11 64bd c7aa 0ebe
00000330: 8802 e8bd 5649 053e bdfe 8dbc 71cd 0fbd
00000340: 8b58 9abd 8ccc ff3d 739c 30be 9b4a 863d
00000350: c720 8b3d ef85 c43d e600 ca3c 2728 6bbe
00000360: 237c c939 8b00 cd3d 6671 6c3d 0228 ac39
00000370: c73e 3dbe 0a16 213e e327 033e 6e86 5abe
00000380: fdf6 d23d a358 5a3e 0ed1 82be fdb1 97be
00000390: 638d 59bd 8a9f c1bd 8a36 7c3b ed40 8c3d
000003a0: 8a20 e5bc 5e44 5abd 594f 83bd 880e 5bbc
000003b0: 851f 70bd 89d1 473d 96f3 253d b01b 91be
000003c0: a3db 3dbd de30 05be 0c04 853e 99c6 f3bd
000003d0: f062 17bd 7e2f 32be 1a01 90be 3d97 5c3d
000003e0: e31b 9dbe 5382 1bbe ea40 29be e275 e7bd
000003f0: 3741 c93d 0760 17be 4599 853d 3b9d 493e

fc2.bias f4 [256]
-0.10109099 -0.13892598 0.01163018 -0.017046576 0.033179976 0.030853907 0.034736086 -0.0046125916
-0.17298117 0.087655306 -0.05848359 0.12838729 0.009086963 0.005486433 -0.00072640646 -0.08313273
-0.13019164 0.013188949 -0.043025415 -0.037766904 -0.051819284 -0.16237824 0.017355224 0.026242431
0.01058759 0.066824175 -0.0621388 -0.015393379 -0.02243627 0.010070734 -0.011377564 0.035079833
0.058289148 -0.12918822 0.1103808 0.038918607 0.062742226 -0.108316384 0.022714099 -0.05547509
-0.08956447 0.0881807 0.052214425 -0.05966734 -0.053018346 0.029689588 -0.06654108 -0.10770724
-0.11248063 0.06674038 0.05496285 -0.032375455 0.007234214 0.05475809 0.04017607 -0.07047429
-0.042453337 0.047862284 0.0018980588 0.047806494 0.013837038 0.04463088 0.048726413 -0.10735374
-0.031721756 0.052271552 -0.059354756 -0.08230608 0.0043654605 -0.02384212 -0.030822476 0.05091004
-0.12173296 0.090026334 0.046543654 -0.024012301 0.017161142 0.021771172 -0.1087901 -0.01704226
0.04211581 0.0048485296 -0.0770418 -0.009730445 -0.07659376 0.06770954 0.014881955 0.042694576
0.00027217052 0.018560482 -0.036643535 -0.09205053 0.0012560366 -0.08855961 0.038869996 -0.041272834
0.032738347 -0.033850882 -0.19287924 -0.06158348 -0.001105097 -0.14035335 -0.053530775 0.018275803
-0.08188581 -0.061540525 -0.12356918 -0.13504393 -0.02943177 -0.068641216 0.020337066 -0.22734621
-0.0585685 0.0013778639 -0.01767158 0.020578602 -0.07682001 -0.027289068 0.03986029 0.021217704
0.050659474 -0.008351964 -0.07438184 -0.194398 -0.039836463 -0.05100125 0.07985898 0.089454725
-0.019080363 -0.055966042 0.013455817 0.024140956 -0.04711577 0.01566151 -0.08193282 -0.010461536
-0.06992355 -0.019170456 0.04153007 0.06689714 -0.06454144 -0.15877004 -0.009912987 0.010879811
0.023585366 -0.03459677 0.027893927 0.0012029079 0.026684722 0.049567413 0.0011887508 0.0046296604
-0.049973063 0.064823344 -0.006194947 0.051875092 0.016248534 -0.118028805 0.041719694 0.060779907
0.060584348 -0.06985101 -0.020734094 -0.017623596 -0.08099848 0.018977469 0.032474354 0.10698156
0.007061235 0.12270298 -0.0955812 -0.01826047 0.08242618 -0.02045898 0.018817749 0.0049652765
0.0766596 0.0016252559 0.037017938 -0.04397819 0.004027088 0.055230696 0.004629514 -0.021990877
-0.14494634 0.02289865 0.03454896 -0.037628595 -0.06364805 0.0294733 0.0586935 0.119343184
-0.08236914 -0.022634927 0.018620633 -0.061764017 -0.028948873 0.03048251 0.042826086 0.015383264
0.004162328 0.05893676 0.08787138 0.016422119 -0.048772875 -0.003986124 -0.066364884 -0.082026236
-0.023830717 0.011492065 0.057232283 -0.071470745 0.006815547 -0.08795323 -0.047749996 -0.10126309
0.038146622 0.045797497 -0.034971707 0.03562427 -0.024693407 0.029413477 0.056615863 -0.028603192
-0.02842183 0.072785646 0.011434306 0.002823316 0.039769493 -0.21132752 0.06442163 0.07924009
-0.047407012 -0.08750418 -0.039834518 -0.08329086 0.05664064 -0.1787303 -0.016133156 0.045016784
0.008588665 0.1396678 -0.0374086 -0.16904724 0.13101153 -0.0610379 0.019243049 -0.032661483
-0.10441162 0.08032404 0.08571205 -0.035598535 0.043669224 0.016980913 0.04674436 -0.034287974
00000000: cb08 cfbd 9d42 0ebe 838c 3e3c 43a5 8bbc
00000010: bae7 073d 55c1 fc3c 6d47 0e3d 3925 97bb
00000020: fa21 31be a084 b33d 7d8c 6fbd f577 033e
00000030: 7ce1 143c 89c7 b33b 506c 3eba 7e41 aabd
00000040: f550 05be 7616 583c 6b3b 30bd 78b1 1abd
00000050: 7540 54bd 7b46 26be 8b2c 8e3c 5efa d63c
00000060: 9277 2d3c 1ddb 883d 4185 7ebd 8334 7cbc
00000070: 45cc b7bc b8ff 243c f668 3abc dfaf 0f3d
00000080: 9ac0 6e3d eb49 04be 540f e23d 1e69 1f3d
00000090: ff7e 803d fbd4 ddbd eb12 ba3c d939 63bd
000000a0: 946d b7bd 1598 b43d cbde 553d be65 74bd
000000b0: c429 59bd 9437 f33c b146 88bd 9d95 dcbd
000000c0: 3f5c e6bd 2eaf 883d ba20 613d 209c 04bd
000000d0: fc0c ed3b 054a 603d aa8f 243d d354 90bd
000000e0: 8de3 2dbd 3e0b 443d 49c8 f83a bed0 433d
000000f0: beb4 623c dfce 363d 5995 473d 47dc dbbd
00000100: acee 01bd b21a 563d f91d 73bd 1790 a8bd
00000110: 230c 8f3b 8d50 c3bc 6b7f fcbc 0c87 503d
00000120: 214f f9bd ba5f b83d 8fa4 3e3d 72b5 c4bc
00000130: 8695 8c3c 7559 b23c 58cd debd 369c 8bbc
00000140: a181 2c3d 6ae0 9e3b 17c8 9dbd 726c 1fbc
00000150: 30dd 9cbd 4dab 8a3d 72d3 733c 82e0 2e3d
00000160: 1cb2 8e39 270c 983c 8817 16bd fd84 bcbd
00000170: 98a1 a43a be5e b5bd 2536 1f3d b40d 29bd
00000180: a518 063d 39a7 0abd 2382 45be f63e 7cbd
00000190: e7d8 90ba cab8 0fbe 1643 5bbd 23b7 953c
000001a0: bfb3 a7bd eb11 7cbd d711 fdbd f548 0abe
000001b0: e51a f1bc c493 8cbd eb99 a63c 72cd 68be
000001c0: 86e5 6fbd 7199 b43a fdc3 90bc 7594 a83c
000001d0: cf53 9dbd 538d dfbc 8b44 233d c0d0 ad3c
000001e0: 4f80 4f3d add6 08bc 8255 98bd 4510 47be
000001f0: 8f2b 23bd b0e6 50bd 1b8d a33d 0a34 b73d
00000200: 6c4e 9cbc a63c 65bd c975 5c3c 41c3 c53c
00000210: 77fc 40bd 914c 803c 65cc a7bd dd66 2bbc
00000220: 1434 8fbd 5c0b 9dbc 6f1b 2a3d 5e01 893d
00000230: 4d2e 84bd 9d94 22be 156a 22bc 3c41 323c
00000240: 1936 c13c 58b5 0dbd ce81 e43c e4aa 9d3a
00000250: eb99 da3c 3307 4b3d dccf 9b3a 68b4 973b
00000260: 8eb0 4cbd 1ac2 843d fbfe cabb fa7a 543d
00000270: a51b 853c 16b9 f1bd 45e2 2a3d 5af4 783d
00000280: 4b27 783d 0c0e 8fbd 8cda a9bc 5c5f 90bc
00000290: 88e2 a5bd a376 9b3c d403 053d 2619 db3d
000002a0: ef61 e73b b34b fb3d 14c0 c3bd fb96 95bc
000002b0: 0fcf a83d 9799 a7bc ae27 9a3c c2b3 a23b
000002c0: b5ff 9c3d 8a06 d53a 1fa0 173d 7922 34bd
000002d0: aaf5 833b 9539 623d 2eb3 973b 3626 b4bc
000002e0: d06c 14be f395 bb3c 3683 0d3d 7120 1abd
000002f0: e959 82bd fd71 f13c 9868 703d 336a f43d
00000300: 27b1 a8bd e26c b9bc 4c8a 983c 44fc 7cbd
00000310: 3026 edbc 75b6 f93c 686a 2f3d 160a 7c3c
00000320: 2364 883b ac67 713d e9f5 b33d ae87 863c
00000330: 11c6 47bd 089e 82bb 50ea 87bd 5ffd a7bd
00000340: a338 c3bc 3749 3c3c 666c 6a3d 415f 92bd
00000350: f454 df3b d320 b4bd 8095 43bd 0663 cfbd
00000360: a23f 1c3d 2896 3b3d 7e3e 0fbd c1ea 113d
00000370: d449 cabc 88f4 f03c 09e6 673d 3e51 eabc
00000380: e6d4 e8bc a410 953d f556 3b3c 6207 393b
00000390: 56e5 223d 3e66 58be 7def 833d a148 a23d
000003a0: db2d 42bd 6435 b3bd 8529 23bd 6694 aabd
000003b0: 0400 683d 1305 37be ae29 84bc 8563 383d
000003c0: 79b7 0c3c 1305 0f3e c339 19bd b81a 2dbe
000003d0: e327 063e e102 7abd 99a3 9d3c 0cc8 05bd
000003e0: c2d5 d5bd ee80 a43d cd89 af3d c5cf 11bd
000003f0: 80de 323d 8e1b 8b3c 0477 3f3d 8c71 0cbd

fc3.weight f4 [4, 256]
-0.12346046 0.71821433 -0.017603647 0.3238255 -0.828948 -0.11810757 0.37546828 -0.2150491
0.6535544 -0.11620778 -0.01759699 -0.076631054 0.20492934 -0.41483724 -0.32084912 -0.44742024
-0.021596186 0.20234382 -0.053926565 0.27048883 0.051013805 0.3409407 0.116066314 0.07089929
0.11488201 0.0530493 0.3268528 -0.5798291 0.37754813 -0.7046731 0.122198336 -0.70036966
0.19973987 0.629289 0.19895357 -0.69546694 0.2228638 -0.005856347 -0.28736717 -0.20687386
-0.3518567 0.07380464 0.14099021 -0.598651 -0.008738507 0.21372905 -0.71140206 0.44566053
0.14513406 -0.2981573 0.124386206 0.80205226 0.44387716 -0.17791656 -0.11475928 0.69275665
-0.06540148 -0.22250287 -0.14928204 0.1560365 0.085592516 -0.008547107 0.0132053755 0.78136015
-0.29814664 0.3934413 -0.24155237 -0.68039435 -0.20795399 -0.10654988 -0.14159526 -0.30098632
0.29154554 0.11236154 -0.2544799 0.6273452 -0.11156624 -0.5455456 0.31827548 0.11111003
-0.37663147 -0.028007533 0.16281743 0.30516478 0.22375275 0.31211603 -0.5151892 0.45700392
-0.0091570895 -0.22198808 -0.19379202 -0.00015733684 -0.03875718 0.11789403 -0.12062093 -0.111683644
-0.09038282 0.3039669 1.0196425 0.06791514 0.4518169 0.33635825 -0.15726447 -0.55814874
0.24629448 -0.40475738 0.15713759 -0.40938517 -0.4968075 0.20194937 -0.6170669 0.7216758
0.19017337 -0.2850581 -0.04700107 0.28745964 -0.46756864 -0.50824124 0.20761873 0.03583181
0.11229423 0.17015173 0.060349043 -0.47491118 -0.23841538 -0.15244138 0.22829011 0.3141962
0.10304956 -0.37974373 0.072049886 0.0676455 -0.3193449 -0.15731262 0.97498333 0.23930952
-0.19878994 0.28107846 0.28143242 -0.07851911 -0.10168649 0.2934991 -0.14045134 0.42332095
0.62899697 -0.31070194 -0.6894359 -0.12033273 0.12806867 -0.105222255 -0.058410272 -0.12932295
-0.22933601 0.43289125 0.024540849 0.021758268 -0.027182952 -0.24533865 0.012247738 -0.33859715
0.62909496 -0.5961946 0.008264627 0.08939838 -0.0950832 -0.06262942 -0.07877769 0.09386553
-0.006698961 0.12677017 -0.33195072 0.19897984 -0.17323977 -0.35842562 -0.014770592 0.048512228
0.28475446 -0.083281904 0.014795602 -0.3868388 0.10099765 0.16312288 0.027191931 0.03459869
-0.15753882 -0.020437013 -0.33741948 0.19326943 -0.028890288 0.10543674 -0.2507868 -0.100439824
-0.6684947 0.0933091 0.18616295 -0.1847911 -0.100986555 0.058185305 0.12916116 -0.056170184
0.3983967 0.046119265 0.19584723 -0.08264116 0.14259939 0.0050393366 -0.6059712 -0.2382368
-0.13132906 0.16617003 -0.14796384 -0.07756135 0.94597834 0.23310791 -0.22798674 -0.28389114
-0.28418007 0.41367894 -0.6757803 0.25402138 -0.57913995 -0.21937971 -0.22318338 -0.56680197
0.1830642 -0.52108955 0.025561215 0.18387656 0.36336303 0.37985864 -0.6831649 -0.56222683
-0.11250493 -0.042042416 -0.15501417 -0.2618681 -0.0738268 -0.41461423 -0.7214997 -0.3050969
-0.21753027 0.26665163 0.023687996 0.48216373 0.26479137 0.25438038 -0.21987271 0.5078605
0.2551879 0.037427668 0.32054883 -0.21359639 0.07758555 0.27066064 -0.069866605 -0.63899654
00000000: d6d8 fcbd e5dc 373f 8635 90bc 75cc a53e
00000010: f035 54bf 62e2 f1bd 613d c03e d535 5cbe
00000020: 574f 273f 58fe edbd 9027 90bc bef0 9cbd
00000030: ffd8 513e 8c65 d4be 5646 a4be 4414 e5be
00000040: 7cea b0bc 3833 4f3e 1ae2 5cbd 837d 8a3e
00000050: daf3 503d c88f ae3e 2db4 ed3d a633 913d
00000060: 4247 eb3d 394a 593d 4059 a73e ae6f 14bf
00000070: fd4d c13e 7565 34bf 1f43 fa3d 6d4b 33bf
00000080: 9c88 4c3e 1519 213f 7cba 4b3e 1f0a 32bf
00000090: 6836 643e 99e6 bfbb ca21 93be bed6 53be
000000a0: 9026 b4be e326 973d bd5f 103e 3141 19bf
000000b0: f42b 0fbc cadb 5a3e 721e 36bf 9e2d e43e
000000c0: 069e 143e 13a8 98be 32be fe3d 4c53 4d3f
000000d0: de43 e33e c22f 36be ea06 ebbd 8058 313f
000000e0: 36f1 85bd cbd7 63be 64dd 18be 08c8 1f3e
000000f0: 214b af3d 2a09 0cbc 5c5b 583c 3807 483f
00000100: ada6 98be 2371 c93e 8159 77be 532e 2ebf
00000110: e4f1 54be d336 dabd 59fe 10be e11a 9abe
00000120: 7545 953e cf1d e63d 304b 82be b299 203f
00000130: d77c e4bd e0a8 0bbf 01f5 a23e a88d e33d
00000140: d7d5 c0be 0e70 e5bc 9db9 263e 8f3e 9c3e
00000150: 711f 653e accd 9f3e 70e3 03bf 6bfc e93e
00000160: 9e07 16bc d850 63be 6a71 46be c9fa 24b9
00000170: d9bf 1ebd 6d72 f13d 1b08 f7bd 65ba e4bd
00000180: a11a b9bd 8da1 9b3e a583 823f 1817 8b3d
00000190: 8b54 e73e 2637 ac3e f009 21be d6e2 0ebf
000001a0: 9f34 7c3e 5c3c cfbe ade8 203e ef9a d1be
000001b0: 8d5d febe d1cb 4e3e 19f8 1dbf bfbf 383f
000001c0: cfbc 423e 23f3 91be 3284 40bd e92d 933e
000001d0: 2865 efbe 191c 02bf 019a 543e 60c4 123d
000001e0: 84fa e53d 413c 2e3e 8f30 773d 8f27 f3be
000001f0: 2923 74be 9819 1cbe e2c4 693e 53de a03e
00000200: a60b d33d c56d c2be e48e 933d b989 8a3d
00000210: 2d81 a3be 8f16 21be 8298 793f 8e0d 753e
00000220: 978f 4bbe 84e9 8f3e e917 903e a1ce a0bd
00000230: 0241 d0bd 8445 963e 7ad2 0fbe 86bd d83e
00000240: f205 213f 5314 9fbe df7e 30bf 0271 f6bd
00000250: 6f24 033e c47e d7bd 9c3f 6fbd 3c6d 04be
00000260: 0fd7 6abe eca3 dd3e e409 c93c 653e b23c
00000270: c8ae debc 0e3a 7bbe bdaa 483c 9b5c adbe
00000280: 5e0c 213f 36a0 18bf 5c68 073c 7f16 b73d
00000290: fbba c2bd da43 80bd 3356 a1bd 923c c03d
000002a0: f582 dbbb 0ad0 013e 72f5 a9be 5fc1 4b3e
000002b0: c465 31be 9083 b7be 5a00 72bc c2b4 463d
000002c0: 56cb 913e b48f aabd 4169 723c bc0f c6be
000002d0: dbd7 ce3d af09 273e 9dc1 de3c 5bb7 0d3d
000002e0: db51 21be 866b a7bc 3fc2 acbe 6ce8 453e
000002f0: 53ab ecbc 38ef d73d 2167 80be 65b3 cdbd
00000300: 7822 2bbf d718 bf3d 80a1 3e3e e139 3dbe
00000310: 0ad2 cebd b753 6e3d d342 043e b512 66bd
00000320: a7fa cb3e 8ee7 3c3d 2d8c 483e c53f a9bd
00000330: 9305 123e 0521 a53b ee20 1bbf 59f4 73be
00000340: 207b 06be 7a28 2a3e d583 17be 7cd8 9ebd
00000350: a32b 723f d7b3 6e3e 5b75 69be 2e5a 91be
00000360: 0d80 91be bacd d33e f0ff 2cbf 170f 823e
00000370: 8442 14bf 13a5 60be 2f8a 64be ef19 11bf
00000380: 2f75 3b3e 2066 05bf c165 d13c 234a 3c3e
00000390: b80a ba3e d57c c23e e5e3 2ebf 19ee 0fbf
000003a0: fc68 e6bd ab34 2cbd 09bc 1ebe 9313 86be
000003b0: 8132 97bd 5148 d4be 34b4 38bf a935 9cbe
000003c0: 41c0 5ebe 9086 883e 540d c23c 2ade f63e
000003d0: bc92 873e 253e 823e 5026 61be 2503 023f
000003e0: fda7 823e c14d 193d fa1e a43e 03b9 5abe
000003f0: 2ce5 9e3d 0894 8a3e 3916 8fbd 4795 23bf

fc3.bias f4 [4]
0.03238412 0.06309455 0.0069502783 0.06182252
00000000: 36a5 043d b737 813d 29bf e33b 9c39 7d3d
