checkpoints/checkpoint_actor_ddqn_4.pth (torch_old, 303163 bytes, 6 tensors)

fc1.weight f4 [256, 33]
00000000: ada2 b4be e08d adbc a8e5 313d f102 94bd
00000010: 70ed 143e 0129 91bc 45cf 95bd a39a 063e
00000020: dc7a fe3c 6c1e 493e 276f edbc bfc6 4bbd
00000030: fea2 c3bc 5d72 af3e 0372 353d e870 c3bd
00000040: a01d 23bd 017f e4bc b833 07bb 09fa 71bc
00000050: 3aec 82bd 727d d83c b1fc 813d b7f8 af3d
00000060: 70a6 8f3c 4e36 c8bc 64c0 3dbe e976 a5bc
00000070: 92ba 16bd 2693 19bd b80d 98bd 446c 253d
00000080: 93b8 ef3e 7fdf 8b3d bf39 883d 0e4a a3be
00000090: f3b8 f53a 94dc 4fbd ed8c 0b3e fa5c 473e
000000a0: 51b1 a13b bf13 edbc bade 8ebd 4549 a43d
000000b0: bd26 5dbd 2e23 99bc cb88 5abd 5ab5 0fbe
000000c0: 2e6b 593e e3c6 003e fbed 5cbd b533 7c3c
000000d0: 631b f53d a729 933b bbc9 1b3e a9c6 283d
000000e0: 0494 433c 43f7 83bc 82cc 4ebc 9c88 ce3b
000000f0: ba10 ddbc d434 a1bd a614 613d c85e 40bd
00000100: daed 663d ce69 4abe 72fb 383d da9b 903e
00000110: 1deb dabd 4dd8 903d 1d2a 0b3d a2a9 9dbd
00000120: 35c5 48be 2f6e 22bd 9d86 513e 53bd 27be
00000130: 7580 f83c 08bf b3bd 52dd eebd a505 fe3d
00000140: 8963 48be 7271 523e 6199 00bd af6c 48bd
00000150: 26e8 303d caf9 b13d 5674 7cbc dbd5 483d
00000160: 9d50 e8bd 0ce1 1b3b 47c5 353d dd86 dd3c
00000170: 065e c1bd 3b38 81bd c856 0fbe 2895 dbbc
00000180: ef5e 9d3d 9c46 653d b656 0ebe c2a3 54be
00000190: c0b8 c93b 7e32 0bbe b1a4 8ebb a4fd 393d
000001a0: 6628 9d3d 261e 303d 3517 30be 87b2 2a3d
000001b0: 1820 12be 15de fcbd 5dd8 733c d721 b63c
000001c0: f7fa 0d3e db51 47be 98c5 3b3e 5a4a 03ba
000001d0: 3677 bd3d f3fd 573d a91f 26bd 7829 8abc
000001e0: 2543 f7bd 9afb a03c 4739 b03c 8355 11be
000001f0: 988e a9bd 1c22 22bd 385c e73d f186 a6bd
00000200: 08e5 05bd 2c76 e5bd 8610 0a3d 12aa 303d
00000210: 3002 543e 7887 c33d 0a65 a83e 63b8 d4bd
00000220: a590 7ebe 9ba7 843c ca2f 25be f111 473e
00000230: c3ef c3bc dd7d b93d 299a c3bd de20 bfbd
00000240: a59d 02bd 53ff 72bd a6c8 88bc 0373 433c
00000250: 3af4 083d 35c7 0f3d 6e19 08be 8d4b b3bd
00000260: 82a7 8fbe c301 a13d b81d 6fbe 7186 653d
00000270: 88c7 c5bc 0d45 9ebd f2ff 4bbd a127 553d
00000280: 78ce 0a3b 961b 1fbd e914 3d3d 2058 783d
00000290: 6199 31be 1ea6 a4be e70d 143e 95e9 82bd
000002a0: 45ba f53d b19e 213d 3e41 183d ef97 cd3d
000002b0: 3a56 dabd d51b 8bbd d30b 2b3e ee2c 37bc
000002c0: 2f66 d63c db1c 233b dd87 093d 1a02 3dbe
000002d0: 7355 b23d 8d9b 33be 2aec b4bc c187 bf3d
000002e0: 4a06 afbd 1dea 96bd e57c 0fbe 9a72 61be
000002f0: 1661 53bd a817 8abd c683 3abe b96d 803c
00000300: ba9b 983d cff0 78bd d083 d03c 889b ffbc
00000310: 405f 603b fe4b 0a3f 6ae4 7ebb e2f2 8bbd
00000320: 00d2 bcbd dcc2 04be f57f ef3d d39c 733e
00000330: db87 4bbc 4f39 17bd dda8 163d 3818 c4bd
00000340: 1cee cc3c 1ad0 01bc d868 67bd f0f5 de3d
00000350: d496 9e3e d4b5 643e cede a63a 9aa4 313d
00000360: 9157 c23c 2df5 2cbc 3ee4 0e3d 8d36 ad3d
00000370: bf1e 8fbd 7b0f f13d a3de e13d d6b7 f53d
00000380: 9ef8 ad3d de69 bf3b b49f 82be 0078 2d3b
00000390: 7875 94bd a025 983c 707f 5e3f 0d1b 69be
000003a0: 2d33 7cbd d23c 94be 14b0 1539 0451 adbd
000003b0: a4ac 26be ce4d 313c c435 863c edd6 3e3e
000003c0: f082 b3bc 1cec 1bbe cb3a 81bc 5ea3 7cbe
000003d0: 7f91 a03d 4c0c 3dbd fc45 21bc 6b01 93bd
000003e0: e786 b9bb cd9b 293d f3b5 f5bc eb8e 7ebe
000003f0: 53b7 0c3d 8e1b 583e 5a57 103e a3a0 a1bb
-0.35280362 -0.021185815 0.043431908 -0.072271235 0.145437 -0.017719747 -0.07314924 0.13144927
0.031064443 0.19640511 -0.028983666 -0.049750086 -0.023881432 0.3426694 0.044298183 -0.095430195
-0.039823174 -0.027892591 -0.0020630192 -0.014769086 -0.06392713 0.026427004 0.06347025 0.085923605
0.017535418 -0.024439957 -0.18530422 -0.020198302 -0.03679902 -0.037493847 -0.07424492 0.040386453
0.46820506 0.06829738 0.06651639 -0.31892437 0.0018747136 -0.05074747 0.13627978 0.19469061
0.004934468 -0.02894008 -0.069760755 0.080217876 -0.05399202 -0.018693533 -0.053353112 -0.14034024
0.21232292 0.1257587 -0.053937893 0.015393187 0.11968114 0.0044910493 0.15213673 0.041205082
0.011937145 -0.016109115 -0.012622001 0.006302906 -0.026985515 -0.07871404 0.054951333 -0.04696539
0.056379177 -0.19766924 0.045161672 0.28243905 -0.106893755 0.07072506 0.03397571 -0.076983705
-0.19606479 -0.03965586 0.20461507 -0.16380815 0.03033469 -0.08776671 -0.11663307 0.1240342
-0.1956922 0.20551088 -0.031396274 -0.048931774 0.043190144 0.086902216 -0.015408596 0.049032073
-0.11343501 0.0023785261 0.04437759 0.027041847 -0.09441762 -0.06309553 -0.13997948 -0.026804522
0.07684123 0.05597554 -0.13900265 -0.20765594 0.006156057 -0.1359348 -0.004353129 0.045407906
0.07673721 0.0429975 -0.17196353 0.041674163 -0.14270055 -0.12347046 0.014883128 0.022232933
0.13865267 -0.19464819 0.18337095 -0.00050083327 0.09251253 0.05273242 -0.040557537 -0.016865477
-0.12073354 0.019651223 0.021511687 -0.14192776 -0.08279151 -0.03958331 0.11296886 -0.08131207
-0.032689124 -0.1120418 0.033707164 0.04313094 0.2070396 0.09547323 0.32889587 -0.103867315
-0.24859865 0.016193202 -0.16131511 0.19440438 -0.023918038 0.0905721 -0.09550888 -0.09332441
-0.031888623 -0.059325527 -0.01669724 0.011929276 0.033436038 0.035102088 -0.1329095 -0.087546445
-0.28057486 0.07861664 -0.2335118 0.056036416 -0.024142995 -0.07728014 -0.049804635 0.052039746
0.0021180194 -0.038844667 0.04616252 0.060630918 -0.17343666 -0.32157987 0.14458428 -0.063922085
0.11998419 0.03945798 0.037171595 0.10038745 -0.10660978 -0.06792418 0.1670373 -0.011180146
0.026171772 0.0024889025 0.033576835 -0.18457833 0.087077044 -0.17539807 -0.022085268 0.09352065
-0.085461214 -0.07368872 -0.14012487 -0.22016373 -0.05160626 -0.06742793 -0.1821433 0.01567732
0.074515775 -0.060776528 0.025453478 -0.031202093 0.003423646 0.54022205 -0.003889347 -0.068334356
-0.09219742 -0.12964958 0.11694328 0.23790292 -0.012422527 -0.036919888 0.036782134 -0.09574932
0.025015883 -0.00792315 -0.05649647 0.108867526 0.30974448 0.22334987 0.0012731196 0.043369867
0.023723396 -0.010556501 0.034885637 0.0845767 -0.06988286 0.11770531 0.11028793 0.119979545
0.084946856 0.005841478 -0.2551247 0.002646923 -0.07248968 0.018572628 0.86913204 -0.22764225
-0.061572243 -0.28952652 0.00014275342 -0.08462718 -0.16276795 0.010821773 0.01638306 0.18636675
-0.021913022 -0.15226787 -0.015775105 -0.24671695 0.07840251 -0.046154305 -0.009843346 -0.07178005
-0.0056618336 0.04140835 -0.029993987 -0.24859206 0.03435452 0.21104261 0.14095822 -0.0049324795

fc1.bias f4 [256]
00000000: 4f15 76bd 2293 f3bd 13ee 523e 3a4d 0ebe
00000010: b74b 8d3d 9820 1ebd 344d 4ebe a10f b4bc
00000020: 5fdb 553e 551d 593e bd43 f2bd 9b4b bd3d
00000030: e89e 15bd 31e4 873d f4f4 733e b1e6 6d3e
00000040: ec7e 093e 4fcc cc3c 693f 1cbe 8d68 5dbe
00000050: b13a 86bd 67ae b73d 3a57 973d 52a6 fb3d
00000060: 1f9c 0ebe 03d1 0d3c 40e8 1b3e 51e6 0bbd
00000070: b554 703d 90ba 35be c3ce 8fbd e02b c2bd
00000080: d651 d63d 8cbb 013d 6ef2 4abe a0d5 ef3d
00000090: 1df0 1ebe 80f9 aabc 54ad fa3d f76d 2a3e
000000a0: 9d18 7cbe b79e 6dbd 1a5e 203e fb03 3d3e
000000b0: 3138 4d3e 511c 2abd 97a4 f03d 98ca 4bbe
000000c0: 3740 093e a98e b93c b676 3fbe a454 053e
000000d0: b118 02be 6a8b c2bd 5aab 41be 34da 323d
000000e0: eecc 033d 3a9e 7f3e 0d1e f2bd 50ce f03d
000000f0: f4a8 bdbd c82a 13be 015e 2dbd b89f a53c
00000100: d3d4 eebd 8e58 6cbe f73a 273e 3829 383c
00000110: 9100 6b3d 0968 bebd 0ad4 7d3d 8a5d 343d
00000120: 618d 66be d30b 613e 5558 6f3b 05b2 8e3d
00000130: 806a 8abe 5fb6 743d 21d8 54be 7c94 e93d
00000140: bd5a f13d 9069 63bd efe5 04bd a10e a3bd
00000150: 42b7 c1bd 4cb9 813d 3781 bdbe 10d4 733c
00000160: 644a 52bd e44e 7a3b c1c2 6ebd 4cca 5dbc
00000170: bcad bdbd 3a39 833e 635b 7bbd 707d d8bd
00000180: 2a0c 43bd bcd0 3bbe 0c9b a8bd 67b6 b03d
00000190: 27fc e23d 5172 083e 410f 44bd c5dd 233e
000001a0: 83e8 71bd 8e06 dcbb d418 66bd 5ca2 113e
000001b0: 5fc4 e3bc 92e7 2ebd e985 9f3e 77bb 2fbd
000001c0: f6eb 6dbe f515 b1be 8b26 0e3e eaec 06be
000001d0: 4dec 4dbe af4e a8bd c772 943c ed99 21be
000001e0: eb74 ac3d 0604 3b3e d315 1cbe 2163 95bd
000001f0: 4899 0a3e ce32 a4bd 8c3e 93bb 6e86 17bd
00000200: 3248 70be 8766 85be 0593 2cbe 3289 05be
00000210: e8bb 983d 4605 eabd dfb6 82bd 01c9 93bb
00000220: 84a0 f83c 6c60 7abd bdae 18bd 2b01 36bb
00000230: cac9 9cbd cc03 0ebe 4598 1dbd 6b04 5e3c
00000240: 856c 64be 5bfc 18be 8ed6 88bd 76db eebb
00000250: a447 d93d 0230 4abe 5468 00be a2c4 a2bc
00000260: 2f82 783d bbdb adbd 642d dc3c 06f8 91bd
00000270: 80fd 4abd 5e0e 36bc 4a7e 2ebd 6bb6 d03c
00000280: fbb1 22bd 8a35 dbbd de76 2b3e e8df 5c3d
00000290: d443 1f3e 83c2 66bd bcfe f6bd a048 2abe
000002a0: be5c 03be 2dc0 91bd 3968 ef3d a575 1a3e
000002b0: ef96 18bd eb4f 603d 3e9b d8bd 3614 103e
000002c0: cf86 2bbe 1f9d 07be f0d4 cabb aa56 863d
000002d0: 1bbf a9bd 5348 473e 669e 49bd 86e6 26be
000002e0: 12c7 263b d3fa f33d 04b6 273e 80f6 aebc
000002f0: f3e8 f6bd dd18 463d af5b 30be a136 00be
00000300: 414c 393d 3388 25bc f68a f7bd 94ea 6cbe
00000310: c316 a93d eda9 963d 3d86 7cbd 93d3 b23c
00000320: 2d6b 613e f8a5 393e 05ea 5cbc fbec 1a3e
00000330: 07ef 19be b282 e33c 3fd9 d3bd e4c6 72bd
00000340: 9a09 233d a1b9 2e3d e17f 60be a341 9ebc
00000350: e037 61bd edb8 e73c bf6b adbd bff1 1cbd
00000360: 54f3 a0bd fb2e 7ebe 4005 58bd fc30 043e
00000370: fc88 993c dddc b8be 5e40 6ebd 1201 febd
00000380: 0369 da3d 5f06 a5be 0695 6cbd b2db 87be
00000390: 41fc 72bd 0db5 e73d ac40 1cbd d854 82bd
000003a0: ef97 d0bd b53a 393e e86c ffbd c705 16be
000003b0: 6e10 093d 60dd f2bc 0d41 efbd f536 adbd
000003c0: 00d4 72be 9434 6cbe 42a3 b4bd 68cc 0f3d
000003d0: 967b 2b3a b8e8 c9bd 587d 0abc c408 203e
000003e0: ba89 303e d135 7b3d 8277 dbbd 5569 75be
000003f0: cc5b 71be 75c7 233c d0db 15be 8614 02be
-0.060078915 -0.11893298 0.2059863 -0.13896647 0.06899207 -0.038605303 -0.20146638 -0.021980109
0.20884465 0.21202596 -0.11829326 0.09242936 -0.036528498 0.06635321 0.23823911 0.23232533
0.13427323 0.024999766 -0.15258564 -0.21621914 -0.06554163 0.089688115 0.07389684 0.122875825
-0.13926743 0.008655789 0.15225315 -0.034155194 0.058674533 -0.17746949 -0.070218585 -0.09481025
0.10464828 0.031673 -0.19819042 0.117106676 -0.15521283 -0.020870924 0.12240091 0.16643511
-0.24618764 -0.05801269 0.15660897 0.1845855 0.20040967 -0.04153091 0.11750143 -0.19901502
0.13403402 0.022651033 -0.18697628 0.13020569 -0.12704732 -0.09499247 -0.18913022 0.043665126
0.032177858 0.24962702 -0.11822138 0.11758101 -0.09260741 -0.14371789 -0.042325977 0.020217761
-0.11661687 -0.23080656 0.16331087 0.011240296 0.057373587 -0.09297187 0.061969794 0.04403452
-0.2251487 0.21977167 0.0036521156 0.06967548 -0.27034378 0.059744235 -0.20785572 0.11405274
0.11784885 -0.055520594 -0.032445844 -0.079617746 -0.09458782 0.06334171 -0.37012646 0.014882103
-0.051340476 0.0038193995 -0.0582912 -0.013537001 -0.09261653 0.25629598 -0.06136645 -0.105708
-0.047619022 -0.18341345 -0.08232698 0.086285405 0.110832505 0.13324858 -0.04786611 0.16002567
-0.05905963 -0.0067146486 -0.05617602 0.14222091 -0.027803598 -0.04270131 0.31156853 -0.04290339
-0.23234543 -0.34587064 0.1388189 -0.13176313 -0.20109673 -0.08218133 0.018121136 -0.15781374
0.08420738 0.18263254 -0.152427 -0.07294298 0.13535035 -0.08017503 -0.00449354 -0.036993437
-0.2346504 -0.26054785 -0.16852959 -0.13040617 0.07457715 -0.11426787 -0.06382536 -0.0045100455
0.030349977 -0.06112711 -0.03727602 -0.0027771692 -0.07655676 -0.13868636 -0.038475294 0.013550858
-0.22307022 -0.14940016 -0.06681548 -0.0072893454 0.106093675 -0.19744876 -0.12539798 -0.019869152
0.060671028 -0.08489176 0.026877113 -0.07127385 -0.049558163 -0.011111824 -0.042600907 0.025477609
-0.039720517 -0.10703571 0.16744563 0.05392447 0.15553218 -0.056337845 -0.120603055 -0.16629267
-0.12828347 -0.07116733 0.11689801 0.1508394 -0.037253316 0.054763716 -0.10576485 0.1407021
-0.16750644 -0.1324353 -0.006189935 0.065594986 -0.082884036 0.19461183 -0.049223326 -0.16298875
0.0025448245 0.11913075 0.16378027 -0.021357775 -0.1205615 0.048363555 -0.17222475 -0.1252084
0.045238737 -0.010103273 -0.120870516 -0.2313636 0.082562946 0.073566295 -0.061651457 0.021829402
0.2201354 0.18129718 -0.013483529 0.15129463 -0.15032588 0.027772281 -0.10344171 -0.059271708
0.03980408 0.0426575 -0.21923782 -0.019318407 -0.054984927 0.028286422 -0.084678166 -0.038316485
-0.07858911 -0.24822609 -0.05273938 0.12909311 0.018742077 -0.36106005 -0.058166854 -0.12402548
0.10664561 -0.32231423 -0.057759307 -0.26534802 -0.0593226 0.113138296 -0.038147613 -0.06363839
-0.10185229 0.18088801 -0.12471944 -0.14650641 0.033462934 -0.029646575 -0.11682329 -0.08457748
-0.23713684 -0.23066932 -0.088202015 0.035107046 0.0006541548 -0.09858841 -0.008452736 0.15628344
0.17240039 0.06133062 -0.10716154 -0.23965962 -0.23570174 0.009996285 -0.14634633 -0.12703142

fc2.weight f4 [256, 256]
00000000: d7b9 3d3d 6455 4fbd 433d 823d a62d 89bb
00000010: 898e d4bc 652e f9bd a8d4 ea3c 9920 05be
00000020: f96c e63d 8ae1 af3d 6a1c 99bd fd86 cc3e
00000030: a790 1dbe f2f8 b63c 5616 aebe e6b3 4dbe
00000040: aec8 dabe 355c 4abe 18a5 c9bd 938f 093d
00000050: 6412 9dbe 53f2 08be fa5e 463d 2e40 e03d
00000060: 8cba 7f3e e03e acbd d453 a7bd 751e 003e
00000070: ce21 9a3d b9c9 203e 9e6e a23b 95d9 063e
00000080: aa03 36bc d6b6 1abe 0f0f 71bd 1939 ba3d
00000090: 915b da3c 4195 e5bd 17e9 2fbd 8ded adba
000000a0: d443 d73d eaeb 69bd 74fa 07be 5520 21be
000000b0: c9aa 3f3c 1f5b 003d 42cc c83d 2e13 113e
000000c0: 93b3 9c3c 63f6 96be 7558 01bd cbcc b83d
000000d0: c27e e73d 3667 453e 9a5c f73d d0f5 e9bc
000000e0: b9e8 053c 5a90 d9be 0c71 903d 4e2d a23c
000000f0: 3b53 40be 3538 d83d 8458 773d 8675 873d
00000100: 981a 5bbe f1c6 ddbc 9f65 afbd e592 70bc
00000110: c947 9c3d e7a6 f8ba 16fe f13c cede 0abe
00000120: 7bf4 513e 686b 2bbd 11dc 6f3e b43e e3bd
00000130: 94d6 603d cb56 9f3c 153b 8abc a830 9fbd
00000140: f31f 51bd 1cdd acbc 7988 1cbe 136e 1f3d
00000150: 7c2c ffbb 72f2 e83d 009d 1bbe 2acb 653d
00000160: 6046 92bd 73d8 d03d 6a4c c23d 2165 b43b
00000170: fa7d 173e 1358 7cbc 2b2c 0e3e e727 f43b
00000180: a068 d53d 3a90 28bd df63 2c3e 6188 b6bb
00000190: b8c6 0bbe af69 00bd 1e4d 98bd ba02 ccbc
000001a0: 8ec7 7e3d 049e 86be c141 783d 1190 9f3d
000001b0: a6f0 513d 1dc9 5c3c 700a d9be 1ee5 9f3d
000001c0: 7dcf b63c 3719 69bd 0c57 9c3d ebf1 3a3d
000001d0: e860 943d 7929 ca3d 4949 9cbd 7e2e e1bc
000001e0: 3d9a 10be d20c 72be a30e 8a3d 3dd0 d23d
000001f0: f120 c03c 8f11 783d c5c8 cebc f758 543c
00000200: 97c1 82be c10a 883c 87a6 eabb 469f 41be
00000210: c6e2 d93c 083a 15be 0be5 9cbe 8808 003d
00000220: 68ed b73d b87e ac3b 83d0 4abd 8e2d 1abc
00000230: d899 073d 49e7 823b b052 8dbd aab2 f1bd
00000240: 44a2 cebc 4a77 62bd 63f6 9fbe dcb3 483d
00000250: bf1b 2e3d ef12 533d 941f 5a3d 3eeb f5bd
00000260: a701 c63d e373 073e f775 0e3e d15b d63c
00000270: f6ff 0ebd 3fa0 8cbd 63c4 b9be fc94 453e
00000280: 701b ce3d 1485 62be 6200 e6bd 3a9a b23d
00000290: e996 8b3e 15ac 123e 486e 72be 38c5 283e
000002a0: fa36 8bbd c1fb a93c 4830 46be 16fd 97bd
000002b0: 071f b43d 5edd d43d 7e22 943d fa2d 91bd
000002c0: 0c67 ecbc 2a3a c63d e0be 5e3d 6494 d2bd
000002d0: 5b16 3abd 6e2a 10be 3cd3 7e3d 79db e6bc
000002e0: 85ed 6cbd 3b72 dcbc f6f6 093c 2599 103d
000002f0: cd0e 22bc 4c0d b73d b316 14bd 8c69 8d3c
00000300: 2e8e 813d ebd6 313d 432b 22bd 530f 6f3d
00000310: 8b36 94bd 7f90 f7bc cb58 ecbd 27a4 133e
00000320: 170b cebc 241c 68bd a504 1d3d 27c4 91bd
00000330: 58da 8c3e 7ada 913e f25f fe3d bf99 84bd
00000340: 515b 5b3d 5688 213d 895f c2bd e1ec ebbd
00000350: c6e6 a63d 50e2 963c 5df0 48bd deee d2bd
00000360: 99d8 00bd 9a0b d73d a89e a4bd 038e 2b3e
00000370: b700 8dbe f66a a7bd 2f0c 883d 6bdf cbbc
00000380: 9eef 67bd 54df 0f3e bdf1 083e 684b 72bd
00000390: 6f3e 21be a72b 39be 2da8 56be da07 5bbe
000003a0: d941 a8bd 329e 90be 8b92 243e d3f0 b63d
000003b0: 6fb7 193e 5ae3 a33d c761 b03d 8998 8bbc
000003c0: 9af5 9bbd 3b83 53be 7506 403e a665 f93d
000003d0: c3a4 3b3e 012c c8bd 1dc6 f53d 8748 173e
000003e0: 4259 06bf 8b24 a23d 153b ae3d a8d9 afbd
000003f0: 45df 7b3e 6d14 91be 85f9 d0bd 76da 84bd
0.04631981 -0.050618544 0.06359341 -0.00418635 -0.025946872 -0.12167052 0.028665856 -0.13000716
0.11251254 0.0858794 -0.07476123 0.39946738 -0.15387212 0.022335503 -0.34001416 -0.20088157
-0.4273123 -0.19761737 -0.09845942 0.03358419 -0.30678093 -0.1337369 0.04843042 0.10949741
0.24973506 -0.0841043 -0.08170286 0.12511618 0.07525979 0.15701951 0.0049570343 0.13168938
-0.011109272 -0.15108809 -0.05885225 0.09092922 0.02665499 -0.112101085 -0.0429469 -0.0013269648
0.10510984 -0.05710975 -0.13279134 -0.1573499 0.011698433 0.0313369 0.09804584 0.14167473
0.019128596 -0.29484853 -0.0315785 0.09023436 0.11303474 0.19277653 0.12078209 -0.028559595
0.008173161 -0.42492944 0.07052812 0.019796994 -0.1878175 0.10557596 0.06038715 0.06614213
-0.21396863 -0.027072402 -0.085643046 -0.01468346 0.076308794 -0.0018970639 0.029540103 -0.13561556
0.20503418 -0.041850477 0.23423792 -0.11095944 0.054892138 0.019450566 -0.016873876 -0.07772952
-0.05105586 -0.021101527 -0.15286435 0.038923334 -0.0077872854 0.11374368 -0.1519661 0.056101955
-0.07142329 0.101975344 0.09487231 0.0055052196 0.1479415 -0.015401858 0.13884036 0.007451046
0.10420346 -0.04115317 0.16834973 -0.005570457 -0.13650024 -0.031350788 -0.07436584 -0.024903644
0.06220203 -0.2629243 0.060609583 0.0779115 0.05125489 0.0134756835 -0.42390776 0.078073725
0.022315735 -0.056908812 0.076337904 0.045640867 0.07245046 0.098711915 -0.076311655 -0.02748799
-0.14121337 -0.23637703 0.06741073 0.102936246 0.023453208 0.06056362 -0.025242219 0.012960664
-0.25538322 0.01660669 -0.007160965 -0.18908414 0.026597392 -0.14572918 -0.30643496 0.031258136
0.089808285 0.0052641295 -0.04951526 -0.009410275 0.0331057 0.0039948565 -0.06900537 -0.118016556
-0.025223859 -0.055289544 -0.31242666 0.048999652 0.04250693 0.05153173 0.05325277 -0.120077595
0.09668284 0.13227801 0.13912188 0.026166828 -0.034912072 -0.06866502 -0.36282644 0.19295114
0.10063827 -0.22121078 -0.11230542 0.08720823 0.27263573 0.14323457 -0.23674881 0.16481483
-0.06797595 0.020749928 -0.19354355 -0.07421319 0.087949805 0.10393785 0.07233141 -0.070888475
-0.02885773 0.09679063 0.05438125 -0.102822095 -0.045431476 -0.14078686 0.062213168 -0.028180825
-0.057843704 -0.026909938 0.0084206965 0.0353023 -0.009891224 0.08938083 -0.03615446 0.017262243
0.06325947 0.043417852 -0.03959204 0.058364224 -0.07236966 -0.030220268 -0.115403734 0.14418088
-0.025151772 -0.056667462 0.038334507 -0.07117491 0.27510333 0.28486997 0.12420644 -0.06474637
0.053553883 0.03943666 -0.09490878 -0.115197904 0.08149485 0.018418461 -0.049057353 -0.102994666
-0.031456564 0.1050026 -0.08038074 0.16753392 -0.27539608 -0.08174698 0.06642949 -0.024886807
-0.056625 0.14050037 0.13373466 -0.059153944 -0.15746473 -0.18083058 -0.20962591 -0.21389714
-0.082156844 -0.28245693 0.16071527 0.08932652 0.1501138 0.08002348 0.086123995 -0.017040508
-0.07615204 -0.20655529 0.18752463 0.12177591 0.1832457 -0.09774018 0.12000678 0.1477376
-0.52479947 0.07917126 0.08507363 -0.085864365 0.2459689 -0.28335896 -0.10203842 -0.064869806

fc2.bias f4 [256]
00000000: 72b0 abbd 997a b7be 3f80 5cbd 60f3 94bd
00000010: a499 c5bb cb6a 9b3a 65c7 893c 2901 3f3d
00000020: 91c8 173d c253 353e efed a8bb 37d1 0a3c
00000030: 4e7c 59bc 11ed 093c ee86 cfbc c40a 663d
00000040: 2a7a 19bd 5b70 09bd 04b7 fbbc 9947 10bd
00000050: 1572 73ba 75a8 09bc 0464 a4bd d9ac bf3d
00000060: 2180 1f3c 401e 0d3d 992f d6bd efce 21bb
00000070: 0e54 acbc 0aa3 99bd 670a 94bc 4c2f 823d
00000080: 8548 ac3d e54e 84bd 6e3c 56bd ae0b 513d
00000090: 4c70 54bb 3c8b 82bd 4d06 783d 788f c9bd
000000a0: 321a c0bd f172 fc3c c1bd 4e3d 7023 6e3d
000000b0: f64d b1bd f964 1e3d 11a8 363d 86e5 28bc
000000c0: 4c1c 37bd 7d21 8ebc d14e 6ebb 60a4 053d
000000d0: 4958 503d 4612 a63d 849b 0e3d f05d 33bc
000000e0: 37ec bc3d feca f4b9 60fb 333d 3cd2 4ebd
000000f0: 12c0 023d 2591 bf3d cc49 003d 5a79 803b
00000100: afb1 55bd b9e6 393c 984e 85bd 9b05 e1bd
00000110: 45e0 653c 8b4f 28bd ebf2 8abc fc49 06bc
00000120: 4440 473d 3a16 fcbb 40fb c83d 51e3 ffbc
00000130: a0e8 23bd 62c8 793b e793 1abd 9d23 6d3d
00000140: 8086 7eba 6a5d 5c3d 690d d9bb 7c4a 1ebe
00000150: 7b4e 5f3d 7cbf 0e3d e356 16bd 122e c13a
00000160: c109 cbbd 7d8b 943d 9ab7 b9bc a865 15be
00000170: c6ef 1d3d c857 94bc 13d3 d23c 2881 a1bd
00000180: f7cb 9bbd 63a2 e2bd a946 14bc 34bd aebd
00000190: f065 06bd f933 7b3d 1737 47bc c411 3ebc
000001a0: e4c4 65bd 760e 84bd 6985 4abe 095a 513a
000001b0: 338a 913b e7e8 253a e40b 08be 2fca 403d
000001c0: db75 a23c 8955 8abd ac74 34bd d2bd 31bd
000001d0: 528f 92bd 0746 653d b43b 82bd 557c bbbd
000001e0: 7b0d 5e3d 0f7a 8cbd 4dbb e6bd 0c4c 89bd
000001f0: bb24 78bd 73e3 2bbd 72fd 27bb 9caa 83bc
00000200: c8b0 15bd 87ba a8bc 6022 043d 4363 193d
00000210: 6e27 463c 2c5a ce3c 28ea 133c dc2b 103c
00000220: c51a ffb8 bfc1 823d c8ee e63c eaa8 353d
00000230: be24 2abc ca6b a9bd 100b 3dbc 4776 c9bc
00000240: 3898 fe3c c665 113d 083e 0c3d 413e 4a3c
00000250: 2cd8 f9bc 3f21 a73d 3c28 99bc cfcd 2e3d
00000260: 4362 3cbd 9b0b a63c f9d5 02be 44a1 88bb
00000270: 1d7b 0cbd ea62 d4bd 113d dc3c b131 643d
00000280: 257e 713d b798 e8bd 688f 3a3d e7cc 87bd
00000290: 06d8 a9bd c506 a63b d1a0 693b b6bd a63d
000002a0: 53bf 2abe b449 903d d1e9 eebd 7c01 0dbe
000002b0: 9007 e13c e501 e2bd f0cf 13bd e740 6a3d
000002c0: 9c4f ae3c ba2b 923c 52fe 93bc 687d 60bd
000002d0: 4bcf 063d 99c6 413b 286e d9bc 3b77 ac3c
000002e0: 6997 90bc e2fc 2bbc e8c1 17bc e660 47bc
000002f0: e3c3 2ebe 981b 46bd 14c9 cbbd aa7c bc3d
00000300: 7579 51bd bad6 5f3a 21cf d13a f7c9 95bd
00000310: 8779 b53d 2921 95bc 4b48 733d e388 62bc
00000320: a3fa 6dbb 1cca 863d 6998 503d ff8d 083d
00000330: f5ed 333c 8ba7 963d 9577 8ebe 4b6a e03c
00000340: 6d10 f2bc e1eb af3a c160 693d 5d96 96bd
00000350: 7971 d2bc 9b1a 3dbd 50c1 f3bc 7853 83bd
00000360: 7d98 eebc 3854 21bd 99a8 8ebc 222a d53c
00000370: 11c9 473d 2f4d 43bd 90e2 2dbb d5bb 20bd
00000380: 0015 bfbd 0d2b 4d3d 7264 b33b 3156 46bc
00000390: bef3 cc3d a8da c8bd 0d7e a1bc 9223 263d
000003a0: c558 92bc 8388 10bd 0758 c23c e09d 11bd
000003b0: fa32 4a3d d490 50bd 0c8d 7f3d 68ee 58bd
000003c0: 0f0e c03c a119 1dbd 7e5f b03d cf79 b1bd
000003d0: ecae 293d 4e0c c1bd aa3f 07bb a400 20bc
000003e0: 0ffe 05bd c89a 9e3d ab8d 493c 04fa 8f3c
000003f0: d085 da3d d648 b8be ccd3 963d e91a cfbc
-0.08383264 -0.35835722 -0.053833243 -0.072729826 -0.0060302783 0.0011857388 0.016818712 0.046631966
0.03705651 0.17707732 -0.005155317 0.008472732 -0.013274265 0.008418337 -0.025332894 0.05616261
-0.03747002 -0.033554416 -0.030726917 -0.03522453 -0.0009286714 -0.00840198 -0.08026889 0.0935914
0.009735138 0.034452677 -0.10458297 -0.0024689992 -0.021036174 -0.075018 -0.018071366 0.063566774
0.084122695 -0.064603604 -0.052303724 0.05103653 -0.0032415567 -0.06374213 0.060552884 -0.098418176
-0.09379996 0.030816527 0.050473932 0.058139265 -0.08657448 0.038670514 0.044593874 -0.010308629
-0.04470472 -0.017349953 -0.0036362896 0.032627463 0.050865445 0.08108954 0.03481628 -0.010947689
0.09224742 -0.00046690548 0.0439409 -0.050493464 0.031921454 0.09353856 0.03132038 0.0039207162
-0.052171405 0.0113465125 -0.06509131 -0.10987397 0.014030521 -0.041091483 -0.016961535 -0.00819635
0.048645273 -0.0076930793 0.09813547 -0.031236323 -0.04001677 0.0038113822 -0.037738707 0.05789529
-0.0009709373 0.053800024 -0.006623913 -0.15458101 0.054518204 0.034850582 -0.036703955 0.0014738461
-0.0991397 0.07253168 -0.022670556 -0.1458956 0.038558744 -0.018108264 0.025735414 -0.07885963
-0.076072626 -0.11066129 -0.00905005 -0.085321814 -0.03281206 0.06132886 -0.012159131 -0.011600915
-0.056095973 -0.06448071 -0.19777454 0.00079861336 0.0044415235 0.00063289556 -0.13285786 0.047067817
0.019831588 -0.06754596 -0.04405658 -0.043393917 -0.071562424 0.055974986 -0.06359044 -0.09154574
0.054212075 -0.06859218 -0.112661935 -0.06703958 -0.060581904 -0.04196496 -0.0025633243 -0.016072564
-0.036545545 -0.020596756 0.032259345 0.03744818 0.012094362 0.025189482 0.009027995 0.008799519
-0.00012164334 0.063846104 0.028190032 0.044350542 -0.010384737 -0.08272512 -0.011538282 -0.024592532
0.031078443 0.03549745 0.034238845 0.012343944 -0.030498587 0.08160638 -0.018695943 0.042676743
-0.045992147 0.020269206 -0.12776937 -0.004169615 -0.034297097 -0.10370429 0.026884587 0.055711452
0.05895819 -0.11357253 0.04554692 -0.06630879 -0.08293156 0.005066725 0.0035648833 0.08141653
-0.16674547 0.07045308 -0.11665691 -0.13770097 0.027469426 -0.110355176 -0.036086977 0.057190802
0.021278195 0.017843116 -0.018065605 -0.054807097 0.032912534 0.0029567836 -0.026541784 0.021052947
-0.017650323 -0.010497304 -0.009262539 -0.0121690985 -0.17066912 -0.04836616 -0.09950462 0.09203465
-0.05114122 0.00085387717 0.0016007164 -0.07313912 0.0886107 -0.018204289 0.059395116 -0.013826582
-0.0036312721 0.06581518 0.0509266 0.033338543 0.010982026 0.07356175 -0.2782561 0.027394434
-0.029548848 0.0013421738 0.056977037 -0.07352898 -0.025688874 -0.04616795 -0.029755265 -0.06412405
-0.029125446 -0.039386958 -0.017414378 0.026021067 0.048775736 -0.04768103 -0.0026532747 -0.03924163
-0.09330177 0.050089885 0.0054746205 -0.012105511 0.10007428 -0.0980733 -0.019713426 0.040561266
-0.017864594 -0.035286438 0.023723615 -0.035550952 0.04936502 -0.05091937 0.062390372 -0.052961737
0.023444204 -0.03835452 0.08611964 -0.08665811 0.041426584 -0.09426175 -0.0020637312 -0.009765778
-0.032712992 0.07744366 0.012301843 0.017575271 0.10670054 -0.3599307 0.07364616 -0.025281386

fc3.weight f4 [4, 256]
00000000: 1002 3ebd 58b0 813f 441b ddbd 796e 7d3e
00000010: f7c5 8ebe 0a22 df3b 87b5 8d3e ef45 12bd
00000020: 4c7e 8f3e 8195 42bd 3213 65bf b0e8 c5bd
00000030: 25b5 ab3e 8276 68bc f90c a6be 2d63 47bc
00000040: 45d8 39be e022 22be 1b59 eabe d890 d4bd
00000050: f4ab fcbe 609b 97bd 5cbc 273f 5750 1e3f
00000060: 0a65 663d a578 bdbe f3a4 f03e 00ba 243e
00000070: 87eb f63e 3536 6ebe 69e6 393e 86ce 4b3e
00000080: 9a24 26bd beb0 193f d87e be3e 0e56 733d
00000090: 33ed 983c daa6 08be bcd8 38be 0036 6fbe
000000a0: ddf0 c3be 8ae8 6cbe ae4b 373e 6a7a dcbe
000000b0: c331 963e 2e7f d03e 2ffa 253e d933 8e3e
000000c0: 6da1 29bf feb4 d7be 606e 0e3e 4449 ad3e
000000d0: 74f9 4b3e f0e8 c1be 4bc2 1cbf 7edb 5bbe
000000e0: 1621 e0be 6ab3 d6bc 4614 90be 2134 92bd
000000f0: aab0 ab3e 240b 593d e2cd 0cbe 6361 973e
00000100: 2a0c b3be a57e 933d a812 7dbe c971 c3be
00000110: ff89 8f3d 6677 29bf fcd8 493d 45c0 5dbe
00000120: cc4c 113e 9274 4e3d 4793 72be 7d98 153f
00000130: 8675 f2be fabb 253e 2130 dbbd b007 cc3d
00000140: e4f2 373e 1a61 abbe 1b36 c4bc bd27 70bd
00000150: 2e39 adbd 076d 423e 95e9 01bf b31e 7f3e
00000160: 7bdb 52bf 0f8f 5bbf 2e45 b23d 0b0e 533e
00000170: 0393 86bd f1d6 3e3f ca9a ffbd ec74 62be
00000180: 5fc1 a73d ac55 a03e 1b92 723e 2210 bcbe
00000190: a9fd 0dbe c8ba 97bc f448 66be a8f6 203e
000001a0: b1e6 03bc fb4a 83be 4cdb e03d d76c 06bf
000001b0: f6ae 39be 0bc2 513e 1143 d23d 0a48 d7be
000001c0: 0af6 023f 9e9c 143e e72b b93e faa7 e43e
000001d0: ecc5 6ebd ec39 8cbe c805 b83e a8c2 5abe
000001e0: 08b8 843e d8ef 923e 1552 1a3f 7e05 af3d
000001f0: 60a1 823d 8b4f 39be 0a7f 423e 678d 963e
00000200: e1f6 febe 3b60 1a3e 205a f43d acc9 0b3e
00000210: c768 0abf 57cf 933e 26f3 103d d87c 1a3d
00000220: 376b 43bf 39ea 753d f2e2 d43e 4b69 ecbd
00000230: a899 34be 978a 823e 37c7 dfbd d096 dc3e
00000240: 228d 043f ee74 cf3d d218 b93d 1ee8 cabe
00000250: 8c86 e9bd 3e07 973e 5b55 cfbd af13 0f3d
00000260: b2ab 46bf 2c04 3c3e 1053 b13d 0907 a6be
00000270: 9268 91be 9f43 443c cf35 34be 78a8 a3bd
00000280: 3cca aa3e 3b06 4f3e ca22 78be 845a ee3e
00000290: 5a07 9ebe afc5 123e c2ea afbe 795f a03d
000002a0: 396a 323f 6607 6abe 8b37 123e 781c 173f
000002b0: 6c89 0fbf 7980 03be 2824 743e 3ba9 2c3e
000002c0: baf1 493e 918d b13b 2465 0ebe 521d 5d39
000002d0: f1e4 853c 371d d23e 630c 28bd ba8c 343e
000002e0: 53e8 16bf 143c 4d3e 9eae 80be 67a3 bbbd
000002f0: 5f7b 6cbe d2cf e3be 7954 033e d45d 413e
00000300: 9960 b6bd 33da 39be df96 0fbe 7097 f7be
00000310: 5b7c b53e 01f1 8fbe 5021 9b3e bee3 5a3e
00000320: 052e 233d e672 293e a59a 08bd bf82 e6be
00000330: 7454 ee3e f1a2 843d 2db5 9f3e 31d8 24bf
00000340: 527f 31bf c7a9 59bc 330d e9be 6b76 d3be
00000350: c965 273f 8a11 8cbe 3bb2 e8bc 6da7 9e3b
00000360: e58d 64be e155 3b3d 1867 98bd 22b1 083b
00000370: 0252 6fbe 196a b3be b013 a5be 7a50 16be
00000380: 81aa 52bb 0df4 27bf ecfd f33e 3d83 fabc
00000390: bab3 6d3e 0572 753d b80a 963e 60d8 99be
000003a0: 55d2 65be 1484 d0bd f1e0 8c3e 18b7 8ebe
000003b0: 7e33 28bf 8877 0bbe 482d f2bd 1678 3ebf
000003c0: b595 9ebe 6911 ef3e c657 e43e a0bb b6be
000003d0: cafa 053d 182f d8bc 48c7 06be a8c8 903e
000003e0: d04b 5fbe bc23 f0bd 8882 773e 23fc 58bf
000003f0: 45df 4abd ea03 8a3f b84d efbd 55c7 e2be
-0.046388686 1.0131941 -0.10796216 0.24749173 -0.2788541 0.0068094777 0.27677557 -0.035711225
0.28026044 -0.04750586 -0.89482415 -0.09663522 0.3353664 -0.014188411 -0.32431772 -0.012169641
-0.18148907 -0.15833616 -0.45771107 -0.10379189 -0.4934994 -0.07402682 0.6552179 0.6184134
0.056248702 -0.37006107 0.47000846 0.16086578 0.48226568 -0.23262866 0.18154301 0.19903001
-0.04056225 0.6003531 0.3720615 0.05940824 0.018667793 -0.13344899 -0.18051428 -0.23360443
-0.38269702 -0.23135582 0.17899963 -0.43062145 0.2933484 0.4072203 0.16208719 0.27773932
-0.6626194 -0.42130274 0.13909292 0.3384496 0.19919378 -0.3787303 -0.6123397 -0.21470448
-0.43775243 -0.026208598 -0.28140467 -0.07138849 0.3353322 0.05298914 -0.13750413 0.29566488
-0.34970218 0.0720189 -0.24714148 -0.3817275 0.070087425 -0.6619781 0.049279198 -0.21655376
0.14189452 0.05040414 -0.23688994 0.58435804 -0.47355288 0.16184989 -0.10702539 0.09962404
0.17963749 -0.3347252 -0.02395158 -0.058631647 -0.08458172 0.18986903 -0.5074704 0.24914055
-0.8236615 -0.85765165 0.08704601 0.20610826 -0.06571009 0.74546725 -0.124806955 -0.22114915
0.081911795 0.31315362 0.23688547 -0.36731058 -0.13866295 -0.018521681 -0.22488767 0.15719092
-0.008050607 -0.25643143 0.109793276 -0.52509826 -0.18133149 0.20484178 0.10266698 -0.4204715
0.51156676 0.1451287 0.36166307 0.44659406 -0.05829422 -0.2738794 0.3594191 -0.21363318
0.25921655 0.2869861 0.602815 0.085459694 0.06378436 -0.1809675 0.18993774 0.29404756
-0.4979773 0.15075772 0.119312525 0.1365115 -0.5406613 0.28869125 0.035388134 0.037716717
-0.7633547 0.060037825 0.41579396 -0.115435205 -0.1763674 0.2549636 -0.10926669 0.4308381
0.5177785 0.101297244 0.09037937 -0.39630216 -0.11402616 0.29497713 -0.10123702 0.03493088
-0.77605736 0.18360966 0.08658421 -0.32427242 -0.28400093 0.011979013 -0.17598651 -0.07991117
0.33357418 0.2021722 -0.24232021 0.46553433 -0.30864984 0.14333223 -0.34358793 0.0783071
0.6969333 -0.22854385 0.14279 0.59027815 -0.56069064 -0.12841977 0.23841918 0.16861431
0.19721118 0.0054184874 -0.1390577 0.00021087125 0.01634452 0.41037914 -0.041027438 0.17631808
-0.5894825 0.20042449 -0.25133222 -0.09162026 -0.23093937 -0.44494492 0.12825193 0.18883449
-0.08905143 -0.18149643 -0.14022397 -0.48357725 0.35446438 -0.2811356 0.30298853 0.21375939
0.03983881 0.16547737 -0.033350606 -0.45021626 0.46548808 0.06476391 0.31192914 -0.6439238
-0.693349 -0.013285107 -0.45517883 -0.41301283 0.65389687 -0.2735713 -0.0284053 0.004841736
-0.22319753 0.045736197 -0.074415386 0.0020857533 -0.23371127 -0.35041884 -0.32241583 -0.14679137
-0.0032145085 -0.65606767 0.47654665 -0.030580157 0.23213091 0.05992319 0.29305053 -0.30047894
-0.22443517 -0.10181442 0.27515367 -0.27874064 -0.6570357 -0.13619816 -0.11825043 -0.74401987
-0.30973592 0.4669297 0.44598216 -0.35690022 0.032709874 -0.026389644 -0.13161957 0.2827809
-0.21806264 -0.11725566 0.24170887 -0.8475973 -0.049529333 1.0782444 -0.116847456 -0.44292703

fc3.bias f4 [4]
00000000: bc84 18bd dc8a 533d 4fa5 6fba 3116 af3d
-0.03723596 0.0516461 -0.00091417594 0.085491545
