checkpoints/checkpoint_actor_ddqn_10.pth (torch_old, 303163 bytes, 6 tensors)

fc1.weight f4 [256, 33]
0	0xbd6c7dc0	-0.057737112
1	0xbe34c0ad	-0.17651625
2	0xbe5e544e	-0.21711847
3	0x3cd0b49c	0.025476746
4	0xbdb223a2	-0.08698203
5	0xbd9a7170	-0.07541168
6	0xbdb27bde	-0.08715032
7	0x3d993685	0.07481102
8	0x3d0eadeb	0.03483383
9	0x3e5918b2	0.21200827
10	0xbc822514	-0.01588682
11	0xbd8ccaf2	-0.06874646
12	0xbba148ff	-0.004922032
13	0x3d04c7c2	0.032417066
14	0x3d0e3c67	0.034725573
15	0x3ef177d4	0.47161734
16	0xbbb1e4cd	-0.0054288865
17	0xbbecdd1f	-0.007228508
18	0xbc2cb257	-0.010540566
19	0x3d30d43c	0.043171152
20	0xbcab2683	-0.020892387
21	0x3d2cd4e7	0.042195227
22	0xbdb9d89a	-0.090745166
23	0x3d34645f	0.044041034
24	0x3d3943f9	0.04523084
25	0x3d9c3bc8	0.0762859
26	0xbda12980	-0.078692436
27	0xbe7266fa	-0.23672095
28	0xbeb3881d	-0.35064784
29	0xbd199326	-0.037493847
30	0x3e11b13a	0.14227763
31	0x3d256c44	0.040386453
32	0x3e9c505c	0.3053006
33	0x3d5ee60e	0.054418616
34	0x3dd73252	0.10507645
35	0xbe844d40	-0.25840187
36	0x3d346ee2	0.04405106
37	0xbdb9f076	-0.090790674
38	0x3d1f0e34	0.038831905
39	0x3c99c934	0.018772699
40	0x3d8f54bb	0.06998583
41	0x3d327401	0.04356766
42	0x3c060fe2	0.008182498
43	0xbcb89961	-0.022534074
44	0x3d65cf79	0.056106064
45	0x3e24a266	0.16077575
46	0xbd471dd3	-0.048612427
47	0x3d6bb323	0.057543885
48	0x3e9ac697	0.30229637
49	0x3c57218a	0.013130555
50	0xbda16d29	-0.07882149
51	0x3dfcc7e2	0.12342812
52	0x3db84760	0.08997989
53	0xbd4f8989	-0.050668273
54	0xbd54e55c	-0.051976547
55	0xbdbcf35a	-0.09226103
56	0x3d5ad1f9	0.0534229
57	0xbc025393	-0.007954496
58	0x3e2fb1d5	0.17157681
59	0x3b9015d1	0.004397132
60	0x3d0a5ac3	0.033777963
61	0x3dbf9582	0.09354688
62	0x3d6114a6	0.054951333
63	0xbddca107	-0.10772901
64	0x3d66edda	0.056379177
65	0x3e16f59b	0.14742129
66	0x3e0426a0	0.1290536
67	0x3e185436	0.14875874
68	0xbdfc9952	-0.12333931
69	0xbd04b3a6	-0.03239789
70	0xbdacb740	-0.0843339
71	0x3d7c20f2	0.061554857
72	0xbe211320	-0.15729952
73	0x3cc81224	0.024422713
74	0x3e8b15e3	0.27165136
75	0xbdb287d6	-0.08717315
76	0xbd45704b	-0.048202794
77	0x3e54851f	0.20753907
78	0xbdde1867	-0.10844498
79	0x3e120648	0.14260209
80	0x3e2334a5	0.15938051
81	0x3e191e45	0.14952953
82	0xbc5c1544	-0.0134328045
83	0xbd4e068f	-0.050299224
84	0x3da3c994	0.07997432
85	0x3d8f927c	0.070103616
86	0x3db0ac9a	0.08626671
87	0xbd5691b1	-0.052385036
88	0xbd9bbd5c	-0.07604477
89	0x3d75e677	0.06003424
90	0xbdad19d2	-0.084521905
91	0xbd0802bb	-0.03320573
92	0xbcaa87cb	-0.020816704
93	0x3e13fe84	0.14452559
94	0xbdf90d99	-0.12160797
95	0xbcdb9528	-0.026804522
96	0xbe05eb49	-0.13078035
97	0x3d65469c	0.05597554
98	0xbf1bdc40	-0.6088295
99	0x3d717b60	0.05895555
100	0x3e73889d	0.23782583
101	0xbd77b4d6	-0.060475193
102	0xbc1e2bb9	-0.009653979
103	0xbd696938	-0.05698511
104	0xbe0938ce	-0.13400576
105	0x3c8d5d87	0.017256511
106	0xbe3f5645	-0.18685253
107	0x3e207920	0.15671206
108	0x3eab8f3e	0.33507723
109	0x3d9e0d4f	0.07717382
110	0x3e811ae5	0.2521583
111	0x3d34a6d1	0.0441044
112	0xbe55b78c	-0.20870799
113	0xbcf94cfa	-0.030432213
114	0x3a4c738d	0.0007799201
115	0xbc2a4dc1	-0.010394515
116	0xbe084757	-0.13308464
117	0xbe02d0b1	-0.12774922
118	0xbd5152c6	-0.05110433
119	0x3d51a71b	0.051184755
120	0x3d4b074b	0.049567502
121	0x3cb53010	0.022117645
122	0xbd8b67ac	-0.06806883
123	0x3c446592	0.011987107
124	0xbdc7817d	-0.09741495
125	0x3c9af166	0.018913936
126	0x3e02e44e	0.12782404
127	0x3df0ea6d	0.11763463
128	0xbd05e508	-0.032689124
129	0xbe01f157	-0.1268972
130	0x3d0a1086	0.033707164
131	0x3dab40c5	0.08361963
132	0xbe0beac6	-0.13663778
133	0xbe4bedf6	-0.19914994
134	0x3e88912e	0.26673263
135	0xbd599eeb	-0.05313007
136	0xbe20b04b	-0.1569225
137	0x3d0c721e	0.034288518
138	0x3ca367d5	0.019946972
139	0xbd07ccbc	-0.033154234
140	0x3dd9569e	0.10612224
141	0x3e1ff1cb	0.1561958
142	0x3d54c2ef	0.051943716
143	0xbb688661	-0.0035480487
144	0x3da2a898	0.07942313
145	0x3e3a25d0	0.18178487
146	0xbd38f22f	-0.04515284
147	0xbd9294cc	-0.07157287
148	0xbdda7445	-0.10666708
149	0x3e096197	0.13416134
150	0xbc918ade	-0.017766412
151	0xbda42133	-0.08014145
152	0xbd16b148	-0.036790162
153	0x3dda1c93	0.10649981
154	0xbdf200ed	-0.11816583
155	0x3cd55d42	0.026045445
156	0xbd195a20	-0.037439466
157	0xbc832201	-0.016007425
158	0xbdf62338	-0.12018436
159	0x3daa320c	0.08310327
160	0xbcb7d29d	-0.022439295
161	0xbd1f1b96	-0.038844667
162	0x3c77621e	0.015099077
163	0x3d785820	0.060630918
164	0xbe1eff98	-0.15527189
165	0xbea3a8ac	-0.31964624
166	0x3e6f279a	0.2335495
167	0xbd855021	-0.06509424
168	0x3df658c6	0.12028651
169	0xbd11de51	-0.035612408
170	0xbd539770	-0.051658094
171	0x3e2394ef	0.15974782
172	0x3dd23036	0.10263102
173	0xbeb8b5fb	-0.3607634
174	0x3e03a8bb	0.12857334
175	0xbd2becbf	-0.041973826
176	0x3e13eeae	0.14446518
177	0x3d9596b2	0.073041335
178	0x3e015937	0.12631689
179	0xbded09ff	-0.11574172
180	0x3e961c67	0.29318544
181	0x3d5ec5b7	0.054387774
182	0x3d8e0811	0.06935132
183	0xbd3a7f41	-0.045531515
184	0x3db4f08d	0.08834944
185	0x3de4e30f	0.111761205
186	0x3e2892d8	0.16462266
187	0xbbc24958	-0.0059291534
188	0x3db0a79c	0.08625719
189	0xbdc1336d	-0.09433637
190	0x3c404610	0.011735454
191	0x3d439b77	0.047755685
192	0x3b41358c	0.002948138
193	0xbdaef849	-0.085434504
194	0x3cd083d0	0.025453478
195	0x3d2555f5	0.04036518
196	0x3b605f40	0.003423646
197	0xbf18ea25	-0.59732276
198	0xbd802e42	-0.06258823
199	0x3df6fd3a	0.12060018
200	0xbe5c33cb	-0.21504132
201	0xbd7f3dd0	-0.06231481
202	0x3debde0f	0.11516964
203	0xbdfb67fc	-0.12275693
204	0xbdbf8c6f	-0.093529575
205	0x3d95e9a4	0.07319954
206	0xbe5dd53b	-0.21663372
207	0xbd5f1b32	-0.054469295
208	0x3e0b0e27	0.13579617
209	0xbda8183b	-0.082077466
210	0xbe086776	-0.13320717
211	0x3e9a7354	0.30166113
212	0xbd609d44	-0.05483748
213	0x3d8f2b5b	0.06990691
214	0x3b910b1f	0.0044263746
215	0x3d51ff78	0.051269025
216	0x3dfa9977	0.12236302
217	0xbb4545f7	-0.0030101517
218	0x3c8cf271	0.017205449
219	0xbe16bf53	-0.14721422
220	0xbcde31ec	-0.027123414
221	0x3ca8ecad	0.020620668
222	0x3cd68f6d	0.026191438
223	0x3de6665b	0.112499915
224	0xbe20ac62	-0.15690759
225	0x3c199aa1	0.009375245
226	0x3d387da1	0.045041684
227	0x3b2d7800	0.002646923
228	0xbd9bb22d	-0.07602344
229	0x3c9825a0	0.018572628
230	0x3f2786e3	0.65440196
231	0x3b6cb4e9	0.0036118573
232	0xbdb85cf3	-0.09002104
233	0xbe05955c	-0.13045257
234	0xbcf87f06	-0.030334007
235	0x3d3a4e26	0.045484684
236	0xbda0b93e	-0.07847832
237	0xbdca254d	-0.09870396
238	0xbdc9475f	-0.09828066
239	0x3d57faf2	0.052729554
240	0x3c30af0f	0.010783925
241	0xbe158069	-0.14599766
242	0xbe1869ae	-0.14884064
243	0xbd847231	-0.06467093
244	0x3d968234	0.07349053
245	0x3e9b8535	0.30375066
246	0x3dcf9e0e	0.101375684
247	0x3d54e34b	0.051974576
248	0xbd2f5ebf	-0.042814966
249	0x3dc05204	0.09390643
250	0x3d0ad0ab	0.033890408
251	0x3db6c1c1	0.089236744
252	0x3dca8954	0.098894745
253	0xbcfff4fe	-0.031244751
254	0xbc4d841a	-0.0125437025
255	0x3dc4ed3f	0.096155636

fc1.bias f4 [256]
0	0x3e2032dc	0.15644401
1	0xbe38024d	-0.17969628
2	0xbad629c7	-0.0016339355
3	0xbe1d8379	-0.15382184
4	0x3d1b5c8a	0.03793005
5	0x3d0702e5	0.032961745
6	0xbe51eaee	-0.20499775
7	0x3dae18b0	0.085008025
8	0x3e2767a4	0.1634813
9	0x3d93991e	0.07206939
10	0xbe3c019e	-0.18359992
11	0x3d9af605	0.07566456
12	0xbccd6f0b	-0.025077363
13	0x3bc6f187	0.006071273
14	0x3e7fbf6b	0.24975364
15	0x3e456133	0.1927536
16	0xbbf2d4e6	-0.0074106334
17	0xbd8b333a	-0.0679688
18	0xbe909b4b	-0.2824348
19	0xbe9b2f3e	-0.3030948
20	0xbd19d0ba	-0.037552573
21	0xbd97fe7d	-0.07421587
22	0x3ce6c5af	0.028170435
23	0x3d58fa71	0.052973215
24	0xbd2b7c73	-0.04186673
25	0xbddacb54	-0.10683313
26	0x3e399545	0.18123348
27	0xbd7213e1	-0.05910099
28	0xbdc350a7	-0.095368676
29	0xbe70212b	-0.23450153
30	0xbe0df5c8	-0.1386329
31	0xbe000d5b	-0.12505095
32	0xbd47553a	-0.048665263
33	0xbd33e4c0	-0.043919325
34	0xbe51e4f8	-0.20497501
35	0x3d848ac4	0.0647178
36	0xbdd59dcc	-0.10430488
37	0xbdb24f94	-0.087065846
38	0x3e05849f	0.13038872
39	0xbcea91be	-0.028633948
40	0xbdb6a3c0	-0.089179516
41	0xbda459b3	-0.08024921
42	0x3e516373	0.20448093
43	0x3e4df1ad	0.20111723
44	0x3e1fca61	0.15604545
45	0x3c5fbc26	0.013655698
46	0x3d8d0953	0.06886544
47	0xbe2f9b45	-0.17149074
48	0x3e2547f6	0.16140732
49	0xbce3fb28	-0.027829722
50	0xbe19c37b	-0.15015976
51	0x3d8792f2	0.066198245
52	0xbd8a1f75	-0.06744281
53	0xbbc4000a	-0.00598145
54	0xbdebe0d8	-0.11517495
55	0x3e234109	0.15942778
56	0xbdd08a88	-0.10182673
57	0x3e26a74c	0.16274756
58	0xbe96c69d	-0.29448405
59	0x3e2fcbad	0.1716754
60	0xbe25014c	-0.16113776
61	0xbe09e068	-0.1346451
62	0xbcc5487d	-0.024082417
63	0x3d009def	0.031400617
64	0xbe05802d	-0.13037176
65	0xbda984d6	-0.082772896
66	0x3e002e51	0.12517668
67	0xbdd0acf6	-0.1018924
68	0x3c98ad0a	0.018637199
69	0xbe8011d2	-0.25013596
70	0x3dd27982	0.10277082
71	0x3df8b8e1	0.12144638
72	0xbe39a6a7	-0.18129979
73	0x3db56fb3	0.088591956
74	0xbc911b0e	-0.017713096
75	0x3d01bbde	0.031673305
76	0xbe40e6be	-0.18838021
77	0x3da3c2a1	0.07996107
78	0xbe5e4430	-0.21705699
79	0xbc9f0488	-0.01941134
80	0x3e234f05	0.15948112
81	0xbd589710	-0.05287844
82	0xbe00de7b	-0.1258487
83	0xbd3f22c7	-0.046664026
84	0xbc99985c	-0.018749408
85	0x3c35ddee	0.011100275
86	0xbea21a74	-0.31660807
87	0xbd50fc57	-0.0510219
88	0xbdf954ef	-0.12174403
89	0x3c56d71d	0.01311281
90	0xbdb28298	-0.08716315
91	0xbdb17893	-0.08665576
92	0xbd448738	-0.047980517
93	0x3dd6b0e0	0.10482955
94	0xbc7f31f0	-0.015575871
95	0xbd9c6563	-0.076365255
96	0xbda8aba6	-0.08235864
97	0xbe3b2824	-0.18277031
98	0xbbf60b47	-0.0075086686
99	0xbb8c8988	-0.004288856
100	0x3d57b80e	0.052665763
101	0x3e132504	0.14369589
102	0xbc3d7d85	-0.011565571
103	0x3e0816c9	0.13289942
104	0xbd637bd9	-0.055538032
105	0xba12d0d3	-0.0005600575
106	0xbd35201c	-0.044220075
107	0x38bcf08a	9.0093425e-05
108	0xbd9ef093	-0.0776073
109	0xbda22ad9	-0.07918329
110	0x3e0d3edb	0.13793509
111	0xbc95ead7	-0.018300457
112	0xbe1b645d	-0.15175004
113	0xbe5b820d	-0.21436329
114	0x3deab73a	0.11460729
115	0xbdb95dfb	-0.090511285
116	0xbe277b2b	-0.16355579
117	0xbe40e771	-0.18838288
118	0x3d73df13	0.059538912
119	0xbde44ff2	-0.11148061
120	0x3dcae588	0.09907061
121	0x3ddb9004	0.10720828
122	0xbe4459e9	-0.19174923
123	0x3c1e1513	0.009648579
124	0x3e366ffa	0.17816153
125	0x3dc78322	0.097418085
126	0xbe97773b	-0.29583153
127	0x3cec8d28	0.028875902
128	0xbdd79a27	-0.10527449
129	0xbe5a8532	-0.21339872
130	0xbec81eee	-0.39086097
131	0xbe2be8ac	-0.16787976
132	0x3de7dfdc	0.11321995
133	0xbe499613	-0.19686155
134	0xbe3dcec2	-0.18535903
135	0x3ad76f6c	0.0016436405
136	0xbd1e35f2	-0.038625665
137	0xbe413543	-0.18867974
138	0xbe17381e	-0.14767501
139	0xbdccd6f5	-0.10001937
140	0xbc908ca4	-0.017645188
141	0xbb3f413e	-0.0029183174
142	0x3d1f7a4d	0.038934994
143	0xbe3edbfd	-0.18638606
144	0xbe0769c8	-0.13223946
145	0xbddcc55b	-0.1077983
146	0xbe1b3e42	-0.15160468
147	0x3b5e4fbc	0.0033922037
148	0x3d6f874c	0.05847864
149	0xbe61c9ae	-0.22049591
150	0xbe2e21f3	-0.17005138
151	0xbe2f8bb5	-0.17143138
152	0x3d971500	0.07377052
153	0xbd79b001	-0.060958866
154	0x3e12c949	0.14334597
155	0xbe2bacb1	-0.16765095
156	0xbd38f659	-0.04515681
157	0x3e1eba42	0.15500739
158	0xbd151076	-0.03639265
159	0x3cfd8942	0.030949239
160	0x3d081fa6	0.033233307
161	0xbe3e22f9	-0.18568029
162	0x3e34551b	0.1761059
163	0x3e262abe	0.16227242
164	0x3db2d7c3	0.087325595
165	0xbdbe805d	-0.09301827
166	0xbe4ee575	-0.20204718
167	0xbe409ddd	-0.1881022
168	0xbe161cff	-0.14659499
169	0x3bc8b517	0.006125103
170	0x3e32aff3	0.17449932
171	0x3e8d6b83	0.27621087
172	0xbdbe54d6	-0.09293525
173	0xbc8cb223	-0.017174786
174	0xbd4d2869	-0.050087366
175	0x3d8172cf	0.06320726
176	0xbe152d4e	-0.14568064
177	0xbdd0534c	-0.101721376
178	0xbda6bbc4	-0.08141282
179	0xbd522fe2	-0.051315196
180	0xbe6599da	-0.22421971
181	0x3d62df42	0.055388696
182	0xbd343acd	-0.04400139
183	0xbddd7101	-0.108125694
184	0xbdabdbb1	-0.08391512
185	0xbd84a318	-0.0647642
186	0x3e39c5b9	0.18141831
187	0xbdb85832	-0.09001197
188	0xbe660c66	-0.22465667
189	0x3dbd9eb7	0.09258788
190	0xbdaeae03	-0.08529284
191	0xbc007694	-0.007840771
192	0x3dcb09d6	0.099139854
193	0xbe21ee15	-0.15813477
194	0xbdda909e	-0.10672115
195	0xbe26d496	-0.16292033
196	0x3d8cc987	0.06874376
197	0x3d9d6152	0.07684578
198	0xbe6bf08b	-0.23040979
199	0x3b1c2d12	0.0023830575
200	0x3df3b248	0.11899239
201	0x3e0202bc	0.12696356
202	0x3c84873a	0.016177762
203	0x3cfee94a	0.0311171
204	0xbcc6b637	-0.024256809
205	0xbe7848c5	-0.2424651
206	0xbe904c6d	-0.28183308
207	0xbe1b5680	-0.15169716
208	0x3d446347	0.04794624
209	0x3da4762a	0.080303505
210	0xbe636954	-0.22208148
211	0xbc882b9a	-0.016622353
212	0xbde65076	-0.112458155
213	0x3c19fb54	0.0093983
214	0xbdc6484c	-0.09681758
215	0x3c9e8b5c	0.019353561
216	0xbd8935ac	-0.0669969
217	0xbe59acc8	-0.21257317
218	0xbe25571e	-0.16146514
219	0x3dc781e3	0.09741571
220	0x3caea42e	0.021318521
221	0xbe88191d	-0.2658166
222	0x3db454c1	0.08805228
223	0xbe847606	-0.25871295
224	0x3d6dfc39	0.058101866
225	0xbca51db3	-0.020155763
226	0xbd10951f	-0.035298463
227	0xbeb6bbc0	-0.35690117
228	0xbdc89ebc	-0.09795901
229	0x3e3a883a	0.18216029
230	0x3d8ca520	0.068674326
231	0xbd2b8498	-0.041874498
232	0xbe36509d	-0.17804189
233	0x3d94ec03	0.07271578
234	0xbda258d0	-0.07927096
235	0xbdc7b2de	-0.09750913
236	0x3c3bbcb3	0.011458564
237	0xbd535438	-0.05159399
238	0xbe579a3f	-0.21054934
239	0x3d0eca38	0.03486082
240	0xbe39b688	-0.18136036
241	0xbe72f758	-0.23727167
242	0xbca66a98	-0.0203145
243	0xbd92a4f5	-0.07160369
244	0x3caf7299	0.02141695
245	0xbe0b5c7e	-0.13609502
246	0xbd7d4144	-0.06182982
247	0x3dcad9fb	0.09904858
248	0x3d5729af	0.052529987
249	0x3dd289b3	0.1028017
250	0xbdb8c5dc	-0.09022114
251	0xbe1b8e94	-0.15191108
252	0xbe2c15c6	-0.16805181
253	0x3d8bf4e8	0.068338215
254	0xbdf663ce	-0.12030755
255	0xbe27d507	-0.16389857

fc2.weight f4 [256, 256]
0	0xbcee0397	-0.029054446
1	0x3d7a03db	0.061038833
2	0xbd19209f	-0.037384626
3	0xbce81d6e	-0.028334346
4	0x3d1b7cc6	0.03796079
5	0x3c858372	0.01629803
6	0xbd738be6	-0.05945959
7	0xbe49bbd0	-0.19700551
8	0xbf37adf2	-0.71749794
9	0x3e0f6661	0.14003898
10	0xbd8f0aac	-0.069844574
11	0x3cfca9de	0.030842718
12	0xbde3b089	-0.11117656
13	0x3de44150	0.1114527
14	0x3dca74de	0.09885572
15	0xbdecb810	-0.11558545
16	0xbe491805	-0.19638069
17	0xbe7d53d2	-0.24739006
18	0xbd8870c8	-0.06662136
19	0x3de6e765	0.11274604
20	0x3a77596d	0.0009435628
21	0x3df2afb2	0.118499175
22	0xbe526344	-0.2054568
23	0x3e069d4d	0.13145943
24	0xbc8e732f	-0.017388908
25	0xbcf4d811	-0.029888185
26	0xbc20ff19	-0.009826445
27	0x3d5b65b1	0.053563777
28	0x3df10060	0.1176765
29	0xbea5f6e2	-0.3241492
30	0x3d8c916a	0.06863673
31	0xbca14aee	-0.01968905
32	0x3c21878b	0.009858976
33	0xbd4d881a	-0.050178625
34	0x3d945673	0.072430514
35	0x3c1d4659	0.009599292
36	0x3e0b2961	0.13590004
37	0x3e11b12e	0.14227745
38	0xbdb4bd60	-0.08825183
39	0xbde40302	-0.11133386
40	0xbd90e98b	-0.07075795
41	0xbc403b86	-0.0117329415
42	0x3e0bf877	0.13669
43	0xbd3a1b27	-0.04543605
44	0xbe857863	-0.2606841
45	0xbd918b73	-0.07106676
46	0x3e3e16e8	0.18563426
47	0x3d9a5899	0.0753643
48	0xbcaa05f7	-0.020754797
49	0x3dc17d0d	0.0944768
50	0xbd6aa3b7	-0.057285037
51	0x3e05b05e	0.1305556
52	0xbcae8e9e	-0.02130824
53	0x3e60c307	0.21949397
54	0xbefd23b4	-0.49441302
55	0xbe236e30	-0.15960002
56	0xbe58693b	-0.21133892
57	0xbab77174	-0.0013995604
58	0xbe466bb5	-0.19377024
59	0xbe69cee6	-0.22832832
60	0xbea1d2ad	-0.31606045
61	0xbc2d31ff	-0.010571002
62	0x3d5ad2f9	0.053423855
63	0xbdac5ae4	-0.084157735
64	0x3cea5d8b	0.028609058
65	0x3c737866	0.014860248
66	0xbd924dcc	-0.07143745
67	0xbcb3936a	-0.021920878
68	0xbd696548	-0.056981355
69	0x3dbb3599	0.09141082
70	0x3c76861e	0.0150466245
71	0xbe745c5a	-0.23863354
72	0x3dc35366	0.09537391
73	0xbe18ced3	-0.14922647
74	0x3dce4c0d	0.10073099
75	0xbdc9d580	-0.09855175
76	0x3cdcc20c	0.026947998
77	0xbe183f51	-0.14867903
78	0x3dfd9e8d	0.12383757
79	0x3e182c8e	0.14860746
80	0xbe3e49a7	-0.18582784
81	0xbdc53eb2	-0.09631099
82	0xbcaa4a61	-0.02078742
83	0xbbc57afe	-0.0060266247
84	0xbc9b69c4	-0.018971331
85	0x3dc3c667	0.095593266
86	0xbd41a8cc	-0.047280118
87	0xbf15846a	-0.5840517
88	0x3c31ed85	0.010859852
89	0x3e270c86	0.16313371
90	0x3d2554b2	0.040363975
91	0xbde5feda	-0.1123025
92	0x3d78c989	0.060739074
93	0xbe13b545	-0.14424618
94	0xbcfaa73b	-0.03059732
95	0x3cfff9fc	0.031247132
96	0x3e0429ba	0.12906542
97	0x3e1e0e83	0.15435223
98	0xbc150006	-0.009094244
99	0xbd894db2	-0.06704272
100	0xbe0055ce	-0.12532732
101	0xbd7636d4	-0.060110882
102	0xbe687daa	-0.22704187
103	0x3dc33b79	0.09532828
104	0xbd93de92	-0.07220186
105	0x3c363f44	0.011123482
106	0xbcd790f2	-0.026314232
107	0xbda4d07f	-0.0804758
108	0x3dc883d2	0.09790768
109	0x3d5d50bd	0.054032076
110	0xbe8d7989	-0.27631786
111	0x3cf27c91	0.029600414
112	0x3d4797cc	0.04872875
113	0xbd963f7c	-0.073363274
114	0x3e8a58eb	0.27020964
115	0xbca29d17	-0.019850297
116	0xbeff702d	-0.4989027
117	0x3e70e6c2	0.23525527
118	0x3d35c413	0.044376444
119	0x3d2b5501	0.041829113
120	0xbd087933	-0.03331871
121	0xbdc8db3b	-0.0980744
122	0xbe1951fc	-0.14972681
123	0x3d7940f7	0.06085297
124	0xbb13e53e	-0.002256706
125	0xbd966066	-0.07342605
126	0x3e1ed0ea	0.15509382
127	0xbc7ef783	-0.015561941
128	0xbc1a5179	-0.009418839
129	0x3d762970	0.06009811
130	0x3d8a6e2f	0.06759297
131	0x3dbdff1f	0.09277176
132	0xbdd09561	-0.10184742
133	0x3cc52b6c	0.024068557
134	0x3e16d13a	0.14728251
135	0xbd0ad312	-0.0338927
136	0x3cfcd134	0.030861475
137	0x3ce5cdff	0.028052328
138	0x3d9d1140	0.07669306
139	0xbded585c	-0.11589119
140	0x3dba2b12	0.09090246
141	0x3c0c58e0	0.008566111
142	0xbcbe3601	-0.02321911
143	0x3e15aa2e	0.146157
144	0xbd6413c0	-0.055682898
145	0xbd72ec76	-0.059307538
146	0xbe9b5da2	-0.30344874
147	0x3d894ce8	0.06704122
148	0x3db8810f	0.09008991
149	0x3de29c22	0.11064936
150	0x3df458fb	0.11931034
151	0x3d6079b6	0.054803573
152	0x3db9bc7a	0.09069152
153	0x3e86d75d	0.26336184
154	0xbe1878b6	-0.14889798
155	0xbd943f95	-0.0723869
156	0xbd6b2459	-0.05740771
157	0xbd2fd09c	-0.042923555
158	0x3d872bbe	0.0660014
159	0x3da8a88c	0.08235273
160	0xbe85f68a	-0.26164657
161	0xbc10441d	-0.008805302
162	0xbd1ac6da	-0.037787296
163	0xbd883e0c	-0.066524595
164	0xbcff5a0b	-0.031170866
165	0x3d13b805	0.036064167
166	0x3e18f80f	0.14938377
167	0x3e43d764	0.19125134
168	0x3e8d83cc	0.27639616
169	0xbc483916	-0.012220642
170	0xbe1f597e	-0.15561482
171	0xbc6b02cf	-0.014343931
172	0x3d12c62f	0.035833534
173	0x3d066978	0.032815427
174	0x3d5a73a1	0.05333293
175	0x3d4cae51	0.04997093
176	0xbe529fea	-0.20568815
177	0x3dae754a	0.08518465
178	0x3db4a476	0.08820431
179	0x3c891cf4	0.016737439
180	0x3e11d548	0.14241517
181	0xbd16f268	-0.03685227
182	0x3e0bdcf9	0.13658513
183	0x3db6445d	0.08899758
184	0x3dfd2d16	0.12362115
185	0xbd8d9e95	-0.06915013
186	0xbe49f115	-0.19720872
187	0xbd46091c	-0.04834853
188	0x3d88608f	0.06659042
189	0xbd7fbb4a	-0.062434472
190	0xbc330e73	-0.010928738
191	0x3d302898	0.043007463
192	0xbd2d41d2	-0.0422991
193	0xbe692292	-0.22767094
194	0xbd814bb9	-0.06313271
195	0xbb230750	-0.0024876185
196	0xbdf92fd0	-0.12167323
197	0x3db33275	0.08749858
198	0xbe40ae79	-0.18816556
199	0x3c80e891	0.015735896
200	0xbe124b05	-0.1428643
201	0x3dadae0f	0.08480465
202	0x3ca817de	0.020519193
203	0xbc901517	-0.017588181
204	0xbe9654eb	-0.29361662
205	0x3de248fb	0.11049076
206	0xbcca2f18	-0.02468066
207	0xbde3ae10	-0.11117184
208	0x3e2167fe	0.15762326
209	0x3c934b39	0.017980205
210	0x3c8f1681	0.017466785
211	0xbe834b03	-0.25643167
212	0xbe18e51c	-0.14931148
213	0x3d83ec05	0.064415015
214	0xbdbd9fa2	-0.09258963
215	0x3e2ca6cc	0.16860503
216	0x3ce74b45	0.028234133
217	0xbecaeb83	-0.39632806
218	0x3d746de1	0.0596751
219	0x3e12d016	0.14337191
220	0x3dc021f1	0.09381474
221	0x3e57b7c4	0.21066195
222	0x3c8a1c85	0.016859302
223	0xbe3b698e	-0.18301985
224	0x3da93e16	0.08263795
225	0x3c9178c6	0.017757785
226	0xbc67fffc	-0.0141601525
227	0xbdd2eb0d	-0.10298739
228	0x3d4d494a	0.050118722
229	0xbda9f32f	-0.08298337
230	0xbdacdf46	-0.084410235
231	0x3da2b024	0.079437524
232	0x3e25930f	0.1616938
233	0xbbd26553	-0.00642077
234	0xbdf06b97	-0.11739271
235	0xbe2a04b1	-0.16603352
236	0x3d1ef2ac	0.03880565
237	0xbee28ace	-0.44246525
238	0xbd4ca13a	-0.049958445
239	0x3d97ad0e	0.074060544
240	0xbdbeeec5	-0.093228854
241	0xbe885f7f	-0.26635358
242	0xbcbbd545	-0.022928843
243	0x3e98e591	0.29862645
244	0x3d916c62	0.071007505
245	0x3c1c5a35	0.009542991
246	0x3d03c77c	0.032172665
247	0x3e018048	0.12646592
248	0xbd1d235e	-0.038363807
249	0x3b9cb903	0.0047827973
250	0xbd31117a	-0.043229558
251	0x3e32a1f9	0.174446
252	0xbcb6a2d7	-0.022294445
253	0xbe72d5b6	-0.23714337
254	0xbd259bd8	-0.040431827
255	0xbb382707	-0.0028099434

fc2.bias f4 [256]
0	0xbccfa191	-0.025345596
1	0xbcb8c91a	-0.02255683
2	0x3c6ed135	0.014576246
3	0xbd725d12	-0.05917079
4	0xbd2f277f	-0.042762276
5	0xbd23e672	-0.04001469
6	0x3c9d6c57	0.0192167
7	0x3c479add	0.012182918
8	0x3bcc51ad	0.0062353224
9	0x3dee1f2a	0.11627038
10	0xbc8e64a0	-0.017381966
11	0x3db8967e	0.09013079
12	0x3ce8d9b4	0.028424121
13	0xbd675535	-0.056477744
14	0xbde58edd	-0.1120889
15	0xbc88bbc3	-0.016691094
16	0xbe251765	-0.16122206
17	0xbdc1e056	-0.09466617
18	0xbdb1bf07	-0.08679014
19	0xbe957f64	-0.29198754
20	0xbd36899e	-0.044564836
21	0xbdf9bd6b	-0.12194332
22	0x3db40261	0.08789516
23	0x3d5139c2	0.051080473
24	0xbcdfbf77	-0.027312977
25	0x3cdb4a72	0.026768897
26	0xbd312e6c	-0.043257162
27	0x3c7be895	0.015375276
28	0xbcc913cd	-0.024545575
29	0xbd02d878	-0.031944722
30	0xbd24e6fe	-0.040259354
31	0x3de2e5c6	0.11078982
32	0x3d99005e	0.07470773
33	0xbdbcf70d	-0.09226809
34	0x3c76caa4	0.015062962
35	0x37a7d61c	2.0007654e-05
36	0x3d817ee3	0.0632303
37	0xbd86c807	-0.06581121
38	0x3cd2d036	0.025734048
39	0xbdaf42f4	-0.08557692
40	0xbdabb76e	-0.08384596
41	0x3d8c73f2	0.06858052
42	0x3cef6d53	0.029226935
43	0x3d928c05	0.07155613
44	0xbcc13407	-0.023584379
45	0x3d025946	0.03182342
46	0xbd1a2350	-0.037631333
47	0xbda12154	-0.07867685
48	0xbde658f5	-0.11247436
49	0xbce2c786	-0.02768303
50	0x3d87cef4	0.0663127
51	0x3c960388	0.01831223
52	0x3ddf0241	0.10889102
53	0x3d8c2221	0.06842447
54	0x3d335e36	0.04379102
55	0x3d23cb61	0.03998888
56	0x3d1d4b05	0.038401622
57	0x3ce3d796	0.02781276
58	0x3cf7d0e1	0.030250968
59	0xbd9a50a9	-0.07534916
60	0x3d1a67f2	0.037696786
61	0x3ca5f236	0.020257097
62	0x3d7a3ce0	0.06109321
63	0x3ce1fca6	0.027586292
64	0xbbbe220d	-0.005802399
65	0x3d1f65a8	0.038915306
66	0x3cd649fc	0.026158325
67	0xbdbf5513	-0.093423985
68	0xbbb6f73d	-0.0055836723
69	0xbd9f0e76	-0.0776643
70	0xbd969086	-0.073517844
71	0xbd380156	-0.04492315
72	0x3b122306	0.0022298708
73	0x3d5fa67e	0.05460214
74	0x3daa9ade	0.0833032
75	0xbd38bea7	-0.045103695
76	0xbdffbc19	-0.12487049
77	0xbbc1997a	-0.0059081884
78	0xbc057038	-0.008144431
79	0x3cdb7fc9	0.026794331
80	0xbb519a52	-0.0031982851
81	0xbaf2f7d3	-0.0018536992
82	0xbe5581d3	-0.20850305
83	0xbdb1544c	-0.086586565
84	0xbcb8148e	-0.022470739
85	0xbb21fbaa	-0.0024716654
86	0x3c35947d	0.011082766
87	0xbe2c5cea	-0.16832319
88	0xbd25e373	-0.040500116
89	0x3c5bcc57	0.013415418
90	0xbc9e83c7	-0.019349946
91	0xbda6b2de	-0.08139585
92	0xbd9f7baf	-0.07787263
93	0xbd55c6fe	-0.052191727
94	0xbbed6d2c	-0.0072456803
95	0xbc5b40e2	-0.0133821685
96	0x3cb288a2	0.021793667
97	0xbd143ed4	-0.03619273
98	0x3caee2b0	0.021348327
99	0xbe08a219	-0.13343085
100	0xbc874fae	-0.016517486
101	0x3d42c0f2	0.04754729
102	0x3d6ae8a4	0.05735077
103	0xbd1390bb	-0.036026698
104	0xbc36b5fa	-0.011151785
105	0xbdaf9cd0	-0.085748315
106	0xbd9da50c	-0.07697496
107	0xbd9434a6	-0.072366044
108	0x3d923f97	0.07141035
109	0xbd6db3f2	-0.058032937
110	0xbdf23a28	-0.11827499
111	0xbb330eae	-0.0027321982
112	0xbc830f59	-0.01599853
113	0xbd4c69dd	-0.049905647
114	0x3ba3abea	0.004994859
115	0xbc9642b4	-0.018342353
116	0xbd8b3311	-0.067968495
117	0x3e030c1e	0.12797591
118	0x3bc9bf9e	0.0061568758
119	0xbaa473d9	-0.0012546732
120	0x3c97aafa	0.018514145
121	0xbb25d4dd	-0.0025303878
122	0xbe84aedd	-0.2591466
123	0xbd254850	-0.040352166
124	0xbe4c535b	-0.19953673
125	0xbd9c2ee1	-0.07626129
126	0x3d842a91	0.064534314
127	0x3d1c1662	0.038107283
128	0xbab90c04	-0.0014117961
129	0xbd3c1590	-0.045919
130	0xbd4f4abf	-0.050608393
131	0x3b38421a	0.0028115571
132	0xbda7bcb2	-0.08190288
133	0x3b9bff95	0.0047606924
134	0xbbe67a59	-0.007033628
135	0xbd17d146	-0.037064813
136	0xbd881654	-0.06644884
137	0xbd478e7e	-0.048719876
138	0x3def992f	0.11699139
139	0x3bc1718f	0.00590343
140	0xbd987bed	-0.07445512
141	0xbd5b91ab	-0.053605717
142	0xbdbb61d8	-0.091495216
143	0xbe11cb88	-0.14237797
144	0x3ccf2043	0.025283938
145	0x3d6cef5c	0.05784546
146	0x3ca189a4	0.019718952
147	0xbccc16cd	-0.024913216
148	0xbd3795c3	-0.04482056
149	0x3ca4c815	0.020114938
150	0xbd5a1916	-0.05324658
151	0xbd424ec9	-0.047438417
152	0xbc399fac	-0.011329573
153	0xbcbb4379	-0.022859322
154	0x3be3e319	0.0069545624
155	0xbd3d89ec	-0.04627411
156	0xbc3b2dd0	-0.011424497
157	0xbda9c103	-0.08288767
158	0x3c43559c	0.011922266
159	0x3c3f8459	0.011689269
160	0xbdd4c80d	-0.10389719
161	0xbcd2be8e	-0.02572563
162	0xbb6009ad	-0.0034185455
163	0xbe042087	-0.12903033
164	0xbdc6efdb	-0.097137176
165	0x3dc1c53c	0.094614476
166	0x3cc0e2f3	0.023545718
167	0x3dc165b7	0.09443229
168	0x3d037e19	0.032102678
169	0x3d34ae79	0.044111703
170	0xbda27b1e	-0.07933639
171	0xbd9d6b1b	-0.07686444
172	0x3c85abb1	0.01631722
173	0xbdb6a314	-0.089178234
174	0x3cbac16d	0.02279731
175	0x3d6d94e2	0.058003314
176	0x3dbc1399	0.091834255
177	0xbbb1ea94	-0.005429575
178	0xbd20a310	-0.03921801
179	0xbe14b32a	-0.1452147
180	0x3d2f3603	0.04277612
181	0x3d2fe916	0.042946897
182	0xbd3cfbbc	-0.04613851
183	0xbd13b955	-0.03606542
184	0xbdc372db	-0.09543391
185	0x3d7f6304	0.062350288
186	0xbd991426	-0.07474546
187	0xbd8897bd	-0.06669567
188	0xbde9528a	-0.11392696
189	0x3cab6008	0.020919815
190	0x3a3297a3	0.0006812757
191	0x3deeb631	0.11655844
192	0xbdaa7b63	-0.083243154
193	0x3b3f3b37	0.0029179582
194	0xbda58457	-0.080818824
195	0xbdb7657d	-0.08954904
196	0xbd24321d	-0.040086854
197	0x3c2e6c56	0.0106459465
198	0x3d1d85a5	0.03845753
199	0xbd9c8171	-0.076418765
200	0xbbbc17d3	-0.0057401448
201	0x3db60810	0.088882565
202	0xbb4b701a	-0.003104216
203	0x3d4b61ea	0.049653925
204	0x3ba9779e	0.00517173
205	0x3b8004e0	0.003906831
206	0xbdbecad3	-0.093160294
207	0x3c19154d	0.009343457
208	0xbceab6b2	-0.028651569
209	0xbb2b00cd	-0.0026093007
210	0x3d0fe967	0.0351347
211	0xbc9ae37d	-0.018907303
212	0x3cdfb621	0.027308526
213	0xbd554ec2	-0.052077062
214	0xbdc25257	-0.09488361
215	0xbe06f4e2	-0.13179353
216	0xbd84cf31	-0.06484831
217	0xbcdf5b7a	-0.0272653
218	0x3d454ab6	0.048166953
219	0x3d647a79	0.05578086
220	0xbd2b150a	-0.04176811
221	0xbde3bb50	-0.111197114
222	0x3c378d00	0.011203051
223	0xbd667d63	-0.05627192
224	0xbc7f913a	-0.01559859
225	0x3c9d2190	0.019181043
226	0xbdf53eea	-0.119748905
227	0xbd86d67f	-0.06583881
228	0x3c27c164	0.010238979
229	0xbcd5fe7f	-0.02612233
230	0xbd1de0b5	-0.038544375
231	0x3d87c191	0.06628717
232	0x3d0408e1	0.03223503
233	0xbd3a210a	-0.045441665
234	0xbbb9444f	-0.005653895
235	0xbdd97fc6	-0.10620074
236	0x3d4dcd88	0.050244838
237	0xbd37edc7	-0.044904497
238	0x3d9d1120	0.07669282
239	0x3c0b2e48	0.008494921
240	0xbca45550	-0.020060211
241	0x3da4ecce	0.080529794
242	0x3e280704	0.16408926
243	0xbc8821a1	-0.016617598
244	0x3db41d0a	0.08794601
245	0x38a0928c	7.656691e-05
246	0x3ce032e2	0.027368013
247	0x3cf15803	0.029460913
248	0xbd858819	-0.06520099
249	0xba4add91	-0.00077387044
250	0x3bc52269	0.006016065
251	0x3d57d3d1	0.05269224
252	0x3d8a7dcd	0.06762276
253	0xbbf94076	-0.0076065613
254	0xbd0a4d85	-0.033765335
255	0xbc961665	-0.018321225

fc3.weight f4 [4, 256]
0	0x3e069f0c	0.13146609
1	0x3efa59ba	0.4889658
2	0x3dd6165f	0.10453486
3	0x3ecb2030	0.39672995
4	0xbf40227d	-0.75052625
5	0xbf035bb6	-0.51311815
6	0x3ed4ac2b	0.41537604
7	0xbe8bfd4d	-0.2734169
8	0x3d4ea4fe	0.050450318
9	0xbca248fb	-0.01981019
10	0xbe7e3db3	-0.24828224
11	0xbf712f05	-0.9421237
12	0x3dbf1754	0.09330621
13	0xbec67793	-0.38763103
14	0xbdd2862b	-0.10279497
15	0x3de0cbab	0.109763466
16	0x3e4c48c4	0.19949633
17	0x3e8d773c	0.2763003
18	0xbe3b30de	-0.1828036
19	0x3f9de2d8	1.2334852
20	0xbecfeb50	-0.40609217
21	0xbe013b53	-0.12620287
22	0x3f0f42cf	0.55961317
23	0x3e58db9e	0.21177527
24	0x3f7c30e3	0.98512095
25	0xbd5579b1	-0.052118007
26	0x3f199f56	0.6000875
27	0xbee26250	-0.4421563
28	0x3c2d14e4	0.010564063
29	0xbdbaeb3b	-0.09126898
30	0xbe2f5783	-0.17123227
31	0xbe4e9f0f	-0.20177864
32	0xbcb9dcbe	-0.022688266
33	0x3f28ce49	0.65939766
34	0xbebef661	-0.37297347
35	0xbe6d08e6	-0.23147926
36	0xbee2ecf5	-0.4432141
37	0xbe3d943a	-0.18513575
38	0xbc28f56d	-0.01031242
39	0xbd4d8466	-0.050175093
40	0xbee60bfe	-0.44931024
41	0x3e025f6d	0.12731715
42	0x3eb03760	0.34417248
43	0xbf24e699	-0.64414364
44	0xbd2283b6	-0.03967639
45	0x3efdf8d8	0.49603915
46	0xbd9e5606	-0.077312514
47	0x3e0e8b9a	0.13920441
48	0x3e031fd2	0.12805107
49	0xbde779dc	-0.1130254
50	0x3d7dcc06	0.06196215
51	0x3e78fda0	0.243155
52	0x3e519f7c	0.20470995
53	0xbde4a37b	-0.11163994
54	0x3c7b1efe	0.015327213
55	0x3dd63899	0.10460014
56	0x3e6125e1	0.21987106
57	0xbc455141	-0.012043298
58	0xbededfd9	-0.43530157
59	0xbe355e29	-0.177117
60	0x3c50805e	0.012725918
61	0xbeb0664c	-0.34453046
62	0xbe7ba12c	-0.24573201
63	0x3edb6744	0.42852223
64	0x3ccc88f2	0.024967644
65	0x3d2aaeb4	0.041670516
66	0x3c12728b	0.008938442
67	0xbd15a876	-0.03653761
68	0x3f09c100	0.5381012
69	0xbe89a2b1	-0.26881936
70	0xbc72f5d7	-0.014829121
71	0xbf08df48	-0.534657
72	0x3f2903ef	0.6602163
73	0x3f228cf4	0.6349633
74	0xbe6dad2c	-0.23210591
75	0x3e69b222	0.22821859
76	0x3ea26263	0.31715688
77	0x3d6edabc	0.05831407
78	0xbd8ff0bf	-0.070283405
79	0x3efe7072	0.49695164
80	0x3df30892	0.11866869
81	0xbe897fb1	-0.26855233
82	0x3f2b01b2	0.6679946
83	0x3f18b3f8	0.5964961
84	0x3c046128	0.0080798045
85	0x3f189096	0.5959562
86	0xbec3a9f2	-0.38215595
87	0x3ec9c5cd	0.39408723
88	0xbe4ba59f	-0.19887398
89	0xbf32b859	-0.6981254
90	0x3ebdf9b5	0.37104574
91	0x3ddf6055	0.10907046
92	0xbe92257b	-0.2854422
93	0x3d54b62a	0.051931538
94	0xbeaeca21	-0.34138587
95	0x3ecb5e8a	0.39720565
96	0xbe989f03	-0.29808816
97	0x3eb75d20	0.35813236
98	0x3f15c149	0.58498055
99	0xbdbe12fa	-0.09280963
100	0x3be01e6d	0.0068395645
101	0xbe1f67f5	-0.15567
102	0xbc76ae8f	-0.015056266
103	0xbe737d26	-0.23778209
104	0xbe1ac52a	-0.15114275
105	0xbe489b8e	-0.1959059
106	0xbe6f2219	-0.23352851
107	0xbea10fde	-0.31457418
108	0x3da4c27b	0.08044907
109	0x3e91f573	0.28507575
110	0xbe62dfe6	-0.22155723
111	0x3bb04c17	0.0053801644
112	0x3e0c2e1c	0.13689464
113	0x3ea475c0	0.32121086
114	0xbd7538ab	-0.059868496
115	0xbe1d3bf3	-0.153549
116	0x3e456147	0.1927539
117	0xbe4bc650	-0.19899869
118	0x3dac8780	0.08424282
119	0x3ebcc3f8	0.36868262
120	0x3f52475e	0.8214015
121	0xbd51ccfd	-0.051220883
122	0x3e8c5056	0.2740504
123	0xbd739987	-0.059472587
124	0x3dc3c26d	0.09558568
125	0xbd937f42	-0.07202007
126	0x3eed2015	0.4631354
127	0x3f207933	0.62684935
128	0x3e30fdc6	0.17284307
129	0x3cb1b3c1	0.021692159
130	0x3daac880	0.083390236
131	0x3cf3bcf6	0.02975319
132	0xbe845091	-0.25842717
133	0xbca779f7	-0.0204439
134	0xbc718801	-0.0147418985
135	0x3e1309f2	0.14359263
136	0x3e7bbc8e	0.24583647
137	0xbd6bf1a4	-0.057603493
138	0x3e382d73	0.17986088
139	0xbedb98cc	-0.42890012
140	0x3e375d47	0.17906676
141	0x3e3e87ea	0.18606535
142	0x3e727461	0.23677208
143	0x3f5c41c9	0.8603788
144	0x3e934be0	0.28768826
145	0xbf3e6e25	-0.7438682
146	0xbf55b330	-0.83476543
147	0xbf155754	-0.5833638
148	0x3e6aea6c	0.22940987
149	0x3e7524e4	0.23939854
150	0x3eba1295	0.36342302
151	0x3edb8ac4	0.42879307
152	0xbe76aaaf	-0.24088548
153	0x3e99df4b	0.30053172
154	0xbec186cb	-0.3779815
155	0xbe703163	-0.2345634
156	0xbe953ec3	-0.29149446
157	0xbf0b1d82	-0.543419
158	0xbf1cabae	-0.6119946
159	0xbf08ab26	-0.5338615
160	0x3f2ae034	0.66748357
161	0x3daba663	0.08381345
162	0x3e5b658a	0.21425453
163	0x3ee3a972	0.44465214
164	0x3e62fc0e	0.22166464
165	0x3ed0d7be	0.40789598
166	0xbed3bb0c	-0.41353643
167	0x3e214f98	0.15753019
168	0x3f7f5e5c	0.99753356
169	0xbe6817cb	-0.22665326
170	0xbdf57dce	-0.11986886
171	0xbd8452e5	-0.064611234
172	0xbe91000b	-0.28320345
173	0xbf0320c3	-0.51221865
174	0xbe25b189	-0.16181006
175	0x3e84b33c	0.25917995
176	0xbd2bd2e4	-0.041949168
177	0xbd9c5d07	-0.07634931
178	0x3ed6c766	0.41949004
179	0x3e4d51f0	0.20050788
180	0x3e11c1eb	0.1423413
181	0x3d675bb8	0.056483954
182	0x3e08e2b8	0.13367736
183	0xbec69528	-0.38785672
184	0xbdd8a0e6	-0.10577564
185	0xbe975405	-0.2955629
186	0xbe91be71	-0.28465608
187	0xbd59f2f1	-0.053210203
188	0xbed35430	-0.41275167
189	0xbed5733f	-0.41689488
190	0x3e0b031d	0.13575406
191	0x3ddc6331	0.10761107
192	0xbedae513	-0.42752895
193	0xbe22e53d	-0.1590776
194	0xbf489bdb	-0.78362817
195	0xbf22f6cc	-0.6365783
196	0xbd967451	-0.07346404
197	0x3e8b96b0	0.27263403
198	0xbd5357db	-0.051597457
199	0xbe512c25	-0.20426996
200	0xbe46684e	-0.19375727
201	0xbdc4b39a	-0.09604569
202	0x3e2b5639	0.1673211
203	0xbf4416fa	-0.7659756
204	0x3dd36415	0.103218235
205	0x3eced66b	0.40397963
206	0xbd0787b2	-0.033088394
207	0xbf3f00b7	-0.74610466
208	0xbe0dc9c1	-0.13846494
209	0x3e79f00e	0.2440798
210	0xbe869595	-0.26285997
211	0xbdfcf062	-0.12350537
212	0x3de1d13b	0.11026236
213	0xbf039d5b	-0.5141198
214	0x3e818d5f	0.2530317
215	0x3ecaddaa	0.3962224
216	0xbf0fb3f2	-0.5613395
217	0xbe097760	-0.13424444
218	0xbef16502	-0.47147375
219	0x3eb9ec9b	0.36313328
220	0x3d6dc747	0.058051374
221	0xbe8a1096	-0.2696578
222	0x3d0c272e	0.034217052
223	0xbe3e1086	-0.1856099
224	0x3df56a5a	0.119831756
225	0xbf2c10f9	-0.672134
226	0x3eaaf5d7	0.33390686
227	0x3d536801	0.051612858
228	0x3f218590	0.63094425
229	0xbe9c220e	-0.30494732
230	0xbe5d8b64	-0.21635205
231	0xbeca9d3a	-0.3957308
232	0xbf133dd2	-0.57516205
233	0xbe3432f3	-0.1759756
234	0x3e69ed40	0.2284441
235	0xbea3c3b8	-0.3198526
236	0xbdb75830	-0.08952367
237	0xbd826186	-0.06366257
238	0xbdd2a330	-0.10285032
239	0xbea61b82	-0.32442862
240	0xbbf521d5	-0.0074808397
241	0x3ec713fd	0.38882437
242	0x3e977a1d	0.29585353
243	0x3e0aac3a	0.13542262
244	0x3f0e84bf	0.55671304
245	0xbc6be374	-0.014397491
246	0xbe8463ce	-0.25857395
247	0x3e96235d	0.29323855
248	0xbbbda857	-0.00578789
249	0xbf2fa092	-0.68604386
250	0x3ee2a942	0.44269758
251	0xbdb6747d	-0.08908937
252	0xbe9c0e41	-0.30479625
253	0x3f2067ef	0.6265859
254	0xbec33c7b	-0.3813208
255	0xbd044df6	-0.03230091

fc3.bias f4 [4]
0	0xbcc69726	-0.024241995
1	0x3d9eca3e	0.077534184
2	0x3ccf40ed	0.025299514
3	0x3d8cece1	0.068811186
