checkpoints/checkpoint_actor_ddqn_0.pth (torch_old, 303163 bytes, 6 tensors)

fc1.weight f4 [256, 33]
00000000: c006 09be 6c32 e83b 0c21 18be 4a5b 17be
00000010: 27f3 143e 565c f5bc 57d9 13be 83f8 68bd
00000020: e3bd 513e 02b7 e9bc 0387 10be cd48 8e3b
00000030: 3751 02bd a1b1 b53e 50d4 643e 9df7 b33e
00000040: f3ca 9bbd 6954 84bd fed7 eab9 f865 a7bc
00000050: 96f8 793c 0e04 963e ade5 a23d 8793 233d
00000060: 37b5 3dbd 106a cd3d 52e5 8fbe 9213 93bd
00000070: e559 28be 2693 19bd 9e60 b9bc 446c 253d
00000080: 2506 e8be 72be 9a3e 5149 f73d 2ac0 3dbe
00000090: 27d8 e6bc 3c77 fcbc 9c53 ea3c df25 a63d
000000a0: 4253 15bc 3138 8a3d 58d9 863d 266d aa3d
000000b0: be9f 7fbc 8e11 20bd d5f2 00be 0b35 2cbe
000000c0: 5812 1c3e b73a abbd 82b4 4a38 e799 a33d
000000d0: 2e92 d6bc d7fc 9b3b 154f 143e 93e8 2b3d
000000e0: 9287 85bd 9838 39bd 84f3 813d 4253 5dbd
000000f0: 23f8 5fbd 609b 85ba a614 613d 5bdf 9dbc
00000100: daed 663d 12e5 11bc df04 14bd fc07 713e
00000110: 9b75 403e 9c9d 05be c372 21bd ccd0 483e
00000120: 3fb7 2fbe 2343 443d 5fb1 b73d e4be 21be
00000130: be2e 8b3d 1c41 273d a654 4e3d 1fa7 663e
00000140: fd40 67be 35d3 143e 179d 043e 76af 8bbb
00000150: b86a 7dbb a76c 1fba 5dfb dd3d e8c7 adbd
00000160: 490b b0bd 972d 093d 01d0 cdbd 35cc 53bd
00000170: 1f01 073b 9a97 323e 4011 00be 2895 dbbc
00000180: 4184 24be 9c46 653d 39c4 c8be 19d1 cdbc
00000190: 3705 533e a304 2bbe 6afc 9fbd 73d2 723d
000001a0: 503b b23d 6fd1 c43d 59b0 6f3c 9711 123e
000001b0: 1aaa 9dbe 0a83 11be 24eb 213e 6d60 883d
000001c0: 4c7a fbbd c840 67be f13a b5bc 3311 bcbd
000001d0: 8e53 c1bc f76f 973c 39f7 943c a8f8 203e
000001e0: 88db 653d 6f01 84bc d1ae 9ebd b943 76be
000001f0: d7aa 9cbd cee6 073e edfe 3b3e bd1a 203d
00000200: 08e5 05bd f10b 3bbe 8610 0a3d b64e 1d3e
00000210: 34f4 3c3c 5647 06be 2963 b53e c2fd 12bd
00000220: 32e4 bebd dd1f 983d 848d f9bc 171d 7f3d
00000230: db6e e33d 84e6 a63d 44b9 efbb 2f3c 74bd
00000240: 3a54 613d 1cba 1c3e 36d2 7cbd 3cec 7dbe
00000250: fece 2d3d 3600 183d dd87 f3bc cc07 b03c
00000260: 2fcc 513d 9f6b 263e e198 0ebc c865 073d
00000270: 8a64 43bd 4425 31bd c26d 18be 5086 deba
00000280: c8dd ac3b 961b 1fbd fd97 cc3d 2058 783d
00000290: 173a 35bd 9159 bdbc 2999 bd3e 59d5 c7bc
000002a0: 56db 2fbe 49e4 d33d aa26 28be f4f1 f4bc
000002b0: 13c0 973c 327b 9c3e e48b 4b3d 9587 ef3d
000002c0: c5af 86bd 2dfd e93c e37b 0a3e d652 3f3e
000002d0: 1991 933e 38a2 5ebd 6e4f aebd d9e2 9e3c
000002e0: 4799 f73d 0a9c 0b3e 4e55 8ebd d247 8d3b
000002f0: 7920 813e 5c61 a73d 0c18 993d dbbf 44bd
00000300: 3d8f ce3d ead7 b93d d083 d03c 2cb4 6bbd
00000310: 405f 603b e17e 79bd a3d0 68be 6d13 9fbd
00000320: 5ed3 79bd ad62 443b c21b adbc 11e8 c4bd
00000330: 90c2 25be a461 6f3c c5cf 54be c9b0 893d
00000340: 1049 a33d 1c2b 3cbc 50b4 0f3c 1c46 be3c
00000350: b9cc 2e3e 7c6b 4f3e cef6 91bd 92fb f5bb
00000360: a790 013d 6423 b73c 69ac 773d 1120 053e
00000370: 9f1f 2cbc f85c 48bd e23e 223c 7964 683d
00000380: 376c 0f3e c8e8 6e3d 742f 8dbe 0078 2d3b
00000390: 43f3 ffbd a025 983c 3029 da3e 9728 43bd
000003a0: 5f57 0cbe 61d6 97bd 50fd 09bd 084d 753b
000003b0: fc4e 3a3e 714f ffbd 8b6d 34bd 8aa1 4b3e
000003c0: 17bb 5b3d b861 32be 6148 18bd 48c1 6cbd
000003d0: 117a 48be 18e1 853e 512c ce3d ddac a9bd
000003e0: 6525 6b3b 58a4 70bd ac7d c8bd fada 1dbd
000003f0: 9464 1b3d 4e73 753d 83a6 003e cb39 d0bc
-0.13381481 0.007086089 -0.14856356 -0.14780918 0.1454588 -0.029951256 -0.14438377 -0.056877624
0.20482592 -0.028529648 -0.14114003 0.0043421746 -0.031815734 0.35487083 0.22346616 0.3514985
-0.07607069 -0.064614125 -0.00044792885 -0.020434365 0.015257021 0.29299968 0.079539634 0.039935615
-0.046315398 0.100299954 -0.28104645 -0.07181467 -0.16440542 -0.037493847 -0.022629078 0.040386453
-0.45317188 0.30223423 0.12074531 -0.18530336 -0.028179241 -0.030818574 0.028604321 0.08112692
-0.0091140885 0.06748999 0.06584424 0.083216 -0.01560205 -0.03907924 -0.12592633 -0.1681711
0.15241373 -0.08360808 4.8328664e-05 0.07988339 -0.02619275 0.0047603655 0.14483292 0.041969847
-0.065199986 -0.045219988 0.06345275 -0.05403448 -0.05468 -0.00101934 0.054951333 -0.019271543
0.056379177 -0.008904712 -0.036137458 0.23538202 0.18794863 -0.13048404 -0.039416086 0.196109
-0.17159747 0.04791559 0.08969378 -0.15795475 0.06796025 0.040833578 0.050373696 0.22524689
-0.22583385 0.14533694 0.1295055 -0.00426286 -0.0038668346 -0.0006081559 0.10838959 -0.08485395
-0.085959025 0.033490743 -0.10049439 -0.05170842 0.0020600033 0.17440644 -0.1250658 -0.026804522
-0.16066076 0.05597554 -0.39212206 -0.02512412 0.20607458 -0.16700988 -0.07811816 0.05928273
0.08702719 0.09610259 0.014629447 0.14264522 -0.3079384 -0.14210144 0.15812355 0.06659017
-0.12279186 -0.22583306 -0.022122832 -0.09182968 -0.023599412 0.018486006 0.018184291 0.15719855
0.056117564 -0.016113965 -0.07748187 -0.24049272 -0.076497726 0.13271639 0.18358965 0.039088
-0.032689124 -0.18266274 0.033707164 0.15362057 0.011532832 -0.1311315 0.35427216 -0.035886534
-0.093208686 0.074279524 -0.030462988 0.0622836 0.111051284 0.08149436 -0.0073157866 -0.059627708
0.055011965 0.1530537 -0.06172391 -0.24797148 0.04243373 0.037109576 -0.02972787 0.021488093
0.051220115 0.16251992 -0.008703441 0.03305605 -0.047703303 -0.04324843 -0.1488562 -0.0016977284
0.005275462 -0.038844667 0.09989927 0.060630918 -0.044244852 -0.023113998 0.37030914 -0.024393724
-0.17173514 0.10346276 -0.16420999 -0.029900528 0.018524205 0.3056274 0.049693957 0.11695782
-0.06576494 0.028563106 0.13523822 0.18683943 0.28821638 -0.054353923 -0.08511244 0.019395279
0.12089782 0.13633743 -0.06949864 0.00431154 0.25220087 0.08172867 0.0747529 -0.04803453
0.10085914 0.090743855 0.025453478 -0.057544872 0.003423646 -0.060912017 -0.22735839 -0.07767377
-0.06099259 0.0029966042 -0.0211314 -0.09614576 -0.16187501 0.014610682 -0.20782383 0.06723172
0.0797292 -0.011484887 0.008771017 0.02322679 0.17070283 0.20255846 -0.071271524 -0.007506796
0.03163209 0.022355743 0.060467158 0.13000514 -0.010505586 -0.048916787 0.009902688 0.056736443
0.14006124 0.058327466 -0.27575266 0.002646923 -0.1249757 0.018572628 0.4260955 -0.04764613
-0.13705204 -0.074139364 -0.033688843 0.0037429947 0.18194193 -0.12466324 -0.04404978 0.19885841
0.05364522 -0.17420089 -0.0371784 -0.057801515 -0.19577815 0.26148295 0.100670464 -0.08284924
0.0035880443 -0.05875048 -0.09789595 -0.03853891 0.037937716 0.059924416 0.12563519 -0.025418183

fc1.bias f4 [256]
00000000: 3ba8 0abc 64db babd bd14 01bd f59d 56be
00000010: 695a fb3d d503 85bd f605 82be d3f6 5b3d
00000020: 4cc1 db3d f68e 983c df85 0cbe b362 553c
00000030: 3bf4 bd3c 7361 023c 80b9 293e fb7c 2e3e
00000040: d5a8 23b9 b9e9 debd 548a 8cbe aade 9ebe
00000050: 4216 80bd c372 94bd 1108 86bd 2764 8d3d
00000060: a1a3 05be 576e 06bd 658e 023e 928c d63c
00000070: 872c a13c 8a3f 41be 061d 18be 421d 06be
00000080: 75c6 8dbc 5abd f8bc cf9c 71be 2b31 433c
00000090: 0680 29be 205e 3bbe 752e eb3d f48d 95bc
000000a0: 8a07 38be e276 02be 9e0f bd3d 626a 083e
000000b0: 48be 7f3d d47e 6dbd 6d70 3a3d 572f 06be
000000c0: 0d99 f43d 4f6f 213d adc2 31be 2ba6 913c
000000d0: 0c22 0cbe 0672 aa3d 96ef 25be 77ea ca3d
000000e0: e566 d9bc 18f8 f03d be31 8fbe 208d 3e3e
000000f0: ce0a ecbd e23c bfbd 5720 9ebd c09b 853d
00000100: c997 1cbd 830b 36be 2ea5 473e 0ebb 09be
00000110: 7706 aebb 456d 92bd 4932 1d3d fe51 11be
00000120: f61b 29be a6cc 0b3e 2e06 1f3e 1565 903d
00000130: 2732 66be 35b7 a43c 8482 27be 83f4 23bd
00000140: 88f3 383e a1a1 9dbc f5af 24be f852 3fbd
00000150: 3fbe 023d 4129 d7bb f0b9 a5be 2b1c 8ebd
00000160: aadc 39be 6878 703d 8a1b f7bd a24f 923d
00000170: dfc7 01bd 1607 693e a740 783c 03b6 843b
00000180: 0dc3 08be 0caa 76be 0bb4 aebd 17d2 013e
00000190: 44c5 ac3c 496f 023e 1931 dd3c 294d da3d
000001a0: 7923 773c ba8d 7fbc dfb1 4cbd 5b5e d93c
000001b0: fcb2 b2bc 0c88 16be 07db 8c3d 8a16 073d
000001c0: e9e8 82be 9659 e8bd 30b0 103e f3e5 aabd
000001d0: 9edc 92bd 33bf afbd a9d9 5f3d d1ae c2bd
000001e0: 4bb7 fb3d fe44 703e 7494 2bbe eea8 ec3d
000001f0: 258c bb3d 45fb 6d3d e693 50be 7860 0dbd
00000200: 8476 16be 692a 84be bc50 5abd fd18 69be
00000210: 3ef8 1d3d 5064 0cbe 4a26 4abe 3aac 7dbb
00000220: 7557 d5bd ec9a 23be 9ded 40be f65d 88bd
00000230: c0f8 d03a 8b23 803d b076 89bd 2882 05be
00000240: 4f66 49be 5a2e 1cbe 4dfa ddbd 2f58 ee3c
00000250: 4bf7 923d f1cb 56be f62a 14be e51c f6bd
00000260: d5c0 96bc 0d05 ffbd c879 dc3d ee6b e9bd
00000270: 0210 5dbe 6b59 763d 6ee0 91bd cf78 5a3d
00000280: 0e42 28be 5189 70be a1e3 513e e3e1 263e
00000290: 9f00 0c3b ea32 08be 6b5c 6bbe 84ac 07bd
000002a0: 7d7c 17be 6f97 36bd 3d6e 263e 8776 2f3e
000002b0: e2e6 93bd 2ea5 d0bc 0be9 38bd 7bf7 a3bd
000002c0: 447a adbe 2ca4 2bbe 72d8 2cbd 5987 51bd
000002d0: 7733 38be 84e2 293d 0d29 89bd d98a 28be
000002e0: 7533 d5bc c93a e8bb 89cc d73d bc0d 30be
000002f0: e251 5abe e858 9e3d b25b 89bd 407b 463d
00000300: 9ff6 cd3d 00c6 16be b045 19be e85d 88bd
00000310: 6dd1 a6bc 8f3b b9bc 573c 87be cc7f 293d
00000320: f042 cb3d 23ce f53d 36f8 7c3c f251 643e
00000330: c45d 753d 8916 86bd fbb8 5dbe 94b9 34be
00000340: cb59 5c39 3e7d 353e 0c75 67be f5be d5bd
00000350: 0d1c 1bbe 8e55 343d f3e8 70be 0a19 86bd
00000360: 25de b3bc 61c5 33be c939 3ebe e00c b73d
00000370: 32ac 21bd 821a 0abe 41f5 8e3c e306 82be
00000380: a60f 883c ccc0 2ebe f44b 2abe f71c 30be
00000390: 85e1 5abc 2229 ea3d 5272 88bc 8006 b9bd
000003a0: 464d 63be d850 fb3b 78ca 0fbe 980a afbd
000003b0: 94f0 dc3d aebb 673d c93e c9bd 999b d7bc
000003c0: 9370 88bd 9728 91be 0243 bebd 4b0b 0ebd
000003d0: f5f0 a23c 4954 4bbe 5043 cfbd aa21 553e
000003e0: 2954 7f3d 140b fd3d e724 32bd 83fe 59be
000003f0: cc12 80be f9ee 35bd 8290 d7bd 0b0c d0bd
-0.008462961 -0.09123877 -0.03151392 -0.20958693 0.12273104 -0.064948715 -0.25395173 0.053702187
0.10730228 0.018622857 -0.13722943 0.01302402 0.023187747 0.007957804 0.16574669 0.17039864
-0.00015607786 -0.10884423 -0.27449286 -0.31029254 -0.06254245 -0.072484516 -0.06544507 0.06903868
-0.130507 -0.032820072 0.12749632 0.026190076 0.019674553 -0.18871894 -0.14854822 -0.13097098
-0.017306546 -0.030363727 -0.23594974 0.011913578 -0.16552743 -0.18297625 0.1148347 -0.018256165
-0.17971626 -0.12740663 0.09231494 0.13321832 0.062437326 -0.05798228 0.045517374 -0.13103996
0.119432546 0.039412793 -0.17359419 0.01777943 -0.13684863 0.083225295 -0.16204676 0.09908002
-0.026538322 0.1176607 -0.27967638 0.18608522 -0.11525498 -0.09337784 -0.07721012 0.065238476
-0.03823069 -0.17777829 0.19496605 -0.13450262 -0.0053108293 -0.07149748 0.038378034 -0.14191434
-0.16514573 0.13652286 0.15529701 0.0705053 -0.22480069 0.020106891 -0.16358382 -0.040028106
0.1806165 -0.01924211 -0.16082747 -0.046709985 0.031919714 -0.006566197 -0.32368422 -0.06938966
-0.18150583 0.05870858 -0.120657995 0.07144095 -0.031684753 0.2275661 0.015152133 0.004050018
-0.13355656 -0.24088305 -0.08530434 0.12677799 0.021090157 0.12737764 0.02700095 0.106592484
0.015084141 -0.015597755 -0.04997432 0.02653425 -0.021813862 -0.14700335 0.06877714 0.03298048
-0.2556832 -0.11345212 0.1412971 -0.083446406 -0.07170986 -0.0858139 0.054650936 -0.09506
0.1229082 0.23463818 -0.16755849 0.11555658 0.0915759 0.058100957 -0.20368919 -0.034515828
-0.14693648 -0.25813606 -0.05329965 -0.22763439 0.03856682 -0.13710141 -0.19741169 -0.0038707391
-0.10417072 -0.15977067 -0.18840642 -0.066585466 0.0015943274 0.06256779 -0.06712091 -0.13037932
-0.19667934 -0.15252057 -0.10838757 0.029094784 0.07176074 -0.20976235 -0.14469513 -0.1201723
-0.018402496 -0.12452135 0.107654154 -0.11397539 -0.21588138 0.06014387 -0.07122885 0.05333787
-0.16431448 -0.23489882 0.2049699 0.16297106 0.0021362675 -0.13300672 -0.22984473 -0.033123508
-0.14793582 -0.044578012 0.1625299 0.17135058 -0.07221772 -0.025469389 -0.045144122 -0.080061875
-0.33882344 -0.16761845 -0.042198606 -0.05115447 -0.17988382 0.041475788 -0.06697283 -0.16459216
-0.026025513 -0.007087086 0.10537059 -0.17192739 -0.21320298 0.07731801 -0.067069426 0.048457384
0.10056805 -0.14723969 -0.1496799 -0.06658536 -0.020363534 -0.022611408 -0.26413223 0.041381642
0.09924877 0.12002208 0.0154400375 0.22296885 0.059903875 -0.06547267 -0.21652596 -0.17648917
0.00021014285 0.17723557 -0.22603244 -0.10436813 -0.1514742 0.044026904 -0.23526363 -0.065477446
-0.021956513 -0.17555763 -0.18576731 0.089380026 -0.03947086 -0.13486674 0.01745093 -0.2539588
0.016609024 -0.17065734 -0.16630536 -0.17198549 -0.013359432 0.11433627 -0.016656075 -0.09034443
-0.22197446 0.0076695494 -0.1404208 -0.085469425 0.10788074 0.05657547 -0.098264284 -0.026319312
-0.06662097 -0.2835128 -0.092901245 -0.03467874 0.019890288 -0.19856371 -0.10120261 0.20813623
0.06233612 0.123556286 -0.043492224 -0.21288495 -0.2501434 -0.044417355 -0.105256096 -0.10158547

fc2.weight f4 [256, 256]
00000000: 5b3d 30bd 71f5 873d 5092 c53d 1e27 863d
00000010: 1222 bbbd 7402 523c 6537 5a3e 0042 1a3e
00000020: 46ad d5bd a325 163e 466b 99bb 1fd8 e43d
00000030: e96c 9d3d 882f a43e 4308 86be df43 b2be
00000040: f89c 2cbe ea5b ab3e df00 14bd 0192 6e3d
00000050: 009c 5c3e 250e 523c 0cb4 103e 5185 8ebe
00000060: febf 433e a700 ccbc 6ad7 71bd de28 7f3e
00000070: 557e a93d 5fff 98bc fbe4 823e ec7c 83bd
00000080: 391c 26bd 7bf3 ff3c f046 99bd 946f 2cbf
00000090: 4994 0d3e cc37 9bbe d515 c6bd 1dbf c6bc
000000a0: 6483 37be 41b4 83bc 0c24 29be abd4 10be
000000b0: f8f6 62be 459d 94be 9e11 3dbe cb5b 29bc
000000c0: 9c76 4dbd 97c5 2ebe 114d 6dbe 4096 893e
000000d0: 7026 b7bd 1881 ba3d caaa d93d 6121 ba3d
000000e0: 3ee9 a93d 8012 7fbc 6a35 0f3e c521 b7be
000000f0: 31b5 08bc ea7a 243e 6e59 75be 1f7e ed3c
00000100: 750a 33be fefa aa3d 2057 07be 34c8 9e3d
00000110: 2b04 66be 8415 01be c236 d73d d72a cc3d
00000120: e374 f53c 8e2e eabd 1789 05bd 4674 cd39
00000130: 3a24 ba3d dd8d c5be 09e0 f0bd 5c7b 023d
00000140: be70 3bbe 1fdf 83bd 9482 babc b948 1c3e
00000150: c85b bf3d 50fb 943e 19cd 053e bfd0 8e3c
00000160: 75e0 c8bd 36ee e73d 2f23 bfbc 27f3 80be
00000170: 7eff adbc 5e81 4dbe fce9 c83d 14c6 d0bd
00000180: 0320 7abd f1f3 04be b935 c0bc c024 743e
00000190: f11b 2dbe 33ad edbd 07e2 253e a899 c03c
000001a0: 54b5 1bbe 440f e23d da94 8bbc 2b78 34bd
000001b0: 2cba 1fbd 00d2 d0bd 2e49 1bbd f2ba 02bd
000001c0: 7d70 d83d 11e0 953d 66e6 123d 54e7 ccbd
000001d0: 01d3 ccbc 7740 843d 66e0 debd 79f4 bfbd
000001e0: 0bf7 fb3d 4821 85bc 7087 22bd 6e1b 2bbe
000001f0: e5b0 33bd 2b8e e23c c895 0dbe 6541 f1bd
00000200: 2243 43be 16d5 4f3e 91a0 063d d583 56be
00000210: 1d3f 11bd 8d9e c93c b41c b03c e21b bebd
00000220: 5d7c 76bc f3f9 6bbe 193a 053e 5e9a 24be
00000230: 2420 95be e6fb 8abd 5828 d73d 8f18 3a3e
00000240: 22d8 54be 8da3 b2bd f45d 0fbd 9cf4 3d3d
00000250: 0434 91bc ac01 c73e 57e8 aa3c 54ce 123e
00000260: aa24 17be e14f 1bbe 5619 a0be 2a8b 743e
00000270: 9387 ccbd 4878 9fbe 88de a0be dff0 24bd
00000280: 3dbd a33d 035e 13bf 94f6 013e f84a 4cbe
00000290: ed30 973d e783 aa3d a4e8 2abd e8f5 05bd
000002a0: 6a5b 9ebd bd71 eabd 1c25 06be 13ca 293e
000002b0: d8bf 1cbc 5191 c0bc 292d b03c 2bec 4f3e
000002c0: ad6e b33e 0310 793d 7ec4 7dbd 1617 acbe
000002d0: 0a0a 983d a6bf 13bc 062b 923d 6401 aa3d
000002e0: 59d3 81bd 8055 7d3d 0d2d d7bc aab6 0e3d
000002f0: e56c 683e ef1e f8bd 69c3 bbbe eddd f5bc
00000300: 9fd2 4fbe 4804 00bd e897 39bd e0b5 523d
00000310: d3d4 443e b54a 1ebe 7e5b 95bd 2ffe bd3d
00000320: 9896 4cbe e6b0 88bd 0a4c 9abe bacc e3bd
00000330: 2323 4fbe 8f0d c53d 472b 723d 8ae9 713c
00000340: ca77 d8be 87a4 06be 5d56 1fbc 2584 7d3d
00000350: 2baa f3bc 5239 b73e 22b6 7e3e e7e3 dc3d
00000360: 935f df3d 9643 fd3b 793d 733e a631 93bc
00000370: af4d b93c 00ed b5be a3af c1bc a091 5dbb
00000380: 02f7 94bd 3d0d d2bd 9b92 1c3e 3d99 f8bd
00000390: f097 47be bb7f 5b3c b553 0abc 29e7 9ebe
000003a0: 43e2 82be 3e7b 3cbe fe32 633d 991c f13d
000003b0: 698d b8be ee6e cf3b e0d5 103d 3be5 6cbd
000003c0: 6e67 87bd ca89 25bc 92f8 c5bd d3e7 0ebe
000003d0: 8951 84be cfb0 bd3d b777 083e e689 9dbd
000003e0: 6ef9 edbd 89e9 05bc 9b4f 2a3e bfec 173d
000003f0: 98ef 6c3e e790 b83d cd5e 943d 81b8 313c
-0.043027263 0.06638611 0.096470475 0.0655043 -0.09137358 0.012817968 0.21310194 0.1506424
-0.1043344 0.14662795 -0.0046819774 0.11174034 0.076867886 0.32067513 -0.26178178 -0.34817407
-0.16856754 0.33468562 -0.036133643 0.05824471 0.21543884 0.012820755 0.14131182 -0.27836087
0.19116208 -0.024902655 -0.059043325 0.24917933 0.08276049 -0.018676458 0.25565323 -0.06420311
-0.04055426 0.03124403 -0.074842334 -0.67357755 0.13826098 -0.30316007 -0.09672133 -0.024261052
-0.17921215 -0.016077163 -0.16517657 -0.14143626 -0.22164524 -0.29026237 -0.18463752 -0.010336827
-0.050161943 -0.17067562 -0.2317393 0.26872444 -0.08942878 0.09106654 0.106282786 0.09088398
0.082964405 -0.015568376 0.1398522 -0.35767952 -0.008343981 0.16062513 -0.23959896 0.028990803
-0.17484458 0.08348654 -0.1321683 0.077530295 -0.22462527 -0.12605864 0.10508491 0.099691086
0.029962962 -0.11434661 -0.032601442 0.00039187277 0.09088941 -0.38584796 -0.11761481 0.031855926
-0.18304726 -0.06439041 -0.022767343 0.15262116 0.09343678 0.29097986 0.1306652 0.017433522
-0.09808437 0.11324732 -0.023332207 -0.2518551 -0.021239992 -0.20068881 0.09810254 -0.101940304
-0.061065685 -0.12983681 -0.023463117 0.23842144 -0.1690519 -0.11605301 0.16199504 0.023510769
-0.1520589 0.11038068 -0.017038751 -0.044059914 -0.038995907 -0.10196304 -0.037911586 -0.031916566
0.105683304 0.07318128 0.035864256 -0.1000506 -0.025002958 0.06457608 -0.10882644 -0.09372801
0.12302979 -0.016251221 -0.039679945 -0.16709682 -0.04386987 0.027655682 -0.13826668 -0.11780051
-0.19068578 0.2029613 0.03286797 -0.20948727 -0.03546058 0.024611736 0.021498062 -0.09282662
-0.015044299 -0.23044567 0.13010444 -0.16074511 -0.29126084 -0.06786327 0.10505742 0.18173431
-0.20785573 -0.08722601 -0.03500171 0.046375856 -0.017724998 0.38868463 0.020862741 0.1433652
-0.1476008 -0.1516719 -0.3126933 0.23881212 -0.09986796 -0.31146455 -0.31419778 -0.040268775
0.07995079 -0.57565325 0.12691718 -0.19950473 0.07382379 0.083259396 -0.04172577 -0.032705218
-0.077322796 -0.11447475 -0.13100094 0.16580991 -0.0095672235 -0.023506792 0.021505909 0.20304935
0.35045376 0.060806286 -0.061954968 -0.33611363 0.0742379 -0.0090178605 0.07137112 0.083010465
-0.063391395 0.061849117 -0.0262666 0.03484217 0.2269779 -0.12115275 -0.36672524 -0.030013049
-0.2029519 -0.031254083 -0.045310885 0.05144298 0.19221811 -0.15458186 -0.072928414 0.09276997
-0.19979322 -0.06674366 -0.30136138 -0.11123033 -0.20228247 0.09621727 0.059123304 0.014765153
-0.42278892 -0.131487 -0.00972518 0.0618936 -0.029744228 0.3578592 0.24874166 0.107856564
0.10906901 0.007729004 0.23753919 -0.01796801 0.02262005 -0.3553238 -0.02364332 -0.0033808723
-0.072736755 -0.10256431 0.152903 -0.12138603 -0.19491553 0.013397153 -0.008442809 -0.31035736
-0.2556325 -0.18406388 0.05546855 0.11773033 -0.36045387 0.0063303625 0.035360217 -0.0578358
-0.066115245 -0.010103652 -0.09666552 -0.13955621 -0.25843456 0.09262239 0.13326918 -0.07692318
-0.116198406 -0.008173355 0.1663193 0.037091013 0.23138273 0.09012013 0.07244644 0.010847212

fc2.bias f4 [256]
00000000: 4e5c 12be 96ab a3bc 8537 043d 86ae 8ebd
00000010: 8af0 cf3c dc20 a43c 23c5 a33d 20ca 273d
00000020: 089e bdbb 56cb 9f3d 36f6 053d 0245 d43c
00000030: c78b 34bc 2a74 82bd cbb8 59bd 58d5 adbb
00000040: b5a7 1cbe bcb7 b4bb 7b3e a439 f645 c8bd
00000050: 18ac ebbd 0e9b ffbd 63f2 213d 0a30 60be
00000060: eedf d8bc 0afd 893d 5324 32bd 072b 183d
00000070: d486 5c3c 64ee 003d 135a 39bd a4ea 443d
00000080: 5a89 243d c237 d33c 45d4 9d3c d37a e5bb
00000090: 1236 9f3c 47e7 f4bc 1300 c43c 4914 bcbd
000000a0: 36d9 983c 5a07 113d 4f57 6d3d f338 c53d
000000b0: 8765 1cbd a044 a73d 5578 a3bc 003a 53be
000000c0: 8ef0 cfbc 279f fdbc 653a 013c c091 f33c
000000d0: 0d7c aa3d b814 a1bc 4e74 043d a5d7 17bc
000000e0: 8ce8 2b3d 95f9 0d3d 92e1 133c d5d9 94bc
000000f0: 7c84 ba3d 7f9a 8abc dbc9 893d 60f9 9ebd
00000100: 0358 243d ebea 4b3c 364e aebc 5b1e c1bd
00000110: 6eb9 abbd 5b71 a8bd 7e76 813c d907 963c
00000120: 3a16 d23c c8ca e23d 3d3c 033e 9271 543c
00000130: f8c0 bfbd c628 a6bd 7d41 193d 1675 56bd
00000140: 907b 1c3d af4b 673c 589b 90bd 260a 47bd
00000150: 994f 0b3d 87fb 20bd 0abe c83c ae9a 7e3d
00000160: a25c e5bc 17f4 ae3d 085c 1f3d 72ba d2bd
00000170: 876b edbc 29c8 5abd eab8 83bc 3b10 343d
00000180: a228 94bc 22c5 24bd 9559 a2bd 5c01 0ebd
00000190: c1f2 153c 13c5 ac3d f282 a0bc e487 b1bd
000001a0: fcaf 64bd aa96 b4bd 2ca6 76bd 5ef2 8abd
000001b0: 8798 073d c200 c5bd 76fe dfbd 26bb 38bc
000001c0: fd00 ee3b 28b9 66bc d2f3 753c d49b 95bd
000001d0: c668 09bd 4c5f e33a 00a4 763d 1fad 63bd
000001e0: 0c92 323d 51cc edbc 8ea5 9abd d524 debb
000001f0: acb4 87bd aa09 583c d96c 103e a0b9 b63d
00000200: 6a85 fabc c9a0 163a 5957 393d 52de 633d
00000210: c54b 6a3b b99e 82bd f7d1 6d3d 24bf 243d
00000220: 4b0f 7bbd 321f 383d 796d a53d 704b 953d
00000230: 4242 58bd a66f 0ebd ca6f 88bd 8aea d4be
00000240: 9dd4 813c d9ef 053e 4633 503d 2578 8fbd
00000250: cf26 af3c ab2b 003d d355 12bd c349 1d3b
00000260: 5890 dbbc 242e 173d f6f7 5fbb 91c5 553c
00000270: 0397 be3c d5a3 c3bc f1a6 8e3c 23e4 793d
00000280: 8498 15be 3a17 67b9 6a72 47bc 5c5b 2cbd
00000290: dac6 98bd 6f50 d43d 5cac 723d d210 dc3d
000002a0: 960c a83a 4e4d 053e 2a74 0dbd d0ed b6bb
000002b0: a365 ca3c 4a4d 153c 6b6b 873d 3a6b 283d
000002c0: 8123 503d 963b fe3c ac3e a23c 4773 87bc
000002d0: 2734 eaba 1dfc 93bd 02f3 13bd 6ff7 13bb
000002e0: c2f0 a8bd 3928 403d 2af2 b93c 623f b7bd
000002f0: 9e17 05bd 4b3d c33c 6d07 00bd caeb 593d
00000300: 5686 f1bd 5cc3 19bc d944 85bc cf43 a6bd
00000310: 735c 7e3c d86c ffbc fe34 f33c 5a6f 04be
00000320: f3fc 9d3c 99d0 d0bc f924 153d 0c64 503d
00000330: f6a7 00bc 7681 7a3c 0c9a bbbd fd2b 2fbd
00000340: 6348 81bc d118 e4bc ab5b b93d 98a8 713d
00000350: 6977 ffbc be58 cbbd 92c6 c53c 420c 05be
00000360: 5627 83bc 7126 bc3c 962a 47bc 95f9 ce3c
00000370: 6c27 4f3c 30f1 b8bd 4637 323d e110 98bd
00000380: adc2 7fbd a896 683d 760d 2bbd f6bf a7bd
00000390: 7191 e43d 3f1e 8dbd f65f ea3c 7b47 e93d
000003a0: e1ad 6cba 0b42 4cbd fe6a 4ebd bc49 7bbd
000003b0: e2d2 6d3d eaa7 abbd 6aca b63c c0e9 3a3c
000003c0: d894 f23d 4e34 013e 24d7 863d 6487 f1bd
000003d0: 5ba5 843d b07c 5fbd cb38 003e 06e5 fabc
000003e0: add2 c3bc e5d5 d6bc 0a5d d73c bfc1 383d
000003f0: c604 ed3d 1488 4c3d 5b9b dcbc d52a 313d
-0.14293024 -0.01997928 0.03227951 -0.069668815 0.025383253 0.0200352 0.07996585 0.040964246
-0.005786661 0.07802455 0.03270551 0.025911812 -0.011019654 -0.06369813 -0.053154748 -0.0053049736
-0.1529835 -0.005515067 0.0003132707 -0.09778969 -0.11507434 -0.12480746 0.0395378 -0.21893325
-0.026473965 0.067377165 -0.043491673 0.03715041 0.01345988 0.031477347 -0.045251917 0.048075333
0.04017005 0.025783423 0.019266257 -0.007003167 0.019434962 -0.029895438 0.023925817 -0.091835566
0.018658262 0.0354074 0.057944592 0.09630003 -0.03818276 0.08167386 -0.01995484 -0.20627594
-0.02538326 -0.030959679 0.0078874575 0.029732585 0.08324442 -0.0196632 0.03233748 -0.009267722
0.04196982 0.034661848 0.009025948 -0.018170277 0.09107301 -0.016919373 0.06727954 -0.07762408
0.040122997 0.0124461455 -0.021277528 -0.09429618 -0.08384977 -0.08224746 0.015803572 0.018314289
0.025645364 0.11073834 0.12815948 0.01296653 -0.09362978 -0.08113246 0.03741597 -0.052357756
0.038203776 0.0141171655 -0.070608795 -0.048593663 0.034011457 -0.039302375 0.02450468 0.062159233
-0.027998272 0.0854265 0.038906127 -0.10289468 -0.028981937 -0.053413544 -0.016079385 0.04396079
-0.018085781 -0.040227063 -0.07927243 -0.034669265 0.009152115 0.084360264 -0.01959369 -0.08668497
-0.055831894 -0.088177994 -0.060217068 -0.06784509 0.033104446 -0.09619285 -0.109372064 -0.011275088
0.0072633014 -0.014082231 0.015011745 -0.073051125 -0.033547185 0.0017347126 0.060214996 -0.055585023
0.043596312 -0.02902809 -0.07551108 -0.006779293 -0.06626257 0.013185898 0.14104022 0.08922124
-0.030581195 0.0005746005 0.045249317 0.055631943 0.0035750729 -0.0637793 0.058061566 0.04022135
-0.06129388 0.044951625 0.08077521 0.07289779 -0.052797563 -0.034774445 -0.06661947 -0.4158519
0.015848452 0.13079776 0.05083015 -0.070053376 0.02138081 0.031291645 -0.03572638 0.0024000264
-0.026802227 0.036909238 -0.0034174896 0.013047592 0.023265367 -0.023881832 0.017413588 0.061008584
-0.14608961 -0.0002203853 -0.0121732745 -0.042079315 -0.07459803 0.10366904 0.059246406 0.10745396
0.0012821134 0.1301777 -0.03453461 -0.0055825487 0.024706667 0.009112665 0.06612285 0.041117884
0.05081511 0.031034272 0.019805275 -0.01653446 -0.0017868326 -0.07225821 -0.036120422 -0.0022577902
-0.08249046 0.04691336 0.02269848 -0.08947636 -0.032493226 0.023832938 -0.03125708 0.05320338
-0.11793201 -0.009384956 -0.01626818 -0.08118402 0.015524971 -0.03117983 0.029688355 -0.12933102
0.019285655 -0.025490092 0.036412213 0.050876662 -0.007852545 0.015289655 -0.091602415 -0.04276656
-0.015781587 -0.027843865 0.090506874 0.058998674 -0.031184869 -0.099290356 0.024142537 -0.12992957
-0.016009968 0.022967549 -0.012156149 0.025265494 0.012643676 -0.09030378 0.043509744 -0.074250944
-0.062441517 0.056784302 -0.041760884 -0.081909105 0.11160553 -0.068905346 0.02861021 0.11390587
-0.00090285955 -0.04986767 -0.050395004 -0.061349615 0.05806244 -0.083816364 0.022313315 0.011408269
0.11844796 0.12617609 0.065840036 -0.11793402 0.064768516 -0.05456227 0.12521665 -0.030626785
-0.023904169 -0.02622504 0.026289482 0.045106646 0.11573176 0.04993446 -0.026929548 0.04325374

fc3.weight f4 [4, 256]
00000000: 367e 10bf ae2a a43e 1ef3 c23c 0ac7 65be
00000010: 67c5 263e 8b66 673d 71bd ed3e 9931 79bf
00000020: 7718 823c a8bf 2dbe cdc6 cebe 3c19 b8be
00000030: fe18 a03e ad9e f33e 13eb 843d fe4a 493e
00000040: fcf9 3bbf c61b 92be fbc9 e1bd b9ad b9be
00000050: 683a dcbe 67bf 77be 500e 88be 952c 1b3e
00000060: 6163 b3be 0b74 5bbf a0f4 083f f85d 953d
00000070: ab79 a13e b97f 61be 38e9 a2bd 312e 11bf
00000080: 99d3 993d 8da0 223e 4838 bbbd 810b c1be
00000090: c69a 833e cc5f 343d 9249 c8bd 7350 573e
000000a0: 1a94 233d 1694 40be 9ac3 133e 1e56 373e
000000b0: f87f d1bd 56ab 6fbe 4264 10be f697 0e3f
000000c0: ac55 aabd a88a debd 5de4 3abd e169 ea3d
000000d0: eed7 583a 6e57 b0be 0cb6 2dbe 3b30 85be
000000e0: fd85 573e 1702 cdbc 1381 1dbf 7b0d 8a3e
000000f0: 9d84 9bbc 369e 94bd 7ac9 c53d ae1a 0b3f
00000100: 28f3 aabe cca3 053f 78d2 ee3e edad e13d
00000110: 8957 843f af76 9bbe c28e 14be cc5f 10bf
00000120: f322 60be c7b1 b53e 324b efbd f953 97be
00000130: 2442 93bc 74aa 73bd e51c acbe 1489 483c
00000140: d7c7 023f 1ae6 093f 2824 f03d d9ce 863e
00000150: 0c0e 493e f13e 853d b2d3 02bf 32ac d13e
00000160: 564b b0be 96a4 a03e aa75 783d e0be a13e
00000170: 9f5e 14be 82bc 963e 77df 093e 53c9 c03d
00000180: 454a 2dbe 6809 643e 4c9f 0bbe 0328 353e
00000190: dbcd febe ba3d 183e 04aa 853c 35c9 5bbe
000001a0: 4f19 5e3e b1c6 d23e 8df5 0ebe 784c 1fbd
000001b0: 2661 4abe bfb3 d83e f6c2 43be 7565 c6be
000001c0: 42f7 0ebd da16 353d b3a4 523e 6080 d0be
000001d0: 2192 5f3e d4bf 42bf c2ba 5bbe 40b8 b1be
000001e0: c619 943b 5c45 3abd 2593 ce3d 3475 803e
000001f0: 1dce c4be 85b0 bf3d 1a79 1ebd 9828 9b3e
00000200: ef5c febe a309 153d 3b94 1bbd 5732 3fbe
00000210: c432 15bf 048d 233f 68b4 4d3d 408a 783e
00000220: 67d6 d7be 5ff9 d43e 3a02 2fbe ac6a 6fbe
00000230: 5bd3 02be 86a8 94bc 610e bdbe 720b a03f
00000240: 9c02 423e a6f0 dabd 1614 cdbe 67d3 fdbe
00000250: cd41 713b 5e17 113f 9a1b 7d3e 1e4c a53e
00000260: 2e17 e7be 70d8 de3e 5dca 2cbf 3dfe 0dbe
00000270: e8bb 1fbd adad de3b 617e 7b3e a5c9 ce3e
00000280: 79b8 713f 91dd fe3d 049d 0b3f c295 643e
00000290: 325a 543c c0c1 403d 30fe 0b3e bf46 8c3d
000002a0: b149 423e e84d 353d eb00 adbe 8819 503c
000002b0: 38d8 4cbe 7bad 0cbe 437e 2ebe 7dce 90be
000002c0: 9776 853e 248b 993d 7f88 3c3e a5e7 ffbd
000002d0: 8c60 243f ad5a dbbe 1eff e03d 2998 9bbe
000002e0: 2952 36bd 03df 7ebd 34ba 64be 4687 1b3d
000002f0: f139 fbbc 82db cb3d 59ca 093f 25c3 e43d
00000300: 806b c2be 54e0 703d 4a05 233e 1938 f3be
00000310: 5bba 603e a8b2 963e 6b52 9c3e 3b6a f1be
00000320: 117c 033e e811 23bd 3937 1fbf 7cff 153e
00000330: 72a6 2c3d 9b90 4a3e e20c 4abe 4795 15be
00000340: 127b cd3b d3ee 1c3e 72d1 5e3e fb71 963d
00000350: e383 ef3e 3dbb 94be ae06 793e 90e8 d83e
00000360: afa3 6dbe 80b6 803c 28ce 63be d94f cfba
00000370: eabf 26bf 5221 86be bf40 27bf 80a9 00be
00000380: e530 f83e fcb6 18bf 4883 53be fccb 5d3e
00000390: 9998 8a3e b704 b3be 4ccb 9dbe 7454 aabe
000003a0: 655c 18be f884 093f aaf2 11bf 5e1c 5fbe
000003b0: 4058 23bf 74dd 0ebf ea2c adbe cf7a e0bd
000003c0: d79b 5f3d f868 323e e859 ee3e 624f 933d
000003d0: f49a f33e 1a9b 5a3c 0fcc 813e 627a 2e3f
000003e0: 3967 9a3e 786f fdbe b9f6 06bd 04ce 853d
000003f0: d0dc cc3d efe2 683f bca9 89be 1df1 66bd
-0.5644258 0.32063812 0.023797568 -0.22439209 0.1628624 0.056494277 0.46433595 -0.97341305
0.015880806 -0.16967642 -0.40386048 -0.35956752 0.31269068 0.47581998 0.06490149 0.19657513
-0.7342832 -0.28536814 -0.11024853 -0.36265352 -0.4301331 -0.24194108 -0.2657342 0.15153725
-0.35036758 -0.8572394 0.5349827 0.07293314 0.31538138 -0.22021379 -0.07954639 -0.5671111
0.07511062 0.15881558 -0.09141594 -0.3770409 0.2570402 0.04403667 -0.097796574 0.21026783
0.039936163 -0.1880649 0.14430085 0.17903945 -0.10229486 -0.23405203 -0.14100745 0.55700624
-0.08317122 -0.1086629 -0.04562794 0.11445976 0.0008271922 -0.34441704 -0.16963977 -0.2601336
0.21047206 -0.02502541 -0.61525077 0.2696341 -0.018984133 -0.07256739 0.09657569 0.54337585
-0.33388638 0.5220306 0.4664495 0.11019502 1.0339214 -0.30363986 -0.14507583 -0.56396174
-0.21888332 0.35487196 -0.11684264 -0.29556254 -0.017975874 -0.05948873 -0.33615795 0.012239713
0.5108618 0.5386673 0.11725646 0.26329687 0.19634265 0.06506146 -0.5110427 0.40951687
-0.34432477 0.3137557 0.06065909 0.3159094 -0.1448922 0.29440695 0.13464151 0.094133995
-0.16922863 0.22269213 -0.13634986 0.17691045 -0.4976643 0.14867297 0.016316421 -0.21463473
0.21689342 0.41167215 -0.13960858 -0.038891286 -0.19763622 0.42324635 -0.1911734 -0.3874928
-0.034903772 0.044211246 0.2057064 -0.40722942 0.21833088 -0.76073956 -0.21457961 -0.34710884
0.004519674 -0.045476303 0.10086659 0.2508942 -0.38438502 0.0935984 -0.03868971 0.30304408
-0.49680278 0.036386143 -0.03798316 -0.18671547 -0.5828059 0.6388705 0.050220877 0.24271488
-0.42155764 0.41596505 -0.17090693 -0.23380536 -0.12775938 -0.018146764 -0.36925033 1.2503493
0.18946308 -0.10690431 -0.40054387 -0.4957535 0.0036812902 0.5667628 0.2471756 0.32284635
-0.45134872 0.43524504 -0.6749628 -0.13866515 -0.03899756 0.006795606 0.24559928 0.40388218
0.9442211 0.12444604 0.5453646 0.22322753 0.012960957 0.047059774 0.13671184 0.06849431
0.18973424 0.04426375 -0.33789763 0.0127014 -0.20004356 -0.13738053 -0.17040353 -0.28282538
0.2606704 0.07497242 0.18411444 -0.124953546 0.6420982 -0.42842618 0.1098616 -0.30389526
-0.044511948 -0.0622244 -0.22336656 0.037970804 -0.030667277 0.09953977 0.53824383 0.11170033
-0.3797264 0.058807686 0.15919986 -0.47503737 0.21946089 0.2943318 0.3053163 -0.4715136
0.12840296 -0.039812 -0.6219364 0.14648241 0.042150922 0.19781725 -0.19731477 -0.14607726
0.0062707746 0.15325479 0.21759585 0.07345959 0.4678031 -0.290491 0.24318954 0.4236493
-0.23206972 0.015712023 -0.22246611 -0.0015816643 -0.6513659 -0.26197296 -0.6533317 -0.12564659
0.48474804 -0.5965421 -0.20655549 0.21659845 0.27069548 -0.34964535 -0.30819166 -0.33267558
-0.14878996 0.5371852 -0.570109 -0.21788165 -0.63806534 -0.5580666 -0.3382333 -0.10960924
0.05459198 0.17422855 0.46552968 0.071928754 0.47579157 0.013342643 0.25350997 0.6815549
0.30156878 -0.49499106 -0.032950137 0.06533435 0.10003054 0.90971273 -0.2688731 -0.056382287

fc3.bias f4 [4]
00000000: 639d 043d caaa 673d e7c7 0f3c dcec 943d
0.03237666 0.05655936 0.008775688 0.0727174
