checkpoints/checkpoint_critic_ddqn_9.pth (torch_old, 304178 bytes, 5 tensors)

fcs1.weight f4 [256, 33]
0	0xbcc01476	-0.023447257
1	0x3dca2fa1	0.09872366
2	0x3b82d75e	0.003992959
3	0xbd72798f	-0.05919796
4	0x3e389ed8	0.18029344
5	0xbcf65428	-0.030069426
6	0xbcfc07b1	-0.030765386
7	0xbd6f3fa1	-0.05841029
8	0xbd7ca9f5	-0.06168552
9	0x3dd39aff	0.103322975
10	0xb9f338bc	-0.00046390842
11	0xbcd992a5	-0.026559183
12	0xbd735302	-0.059405334
13	0x3cb12063	0.021621889
14	0xbd4a68a9	-0.049416218
15	0xbd275dec	-0.040861055
16	0x3d9d4395	0.07678906
17	0x3cd37c27	0.025816036
18	0xbb7348e7	-0.003712231
19	0xbd5f0761	-0.054450396
20	0xbc81a0bc	-0.015823714
21	0x3d9e7afe	0.07738303
22	0x3c80e07d	0.015732044
23	0xbd0711c2	-0.03297592
24	0x3c57989c	0.0131589435
25	0x3da34eaa	0.07973988
26	0xbd07b65c	-0.033132896
27	0x3dd4c57d	0.103892304
28	0x3d496246	0.049165986
29	0x3d5143e8	0.05109015
30	0xbdd76e3e	-0.10519074
31	0x3ca61744	0.020274766
32	0xbe025e21	-0.1273122
33	0xbdeaf4b3	-0.11472454
34	0x3dbd99be	0.092578396
35	0x3d2f3025	0.042770524
36	0x3ba155b0	0.004923545
37	0x3ca2e613	0.019885099
38	0x3bc35b49	0.00596181
39	0x3d31c92c	0.043404743
40	0xbc168d88	-0.009189017
41	0x3b961f06	0.004581335
42	0xbcaec620	-0.021334708
43	0x3bbbb2fe	0.0057281246
44	0x3c36b920	0.011152536
45	0x39cbcc3e	0.0003887135
46	0x3e10a05b	0.14123671
47	0xbe1671e2	-0.1469188
48	0xbd998882	-0.0749674
49	0x3c91d042	0.0177995
50	0xbcad1bfa	-0.021131504
51	0x3c3e6720	0.011621267
52	0x3c064acd	0.008196545
53	0x3bca0a1e	0.006165757
54	0x3ca5f415	0.020257989
55	0x3cb49a7f	0.022046326
56	0xbbd15810	-0.0063886717
57	0xb8b37374	-8.55689e-05
58	0x3a79a70f	0.000952349
59	0xbd89a6b3	-0.067212485
60	0x3dd86d5c	0.10567734
61	0x3d0fcf8f	0.035110053
62	0x3c3b8dc8	0.0114473775
63	0xbd0f24b5	-0.034947116
64	0x3d0aed4c	0.03391771
65	0xbd955b94	-0.07292858
66	0x3c3c8433	0.011506128
67	0xbcba5608	-0.022746101
68	0x3bbfe774	0.005856449
69	0xbd438d12	-0.047741957
70	0x3c825ebf	0.01591432
71	0x3c6ed2f3	0.014576661
72	0xba3ae17c	-0.00071289367
73	0xbd25da8e	-0.040491633
74	0x3d4c3256	0.04985269
75	0xbd0f464e	-0.034979157
76	0x3cfaa87f	0.030597923
77	0x3c49bf7f	0.012313723
78	0x3c602038	0.013679557
79	0x3a9db909	0.0012033294
80	0x3d33ccd0	0.043896496
81	0xbbf517f6	-0.007479663
82	0x3c1c4025	0.009536778
83	0xbc46af93	-0.012126821
84	0xbd3f6bab	-0.04673354
85	0x396c2425	0.00022520179
86	0x3ca584ee	0.020204987
87	0xbce55641	-0.02799523
88	0xbc868b83	-0.016423946
89	0x3c037173	0.008022654
90	0x3c8f24ad	0.017473543
91	0xbd215094	-0.039383486
92	0x3b90f29c	0.0044234525
93	0x3c5c3d7b	0.013442392
94	0xbd33230a	-0.043734588
95	0x3d5b9f86	0.05361893
96	0x3bc8fd44	0.0061337072
97	0x3c977fd4	0.01849357
98	0x3d32fc3d	0.043697584
99	0xbd0e375a	-0.034720756
100	0x3d9a0a5c	0.07521507
101	0x3d99b919	0.07506008
102	0x3bdd8932	0.0067607397
103	0xbcf84659	-0.030306982
104	0x3c3b785e	0.011442272
105	0x3a2dcf71	0.00066303374
106	0x3be0e2ee	0.0068629896
107	0x3c8b192a	0.016979773
108	0xbc5f4a7c	-0.013628598
109	0xbb3f1f25	-0.002916285
110	0x3c9d56ad	0.01920637
111	0xbc12c5b7	-0.008958272
112	0x3dc1bc80	0.09459782
113	0xbdaad199	-0.08340759
114	0xbdc1e8f9	-0.09468264
115	0xbcd87874	-0.026424624
116	0xb9e8cdac	-0.00044403726
117	0xbd3cf807	-0.046134975
118	0x3b6ae57b	0.0035842347
119	0xbba1b2cc	-0.0049346443
120	0xbc6cac7e	-0.014445422
121	0x3b0b00c4	0.0021210173
122	0x3cb6cfcf	0.022315888
123	0xbc7e42a1	-0.015518815
124	0xbcaa91a0	-0.020821393
125	0xbd977d3c	-0.073969334
126	0x3d7ea4cf	0.062168892
127	0x3d62197d	0.05520009
128	0xbc783cd0	-0.015151218
129	0xbd021159	-0.031754825
130	0xbcb6ef84	-0.022331007
131	0x3eb7edb5	0.35923544
132	0xbc3b76cf	-0.0114419
133	0x3d2ed470	0.042683065
134	0xbc114fbf	-0.008869111
135	0x3b922e21	0.0044610654
136	0x3d1f1b4a	0.038844384
137	0xbdcfe743	-0.101515315
138	0x3ba53bc1	0.0050425236
139	0xbc837146	-0.016045224
140	0x3e1b79f1	0.15183236
141	0xbd3e45ab	-0.04645316
142	0xbca7cd41	-0.020483615
143	0x3d09cf89	0.033645187
144	0xbcd64552	-0.026156101
145	0x3cc7373b	0.024318328
146	0x3e0312c2	0.12800124
147	0x3c540009	0.0129394615
148	0x3de673b4	0.11252537
149	0xbcc207a6	-0.023685288
150	0x3da931f6	0.082614824
151	0x3d8afcbe	0.06786488
152	0xba927413	-0.0011173509
153	0xbc29d7f6	-0.0103664305
154	0xbce3d128	-0.027809694
155	0xbc8c96d8	-0.017161772
156	0xbcd319db	-0.025769165
157	0x3cff1c19	0.031141328
158	0x3d3e4970	0.046456754
159	0x3d6bc632	0.05756206
160	0xbc338277	-0.010956398
161	0x3d3b5500	0.04573536
162	0xbd3e8dab	-0.046521824
163	0xbc2e9920	-0.010656625
164	0xbc4ca1e0	-0.012489766
165	0x3b341fe6	0.0027484833
166	0x3bb8ee27	0.0056436243
167	0x3c932832	0.017963503
168	0xbc177141	-0.00924331
169	0xbd3c53fd	-0.045978535
170	0x3d5e20c2	0.05423046
171	0x3cbf9149	0.023384707
172	0x3c8b8b9a	0.01703434
173	0xbcd6f968	-0.026241973
174	0xbcb17692	-0.021662984
175	0x3c2715cd	0.010198069
176	0x3c56dfec	0.013114911
177	0x3cc8b1f6	0.02449892
178	0x3d8e7aee	0.06957041
179	0xbc65972b	-0.014013092
180	0xbbbdf6e6	-0.005797255
181	0x3d338c52	0.04383499
182	0x3d37b961	0.044854525
183	0x3cb3fafc	0.021970265
184	0xbd3f5f8b	-0.046721976
185	0xbcbbc23b	-0.022919765
186	0x3d5ed9be	0.054406874
187	0x3c42e6d4	0.011895854
188	0x3c5cc91e	0.013475684
189	0xbc92e64b	-0.017932078
190	0xbc7ad86d	-0.015310389
191	0xbcbcae13	-0.023032224
192	0x3da97f4b	0.08276232
193	0x3d067496	0.03282603
194	0x3d344074	0.04400678
195	0xbbc06701	-0.005871654
196	0x3cb1e930	0.021717638
197	0xbe38bba1	-0.18040325
198	0xbdc3ddc1	-0.095637806
199	0x3dd6aa3f	0.104816906
200	0xbdbaf6fb	-0.09129139
201	0xbd6654e2	-0.056233294
202	0xbadc7bd7	-0.0016821575
203	0x3c75df38	0.015006833
204	0xbba976b6	-0.005171622
205	0xbc4c9dd0	-0.012488797
206	0x3d78d389	0.06074861
207	0xbc74f3a1	-0.014950664
208	0xbce2df1c	-0.027694277
209	0x3ccd5cad	0.025068605
210	0xbccc1029	-0.02491005
211	0x3dfa03e7	0.122077756
212	0xbdbcaa1c	-0.09212133
213	0x3e12e3a2	0.14344648
214	0x3d455ca1	0.04818404
215	0x3c873789	0.016505973
216	0xbd551638	-0.052023143
217	0x3cf96414	0.030443229
218	0xbccdf07a	-0.025139082
219	0xbcdd8c93	-0.02704457
220	0x3b5efe1a	0.0034025968
221	0x3d291486	0.04127934
222	0xbcc5f86e	-0.024166312
223	0x3d61a156	0.055085503
224	0xbd8aa795	-0.06770245
225	0x3dd54c87	0.10414987
226	0xbdc368ab	-0.09541448
227	0xbd580d9e	-0.05274736
228	0x3ba7dc85	0.0051227235
229	0x3c4f65e0	0.012658566
230	0xbcd0732c	-0.025445543
231	0xbde15cec	-0.110040516
232	0xbc3c7a0b	-0.011503707
233	0x3ca9022c	0.020630918
234	0xbbfb80f7	-0.007675286
235	0x3cd25dda	0.025679518
236	0x3c0fe493	0.008782524
237	0xbd26adca	-0.040693082
238	0x3b62adcd	0.0034588457
239	0x3cb3e3d5	0.021959225
240	0x3d3b0e8e	0.045668177
241	0xbd3296e7	-0.043600943
242	0xbca5761f	-0.020197926
243	0xbd6f3777	-0.058402505
244	0x3cf838e1	0.03030056
245	0x3c242bc1	0.010020197
246	0xbc2b4b21	-0.010454924
247	0xbd74b7cd	-0.0597456
248	0xbd4f2e5b	-0.050581317
249	0x3cfe1a59	0.031018423
250	0x3c118efb	0.008884187
251	0xbcca8fc9	-0.024726765
252	0xbd513c20	-0.05108273
253	0x3d0ab735	0.033866126
254	0x3d15b5b2	0.03655023
255	0x3c8e4d5b	0.01737087

fcs1.bias f4 [256]
0	0xbd99a17f	-0.07501506
1	0xbe204f12	-0.15655163
2	0x3dbf763c	0.09348723
3	0xbe154d6e	-0.14580318
4	0xbc179ffc	-0.009254452
5	0xbd8cedc9	-0.068812914
6	0xbe649e12	-0.22325924
7	0xbd0fa32a	-0.035067715
8	0x3d5630c6	0.052292608
9	0x3d361804	0.044456497
10	0xbe5b4630	-0.21413493
11	0x3cc07c2b	0.023496708
12	0xbdb7f74d	-0.08982716
13	0x3e076177	0.13220774
14	0x3d74eafd	0.059794415
15	0x3df1e3e7	0.11811047
16	0x3cead8cc	0.02866783
17	0xbd9bc746	-0.07606368
18	0xbe09484e	-0.13406488
19	0xbe31d19d	-0.17365117
20	0xbc23cf07	-0.00999809
21	0xbe0795ff	-0.13240813
22	0xbd802a5f	-0.06258082
23	0x3e1e683e	0.15469453
24	0xbdc9e1f7	-0.098575525
25	0xbc98af98	-0.018638417
26	0x3e43f1bd	0.19135185
27	0xbd0658b1	-0.032799426
28	0xbd2362ba	-0.039889075
29	0xbe22ca3b	-0.15897457
30	0xbe173a7b	-0.14768402
31	0xbdeafc19	-0.11473865
32	0x3d8bde4c	0.06829509
33	0xbe41621d	-0.18885083
34	0xbe2cd249	-0.16877092
35	0x3d5f3078	0.054489583
36	0xbdfdc5de	-0.12391256
37	0xbe32adf8	-0.17449176
38	0x3b8dd45a	0.004328293
39	0x3ca5fde7	0.020262672
40	0xbe5010de	-0.20318934
41	0xbcf3090b	-0.029667398
42	0x3df114a6	0.117715165
43	0x3e12a417	0.14320408
44	0x3cee79e1	0.02911085
45	0xbdb993a6	-0.09061365
46	0x3d512849	0.05106381
47	0xbd4c0ba9	-0.049815807
48	0x3df2339f	0.11826252
49	0x3de86874	0.11348048
50	0xbe4d60ba	-0.2005643
51	0x3d52ce47	0.051466253
52	0xbe113c0c	-0.14183062
53	0xbd9985b1	-0.07496203
54	0xbd2273d5	-0.039661247
55	0x3dac6c58	0.084191024
56	0xbd523f58	-0.05132994
57	0x3d42d2c4	0.047564283
58	0xbe7e1f83	-0.24816708
59	0x3cf113c5	0.029428372
60	0xbdfbe308	-0.12299162
61	0xbdf163da	-0.11786623
62	0xbd7aae13	-0.061201166
63	0xbc7b49a4	-0.0153373815
64	0xbde9c0e1	-0.11413742
65	0xbe4b7e8e	-0.19872496
66	0x3dbe262f	0.09284627
67	0xbb432ae2	-0.0029780199
68	0x3bd8fd56	0.006621997
69	0xbdec0acc	-0.11525497
70	0x3d793115	0.060837824
71	0xbe3f0431	-0.18653943
72	0xbe4d59d1	-0.20053793
73	0x3d8726ba	0.065991834
74	0x3cb5b4ca	0.022180934
75	0x3d0ec1cb	0.034852784
76	0xbe2ebe25	-0.17064722
77	0xbd21e759	-0.03952727
78	0xbe5926cf	-0.2120621
79	0xbdad8ab2	-0.0847372
80	0x3d66da4e	0.056360535
81	0xbd99983e	-0.07499741
82	0xbe088960	-0.13333654
83	0x3d3b60bd	0.045746554
84	0x3da783a7	0.081794076
85	0x3dc7f8fc	0.09764287
86	0xbe5d48c7	-0.21609794
87	0xbdc9f96f	-0.09862029
88	0xbd5eaee9	-0.054366026
89	0x3d907acb	0.07054671
90	0xbdf31952	-0.11870064
91	0x3c945b42	0.018109921
92	0x3d8ad012	0.067779675
93	0x3e15c804	0.14627081
94	0xbd468b96	-0.048472963
95	0xbdea4f58	-0.11440915
96	0xbc872f79	-0.016502129
97	0xbe13e9e9	-0.14444698
98	0xbdfdc34a	-0.12390764
99	0x3cd51d4d	0.026014948
100	0x3cb87828	0.022518232
101	0x3c14c28e	0.009079589
102	0xbbd3fd3d	-0.0064693973
103	0x3d340317	0.04394826
104	0x3b959561	0.0045649265
105	0xbd2610b1	-0.040543262
106	0xbd8ae6e1	-0.06782318
107	0xbd244b92	-0.040111132
108	0xbba65b08	-0.0050767697
109	0xbc55cf85	-0.013049965
110	0x3dc0a300	0.0940609
111	0xbd7559c5	-0.059900064
112	0xbe451ba8	-0.19248831
113	0xbe8485c6	-0.2588331
114	0x3dd19891	0.10234178
115	0x3ae25fce	0.0017270984
116	0xbe1b42b5	-0.15162165
117	0xbe17b8dc	-0.14816612
118	0x3cb7fe86	0.022460233
119	0xbd4b0480	-0.04956484
120	0x3c572f63	0.0131338565
121	0x3ddf6b9e	0.10909198
122	0xbd18863d	-0.037237395
123	0x3d1615fc	0.03664206
124	0x3d6e4278	0.05816886
125	0xbcb12ce8	-0.021627858
126	0xbe3fad7f	-0.18718527
127	0xbe03eace	-0.1288254
128	0xbe116a09	-0.14200605
129	0xbe59a43a	-0.21254054
130	0xbdbf4e1b	-0.09341069
131	0xbe32b4d6	-0.17451796
132	0x3d917c22	0.071037546
133	0xbe0d013e	-0.13770005
134	0xbdc67df9	-0.09691996
135	0xbd1d5228	-0.03840843
136	0x3b31376f	0.0027041098
137	0xbe163be8	-0.1467129
138	0xbe09f270	-0.13471389
139	0xbd7af463	-0.06126822
140	0xbd1ad4dc	-0.037800655
141	0xbd5d0c24	-0.053966656
142	0x3dcdf92a	0.1005729
143	0xbbe0b2d5	-0.006857256
144	0xbdd0af75	-0.10189716
145	0xbdc5f175	-0.09665195
146	0xbd65e13b	-0.056123
147	0x3e05b652	0.13057831
148	0x3da8eca8	0.082482636
149	0xbe36dec5	-0.17858417
150	0xbe2bc369	-0.16773762
151	0xbbb5f866	-0.005553293
152	0x3bbf0b45	0.005830201
153	0xbdb3f3ce	-0.087867364
154	0xbc8ed1fe	-0.017434116
155	0xbcbc9277	-0.023019059
156	0xbe07c484	-0.13258559
157	0x3d80ec08	0.062950194
158	0xbdeed84c	-0.11662349
159	0xbdff58c8	-0.124681056
160	0xbda9c928	-0.08290321
161	0xbe02e3ff	-0.12782286
162	0x3d80bea7	0.06286364
163	0x3e090d2a	0.13383928
164	0x3d86c99d	0.065814234
165	0xbde476e8	-0.11155492
166	0xbe040c97	-0.12895428
167	0xbd9b628f	-0.07587158
168	0xbdd4152e	-0.10355602
169	0xbd897625	-0.067119874
170	0x3cc5b799	0.024135398
171	0x3e02754f	0.12740062
172	0xbdd49552	-0.10380043
173	0xbbe8408d	-0.007087773
174	0xbd6c9b21	-0.05776513
175	0xbbdd9cf8	-0.006763097
176	0xbe443483	-0.19160657
177	0xbddb9ab4	-0.10722867
178	0xbdfaa454	-0.12238374
179	0xbdf5e4a7	-0.120065026
180	0xbd46009f	-0.048340436
181	0xbd258bea	-0.040416636
182	0xbd87c9d6	-0.06630294
183	0xbdd28cfe	-0.102807984
184	0xbd098a32	-0.03357906
185	0xbc5442b8	-0.01295536
186	0x3d214369	0.039370928
187	0xbe021041	-0.12701513
188	0xbe243d9a	-0.16039124
189	0x3d5983a9	0.053104077
190	0xbe1811a7	-0.14850484
191	0xbcbac1ec	-0.022797547
192	0x3d61d78a	0.055137195
193	0xbd90ca26	-0.07069807
194	0xbdbf5546	-0.093424365
195	0xbe59cbcb	-0.21269147
196	0x3d35ce11	0.044385973
197	0xb9aacfd9	-0.00032579785
198	0xbe407fb4	-0.18798715
199	0x3d2426b0	0.040075958
200	0x3e228f94	0.15875083
201	0x3e4d2e44	0.2003718
202	0x3c86b281	0.01644254
203	0x3de982a4	0.11401871
204	0x3cdbd7e1	0.026836338
205	0xbe29be3b	-0.16576473
206	0xbe2bb395	-0.16767724
207	0xbe24e736	-0.16103825
208	0x3d59d007	0.053176906
209	0xbd0d7162	-0.03453196
210	0xbded9c24	-0.11602047
211	0xbcdcd708	-0.026958004
212	0xbde08c62	-0.10964276
213	0xbc411ab6	-0.011786154
214	0xbde78a3f	-0.11305665
215	0x3b81fd7b	0.003966985
216	0xbe06cb7a	-0.13163558
217	0xbe22e0a0	-0.15906
218	0xbd84374d	-0.0645586
219	0x3db4bb9c	0.08824846
220	0xbccbb973	-0.024868703
221	0xbde7d7b7	-0.11320441
222	0x3cc369c8	0.023854151
223	0xbe6aff78	-0.22949016
224	0x3e0fa6e2	0.14028504
225	0xbe746699	-0.23867263
226	0xbd807058	-0.06271428
227	0xbe712e53	-0.23552828
228	0xbd7e8dfe	-0.062147133
229	0x3de724d6	0.11286323
230	0x3c9aa93c	0.018879525
231	0xbd65e8d6	-0.056130253
232	0xbe09227c	-0.13392061
233	0x3d57cb93	0.052684378
234	0xbd246cf2	-0.04014296
235	0xbd8b5137	-0.068026
236	0xbcf70ef6	-0.030158501
237	0x3d1ded6f	0.038556512
238	0xbde050aa	-0.109528854
239	0x3cbb25ae	0.022845116
240	0xbe2786f8	-0.1636008
241	0xbe1b0c20	-0.15141344
242	0xbd44faa4	-0.048090592
243	0xbbb8e941	-0.0056430404
244	0x39c76ea9	0.00038038686
245	0xbddb1d14	-0.106989056
246	0xbcd8372d	-0.026393497
247	0x3d768f5b	0.06019531
248	0xbbcfba94	-0.0063393805
249	0x3dc757c5	0.097335376
250	0xbcc1dd53	-0.023665106
251	0xbe0f8eb8	-0.14019287
252	0xbe008cd8	-0.12553728
253	0x3c7f8cc6	0.015597528
254	0xbddfe27f	-0.109318726
255	0xbe06c4f2	-0.13161066

fc2.weight f4 [256, 260]
0	0xbc0e8e55	-0.008700927
1	0x3d0caf7c	0.034347042
2	0xbce956a3	-0.028483694
3	0xbc70c792	-0.014696019
4	0x3d526ed6	0.051375233
5	0xbc59fe16	-0.013305208
6	0x3dc0be02	0.09411241
7	0x3c331345	0.010929887
8	0xbcd10a78	-0.025517687
9	0xbbf9ba8a	-0.007621114
10	0x3de896ef	0.11356913
11	0x3d8ff322	0.07028796
12	0x39f3d479	0.00046506876
13	0x3d01aba6	0.031657837
14	0xbcc7ec56	-0.024404686
15	0xbc86c9f3	-0.016453719
16	0x3d4f46f5	0.05060478
17	0xbc9f92c8	-0.01947917
18	0x3d56d46a	0.052448668
19	0x3df24014	0.11828628
20	0x3d491f99	0.0491024
21	0x3ced596f	0.02897331
22	0xbd514c76	-0.05109831
23	0xbcf514b1	-0.029917093
24	0x3d600d1a	0.054699995
25	0xbd48316c	-0.048875257
26	0x3ca0ab69	0.019612985
27	0x3c3d40b6	0.011551073
28	0x3dc8c1e3	0.09802606
29	0x3d133b92	0.035945483
30	0x3ba2c96a	0.004967858
31	0xbe174a2e	-0.14774391
32	0x3d1dddbf	0.03854155
33	0x3dbdada2	0.092616335
34	0x3c78da80	0.015188813
35	0xbc54ef52	-0.0129965115
36	0xbe001099	-0.12506332
37	0xbba3a0db	-0.0049935407
38	0xbe040c92	-0.1289542
39	0xbd397680	-0.045279026
40	0x3e345b1b	0.17612879
41	0x3ce4fefd	0.02795362
42	0x3d705551	0.058675114
43	0x3d871bc3	0.06597092
44	0x3cfaea7d	0.03062939
45	0xbc32bcfd	-0.010909316
46	0xbd10e9ec	-0.035379335
47	0xbd754177	-0.059876885
48	0xbc1b3cd2	-0.00947495
49	0xbd176c16	-0.036968313
50	0xbc7e4af3	-0.015520799
51	0xbb83d895	-0.0040236213
52	0xbe2d7252	-0.16938141
53	0x3b82e743	0.0039948537
54	0xbd1b69ef	-0.037942823
55	0x3d826b01	0.063680656
56	0x3d5301f6	0.051515542
57	0x3c99b114	0.018761195
58	0xbde469d1	-0.111529954
59	0xbddd7556	-0.10813396
60	0xbe5e3426	-0.2169958
61	0xbcec38ba	-0.028835643
62	0x3d5f01f0	0.054445207
63	0xbcc24532	-0.023714636
64	0xbd81627b	-0.06317612
65	0x3d86f919	0.0659048
66	0xbd4b657e	-0.049657337
67	0xbe17eaf9	-0.14835729
68	0xbc79d266	-0.015247917
69	0x3d977a49	0.07396371
70	0x3c6ca501	0.014443637
71	0xbcef04fd	-0.029177183
72	0xbe525c37	-0.2054299
73	0xbce5ced0	-0.028052717
74	0xbce89dc6	-0.028395545
75	0x3d125c25	0.035732407
76	0x3debc92b	0.11512979
77	0xbd7778ac	-0.060417816
78	0xbdb2be74	-0.08727732
79	0xbd9830ae	-0.0743116
80	0xbdde99bb	-0.108691655
81	0xbe1843f7	-0.14869677
82	0x3d158280	0.036501408
83	0xbbf7b60c	-0.0075595435
84	0x3d3a60e6	0.045502566
85	0xbd52162b	-0.051290672
86	0xbcea313a	-0.028587926
87	0x3c63170a	0.013860473
88	0xb9ec9121	-0.00045121557
89	0x3cb7e75d	0.02244919
90	0x3dd8a824	0.10578945
91	0x3bd38d45	0.0064560496
92	0x3d52511a	0.051346876
93	0x3d015e90	0.031584322
94	0x3dd52ffd	0.10409544
95	0xbd1a2d83	-0.03764106
96	0x3ca01e2a	0.019545633
97	0x3d3a122e	0.045427494
98	0x3dc068eb	0.093950115
99	0xbd5e5eb5	-0.05428954
100	0x3c9c33c1	0.019067647
101	0x3c9798ad	0.018505419
102	0x3ca56f25	0.0201946
103	0xbd577dd7	-0.052610245
104	0x3d1c7346	0.03819587
105	0x3bceba83	0.006308855
106	0xbd83c351	-0.06433738
107	0x3d9e218f	0.077212445
108	0x3d3200ae	0.04345768
109	0x3c33dc04	0.010977749
110	0xbd2f3896	-0.042778574
111	0x3cd84fd4	0.026405253
112	0xbd7aaaec	-0.06119816
113	0x3d01f462	0.031727202
114	0xbca25e33	-0.019820308
115	0xbd019edb	-0.031645637
116	0x3d1f428b	0.03888182
117	0x3d93dd2f	0.07219922
118	0x3d5f49d4	0.054513767
119	0x3d8c25a5	0.068431176
120	0x3d93d229	0.07217819
121	0xbbdb4b19	-0.006692302
122	0x3c2db24c	0.010601591
123	0xbc9a9098	-0.018867776
124	0x3cfdc6c3	0.030978566
125	0x3d445fed	0.047943044
126	0xbd9d7ce1	-0.076898344
127	0x3cc903a3	0.024537867
128	0xbd39f92f	-0.045403656
129	0x3c074cdb	0.00825807
130	0x3c128b7b	0.008944388
131	0xbc01dffe	-0.007926939
132	0x3c205a9d	0.009787229
133	0xbcaa30e6	-0.02077527
134	0xbc8cc76a	-0.017184932
135	0xbd84edd2	-0.06490673
136	0x3d0360b6	0.032074653
137	0x3dbfa9a1	0.09358526
138	0xbcfac321	-0.030610623
139	0x3c82006e	0.015869346
140	0xbd429f28	-0.047515064
141	0xbcd45417	-0.025919003
142	0xbdac6efb	-0.08419605
143	0x3d5e4f16	0.05427464
144	0x3d007b62	0.031367667
145	0xbd31dd38	-0.04342386
146	0xbd0f67b6	-0.035011016
147	0xbd1e3c39	-0.03863165
148	0xbc5a92d4	-0.013340671
149	0x3dbec388	0.093146384
150	0x3dd4feae	0.10400139
151	0x3bf96756	0.0076111956
152	0xbc667cd8	-0.014067851
153	0x3df75840	0.12077379
154	0xbe23bc7b	-0.15989868
155	0x3ca16805	0.01970292
156	0xbe06d08b	-0.1316549
157	0x3d1331cd	0.035936166
158	0x3cb26918	0.021778628
159	0x3d70963e	0.058737032
160	0xbce870a3	-0.028374022
161	0xbd2db55a	-0.04240928
162	0xbd998c17	-0.07497423
163	0x3d6d856f	0.05798858
164	0x3d8dcb1b	0.06923505
165	0xbacb3e17	-0.0015506175
166	0xbdefaef6	-0.11703293
167	0x3c70ad2c	0.014689725
168	0x3c8a8d32	0.01691303
169	0xbcc9ca0f	-0.024632482
170	0xbc23d7e9	-0.010000207
171	0x3d5a44af	0.053288158
172	0x3c1034bc	0.008801635
173	0x3e123ac2	0.14280227
174	0x3d2367d1	0.03989393
175	0x3d8085c1	0.062755115
176	0x3c4c6ef1	0.012477622
177	0xbd09259d	-0.033483136
178	0xbd72183b	-0.05910514
179	0x3d6016ca	0.054709233
180	0x3c80b2c5	0.015710244
181	0xbdfa06b3	-0.12208309
182	0xbcec7432	-0.028864
183	0xbdac60e3	-0.08416917
184	0xbd4da3a7	-0.0502049
185	0xbb8169fc	-0.003949402
186	0xbc97a9f4	-0.018513657
187	0xbb160840	-0.00228931
188	0xbd6c7fd4	-0.057739094
189	0xbceca869	-0.028888898
190	0xbd29ec26	-0.041484974
191	0xbc6184e6	-0.013764596
192	0xbe3ff66a	-0.18746343
193	0x3cf9cb72	0.030492518
194	0x3d824e04	0.063625365
195	0x3dc3e71f	0.09565567
196	0xbcf2bb55	-0.029630342
197	0xbd9ccf60	-0.07656741
198	0xbd6ea585	-0.05826332
199	0x3d9cb40e	0.0765153
200	0xba8b28fc	-0.0010617073
201	0xbd5ee94e	-0.054421715
202	0xbddb5f06	-0.10711484
203	0xbadc83a9	-0.0016823906
204	0xbcb94fe2	-0.022621099
205	0x3e08a33e	0.13343522
206	0x3ce8cf4e	0.028419163
207	0x3d08776f	0.033317026
208	0xbb01b327	-0.001979062
209	0xbd1e55d6	-0.03865608
210	0xbdaa174f	-0.08305227
211	0xbd7f0710	-0.062262595
212	0x3d247f15	0.040160257
213	0xbcd265ee	-0.02568337
214	0xbd325e8c	-0.0435472
215	0xbd8c1e20	-0.068416834
216	0x3d7a7ec0	0.061156034
217	0x3bd87070	0.0066052005
218	0x3d80fd5d	0.06298325
219	0x3dbba22f	0.091617934
220	0xbdad5d80	-0.08465099
221	0x3d3722d8	0.044710964
222	0x3db5c88d	0.08876143
223	0xbb2c3dc5	-0.0026281935
224	0x3c2fc786	0.010728722
225	0xbcd0d561	-0.025492372
226	0x3c5af780	0.013364673
227	0x3d0125cd	0.03153019
228	0x3ca10ab7	0.01965843
229	0xbe14010c	-0.14453524
230	0xbd7e018f	-0.062013205
231	0xbcffeba1	-0.031240286
232	0xbde606df	-0.11231779
233	0xbc1872c3	-0.009304705
234	0x3baf214a	0.0053445445
235	0x3c6cb3b0	0.014447138
236	0xbd08ed70	-0.033429563
237	0xbe037a1d	-0.12839551
238	0x3cd03e0b	0.02542021
239	0xbda0aa46	-0.07844977
240	0xbcc0cf58	-0.02353637
241	0xbdf62be6	-0.12020092
242	0xbd55885b	-0.05213199
243	0xbbb86f0d	-0.0056284727
244	0xbd04ee7d	-0.032454003
245	0x3c0066b8	0.00783699
246	0x3dbb60a9	0.09149296
247	0xbd174cea	-0.036938585
248	0xbca0d390	-0.01963213
249	0xbd70d20e	-0.058794074
250	0xbc941006	-0.018074047
251	0xbc5a5068	-0.013324834
252	0xbc7e29c4	-0.015512887
253	0x3d23a405	0.039951343
254	0xbbeb6dda	-0.007184726
255	0x3d0f09a5	0.034921307

fc2.bias f4 [256]
0	0xbca781ec	-0.020447694
1	0xbcb67839	-0.022274124
2	0x3ba9662f	0.005169652
3	0x3ceb89aa	0.028752167
4	0x3cf7afa2	0.030235115
5	0xbd09b186	-0.033616565
6	0x3d66e785	0.056373138
7	0xbcf0d99d	-0.029400641
8	0xbd258a41	-0.040415052
9	0xbcf03bb0	-0.029325336
10	0x3c3acee7	0.011401868
11	0x3d09e2e0	0.03366363
12	0x3d6e2b61	0.058146838
13	0x3cd383c3	0.025819665
14	0x3cac134b	0.021005293
15	0xbc8a313f	-0.016869185
16	0x3df1736d	0.11789594
17	0xbce533c3	-0.027978783
18	0xbcc3cd6d	-0.023901666
19	0xbcd8eb74	-0.02647946
20	0xbcf7e75f	-0.030261694
21	0xbcf742b6	-0.030183177
22	0x3c3ac32e	0.0113990735
23	0xbb885e83	-0.0041616573
24	0x3d1634d9	0.036671493
25	0x3d7ec0aa	0.062195458
26	0xbd57c419	-0.052677248
27	0x3d84bdaf	0.06481492
28	0x3d1633b5	0.036670405
29	0x3d9862bd	0.07440708
30	0x3c002409	0.007821091
31	0x3db9298d	0.09041128
32	0x3d1eaa71	0.038736764
33	0xbcee7329	-0.029107647
34	0x3d13acac	0.036053345
35	0x3d93fef9	0.072263665
36	0xbb0aa88c	-0.002115759
37	0xbaf3e20f	-0.00186068
38	0xbdbfa7d2	-0.09358181
39	0xbd5073c1	-0.05089164
40	0xbd8eb28b	-0.06967648
41	0xbd85eb32	-0.065390006
42	0xbde1d117	-0.11026209
43	0x3d4b964d	0.049703885
44	0xbd8ec347	-0.0697084
45	0x3cd0c92f	0.025486557
46	0xbbca76ef	-0.006178729
47	0xbcf86335	-0.030320743
48	0x3d28c07a	0.041199185
49	0xbce04096	-0.027374547
50	0x3bb6d95f	0.005580112
51	0x3ce7192f	0.02821025
52	0xbc8d5a97	-0.01725511
53	0x3d425a0d	0.04744916
54	0x3c984de6	0.018591832
55	0x3d6dc925	0.058053154
56	0x3cd82a9b	0.026387503
57	0x3d0b3735	0.033988196
58	0x3d3a6616	0.045507513
59	0x3c5e5a1b	0.0135712875
60	0x3d71a3a9	0.05899397
61	0x3cfab044	0.030601628
62	0x3d82f6b3	0.063947104
63	0xbd6bea8a	-0.05759672
64	0x3d1fb72d	0.03899305
65	0x3d8a8a94	0.06764713
66	0x3d9dc599	0.077037044
67	0xbd48c82a	-0.049019016
68	0xbcf6967b	-0.030101052
69	0x3dd69c56	0.104790375
70	0xbda7f2a2	-0.082005754
71	0xbb511c99	-0.0031907915
72	0xbcf23a24	-0.02956874
73	0x3c8c737c	0.017144911
74	0x3d71c990	0.059030116
75	0xbd0a1cdd	-0.033718932
76	0xbde40414	-0.1113359
77	0x3d32e18e	0.043672137
78	0xbc5ec0a2	-0.013595732
79	0x3cab9b90	0.020948201
80	0xbb81abf8	-0.003957268
81	0x3bba466a	0.0056846635
82	0xbc79f2da	-0.015255654
83	0x3bae2281	0.005314172
84	0xbdd232b9	-0.10263581
85	0x3d0ed8a5	0.034874577
86	0xbd4acd3d	-0.049512137
87	0x3db2ebf6	0.08736412
88	0x3c306877	0.010767094
89	0x3d10ef1c	0.035384282
90	0x3dc9b334	0.098486334
91	0xbd8d1624	-0.068889886
92	0x3cb6ecf7	0.02232979
93	0xbd887b72	-0.0666417
94	0x3bf31d5f	0.007419273
95	0x3d5b4ab0	0.053538024
96	0xbd10d6e5	-0.03536119
97	0x3b953e6b	0.00455456
98	0x3bc98c51	0.00615076
99	0x3d8be921	0.06831575
100	0x3d52e6d1	0.051489655
101	0xbdbd117b	-0.0923185
102	0xbcd0568f	-0.0254319
103	0xbd91fd31	-0.071283706
104	0x3d205da6	0.03915181
105	0xbc8a34e7	-0.016870929
106	0x3d761af7	0.06008431
107	0x3d0a7d27	0.03381076
108	0xbc7bebc5	-0.015376036
109	0xbd48e503	-0.049046528
110	0x3c01ae2c	0.007915061
111	0x3b4079bd	0.0029369437
112	0xbca1040c	-0.01965525
113	0x3c1aaf58	0.009441219
114	0xbd20a516	-0.03921994
115	0x3c721539	0.014775568
116	0xbd0381f9	-0.032106373
117	0x3cd77c10	0.026304275
118	0x3e0b650e	0.13612768
119	0x3c6ff4c5	0.01464576
120	0xbbfac067	-0.0076523307
121	0xbda3ff03	-0.08007624
122	0xbcebd99e	-0.028790291
123	0x3d453ba2	0.048152573
124	0xbd760fed	-0.06007378
125	0xbc3616b4	-0.011113811
126	0x39531d42	0.00020133427
127	0x3d189f24	0.037261143
128	0xbd1635b5	-0.036672313
129	0x3c7e5224	0.015522514
130	0x3d5b71a7	0.053575184
131	0xbb501ada	-0.0031754286
132	0xbd33bb45	-0.043879766
133	0xbc52dee4	-0.012870524
134	0x3cabd449	0.020975249
135	0xbd684d5f	-0.05671441
136	0xbd13817f	-0.03601217
137	0x3dc272b8	0.09494537
138	0xbd04f474	-0.03245969
139	0xbdc0ba97	-0.09410589
140	0x3d152246	0.03640964
141	0x3cc4f1a8	0.024041012
142	0xbda158a0	-0.07878232
143	0xbce2dec8	-0.027694121
144	0xbcf5ce7d	-0.030005688
145	0x3d957f81	0.0729971
146	0xbd0d5ba0	-0.03451121
147	0x3cbfb879	0.023403393
148	0xbd8afafe	-0.06786154
149	0xbd98d2b9	-0.07462067
150	0x3d27605b	0.040863376
151	0xbd89f2ba	-0.067357495
152	0x3c991c09	0.018690126
153	0xbd74d044	-0.05976893
154	0x3d50539c	0.050860986
155	0xbdb1097d	-0.08644388
156	0x3c56da63	0.013113591
157	0xbcdc1c8b	-0.02686908
158	0xbc9d9ff3	-0.019241309
159	0xbd6ea8bb	-0.058266383
160	0x3d870ef8	0.06594652
161	0xbcaef784	-0.021358259
162	0xbd99d9ab	-0.0751222
163	0x3da124d5	0.07868353
164	0x3d65bff1	0.056091253
165	0x3baa6eb3	0.0052011847
166	0x3bba276a	0.005680968
167	0xbd35b496	-0.044361673
168	0xbda3b63f	-0.07993745
169	0x3c22478e	0.009904755
170	0xbcfafd3b	-0.030638328
171	0x3d77e4cf	0.060520943
172	0xbbe77431	-0.0070634116
173	0x3c221a4e	0.009893967
174	0xbc998fd0	-0.018745333
175	0xbc84470c	-0.016147159
176	0x3cb94230	0.022614568
177	0xbc85ceb6	-0.016333919
178	0x3dab4de4	0.08364466
179	0x3d861e4d	0.06548748
180	0x3d4e35f0	0.050344408
181	0x3d0a1ebd	0.03372072
182	0x3cb599ae	0.022168007
183	0xbda8410c	-0.08215532
184	0xbd174b7e	-0.03693723
185	0x3d8de804	0.06929019
186	0xbc8db6b6	-0.017299037
187	0x3cabfa7c	0.020993464
188	0x3c15a4bc	0.009133514
189	0xbcefc8df	-0.029270587
190	0x3d907e59	0.07055349
191	0x3dd80a44	0.10548833
192	0x3b802a3e	0.0039112857
193	0xbc8e8d54	-0.017401375
194	0x3d1a99c4	0.0377443
195	0x3d9695a5	0.07352761
196	0xbc93b8f1	-0.018032523
197	0x3c5a3639	0.013318592
198	0xbc81a6e8	-0.015826657
199	0x3d2996c5	0.04140355
200	0x3d0031a8	0.031297356
201	0xbd19a01c	-0.037506208
202	0xbce3571f	-0.027751504
203	0x3b21fffc	0.002471923
204	0xbc111711	-0.008855597
205	0x3d6e54fa	0.05818651
206	0xbcbe552c	-0.023233972
207	0x3d5857b1	0.052818004
208	0xbce3b223	-0.027794903
209	0xbc853fab	-0.01626571
210	0x3d2ac0c6	0.04168775
211	0x3d03a193	0.03213651
212	0x3b89367e	0.004187404
213	0x3ccbd678	0.02488254
214	0xbcd73b82	-0.026273493
215	0xba088f51	-0.0005209344
216	0xbcaffe6e	-0.021483626
217	0xbc8b7ecf	-0.01702824
218	0xbd3b0a88	-0.04566434
219	0x3bd3a041	0.0064583127
220	0x3d8653e1	0.065589674
221	0x3d9b89fd	0.075946786
222	0x3d9cb447	0.07651573
223	0xbd969de3	-0.07354333
224	0xbd3c0982	-0.045907505
225	0xbc26b9d7	-0.010176144
226	0xbd0e169e	-0.03468954
227	0x3d8792f2	0.066198245
228	0x3c38fc17	0.011290572
229	0xbd43eebf	-0.047835108
230	0x3d5a072c	0.053229496
231	0xbd3a712b	-0.04551808
232	0xbccf3f56	-0.025298756
233	0x3d2138b4	0.039360717
234	0xbd86f889	-0.06590373
235	0xbd0fdc9f	-0.03512251
236	0xbc74da11	-0.014944569
237	0xbd95a3b3	-0.07306614
238	0x3d363813	0.04448707
239	0xbd5c1e20	-0.053739667
240	0x3d166103	0.03671361
241	0x3d318e6d	0.04334872
242	0xbcf97122	-0.030449454
243	0x3c881f96	0.016616624
244	0xbc688d72	-0.014193879
245	0xbcdedf6b	-0.027206143
246	0xbc2e3e80	-0.010635018
247	0x3c5f3959	0.013624513
248	0xbdccf10a	-0.10006912
249	0xbd92151c	-0.071329325
250	0xbca8945f	-0.020578561
251	0xbdaf3c11	-0.08556379
252	0x3d214749	0.039374623
253	0x3c832f6d	0.016013825
254	0xbc91c74d	-0.01779523
255	0x3c03ee1d	0.008052376

fc3.weight f4 [1, 256]
0	0x3cfc45c9	0.030794995
1	0xbcabbd16	-0.020964187
2	0x3d616b48	0.055033952
3	0xbc72a947	-0.014810867
4	0x3d35c666	0.04437866
5	0xbcf00da1	-0.029303374
6	0x3d204683	0.039129745
7	0xbd0f6708	-0.035010368
8	0xbceb1761	-0.028697671
9	0xbc80890f	-0.015690355
10	0xbc664dcc	-0.014056634
11	0x3c45c473	0.012070763
12	0x3d0baad5	0.034098465
13	0xbc1507f6	-0.009096136
14	0x3dae42d4	0.0850884
15	0x3c916c74	0.01775191
16	0x3dcb6cbe	0.0993285
17	0xbd7eca2b	-0.06220452
18	0xbcfcd978	-0.030865416
19	0xbd3eb2fe	-0.04655742
20	0x3c8de64e	0.017321732
21	0xbd86eee4	-0.065885335
22	0xbcb0f02b	-0.021598896
23	0x3c4c721e	0.0124783795
24	0xbc45af37	-0.0120657
25	0x3c81bdcd	0.015837574
26	0x3d981c60	0.07427287
27	0x3c955af1	0.01823184
28	0x3c9a7cd8	0.018858358
29	0x3ced3762	0.028957073
30	0xbc983c8f	-0.018583564
31	0x3d2fab3d	0.042887915
32	0xbc2f6df6	-0.010707369
33	0xbd275ba9	-0.0408589
34	0xbc2e94d8	-0.010655604
35	0x3da48673	0.08033457
36	0xbd1e6e37	-0.038679328
37	0xbcc668ef	-0.024219958
38	0xbd0103e7	-0.031497862
39	0xbc7f4f61	-0.01558289
40	0xbd1342b7	-0.035952296
41	0xbd21c6e2	-0.03949631
42	0xbd4c1f01	-0.049834255
43	0x3d943c31	0.07238043
44	0xbcab381d	-0.02090078
45	0x3d64300c	0.055709884
46	0xbcee3a95	-0.029080668
47	0xbc4f6ae5	-0.012659763
48	0x3d8b9111	0.068147786
49	0x3ccae833	0.024768924
50	0xbcc959cc	-0.024578951
51	0xbd141ec7	-0.036162164
52	0x3d2b85e0	0.04187572
53	0xbce2b766	-0.027675342
54	0x3c38bc56	0.011275372
55	0x3c925824	0.017864294
56	0x3cb133d0	0.021631151
57	0xbd0e3a2d	-0.03472345
58	0xbd929e6f	-0.07159125
59	0xbcaa1d36	-0.020765882
60	0xbcc6dcc6	-0.024275195
61	0xbd41d458	-0.047321647
62	0x3db5ff31	0.088865645
63	0xbce4bc35	-0.027921775
64	0x3cb2b69d	0.021815592
65	0x3c750739	0.014955335
66	0x3cfba8db	0.030720165
67	0xbbf94cdd	-0.00760804
68	0x3d8e5fe3	0.06951883
69	0x3d362154	0.044465378
70	0xbd4a5905	-0.049401302
71	0xbccaf64c	-0.024775647
72	0x3cba950e	0.022776153
73	0xbd027a05	-0.03185465
74	0xbc6f50c4	-0.014606658
75	0xbce7b84b	-0.02828612
76	0xbdac6fa8	-0.08419734
77	0xbcd8bc7a	-0.02645706
78	0x3cc664c7	0.024217976
79	0xbd7b609e	-0.06137144
80	0x3cbf0963	0.023319906
81	0x3c7b35b8	0.015332632
82	0xbc5650ad	-0.013080758
83	0x3d0da6dd	0.03458296
84	0xbdd20dd1	-0.102565415
85	0xbcd248be	-0.025669452
86	0x3cc19c34	0.023634054
87	0x3d29beff	0.041441914
88	0xbca5bbc4	-0.020231135
89	0xbcba807d	-0.022766346
90	0x3d56a8a1	0.05240691
91	0x3cda00fb	0.026611796
92	0xbc814721	-0.015780987
93	0xbcaa418b	-0.020783206
94	0xbd645882	-0.05574847
95	0x3cb44677	0.022006257
96	0x3cb1cc00	0.02170372
97	0xbd660fef	-0.05616754
98	0xbdec741e	-0.11545585
99	0x3ca687e1	0.020328464
100	0x3c5898d2	0.013220029
101	0xbd8463e8	-0.06464368
102	0xbc9366a0	-0.017993271
103	0xbc9b38dd	-0.018948013
104	0x3d16ab66	0.036784552
105	0x3dbc7e5c	0.09203789
106	0x3ced378f	0.028957156
107	0xbd8715de	-0.06595968
108	0x3c81b2e1	0.015832366
109	0xbdbb05d4	-0.09131971
110	0xbbdef40a	-0.006803994
111	0xbcaa3d61	-0.02078122
112	0xbcc8a6bb	-0.024493566
113	0x3d45a5fd	0.048254002
114	0xbd1ca8ea	-0.038247027
115	0x3d31bf7a	0.043395497
116	0xbd335f63	-0.04379214
117	0x3d8dfe6e	0.06933294
118	0x3d2379cb	0.039911073
119	0xbc5b9e20	-0.013404399
120	0xbca76b75	-0.020436982
121	0xbd3189ac	-0.043344185
122	0xbcad24db	-0.021135738
123	0x3c676e7f	0.014125465
124	0x3e07806e	0.13232586
125	0xbcd08559	-0.02545421
126	0x3ca3f07e	0.020012137
127	0xbc9c5536	-0.0190836
128	0xbc88808a	-0.016662855
129	0xbdbbdac7	-0.09172588
130	0x3da6733a	0.081274465
131	0xbcbaf7c9	-0.022823231
132	0x3d5cb321	0.053881768
133	0xbc25035a	-0.0100716
134	0xbc69c9f3	-0.01426934
135	0xbd4be39a	-0.049777605
136	0xbc718b95	-0.014742752
137	0x3ca48a93	0.020085609
138	0xbd9c3912	-0.07628073
139	0xbd47455d	-0.048650134
140	0x3d40f718	0.047110647
141	0x3d714d4c	0.058911607
142	0xbc650b00	-0.013979673
143	0xbd0a8a67	-0.033823397
144	0x3cea6806	0.028614055
145	0x3c8ff37f	0.017572163
146	0xbcaa7767	-0.020808889
147	0xbdd4b3bc	-0.10385844
148	0xbcfd5316	-0.030923408
149	0x3d34f970	0.044183195
150	0x3cc0f99f	0.023556529
151	0xbc884178	-0.01663278
152	0xbcabe453	-0.020982897
153	0xbe118493	-0.1421073
154	0xbc4355dd	-0.011922327
155	0xbdb530f3	-0.08847227
156	0xbd14c91c	-0.036324605
157	0x3d071b67	0.032985117
158	0xbc4e4568	-0.01258979
159	0xbcba0a31	-0.022709938
160	0x3c8245cd	0.015902424
161	0xbccc1151	-0.0249106
162	0xbc80feb8	-0.01574646
163	0x3d42c510	0.047551215
164	0x3c9ebc8f	0.019377021
165	0x3ccf5d0b	0.025312921
166	0xbc45c235	-0.012070228
167	0xbc3c0aff	-0.011477231
168	0xbd20de6f	-0.03927463
169	0x3ca72bc1	0.020406606
170	0xbc8c27b2	-0.017108772
171	0x3dcabcca	0.0989929
172	0xbdea8421	-0.11450983
173	0x3cacd3a7	0.021097017
174	0xbcf6ad01	-0.030111792
175	0xbcb360d9	-0.021896766
176	0xbd0e9689	-0.03481153
177	0xbc789fac	-0.0151747875
178	0x3e4106b7	0.18850218
179	0x3cd5ea03	0.026112562
180	0x3cb2ec08	0.021841064
181	0x3d973ef6	0.07385056
182	0x3e142fe4	0.14471394
183	0xbc3cc23c	-0.011520918
184	0x3d86ce28	0.0658229
185	0x3cfd6f56	0.030936878
186	0xbd6b581a	-0.057457067
187	0x3c9954b2	0.018717144
188	0xbcd31ceb	-0.025770625
189	0x3d9c0f8a	0.07620151
190	0x3d86e68a	0.065869406
191	0x3d767e4a	0.060179032
192	0xbc0de871	-0.008661375
193	0xbc9d4324	-0.019197054
194	0xbd6e5d7e	-0.05819463
195	0x3ded6764	0.11591986
196	0x3c8a631d	0.016892964
197	0xbc65409e	-0.013992457
198	0xbc267f56	-0.010162195
199	0xbc93c6fb	-0.018039217
200	0xbcd89c84	-0.02644182
201	0xbcf78b67	-0.03021784
202	0x3cb1ac5d	0.021688635
203	0x3c6d9648	0.014501162
204	0xbd42a073	-0.047516298
205	0x3d26f4ec	0.04076092
206	0x3d5e5ca2	0.05428756
207	0x3caf9354	0.021432556
208	0xbcb2cab8	-0.02182518
209	0xbd944da1	-0.07241369
210	0x3cc70d78	0.024298415
211	0x3c97706e	0.018486228
212	0x3cdd8461	0.027040662
213	0x3d09ebee	0.033672266
214	0xbe1a88f2	-0.15091303
215	0xbd5acfb2	-0.05342073
216	0xbcbe1838	-0.023204908
217	0x3c90c771	0.017673226
218	0xbca3136b	-0.01990672
219	0xbc3f840a	-0.011689195
220	0x3ca36d40	0.019949555
221	0x3d02ae50	0.03190452
222	0x3cd0c59d	0.025484854
223	0x3d39102e	0.045181446
224	0xbc7af90c	-0.015318166
225	0xbd0ef9d6	-0.03490623
226	0x3ce5772c	0.028010927
227	0x3cb8db4e	0.02256551
228	0x3ce2cc88	0.027685419
229	0x3ce15cee	0.027510133
230	0x3cfddadd	0.030988151
231	0x3c9de960	0.019276321
232	0x3ceef34b	0.029168746
233	0xbd4ca77a	-0.049964406
234	0xbd23120c	-0.039812133
235	0xbc853cc1	-0.016264321
236	0xbd117e54	-0.035520867
237	0xbd5b2dba	-0.053510405
238	0xbde9eaa5	-0.11421708
239	0x3d7fc74e	0.06244593
240	0xbd52d13d	-0.051469076
241	0x3e10da0f	0.14145683
242	0xbcc1ff81	-0.023681404
243	0xbcac2b4e	-0.021016743
244	0xbcd28328	-0.025697306
245	0xbd65df32	-0.05612106
246	0x3ca1f330	0.019769281
247	0xbc98f03a	-0.018669236
248	0x3d7d4d00	0.06184101
249	0xbc6becce	-0.01439972
250	0xbcb052f7	-0.021523936
251	0xbcd0f28b	-0.025506278
252	0xbde78fea	-0.11306746
253	0x3cc5d559	0.024149584
254	0x3c8b06b0	0.016970962
255	0xbcec95ff	-0.028880117
