checkpoints/checkpoint_actor_ddqn_7.pth (torch_old, 303163 bytes, 6 tensors)

fc1.weight f4 [256, 33]
0	0xbe0071e0	-0.1254344
1	0x3d9d6fd6	0.07687347
2	0xbe2380dd	-0.15967126
3	0xbe5b7a3e	-0.2143335
4	0x3cbdb8c3	0.02315939
5	0xbc84ee5b	-0.016226938
6	0xbe81397e	-0.25239176
7	0x3e2ccbd4	0.1687463
8	0x3e0f120b	0.13971727
9	0x3dd88d60	0.1057384
10	0xbd8a64a6	-0.067574784
11	0x3d29ac3b	0.041424017
12	0xbcaa1c01	-0.020765306
13	0xbcc199aa	-0.023632843
14	0x3ea1219f	0.31470963
15	0x3e83c8d8	0.2573917
16	0xbdace6f0	-0.08442485
17	0xbe24db6c	-0.16099328
18	0x3e600979	0.21878614
19	0xbc2f684a	-0.010706017
20	0xbdf8548e	-0.121255025
21	0x3e28759d	0.16451116
22	0xbda510fd	-0.08059881
23	0x3d8aa26e	0.06769262
24	0xbd27f467	-0.041004565
25	0x3e1ea9a6	0.15494403
26	0xbe2c2867	-0.16812287
27	0xbda1cf94	-0.079009205
28	0xbe1ea7d8	-0.15493715
29	0xbd199326	-0.037493847
30	0xbc7cdf90	-0.015434161
31	0x3d256c44	0.040386453
32	0xbe98cade	-0.29842275
33	0x3e95ccd0	0.29257822
34	0x3e39b11c	0.18133968
35	0xbe0cf415	-0.13764985
36	0xbdb13222	-0.0865214
37	0xbd40ee83	-0.047102463
38	0xbdc5f06e	-0.09664999
39	0x3dcec097	0.10095327
40	0xbce63af8	-0.02810429
41	0x3aa5ed2b	0.0012659183
42	0xbb4b7e08	-0.0031050462
43	0x3d34f594	0.044179514
44	0xbcecd629	-0.028910713
45	0xbd47727e	-0.048693173
46	0xbd1d80e8	-0.038453013
47	0xbe3f250f	-0.1866648
48	0x3e38c042	0.1804209
49	0x3dae4b04	0.08510402
50	0x3d5a87a0	0.053352
51	0x3e243199	0.16034545
52	0xbb8849ca	-0.004159187
53	0x3e001f70	0.12511992
54	0xbd836c9a	-0.064171985
55	0xbd39c658	-0.04535517
56	0xbdac5168	-0.084139645
57	0xbd35d203	-0.044389736
58	0xbd1788bb	-0.03699563
59	0xbd2229e9	-0.03959075
60	0xbb81de37	-0.0039632577
61	0xbd290a67	-0.041269686
62	0x3d6114a6	0.054951333
63	0xbd8f5587	-0.06998735
64	0x3d66edda	0.056379177
65	0xbe23e1ff	-0.1600418
66	0x3cf1daeb	0.029523334
67	0x3ce4480e	0.02786639
68	0xbd011bfe	-0.031520836
69	0xbe8bc7c0	-0.27300835
70	0xbd702487	-0.058628585
71	0xbe3f49c8	-0.18680489
72	0xbd725b0b	-0.059168857
73	0x3e0864ea	0.13319746
74	0x3e38982c	0.18026799
75	0x3e172014	0.1475833
76	0x3c93b994	0.018032826
77	0xbda27130	-0.07931745
78	0x3e406492	0.18788365
79	0xbd16aa24	-0.036783352
80	0x3cdd8067	0.027038766
81	0x3e0c2c8c	0.13688868
82	0xbe81e0e8	-0.25366902
83	0x3e0a936e	0.13532802
84	0x3e0699b1	0.13144566
85	0x3c8a43c8	0.016878024
86	0x3e2fa553	0.1715291
87	0xbe3bdcf1	-0.18346001
88	0xbe36e355	-0.17860158
89	0x3dcdab32	0.100424185
90	0x3d82a7d9	0.06379671
91	0xbe02f95c	-0.12790436
92	0x3d9b8dec	0.07595429
93	0x3dccfcd6	0.10009162
94	0xbd182925	-0.037148613
95	0xbcdb9528	-0.026804522
96	0xbdb0d64a	-0.086346224
97	0x3d65469c	0.05597554
98	0x3cdae425	0.026720116
99	0x3e0497ce	0.12948534
100	0x3e5b2e43	0.21404366
101	0xbe41d273	-0.18927936
102	0x3d0abe95	0.03387316
103	0x3b538b65	0.003227913
104	0x3df4a1ea	0.11944945
105	0xbe15c05b	-0.14624159
106	0x3dc5e7fb	0.096633874
107	0x3da26729	0.079298325
108	0x3e5fd862	0.21859887
109	0x3d9609ab	0.07326063
110	0x3df89106	0.12137036
111	0xbe0f4f52	-0.13995102
112	0xbe451789	-0.19247259
113	0xbd876c2c	-0.06612429
114	0x3e2b704f	0.16742061
115	0x3e1277ac	0.14303464
116	0xbd8de29e	-0.069279894
117	0xbc5965e1	-0.013268919
118	0x3d91b77c	0.07115075
119	0xbcaabb9f	-0.020841418
120	0xbd8142a4	-0.06311539
121	0x3d872ae0	0.06599975
122	0xbe3e0c7d	-0.18559451
123	0xbe091b71	-0.13389374
124	0x3cc6a6ec	0.024249516
125	0xbdb09753	-0.08622613
126	0x3e478cf2	0.1948736
127	0xbe0ff7b5	-0.14059336
128	0xbd05e508	-0.032689124
129	0xbe4699f3	-0.19394664
130	0x3d0a1086	0.033707164
131	0x3f280ffa	0.6564938
132	0x3d815a30	0.0631603
133	0x3d5b2908	0.053505927
134	0x3ebc01a6	0.36720008
135	0x3d972420	0.07379937
136	0xbcd114b9	-0.025522577
137	0x3d1bae5f	0.03800809
138	0x3e64fc9b	0.22361986
139	0x3d5101c4	0.051027074
140	0xbe3e7e0e	-0.18602774
141	0x3de12b74	0.10994616
142	0x3d6f0508	0.058354408
143	0x3d8ca2c0	0.068669796
144	0x3cb37a41	0.021908881
145	0x3ceb6fe1	0.028739871
146	0xbdf86bd2	-0.1212994
147	0xbe44bc8a	-0.19212547
148	0x3d842a9a	0.06453438
149	0xbbcf691a	-0.0063296678
150	0x3d0d03a1	0.03442729
151	0x3c286963	0.010279032
152	0xbe32395f	-0.17404698
153	0xbcfe36de	-0.031032022
154	0xbe25b525	-0.16182382
155	0xbd9c9cad	-0.07647071
156	0xbdb237ac	-0.08702025
157	0xbd69da2a	-0.057092823
158	0x3990bc02	0.00027605897
159	0x3ddd94c0	0.108193874
160	0xbda4e0c7	-0.080506854
161	0xbd1f1b96	-0.038844667
162	0xbc23b11e	-0.0099909585
163	0x3d785820	0.060630918
164	0x3de6601c	0.112488
165	0xbe138018	-0.14404333
166	0x3e099289	0.13434805
167	0x3db09659	0.086224265
168	0xbc5dae28	-0.013530292
169	0xbd3d8d7a	-0.0462775
170	0x3d153b01	0.036433224
171	0x3e03995c	0.1285147
172	0xbe1c90f2	-0.15289667
173	0xbdbd2a43	-0.092365764
174	0x3df9b7c4	0.12193254
175	0xbc865e3f	-0.016402362
176	0x3dc8fc77	0.09813779
177	0x3d666310	0.056246817
178	0x3e9c5021	0.30529884
179	0x3e0ad381	0.13557245
180	0x3dc92ad3	0.09822621
181	0x3df58a6e	0.11989294
182	0x3b0e64fd	0.0021727674
183	0x3dbfd258	0.09366292
184	0xbe00dde7	-0.12584649
185	0xbd8761c3	-0.066104434
186	0xbd0b9d81	-0.034085754
187	0x3cc162ab	0.023606619
188	0x3e0cb6a9	0.13741554
189	0x3ce7d95f	0.028301893
190	0xbd84952c	-0.06473765
191	0x3ca14770	0.019687384
192	0x3e3c27b9	0.18374528
193	0x3dcaf915	0.0991079
194	0x3cd083d0	0.025453478
195	0xbe0fcd5d	-0.14043184
196	0x3b605f40	0.003423646
197	0xbe8195dd	-0.2530965
198	0x3d137df4	0.03600879
199	0x3d0cdf50	0.034392655
200	0xbe0ccbc8	-0.13749611
201	0xbce855e2	-0.028361265
202	0x3d2120df	0.03933799
203	0x3dd08d43	0.101831935
204	0xbe745226	-0.23859462
205	0xbda35e9a	-0.07977028
206	0x3e35ec02	0.17765811
207	0x3d2397d4	0.039939716
208	0x3cfeb285	0.031090984
209	0x3d6e6954	0.058205917
210	0xbd09b5f4	-0.03362079
211	0x3daa5293	0.08316531
212	0x3ecdf57b	0.4022635
213	0x3e227d57	0.15868126
214	0x3cb30b7d	0.021856064
215	0xbd502353	-0.050814938
216	0x3ceb20e2	0.028702203
217	0xbcdb881a	-0.026798297
218	0x3e0af816	0.135712
219	0x3e544965	0.20731123
220	0x3e2fae92	0.17156437
221	0x3dd208f0	0.10255611
222	0x3e1d5f7c	0.15368456
223	0x3df6d58b	0.12052449
224	0x3cb9b3d6	0.02266876
225	0x3d0c2786	0.03421738
226	0xbe005d5e	-0.12535617
227	0x3b2d7800	0.002646923
228	0xbdce9195	-0.10086361
229	0x3c9825a0	0.018572628
230	0x3ec3b0cb	0.3822082
231	0x3dbd20b6	0.09234755
232	0xbbf93fd4	-0.007606486
233	0xbe252d52	-0.1613057
234	0xbe47991e	-0.19492003
235	0xbd81dcbe	-0.06340931
236	0xbd44322b	-0.047899406
237	0x3e853597	0.26017448
238	0xbc426b4b	-0.011866401
239	0xbdab1216	-0.08353059
240	0xbdd3da81	-0.10344411
241	0x3cca074a	0.024661679
242	0x3d403584	0.046926036
243	0xbe03a231	-0.1285484
244	0xbd9a248a	-0.075265005
245	0x3e45cd8a	0.19316688
246	0x3dae197d	0.08500955
247	0xbc402ec4	-0.0117299
248	0xbdc0a60c	-0.09406671
249	0xbd87a72c	-0.066236824
250	0x3db3ad9a	0.08773346
251	0xbdc7c75e	-0.09754823
252	0xbcc5573f	-0.024089454
253	0xbdf2bee9	-0.118528195
254	0x3b00e543	0.00196679
255	0x3d6e8a46	0.058237337

fc1.bias f4 [256]
0	0xbaa63293	-0.0012679867
1	0xbe115cd0	-0.14195561
2	0x3d2f4f75	0.042800386
3	0xbe622c13	-0.22087125
4	0x3c525c60	0.012839407
5	0xbe176236	-0.14783558
6	0xbe6b5a4a	-0.22983661
7	0xbc85692c	-0.016285501
8	0x3d03ebb6	0.032207213
9	0x3e3de72b	0.18545215
10	0xbe095bbe	-0.13413903
11	0xbc5a096c	-0.01330791
12	0xbe0576b5	-0.13033564
13	0x3da36902	0.07979013
14	0x3e4615be	0.19344231
15	0x3e5458b0	0.20736957
16	0xbdbe7600	-0.092998505
17	0x3e028bf4	0.127487
18	0xbe7e216d	-0.24817438
19	0xbd9dd0d5	-0.07705847
20	0x3baca0e9	0.0052682054
21	0xbc3b97ef	-0.011449798
22	0x3d90179a	0.07035752
23	0x3dc7101a	0.09719868
24	0xbe1d3576	-0.15352425
25	0xbd6f8b1b	-0.05848227
26	0x3e26e7c2	0.16299346
27	0xbc30a605	-0.01078177
28	0xbc138749	-0.009004422
29	0xbe58308d	-0.2111227
30	0xbd98379d	-0.074324824
31	0xbe64dc9e	-0.22349784
32	0xbc73965c	-0.014867391
33	0xbdaff985	-0.08592514
34	0xbe5555a9	-0.20833458
35	0x3e09a950	0.13443494
36	0xbe53c183	-0.20679288
37	0xbbfcae00	-0.007711172
38	0x3d5879bd	0.052850474
39	0x3e19c351	0.15015914
40	0xbe80dea1	-0.25169852
41	0xbd279f41	-0.04092336
42	0x3d3c0357	0.045901623
43	0x3e50a35e	0.2037482
44	0x3e0296f2	0.12752894
45	0xbdab76e3	-0.08372285
46	0x3e34586f	0.1761186
47	0xbe53fdc3	-0.20702271
48	0x3e10c74c	0.14138526
49	0xbceffed2	-0.029296312
50	0xbe44c568	-0.1921593
51	0x3dd7017a	0.104983285
52	0xbb150039	-0.0022735728
53	0xbcedada5	-0.029013464
54	0xbe711925	-0.23544748
55	0x3d0e1018	0.034683317
56	0x3c4b0b0c	0.0123927705
57	0x3d8a5b28	0.06755668
58	0xbe90d477	-0.28287098
59	0x3e2c7f54	0.16845447
60	0xbe1571d0	-0.14594197
61	0xbe4247d5	-0.18972714
62	0xbda96076	-0.082703516
63	0xbba6f043	-0.0050945594
64	0xbe2e7633	-0.17037277
65	0xbd04f413	-0.03245933
66	0x3e2ee3b6	0.17079052
67	0xbe2d86b6	-0.1694592
68	0xbbf549c1	-0.007485599
69	0xbdc58abf	-0.09645604
70	0x3d67254f	0.056432065
71	0xbdcf40dc	-0.10119793
72	0xbe30a08f	-0.17248748
73	0x3df04a0b	0.117328726
74	0x3d83219a	0.06402893
75	0x3e403e03	0.18773656
76	0xbe634c69	-0.22197117
77	0x3d50fe9d	0.05102407
78	0xbe78a308	-0.24280941
79	0xbd784aba	-0.06061814
80	0x3e57464e	0.21022913
81	0xbc6db404	-0.014508251
82	0xbe04c282	-0.12964824
83	0xbd8013bc	-0.06253764
84	0xbc74f64a	-0.014951298
85	0x3d30e290	0.043184817
86	0xbe8c06b8	-0.27348876
87	0xbd8738cc	-0.0660263
88	0xbdaf3217	-0.08554476
89	0x3dac7794	0.08421245
90	0x3c51417d	0.012771961
91	0x3e1f5bdc	0.15562385
92	0xbe01a4cb	-0.1266052
93	0x3e3016ad	0.1719615
94	0xbccd212f	-0.025040237
95	0x3d8a2270	0.0674485
96	0x3d4f5289	0.05061582
97	0xbe5dfbec	-0.21678132
98	0xbd755c3b	-0.05990241
99	0xbc7dc0e8	-0.015487887
100	0x3dbd3ed0	0.09240496
101	0x3e0bbaca	0.13645473
102	0x3d061a86	0.03274014
103	0x3e3a9a9f	0.18223046
104	0x3da2d361	0.079504736
105	0xbd7dbdb5	-0.061948497
106	0xbdab93ae	-0.08377777
107	0xbb1cc936	-0.0023923642
108	0x3c721d3b	0.014777477
109	0xbb8d30ac	-0.0043087807
110	0x3e42f941	0.19040395
111	0xbb50b3de	-0.003184549
112	0xbe9936c8	-0.29924607
113	0xbe40082f	-0.18753122
114	0x3dbca9ae	0.09212051
115	0xbe069f65	-0.13146742
116	0xbe7052f2	-0.23469141
117	0xbd0e82a7	-0.03479257
118	0x3ddecb84	0.10878661
119	0xbe37f414	-0.17964202
120	0x3d81f906	0.063463256
121	0x3e657f93	0.22411947
122	0xbdb9ceb1	-0.090726264
123	0xbd8cf734	-0.06883088
124	0x3d858c52	0.065209046
125	0xbdd4f8d2	-0.10399021
126	0xbe2795de	-0.16365764
127	0x3ce9b35d	0.02852791
128	0xbd99a851	-0.07502807
129	0xbe9894de	-0.29801077
130	0xbe7945f9	-0.24343099
131	0xbe37af79	-0.17938031
132	0x3d689cbc	0.0567901
133	0xbe2bd8d3	-0.1678193
134	0xbe013dad	-0.12621184
135	0xbc3767c6	-0.011194175
136	0x3cbad217	0.022805257
137	0xbd746e5a	-0.059675552
138	0xbda5303a	-0.08065839
139	0xbc7c927c	-0.015415784
140	0xbda983e8	-0.08277112
141	0xbda11ead	-0.07867179
142	0xbd7959a5	-0.060876507
143	0xbe3bf5f9	-0.1835555
144	0xbe58ad50	-0.21159863
145	0xbe214230	-0.15747905
146	0xbe2b4759	-0.16726436
147	0x3d5598ef	0.052147802
148	0x3d2bf846	0.04198482
149	0xbe6af515	-0.22945054
150	0xbd4a57a5	-0.04939999
151	0xbc65d1d0	-0.014027074
152	0x3d4a02c9	0.049319062
153	0xbdd2c0b0	-0.102906585
154	0x3da12058	0.07867497
155	0xbdf6558d	-0.12028036
156	0xbe367475	-0.17817862
157	0x3d9b9f9b	0.07598802
158	0xbc0c8059	-0.008575522
159	0xbd044891	-0.032295767
160	0xbd48982a	-0.04897324
161	0xbdccce44	-0.100002795
162	0x3d680348	0.056643754
163	0x3daa8007	0.083252005
164	0xbd7f0397	-0.062259283
165	0xbe1d8552	-0.15382889
166	0xbe0a628f	-0.1351416
167	0xbe40d239	-0.18830194
168	0xbea3d80e	-0.32000774
169	0xbddccfcf	-0.10781824
170	0x3dc99d6e	0.098444805
171	0x3c007c67	0.00784216
172	0xbdbc18df	-0.09184431
173	0xbd9cd5c9	-0.07657964
174	0xbbab7680	-0.005232632
175	0x3ce7caf8	0.028295025
176	0xbe1ef3cd	-0.1552269
177	0xbe472ed4	-0.19451457
178	0xbe6b2a80	-0.22965431
179	0xbc248d93	-0.01004352
180	0xbdbf8dc9	-0.09353215
181	0x3dd31112	0.1030599
182	0xbdf7c120	-0.120973825
183	0xbdf8caa9	-0.12148029
184	0x3da2497a	0.07924171
185	0xbbf9099d	-0.007600023
186	0x3e2a4010	0.16626
187	0xbdac388a	-0.084092215
188	0xbe0be1dc	-0.13660377
189	0xbb87c9a2	-0.0041439096
190	0x3b858e90	0.0040758327
191	0xbcc73176	-0.024315577
192	0x3d7eef83	0.062240135
193	0xbe1a9cc9	-0.15098871
194	0xbd9a05a6	-0.075206086
195	0xbd7bf79b	-0.06151543
196	0x3d0d3876	0.034477673
197	0x3dbbd25b	0.091709815
198	0xbe1b52d2	-0.15168312
199	0x3dab5d1e	0.0836737
200	0x3e648be4	0.22318989
201	0x3ea29085	0.31750885
202	0x3d1fc677	0.03900763
203	0x3e031c49	0.12803759
204	0xbe0220a5	-0.12707765
205	0xbdde82fa	-0.108648255
206	0xbe89eb01	-0.26937106
207	0xbbd3fac7	-0.006469104
208	0xbd26c3be	-0.040714018
209	0x3e4049ba	0.18778124
210	0xbe3e3ed3	-0.18578653
211	0xbd08044a	-0.033207215
212	0xbdd4df4a	-0.103941515
213	0xbca847d9	-0.020542072
214	0xbe4000b9	-0.18750276
215	0xbd67173a	-0.056418635
216	0xbd9c2164	-0.07623556
217	0xbe23b819	-0.15988196
218	0xbe5ab898	-0.2135948
219	0x3df81951	0.12114204
220	0xbc251edb	-0.010078157
221	0xbd89351a	-0.066995814
222	0x3d290781	0.041266922
223	0xbe5ce42f	-0.2157142
224	0x3d4f2d40	0.050580263
225	0xbe47921c	-0.1948933
226	0xbdcf2845	-0.10115103
227	0xbe8ed86c	-0.27899492
228	0xbda60fa0	-0.08108449
229	0x3debbad5	0.11510245
230	0xbde4734b	-0.11154803
231	0xbd3e0faa	-0.046401657
232	0xbe2f7e1b	-0.17137949
233	0x3d62c9fa	0.0553684
234	0xbd8a1baa	-0.06743558
235	0xbd933996	-0.07188718
236	0x3d93d7b5	0.07218877
237	0x3c47c2b0	0.012192413
238	0xbe029454	-0.12751895
239	0xbe163f8e	-0.14672682
240	0xbe65a792	-0.22427204
241	0xbe48c1a0	-0.19605112
242	0xbcd364c0	-0.025804877
243	0xbdb2536e	-0.08707319
244	0xbd161a0b	-0.03664593
245	0xbe838941	-0.25690654
246	0xbd2ff9a6	-0.042962693
247	0x3e0f86a5	0.14016207
248	0x3cdb91ba	0.026802886
249	0x3d9695cb	0.073527895
250	0xbe3ba2f6	-0.18323883
251	0xbe8c2bc9	-0.27377155
252	0xbe16c35a	-0.14722958
253	0x3db285e9	0.087169476
254	0xbdfef504	-0.12449077
255	0xbd7c0744	-0.061530367

fc2.weight f4 [256, 256]
0	0xbdd89b47	-0.10576492
1	0x3e4d4806	0.20047006
2	0x3d2e48bf	0.042549845
3	0x3ce04c3e	0.027380105
4	0xbe2be162	-0.16785195
5	0x3d4a1b2b	0.049342316
6	0xbe141471	-0.14460923
7	0x3d026d18	0.03184232
8	0xbea8cc62	-0.32968432
9	0x3e944a24	0.28962815
10	0xbd90019d	-0.07031558
11	0xbca3afea	-0.019981343
12	0x3f03258b	0.5122916
13	0x3da3afa0	0.07992482
14	0xbe1e234c	-0.15443152
15	0xbe5cb417	-0.21553074
16	0xbe074b8d	-0.13212414
17	0xbebaa034	-0.3645035
18	0xbd311d92	-0.04324109
19	0xbd18fe85	-0.037352104
20	0xbdaf234e	-0.08551656
21	0xbe2b07b3	-0.16702156
22	0x3b273e1e	0.0025519202
23	0x3d8f5b6f	0.069998614
24	0x3e59a01c	0.21252483
25	0xbd854d64	-0.06508902
26	0xbc4869c6	-0.01223225
27	0x3e8bd791	0.27312902
28	0x3df840f3	0.12121763
29	0x3b9b932c	0.004747769
30	0x3dbdb962	0.092638746
31	0x3e0622d1	0.13099219
32	0x3d5f163f	0.054464575
33	0xbc4401b7	-0.0119632995
34	0xbe15f2db	-0.14643423
35	0x3c8af958	0.0169646
36	0x3dd4b518	0.103861034
37	0xbe2d8493	-0.16945104
38	0x3d39f60d	0.045400668
39	0xbe11fe44	-0.14257151
40	0x3c433576	0.011914602
41	0x3dc26635	0.09492151
42	0x3d9b5e0e	0.07586299
43	0xbc361d2f	-0.011115356
44	0xbe90da29	-0.28291443
45	0xbde42a86	-0.11140923
46	0xbdb6624a	-0.08905466
47	0x3bc131f8	0.0058958493
48	0xbe211410	-0.1573031
49	0xbe81c839	-0.2534807
50	0x3cf3fcd8	0.029783651
51	0x3e21f14c	0.15814704
52	0xbdbd00cb	-0.09228667
53	0x3df38fd9	0.11892671
54	0xbdc16ae3	-0.09444215
55	0xbceeaf4c	-0.029136322
56	0xbe0c2f6c	-0.13689965
57	0xbe1569da	-0.1459116
58	0xbe3be871	-0.18350388
59	0xbeb9b8b2	-0.36273724
60	0xbc188547	-0.00930912
61	0x3df12790	0.11775124
62	0x3d48b0d3	0.048996758
63	0x3d0d34f6	0.034474336
64	0xbe46f7d1	-0.19430472
65	0xbd914ece	-0.07095109
66	0xbd73ab7c	-0.059489712
67	0xbd15b959	-0.036553714
68	0x3d92d514	0.07169548
69	0x3c74b0e9	0.014934757
70	0x3d34940d	0.044086505
71	0xbe1e08cd	-0.15433045
72	0xbdb3ec55	-0.08785311
73	0x3cd6007f	0.026123283
74	0xbc9acbfa	-0.018896092
75	0xbd52baa9	-0.051447544
76	0xbd0ba38e	-0.034091525
77	0xbde7bd34	-0.113153845
78	0xbbc8e64b	-0.0061309687
79	0x3dad0b43	0.084494136
80	0xbdfab9e8	-0.1224249
81	0xbd85a7a8	-0.065261185
82	0xbe53e9c2	-0.2069464
83	0x3da72a0a	0.08162315
84	0x3dbec520	0.09314942
85	0x3d6b7dc3	0.057492983
86	0x3bc0bdbb	0.0058819926
87	0x3deb53e4	0.1149061
88	0xbd68f727	-0.056876328
89	0x3e3b1846	0.18270978
90	0x3e2ecf54	0.17071277
91	0xbe6c50b8	-0.23077667
92	0x3e3705a3	0.17873244
93	0xbd0dfdc4	-0.034665838
94	0x3d98e8ef	0.074663036
95	0xbd3e656f	-0.046483453
96	0xbde03325	-0.10947255
97	0xbc23b5cc	-0.009992074
98	0x3deed44a	0.11661585
99	0xbc10b485	-0.008832102
100	0xbe8435a3	-0.25822172
101	0xbe4b4117	-0.19849049
102	0x3e62baef	0.22141622
103	0xbd28b637	-0.0411894
104	0x3e0d0395	0.13770898
105	0xbd0e2088	-0.034698993
106	0x3e1f4108	0.15552151
107	0x3d426e1e	0.047468297
108	0x3d843dfd	0.06457136
109	0x3d927379	0.07150931
110	0xbe5942bb	-0.21216862
111	0xbe999f9c	-0.30004585
112	0xbd310d0a	-0.043225326
113	0x3b846b5d	0.004041119
114	0xba16236a	-0.0005727323
115	0xbe123ed1	-0.14281775
116	0xbdb1a450	-0.08673918
117	0x3e8a8a01	0.27058414
118	0x3e314952	0.17313126
119	0x3be00407	0.0068364176
120	0x3cb871fb	0.022515288
121	0xbebb3c98	-0.36569667
122	0xbe0ae4c5	-0.13563831
123	0x3d56f58f	0.052480277
124	0xbd45d274	-0.048296407
125	0xbd5a65ac	-0.053319618
126	0x3d62d5dd	0.055379737
127	0xbe82c753	-0.25542697
128	0xbdf08515	-0.117441334
129	0x3b0d003e	0.0021515037
130	0xbcc977e7	-0.024593307
131	0x3e18611e	0.14880797
132	0xbd50100c	-0.050796553
133	0x3d6abf17	0.057311144
134	0xbe0b545c	-0.136064
135	0xbdb8ada2	-0.09017493
136	0x3e7b973c	0.2456941
137	0xbd66707c	-0.056259617
138	0xbe36adf1	-0.17839791
139	0xbe3b3de1	-0.18285324
140	0x3e01e0b7	0.12683378
141	0x3ccb2551	0.024798067
142	0xbd21bd25	-0.039487023
143	0xbe31dc22	-0.1736913
144	0x3da65495	0.081216015
145	0x3e244c1b	0.16044657
146	0x3d019580	0.031636715
147	0x3cf70a64	0.030156322
148	0xbdd52ded	-0.1040915
149	0xbd4d4f0c	-0.050124213
150	0xbe46b6d4	-0.19405681
151	0x3e75298b	0.23941629
152	0x3e0d5e2b	0.13805453
153	0x3bc78d73	0.00608986
154	0x3c14639a	0.00905695
155	0x3d959434	0.07303658
156	0xbe6fd2f5	-0.23420317
157	0x3e1adc73	0.15123157
158	0x3e507521	0.20357181
159	0xbe301db4	-0.17198831
160	0x3e8d14c7	0.27554914
161	0xbe8b24cf	-0.2717652
162	0x3e1c359b	0.15254824
163	0xbe224f85	-0.15850647
164	0x3db440bb	0.08801409
165	0x3e4e19ca	0.20127025
166	0xbcbbc4ca	-0.022920985
167	0xbdadc8cc	-0.084855646
168	0x3e1435ae	0.14473602
169	0xbd9d65dd	-0.076854445
170	0xbdae3831	-0.085068114
171	0xbcbdec36	-0.023183923
172	0x3e39acbe	0.18132302
173	0x3e15891e	0.14603087
174	0xbdc337f5	-0.09532157
175	0xbe209d2f	-0.15684961
176	0xbe1a816b	-0.15088432
177	0xbc6f685c	-0.014612284
178	0x3db21774	0.086958796
179	0xbe090a1e	-0.13382766
180	0xbc43e0eb	-0.01195548
181	0xbce461f6	-0.027878743
182	0x3c8b28c1	0.016987206
183	0x3dc9a05a	0.09845038
184	0xbe954c84	-0.2915994
185	0x3e4d8213	0.2006915
186	0xbd12ad8d	-0.035810042
187	0x3c0aa148	0.008461304
188	0xbd22e546	-0.039769433
189	0x3df1da6a	0.11809237
190	0x3defb7bc	0.117049664
191	0x3d87a1e7	0.06622677
192	0xbdc3782e	-0.09544407
193	0x3e1bfed0	0.15233922
194	0x3cb49cc2	0.022047404
195	0xbcd38874	-0.025821902
196	0x3e2371a5	0.1596132
197	0xbd12880a	-0.03577427
198	0xbdeb45e9	-0.11487944
199	0x3d49f1e5	0.049302954
200	0xbd8eeba8	-0.069785416
201	0xbef98a25	-0.48738208
202	0xbd6c20e8	-0.05764857
203	0xbe6806c8	-0.22658837
204	0x3cc4bfff	0.024017332
205	0xbd80239f	-0.06256794
206	0xbe43d12c	-0.19122761
207	0xbe65f019	-0.22454871
208	0x3dc634a3	0.096780084
209	0x3cb41e5b	0.02198713
210	0x3d5cac25	0.053875107
211	0xbc5282ba	-0.01284855
212	0x3e816b6b	0.25277266
213	0x3d59a63a	0.05313704
214	0x3e0316dc	0.12801689
215	0x3e080853	0.13284425
216	0x3dc53834	0.096298605
217	0xbde19f45	-0.110167064
218	0xbd2d042f	-0.042240318
219	0xbd91e270	-0.07123268
220	0xbe83a0dd	-0.25708666
221	0xbd9368b1	-0.07197703
222	0x3d325bff	0.043544766
223	0xbe21f1f6	-0.15814957
224	0x3da10e78	0.07864088
225	0x3e478439	0.19484033
226	0x3d1ebeb6	0.038756095
227	0x3dd56524	0.10419682
228	0xbd390dc9	-0.045179162
229	0xbe1984a1	-0.14992
230	0x3e853734	0.2601868
231	0x3e47b704	0.19503409
232	0x3d833cc8	0.064080775
233	0xbdd6b73b	-0.10484167
234	0x3ac46236	0.0014982882
235	0x3e245edb	0.1605181
236	0xbe04f1c0	-0.12982845
237	0x3ddc11e8	0.10745603
238	0x3edcae5c	0.43101776
239	0x3d77b99b	0.06047974
240	0xbebbbd8b	-0.36668047
241	0xbb3723c9	-0.0027944914
242	0x3d83b503	0.064310096
243	0x3db0f27d	0.08640001
244	0x3e8ca7b8	0.2747171
245	0xbe1375d3	-0.14400415
246	0xbd241407	-0.040058162
247	0x3d5e6657	0.054296818
248	0xbe95f057	-0.29284927
249	0x3d3f79d4	0.046747044
250	0x3e65c363	0.22437815
251	0x3d6f3447	0.058399465
252	0x3dd5f209	0.10446555
253	0x3ea9f6f6	0.3319623
254	0x3c98dd93	0.018660342
255	0x3c9cb081	0.019127132

fc2.bias f4 [256]
0	0xbd3960c7	-0.04525831
1	0xbbe29f6a	-0.0069159763
2	0x3d2b5715	0.041831095
3	0xbcae87de	-0.02130502
4	0x3c0bb5bc	0.008527216
5	0xbd557d72	-0.052121587
6	0x3d1eb635	0.038747985
7	0xbc5a4c36	-0.013323834
8	0x3da63890	0.08116257
9	0x3dc61afd	0.09673116
10	0x3d32749f	0.04356825
11	0x3db1106a	0.08645709
12	0xbd2221ee	-0.03958314
13	0x3d5f950a	0.054585494
14	0xbd668475	-0.056278665
15	0x3c7e917e	0.015537618
16	0xbd634a94	-0.055491045
17	0x3d2d1e22	0.042265065
18	0xbdb26daa	-0.08712323
19	0xbd3451e6	-0.044023417
20	0xbe0c855b	-0.13722746
21	0xbdc31707	-0.095258765
22	0x3d592779	0.05301616
23	0x3d0d6727	0.034522202
24	0xbe2cd4c7	-0.16878043
25	0x3d555d1d	0.052090753
26	0x3d4b8e9a	0.049696542
27	0x3d804d4e	0.06264745
28	0x3d115535	0.03548165
29	0x3d7d4b68	0.06183949
30	0xbd94fd22	-0.07274844
31	0xba9eeb59	-0.0012124582
32	0x3d8f7a1e	0.07005714
33	0x3c5141e0	0.0127720535
34	0x3d1acacd	0.037791062
35	0x3d8f9909	0.07011611
36	0x3daa8661	0.08326412
37	0xbda7f667	-0.082012944
38	0x3d0f0263	0.034914386
39	0xbd5cba79	-0.05388877
40	0xbe98cb9a	-0.29842836
41	0xbd234e2b	-0.03986947
42	0x3cfdfe9e	0.0310052
43	0x3df5b7f3	0.11997976
44	0xbbf8d120	-0.007593289
45	0x3b9dc10d	0.004814273
46	0xbca7037c	-0.020387404
47	0xbde7869c	-0.113049716
48	0xbd2e953b	-0.042622786
49	0xbca9c704	-0.02072478
50	0x3caa39d4	0.020779528
51	0x3b813250	0.0039427653
52	0x3d4165e1	0.0472163
53	0xbdb5a85e	-0.08870004
54	0xbd582a0e	-0.05277448
55	0xbd95a8a0	-0.07307553
56	0x3d20e1d4	0.039277866
57	0xbdac34e8	-0.084085286
58	0x3d8eaf9f	0.06967091
59	0xbc396903	-0.011316541
60	0xbde9a482	-0.114083305
61	0xbd24047f	-0.04004335
62	0x3d562a72	0.052286573
63	0xbe6cdef1	-0.2313192
64	0xbd59339a	-0.053027727
65	0x3d05369a	0.032522775
66	0xbbaaab5c	-0.005208416
67	0xbdc13a4b	-0.094349466
68	0x3d727125	0.059189934
69	0xbd0f97fd	-0.035057057
70	0x3ba8d9e3	0.0051529272
71	0x3dab9eb1	0.08379877
72	0x3db1b1d9	0.086765
73	0xbc1eeec8	-0.009700485
74	0x3d3bb10a	0.045823134
75	0x3cbfc770	0.023410529
76	0xbda25f7d	-0.07928369
77	0xbd1afb82	-0.037837513
78	0xbdc3c5c3	-0.095592044
79	0x3bd9a971	0.0066425134
80	0x3d499179	0.049211
81	0x3d8b8293	0.068120144
82	0xbdb828c2	-0.08992149
83	0xbd8c1f18	-0.06841868
84	0x3ce4ec9a	0.027944852
85	0xbcde314a	-0.027123112
86	0xbc00d653	-0.007863599
87	0x3d6f53ab	0.0584294
88	0xbda1dcae	-0.079034194
89	0xbd19787e	-0.037468426
90	0x3cacc3ce	0.02108946
91	0xbdf1549e	-0.117837176
92	0xbc5b76f6	-0.013395062
93	0xbe19f999	-0.1503662
94	0x3e071d19	0.13194694
95	0xbc3e3265	-0.011608695
96	0x3cd23870	0.025661677
97	0xbda01860	-0.07817149
98	0xbd4cfa50	-0.050043404
99	0xbd00e3a7	-0.031467106
100	0x3d14f603	0.036367428
101	0xbc3cecbd	-0.011531052
102	0x3cfa0fc8	0.030525103
103	0x3dc3b6b4	0.09556332
104	0xbd88b3ac	-0.06674895
105	0xbd1bb158	-0.038010925
106	0xbbbc9c5e	-0.005755945
107	0x3d0354b6	0.03206321
108	0x3d873628	0.06602126
109	0xbd04c2f2	-0.032412477
110	0xbd25f819	-0.040519807
111	0xbc706c35	-0.014674236
112	0xbcde93eb	-0.027170142
113	0xbd266f50	-0.0406335
114	0xbdab178d	-0.08354101
115	0x3d1f203b	0.038849097
116	0xbd9301fc	-0.07178113
117	0x3d43ccfa	0.047802903
118	0x3cc298b7	0.02375446
119	0x3b643d7f	0.0034826694
120	0x3d534057	0.05157503
121	0xbd2d57b6	-0.042319976
122	0xbd6917a3	-0.056907307
123	0xbd05f309	-0.03270248
124	0xbd590903	-0.05298711
125	0x3bf32874	0.007420594
126	0x3da813f6	0.08206932
127	0xbc8c82ae	-0.017152157
128	0x3cb166cc	0.021655463
129	0xbca7f67e	-0.020503279
130	0x3d149818	0.03627786
131	0x3cd777df	0.026302276
132	0xbd9025ab	-0.070384346
133	0x3c422151	0.011848764
134	0x3d853f46	0.06506209
135	0x3d0320f8	0.032013863
136	0xbdb3079d	-0.087416865
137	0xbb44243a	-0.002992882
138	0x3d91c772	0.07118119
139	0x3d14eba0	0.036357522
140	0xbd011c90	-0.03152138
141	0xbd9d20e0	-0.07672286
142	0xbd68ba91	-0.05681855
143	0xbd7b1b1c	-0.06130515
144	0x3d2b493a	0.04181788
145	0x3aaa71fa	0.0013003938
146	0x3d39b301	0.045336727
147	0xbd687e98	-0.056761354
148	0xbd097b6d	-0.033564974
149	0xbc9c1c50	-0.01905647
150	0xbdb8a39a	-0.090155795
151	0x3d95e192	0.07318415
152	0x3d2ab2df	0.04167449
153	0xbdb51066	-0.088410184
154	0x3c565945	0.013082807
155	0xbd10a90d	-0.03531747
156	0x3b66bbcc	0.003520715
157	0xbdde6b07	-0.108602576
158	0x3ce3ada6	0.027792763
159	0x3e010cd6	0.12602553
160	0x3df65537	0.12027972
161	0xbdceb12b	-0.10092386
162	0xbd0a545c	-0.033771858
163	0x3b4da94e	0.003138143
164	0xbd1a4eef	-0.037672933
165	0x3dacbe0c	0.08434686
166	0x3da8257d	0.08210275
167	0x3c1e582d	0.009664577
168	0xbcc7cbac	-0.02438911
169	0x3d30851d	0.043095697
170	0xbdad777e	-0.08470057
171	0xbd60887e	-0.05481767
172	0xbd887ff9	-0.06665034
173	0xbd5a7cbd	-0.053341616
174	0x3d4e9f76	0.050445043
175	0x3d86d619	0.06583805
176	0x3dbd2e75	0.092373766
177	0xbbddba83	-0.0067666187
178	0x3bdec42d	0.0067982883
179	0xbd573095	-0.052536566
180	0xbde02472	-0.109444514
181	0x3d889969	0.06669886
182	0xbd9b92bf	-0.07596349
183	0xbda13aa3	-0.07872512
184	0xbd1477b3	-0.036246967
185	0x3db0e7ba	0.08637948
186	0x3d2cf8a6	0.042229317
187	0xbd05491c	-0.032540426
188	0xbd816332	-0.06317748
189	0xbd2553f5	-0.04036327
190	0x3c160216	0.009155771
191	0x3bd59f15	0.006519208
192	0xbd3c9eab	-0.046049755
193	0xbcc7ebd9	-0.024404453
194	0xbbbdf5c0	-0.005797118
195	0xbe0ef88b	-0.13961999
196	0x3ccaa445	0.024736533
197	0xbd86a603	-0.06574633
198	0xbe0cbf77	-0.13744913
199	0xbd3701ad	-0.044679333
200	0xbd60cca1	-0.05488265
201	0x3ddfb87f	0.10923862
202	0x3d804ed6	0.06265037
203	0xbd0553d6	-0.032550655
204	0xbd2b097b	-0.04175709
205	0x3c68eb44	0.014216248
206	0xbe0624da	-0.13099995
207	0x3d3268f0	0.043557107
208	0xbc313256	-0.010815224
209	0xbc80d433	-0.015726184
210	0x3d35f83c	0.044426188
211	0x3c495225	0.012287651
212	0xbcbdbc7d	-0.023161167
213	0xbc4ff3ca	-0.012692401
214	0xbd8370b5	-0.064179815
215	0xbdb7c9e9	-0.08974058
216	0x3be78e4b	0.007066523
217	0xbce5f9ac	-0.028073154
218	0xbd0758b4	-0.03304358
219	0xbdf00d56	-0.11721294
220	0xbd930c50	-0.07180083
221	0x3bc44a21	0.005990282
222	0x3d70751c	0.058705434
223	0xbd38c95d	-0.04511391
224	0xbdb12041	-0.0864873
225	0x3d5e54d1	0.054280106
226	0x3b8ecd5c	0.004357977
227	0xbcb6adcd	-0.022299672
228	0x3dccb1d0	0.099948525
229	0xbe0a7c66	-0.13524017
230	0xbc6ad6b6	-0.014333418
231	0x3dbdc603	0.09266283
232	0x3cef6bd7	0.029226227
233	0xbda524d5	-0.08063666
234	0xbc94d037	-0.01816569
235	0xbd38fd6b	-0.045163553
236	0xbcbf97d5	-0.023387829
237	0xbe29ed54	-0.1659444
238	0x3d26a629	0.040685806
239	0xbd20e5e0	-0.039281726
240	0xbd228005	-0.03967287
241	0x3d1e4a6b	0.03864519
242	0x3e0416ea	0.12899366
243	0xbdb8ba5a	-0.09019919
244	0x3d89498c	0.06703481
245	0xbe2c5be0	-0.16831923
246	0x3de66a96	0.112507984
247	0xbd266571	-0.040624086
248	0x3c54e1cd	0.012993288
249	0x3e0c5cf4	0.13707334
250	0xbd825295	-0.063634075
251	0x3c327f50	0.0108946115
252	0x3d46b1eb	0.04850952
253	0xbdc638af	-0.0967878
254	0x3cc2d1d3	0.023781693
255	0xbe018843	-0.12649636

fc3.weight f4 [4, 256]
0	0xbe96c8bd	-0.29450026
1	0x3e766dc8	0.24065316
2	0x3dbe9746	0.09306197
3	0x3e29b2ae	0.16572067
4	0xbde0c473	-0.1097497
5	0x3ca2fec6	0.019896876
6	0x3e97fbb0	0.2968421
7	0xbdd1e9ae	-0.10249649
8	0x3ef23907	0.47309133
9	0x3cec6c7c	0.028860323
10	0xbf3648bc	-0.71204734
11	0xbe2b4dc2	-0.16728881
12	0xbeb59a0d	-0.35469094
13	0xbd9cb9f4	-0.07652655
14	0xbc3371d6	-0.010952434
15	0xbee617a8	-0.44939923
16	0x3cd8febc	0.026488654
17	0x3eed7a31	0.46382287
18	0xbe12717d	-0.14301105
19	0xbeea487a	-0.4575842
20	0xbf193202	-0.5984193
21	0xbdbc8532	-0.092050925
22	0x3ee38bfa	0.4444273
23	0x3ed99045	0.4249288
24	0xbd9336ed	-0.07188211
25	0xbea87204	-0.32899487
26	0x3e6c3027	0.23065244
27	0xbe9b07ab	-0.30279288
28	0x3eca2170	0.39478636
29	0x3eba19d6	0.36347836
30	0x3ed39005	0.41320816
31	0xbf048cee	-0.5177754
32	0xbcd5130a	-0.026010055
33	0xbc4467a2	-0.011987599
34	0xbd2ef69f	-0.042715665
35	0xbe1abe60	-0.15111685
36	0x3e114494	0.14186317
37	0xbe31b41f	-0.17353867
38	0xbef0750b	-0.46964297
39	0x3d800807	0.06251531
40	0x3f9099c0	1.1296921
41	0xbf3c2ef5	-0.7350915
42	0x3e24de8a	0.16100517
43	0x3cd766a9	0.02629407
44	0x3d41f1bd	0.04734968
45	0x3da45be7	0.080253415
46	0x3d1054d4	0.03523715
47	0x3edbfbb6	0.42965478
48	0xbe8f75a5	-0.28019443
49	0xbdd07835	-0.10179178
50	0x3e036635	0.12831958
51	0xbe20aa89	-0.15690054
52	0x3ea9684d	0.33087388
53	0xbf2dab5a	-0.67839587
54	0xbf162a31	-0.5865813
55	0xbedff86f	-0.43744227
56	0x3a93eddf	0.0011286101
57	0x3e708c2e	0.23490974
58	0xbe2f1148	-0.17096436
59	0xbc8b4217	-0.016999288
60	0x3ebf3abc	0.37349498
61	0xbe052542	-0.13002494
62	0x3d92d764	0.07169989
63	0x3dc04b78	0.093893945
64	0xbe00e8be	-0.12588784
65	0xbe967796	-0.29388112
66	0x3d50e17e	0.050996296
67	0xbe9c0330	-0.30471182
68	0xbe61df25	-0.22057779
69	0xbefee8ec	-0.4978708
70	0xbe73fb18	-0.23826253
71	0xbd07e03a	-0.033172823
72	0x3da93202	0.08261491
73	0xbd6a7513	-0.057240557
74	0xbebaf74d	-0.365168
75	0x3e3d926f	0.18512891
76	0xbdb238d5	-0.08702246
77	0x3ce4f19a	0.027947236
78	0xbe7c6e19	-0.24651374
79	0x3e44826d	0.19190378
80	0xbe360477	-0.1777514
81	0xbedb6320	-0.42849064
82	0x3d0edbc3	0.03487755
83	0x3e78d643	0.24300484
84	0x3e87606f	0.2644076
85	0x3e1611e2	0.14655259
86	0xbec84ce0	-0.3912115
87	0x3e83c10d	0.25733224
88	0xbecd56b7	-0.4010522
89	0xbebdb5f0	-0.3705287
90	0x3e3ca5a0	0.18422556
91	0xbf6963f6	-0.91168153
92	0xbeb4a758	-0.35283923
93	0x3e60a013	0.21936063
94	0x3e60e7d5	0.21963437
95	0x3dda3848	0.10655266
96	0xbc81beb0	-0.015837997
97	0x3e8d67e9	0.2761834
98	0x3eb9dcfe	0.36301416
99	0x3e84aeeb	0.25914702
100	0x3bc0378b	0.0058659962
101	0x3e4c4b5b	0.19950621
102	0xbc5cfcfe	-0.013488052
103	0x3dfb0062	0.122559324
104	0xbd917e51	-0.07104171
105	0xbf3d6c67	-0.73993534
106	0xbd766ae1	-0.06016052
107	0xbe90f534	-0.28312075
108	0xbe56ee1f	-0.20989273
109	0xbe96293f	-0.29328343
110	0xbe8bb285	-0.27284637
111	0xbf4d0be9	-0.800963
112	0x3e8db1e9	0.27674797
113	0x3d8633cd	0.06552849
114	0x3ef0e8af	0.47052523
115	0x3e482adc	0.195476
116	0x3da959ab	0.08269056
117	0xbf4133fc	-0.75469947
118	0xbeafb0ad	-0.3431448
119	0xbd9ff130	-0.07809675
120	0x3d961dfc	0.07329938
121	0x3f2a049c	0.66413283
122	0x3edf2d73	0.43589363
123	0xbd77c2fd	-0.06048869
124	0xbe04f243	-0.1298304
125	0xbe20a141	-0.15686513
126	0x3e95efb4	0.2928444
127	0x3f0e1f08	0.555161
128	0xbe21a76d	-0.15786524
129	0x3da498ac	0.08036932
130	0x3e22e6a6	0.15908298
131	0x3ed30acf	0.41219184
132	0xbe18e59d	-0.1493134
133	0x3f710409	0.9414678
134	0xbedb5c5a	-0.42843896
135	0x3e810d0d	0.2520527
136	0x3eb71bbf	0.35763356
137	0xbd600370	-0.05469078
138	0xbe2e1cfe	-0.17003247
139	0x3da7e904	0.08198741
140	0xbf019417	-0.5061659
141	0x3e74765b	0.23873274
142	0xbe9c3433	-0.30508575
143	0x3e54e8f8	0.20791996
144	0x3ede6341	0.434351
145	0xbe958baf	-0.29208133
146	0x3e2d8f14	0.16949111
147	0xbee605f0	-0.44926405
148	0x3efdc1ed	0.49562016
149	0x3d2a3a56	0.04155954
150	0x3cd5f257	0.026116533
151	0xbd14c274	-0.036318257
152	0xbd4586d1	-0.048224274
153	0x3ec4fa20	0.3847208
154	0xbde46630	-0.11152303
155	0xbef70cad	-0.48251858
156	0x3dba3c99	0.09093589
157	0xbecdce4b	-0.40196452
158	0xbf129786	-0.57262456
159	0xbc48065d	-0.012208548
160	0x3e38311a	0.17987481
161	0x3e9560f6	0.29175538
162	0xbe89ddca	-0.26927024
163	0x3db0fd44	0.086420566
164	0x3e48193c	0.19540876
165	0x3e54bd91	0.20775439
166	0x3e41a284	0.18909651
167	0x3ecdb36b	0.40175948
168	0xbe7e85c0	-0.24855709
169	0xbe3e6cd2	-0.18596199
170	0xbf20e1f4	-0.6284478
171	0x3e748c86	0.2388173
172	0xbf0703e7	-0.5274033
173	0xbe92903f	-0.28625676
174	0xbed3ee60	-0.41392803
175	0x3e71a580	0.2359829
176	0x3e32d4fc	0.1746406
177	0xbd9f53d0	-0.07779658
178	0x3e8a000d	0.26953164
179	0xbe4ea720	-0.2018094
180	0x3f430966	0.76186216
181	0x3f41d191	0.757104
182	0x3eceb13c	0.40369594
183	0xbf65de75	-0.8979257
184	0xbe0f6460	-0.14003134
185	0xbdab185d	-0.08354256
186	0x3ae6d300	0.001761049
187	0xbbe4a7e8	-0.006978024
188	0x3d7dcfb8	0.061965674
189	0xbe976705	-0.29570785
190	0xbc738e88	-0.014865525
191	0x3e9cf274	0.30653727
192	0xbe2d8d3a	-0.16948405
193	0xbeab903b	-0.33508477
194	0x3d9a0fa3	0.07522514
195	0xbea046ee	-0.31304115
196	0x3e1ce17b	0.15320389
197	0x3e37cfb7	0.1795033
198	0x3eac6978	0.33674216
199	0x3cd398aa	0.025829632
200	0xbef2a14c	-0.47388685
201	0xbd5fd9ba	-0.054651
202	0xbd959276	-0.07303326
203	0xbe324d1a	-0.17412224
204	0xbe40ffc8	-0.18847573
205	0xbe69bad4	-0.22825176
206	0xbe8360c6	-0.2565977
207	0xbe1f333f	-0.15546893
208	0xbe647fdb	-0.22314398
209	0x3d86a2e6	0.06574039
210	0xbf74a194	-0.9555905
211	0xbcb3be68	-0.021941379
212	0x3eaa5a20	0.33271885
213	0xbed79695	-0.42107072
214	0xbec56bc1	-0.38558772
215	0xbee3f056	-0.445193
216	0xbd387530	-0.045033634
217	0x3e35db27	0.17759381
218	0xbe5b87dd	-0.21438546
219	0x3e95e6d6	0.29277676
220	0xbe68a70c	-0.22719973
221	0xbebed7e5	-0.3727409
222	0x3cecc040	0.028900266
223	0x3eadbfe0	0.33935452
224	0x3f02c923	0.5108816
225	0xbe4d254b	-0.20033757
226	0xbcb9449c	-0.022615723
227	0x3d01c700	0.03168392
228	0xbe72aa0f	-0.23697685
229	0xbecdaad6	-0.401694
230	0xbed5b7c1	-0.41741756
231	0xbe89db75	-0.26925245
232	0xbcc41fdf	-0.023940979
233	0x3d7bfc76	0.061520062
234	0xbdfe5b7a	-0.124197915
235	0xbdeacf1e	-0.11465286
236	0xbf012bc1	-0.5045739
237	0xbebf5ddc	-0.37376297
238	0xbeac0df2	-0.3360439
239	0xbd844e52	-0.06460251
240	0x3d92e8df	0.07173323
241	0x3c948e01	0.018134119
242	0x3ede721b	0.4344643
243	0x3d8c2a73	0.06844034
244	0x3e9fe9ac	0.31232965
245	0x3eeb448f	0.45950744
246	0x3dc7c4fb	0.09754368
247	0x3e18526c	0.14875191
248	0xbe40f546	-0.18843564
249	0x3da198a2	0.078904405
250	0x3f7337c4	0.95006967
251	0xbebc6e15	-0.36802736
252	0xbf2a824d	-0.66605073
253	0x3f0e8c61	0.5568295
254	0x3cd357c1	0.02579868
255	0x3edbad83	0.42905816

fc3.bias f4 [4]
0	0x3c9be3a9	0.019029455
1	0x3d8a0f30	0.06741178
2	0x3c0ba529	0.008523264
3	0x3cf81e5e	0.030287918
